models/epoch=3-step=100-v2.ckpt (torch, 800661 bytes, 38 tensors)

backbone.0.weight f4 [16, 1, 3, 3]
0	0x3e9d6de9	0.30747917
1	0xbe6a25c3	-0.22865967
2	0xbe0808a8	-0.13284552
3	0x3d2b805b	0.041870456
4	0x3e213fc4	0.15746981
5	0xbe909ca6	-0.28244513
6	0xbe925862	-0.28583056
7	0x3ea30bc8	0.31844926
8	0xbe6073c4	-0.21919161
9	0xbd9487c9	-0.072524615
10	0x3daba447	0.08380943
11	0x3e5bd0f3	0.21466427
12	0x3ea05336	0.31313485
13	0xbd4eca54	-0.050485924
14	0x3c90b10e	0.017662551
15	0xbe823647	-0.25432035
16	0x3e4e3a13	0.20139341
17	0x3da8bc36	0.082390234
18	0x3e59b027	0.21258603
19	0xbe55f8c1	-0.20895673
20	0xbe9a8994	-0.3018309
21	0xbe8c66ec	-0.27422273
22	0xbdae6b0b	-0.085165106
23	0xbdbdc4bf	-0.09266042
24	0xbe7fd21a	-0.24982491
25	0xbe91a2b3	-0.28444442
26	0xbd264fa6	-0.040603302
27	0x3e0f5a1d	0.13999219
28	0x3dfc4797	0.12318342
29	0x3e5fa725	0.21841104
30	0xbd4da76d	-0.050208498
31	0x3b4c02f4	0.003112969
32	0xbdee56ca	-0.116376474
33	0x3e8508fc	0.25983417
34	0xbcecb642	-0.028895501
35	0xbd12eeb4	-0.035872176
36	0x3e4a4804	0.19754034
37	0xbe85ec9d	-0.26157084
38	0x3e525e9a	0.205439
39	0xbdfc35af	-0.12314927
40	0xbe4f861a	-0.20266
41	0xbe9e4898	-0.3091476
42	0x3d94a106	0.07257275
43	0x3ea9fdbc	0.33201396
44	0xbe90e42b	-0.28299078
45	0x3d946832	0.07246436
46	0x3e9588ec	0.29206026
47	0x3e78114b	0.24225347
48	0x3e8c9a77	0.27461597
49	0xbea4fd64	-0.32224572
50	0x3e8c0604	0.2734834
51	0x3e48409e	0.195559
52	0xbe07e039	-0.13269128
53	0xbbee7582	-0.0072771916
54	0x3e515680	0.20443153
55	0x3ea8da06	0.3297884
56	0xbe383bb1	-0.1799152
57	0x3e0a5ff1	0.13513161
58	0x3e4711d0	0.19440389
59	0xbe36f05b	-0.17865126
60	0x3e8e14df	0.27750298
61	0xbea66b7e	-0.32503885
62	0x3e71e89e	0.23623893
63	0xbe9e03be	-0.3086223
64	0xbda82ef6	-0.08212082
65	0xbe143a2f	-0.1447532
66	0x3ea908e8	0.33014607
67	0x3c82cbb3	0.015966272
68	0xbe76c8ef	-0.24100088
69	0x3d9d2177	0.076723985
70	0xbea389d0	-0.3194108
71	0x3e3fcb14	0.18729812
72	0xbe3bee52	-0.1835263
73	0xbe0d839e	-0.13819739
74	0x3ddf7e8e	0.1091281
75	0xbe532912	-0.20621136
76	0x3d41fe6f	0.047361787
77	0x3db8a1fb	0.0901527
78	0xbe4a0db3	-0.19731788
79	0x3e064f85	0.13116272
80	0x3e751089	0.23932089
81	0x3da2f156	0.079561874
82	0x3e04bfff	0.12963866
83	0x3dc6c67f	0.09705829
84	0x3e42e2b2	0.1903179
85	0xbd8c1514	-0.06839958
86	0x3dcaba31	0.098987944
87	0xbdc3bc8d	-0.095574476
88	0xbe92f047	-0.28698942
89	0xbe8025f1	-0.25028947
90	0x3d9367e4	0.0719755
91	0xbe6b9c1d	-0.23008771
92	0xbdf1fb14	-0.118154675
93	0x3d9ee27f	0.077580445
94	0x3cdaf4e8	0.026728109
95	0xbe282b17	-0.16422687
96	0x3e944c04	0.28964245
97	0xbe6af477	-0.22944818
98	0xbdca0960	-0.098650694
99	0xbe1b056f	-0.15138792
100	0x3cbbdb91	0.022931846
101	0xbe84638d	-0.258572
102	0xbbdbfaf2	-0.0067132646
103	0x3b0c02b9	0.0021363928
104	0x3e47029c	0.19434589
105	0xbe8b3cac	-0.27194726
106	0x3e1ed5c5	0.15511234
107	0xbde40f40	-0.11135721
108	0x3e84da52	0.25947815
109	0xbde4763f	-0.11155366
110	0x3e85a420	0.2610178
111	0xbdc5e349	-0.09662492
112	0xbdedbaeb	-0.116079174
113	0xbdeb43a5	-0.114875115
114	0xbe34f156	-0.17670187
115	0xbd899905	-0.06718639
116	0xbe740eb9	-0.23833741
117	0x3e861fdd	0.26196185
118	0x3db65f32	0.08904876
119	0xbbfce344	-0.007717522
120	0xbe9a8cbd	-0.301855
121	0x3d1bbab2	0.038019843
122	0x3e6bf845	0.23043926
123	0xbeabd56d	-0.33561268
124	0x3df1d625	0.11808423
125	0x3df7462a	0.120739296
126	0xbd3a09c8	-0.045419484
127	0x3ea06329	0.31325653
128	0xbe424654	-0.1897214
129	0x3c6f663f	0.01461178
130	0xbd41f9bc	-0.047357306
131	0x3dbd5160	0.09244037
132	0x3e9edb69	0.31026772
133	0xbea4630a	-0.3210681
134	0x3da5058c	0.080576986
135	0xbe44f8db	-0.19235556
136	0x3e1489ba	0.14505664
137	0x3e82df9d	0.25561228
138	0xbdf691e2	-0.12039544
139	0x3da4638b	0.08026799
140	0xbe41d0fa	-0.18927374
141	0xbe676271	-0.22596146
142	0x3b9626b6	0.0045822514
143	0xbda3e53d	-0.08002708

backbone.0.bias f4 [16]
0	0xbe3b3731	-0.18282773
1	0x3d7c0857	0.06153139
2	0x3b238b66	0.0024954914
3	0x3da9fea7	0.08300524
4	0xbe9a75f8	-0.30168128
5	0xbdca9fcb	-0.09893759
6	0xbd9e0896	-0.077164814
7	0xbe9b0744	-0.3027898
8	0x3c3d757d	0.011563656
9	0xbe4fb2e5	-0.20283087
10	0x3e93e877	0.28888294
11	0xbd447568	-0.04796353
12	0x3e4346c4	0.19069964
13	0xbe855f70	-0.26049376
14	0xbe8d8882	-0.2764321
15	0xbe63479e	-0.22195289

backbone.1.weight f4 [16]
0	0x3f7f1842	0.9964639
1	0x3f803139	1.0015022
2	0x3f7fa00d	0.99853593
3	0x3f806670	1.0031261
4	0x3f803843	1.001717
5	0x3f7f8d5b	0.99825066
6	0x3f7f13cb	0.99639577
7	0x3f7fb986	0.9989246
8	0x3f804fa7	1.0024308
9	0x3f7de6ba	0.99180186
10	0x3f7e06d7	0.99229187
11	0x3f7f952e	0.99837005
12	0x3f804e19	1.0023834
13	0x3f819851	1.0124608
14	0x3f808b50	1.0042515
15	0x3f802391	1.0010854

backbone.1.bias f4 [16]
0	0xbbb79480	-0.0056024194
1	0x3abd04ae	0.001442095
2	0xbbbc3df3	-0.0057446896
3	0x3bf97239	0.0076124934
4	0xbb833e49	-0.0040052277
5	0xbb66a0e5	-0.0035191115
6	0xbba95972	-0.0051681334
7	0xbb979837	-0.0046262997
8	0xbbb9c7eb	-0.005669584
9	0xbb958a99	-0.0045636413
10	0xbb866058	-0.0041008405
11	0xbb11f9ba	-0.0022274093
12	0x3b5a10ef	0.0033274253
13	0x3a7ae308	0.00095705735
14	0x3ba8d3df	0.00515221
15	0xbb4a16ea	-0.0030836412

backbone.1.running_mean f4 [16]
0	0xbee568b9	-0.4480646
1	0x3efa2771	0.48858216
2	0xbf864f94	-1.0493035
3	0x3efbf7b7	0.4921243
4	0xbf1db66a	-0.61606467
5	0x3f1a8b97	0.6036925
6	0x3ef2e21e	0.4743814
7	0xbf311de3	-0.6918623
8	0xbdc53f3b	-0.09631201
9	0xbe8c6005	-0.27417007
10	0xbc859159	-0.016304659
11	0xbec36a76	-0.3816716
12	0xbe09fab5	-0.13474543
13	0xbdd9f8c4	-0.106431514
14	0xbde221bf	-0.11041593
15	0xbefb81d6	-0.49122494

backbone.1.running_var f4 [16]
0	0x3c1fdaa9	0.0097567225
1	0x3cbc9731	0.023021312
2	0x3e0d0360	0.13770819
3	0x3caaf579	0.020869004
4	0x3c5df1c3	0.01354641
5	0x3d7b396a	0.06133405
6	0x3d1f2c40	0.03886056
7	0x3ca026c8	0.019549742
8	0x3b7079a7	0.0036693604
9	0x3b2cd7fd	0.0026373856
10	0x3c553f71	0.013015614
11	0x3c616a39	0.013758236
12	0x3c73afaa	0.014873425
13	0x3b9c3e9e	0.0047682067
14	0x3b740eb6	0.0037240214
15	0x3c23c602	0.009995939

backbone.4.weight f4 [32, 16, 3, 3]
0	0x3cda4f15	0.026649037
1	0xbd40b35e	-0.047046058
2	0xbcd9ec84	-0.026602037
3	0xbd3977fc	-0.04528044
4	0x3da47ac9	0.08031232
5	0xbd552cf8	-0.05204484
6	0xbd86e407	-0.065864615
7	0xbd976d86	-0.07393937
8	0xbd5fda75	-0.054651696
9	0x3d7e4485	0.062077064
10	0x3d46aa6d	0.048502374
11	0x3d98ca86	0.07460503
12	0x3d2cf58d	0.042226363
13	0x3cb9f1c7	0.022698296
14	0x3cc20dbf	0.023688195
15	0x3d8b22aa	0.06793721
16	0xbd239f13	-0.039946627
17	0x3d2bf6a7	0.041983273
18	0x3d9b2c34	0.075767905
19	0xbd23dc82	-0.040005215
20	0x3d28976e	0.04116004
21	0x3da6e7f6	0.08149712
22	0x3d61ee32	0.0551588
23	0xbcfc4235	-0.030793289
24	0xbb025fbb	-0.0019893486
25	0x3c922fe4	0.017845102
26	0xbd25208d	-0.040314246
27	0x3d215f81	0.03939772
28	0x3d931b6b	0.07182964
29	0x3beef18a	0.0072919773
30	0xbdaa8d2f	-0.0832771
31	0xbd223a85	-0.03960659
32	0xbbe1378b	-0.0068730763
33	0xbd84b85a	-0.06480475
34	0xbccab530	-0.0247446
35	0x3d471f93	0.048614096
36	0x3c8ee2b3	0.017442083
37	0xbd51abea	-0.05118934
38	0x3d1faa13	0.038980555
39	0x3d53a17a	0.051667668
40	0xbc3a3405	-0.0113649415
41	0xbd5e793f	-0.054314848
42	0x3bf29f6a	0.0074042575
43	0x3d832166	0.064028546
44	0x3d15b5d7	0.03655037
45	0x3cd39a07	0.025830282
46	0xbd72797f	-0.0591979
47	0x3ca7da93	0.020489966
48	0xbd7416b7	-0.059591975
49	0x3d93f9c8	0.07225376
50	0xbd3bccd0	-0.04584962
51	0xbbae2286	-0.005314174
52	0x3cd7e7ba	0.026355613
53	0x3d829293	0.06375613
54	0xbc04ecc4	-0.00811309
55	0x3d9da6b2	0.0769781
56	0x3d18a960	0.037270904
57	0x3d30cd87	0.043164756
58	0xbda3a04c	-0.079895586
59	0x3d971bb4	0.07378331
60	0xbccdd5dc	-0.02512639
61	0xbd76bc87	-0.060238387
62	0x3d61b8d0	0.05510789
63	0xbce2f26f	-0.027703492
64	0xbd26879c	-0.04065667
65	0xbd3f44c6	-0.046696447
66	0xbd07ba34	-0.03313656
67	0xbad4e400	-0.0016242266
68	0xbc4cd95f	-0.012502997
69	0xbc5b30a0	-0.013378292
70	0x3d9d3e79	0.07677931
71	0xbc2338ba	-0.009962255
72	0x3d8d17d0	0.068893075
73	0x3dbf7493	0.09348407
74	0x3d73b6b4	0.05950041
75	0xb9a42eef	-0.00031315486
76	0xbcc710c6	-0.02429999
77	0x3d871c9d	0.065972544
78	0xbda839ed	-0.082141735
79	0xbd3a1e88	-0.045439273
80	0xbd6a078a	-0.057136096
81	0x3cacacf2	0.02107856
82	0x3b917d9d	0.004440023
83	0xbd321820	-0.04348004
84	0xbda03413	-0.07822432
85	0xbd4bdf61	-0.049773578
86	0x3d1d0700	0.038336754
87	0xbd8bc507	-0.06824689
88	0x3bd4484c	0.006478345
89	0x3d74f238	0.05980131
90	0xbd5564cd	-0.052098084
91	0x3c348565	0.011018132
92	0x3d0dbf27	0.034606125
93	0xbd4c42a5	-0.049868245
94	0x3d9085d5	0.070567764
95	0x3d5b0f0b	0.053481143
96	0xbdaaae1d	-0.08333991
97	0xbca1bf71	-0.019744607
98	0xbc13edab	-0.009028832
99	0x3d4f6879	0.050636742
100	0x3c15625d	0.00911769
101	0x3d1f9c35	0.03896733
102	0xbd8c1ee1	-0.06841827
103	0xbcd8ab27	-0.0264488
104	0xbd8f1e97	-0.069882564
105	0x3ca6fc8b	0.020384094
106	0xbcb16d4b	-0.02165856
107	0x3d64b0ce	0.055832677
108	0xbcb887e7	-0.02252574
109	0xbc2ae173	-0.010429728
110	0x3c142565	0.009042119
111	0x3a6d3150	0.00090481807
112	0xbd025f5e	-0.03182923
113	0x3c8e1d5c	0.017347984
114	0xbd4ba00f	-0.04971319
115	0xbd89a54e	-0.067209825
116	0xbd48a9a7	-0.048989918
117	0xbd228434	-0.03967686
118	0xbd22c817	-0.0397416
119	0xbcd12643	-0.02553094
120	0x3cd2891f	0.02570015
121	0x3d95f51a	0.0732214
122	0xbc91aa63	-0.017781442
123	0xbcc32f8f	-0.023826389
124	0xbac8a8a3	-0.0015309047
125	0x3d97d727	0.07414084
126	0x3d4c8e54	0.049940422
127	0xbd2c0d93	-0.042005133
128	0x3d0f9b72	0.035060354
129	0xbd5afcd4	-0.053463772
130	0xbccf4a6c	-0.025304042
131	0xbb473ade	-0.0030400078
132	0x3ad7deda	0.0016469613
133	0x3d55a474	0.052158788
134	0xbd60becd	-0.05486946
135	0xbd2c0716	-0.041998945
136	0x3b91d65c	0.0044506025
137	0xbd4c979a	-0.049949266
138	0x3ccb4382	0.024812464
139	0x3d4831de	0.048875682
140	0xbd971eab	-0.07378896
141	0x3d93e4e1	0.072213896
142	0x3cfcfa91	0.030881198
143	0x3c3decb1	0.011592076
144	0x3daad51f	0.08341431
145	0x3d34f39b	0.044177633
146	0x3d3555a6	0.044271134
147	0x3d3229be	0.04349684
148	0x3ce27503	0.027643686
149	0xbce6b015	-0.028160134
150	0xbd483535	-0.048878867
151	0x3da8f7ce	0.0825039
152	0x3d54d57a	0.0519614
153	0x3c2536ea	0.010083893
154	0xbd8b4816	-0.06800859
155	0x3d32ad95	0.043622572
156	0xbd65fac9	-0.05614737
157	0xbd6b8f61	-0.057509784
158	0xbc89d2db	-0.016824177
159	0xbc247026	-0.010036504
160	0xbd33b34f	-0.043872174
161	0xbd7d26b3	-0.061804485
162	0xbd223732	-0.03960342
163	0x3d48c085	0.049011726
164	0x3d8ce41c	0.06879446
165	0x3b70d868	0.0036750082
166	0x3dab3a8f	0.083607785
167	0x3d3f8ec7	0.046767022
168	0x3daf021a	0.08545323
169	0xbd817ee6	-0.06323032
170	0x3d19d7ff	0.037559506
171	0xbb918a43	-0.004441531
172	0x3c761b6f	0.015021189
173	0x3ba36ea8	0.0049875565
174	0x3d4d0ea0	0.050062776
175	0xbb494ad2	-0.0030714762
176	0xbd2eebc5	-0.042705316
177	0x3d5fa808	0.054603606
178	0xbd44a8ad	-0.048012424
179	0x3d8c06fa	0.06837268
180	0x3d200ba9	0.03907362
181	0x3c47a0c6	0.0121843275
182	0xbba06c92	-0.004895755
183	0xbc9eb044	-0.01937116
184	0xbd6da5be	-0.058019392
185	0x3d10d939	0.03536341
186	0xbd192122	-0.037385114
187	0x3d205cb0	0.039150894
188	0x3d0a05cb	0.03369693
189	0x3d6da163	0.05801524
190	0xbd9fa672	-0.07795419
191	0xbc862265	-0.016373822
192	0x3d583b13	0.052790713
193	0x3dad0b3a	0.08449407
194	0xbcb33271	-0.021874638
195	0x3d3ff0ea	0.046860613
196	0xbd3dc45b	-0.046329837
197	0xbd42a5c9	-0.047521386
198	0x3d9109fa	0.07081981
199	0x3cf5cff7	0.030006392
200	0x3c90e6c5	0.017688164
201	0xbd58be37	-0.052915778
202	0xbd420c5e	-0.047375076
203	0x3da1cb04	0.0790005
204	0x3da08410	0.07837689
205	0x3ccd4fd9	0.025062488
206	0x3ced63be	0.028978225
207	0x3d8e9ff1	0.069641
208	0x3d59ae12	0.053144522
209	0x3d841848	0.06449944
210	0x3d8dd277	0.069249086
211	0xbd856ac2	-0.06514503
212	0x3d7a456c	0.061101362
213	0x3cc3559a	0.023844529
214	0xbd4af281	-0.049547676
215	0xbd15ea46	-0.036600374
216	0x3c173d0a	0.009230861
217	0x3dac2f18	0.0840742
218	0x3ccf020c	0.02526953
219	0x3d6d26ba	0.05789826
220	0x3d518244	0.05114962
221	0x3c55313b	0.013012226
222	0xbd84febd	-0.064939
223	0x3cf493eb	0.029855689
224	0x3d9a543d	0.075355984
225	0x3cf20988	0.02954556
226	0xbc7ab887	-0.015302784
227	0x3c790d0c	0.0152008645
228	0xbd33e4b8	-0.043919295
229	0x3c4e0f3d	0.012576875
230	0x3c1628c5	0.009164994
231	0x3d8f1087	0.06985574
232	0x3d9060f6	0.07049744
233	0xbd165c4e	-0.036709122
234	0xbcdc1037	-0.0268632
235	0xbda87161	-0.0822475
236	0xbd32b4f3	-0.043629598
237	0xbd875a06	-0.066089675
238	0x3c89e4a9	0.016832666
239	0xbd5ce182	-0.053926
240	0x3d6b73c7	0.05748346
241	0xbd6a4268	-0.057192236
242	0xbd2c7b3d	-0.042109717
243	0xbc9e7123	-0.019341057
244	0xbd942704	-0.07234004
245	0xbc2215e5	-0.009892915
246	0xbc086161	-0.008323998
247	0x3d874f83	0.066069625
248	0xbc95c265	-0.018281171
249	0xbc4b74e2	-0.012418004
250	0x3cd40d90	0.025885373
251	0x3d0f6f55	0.035018284
252	0xbd97bcfd	-0.074090935
253	0xbd6dee65	-0.05808868
254	0x3bd8b3c0	0.0066132247
255	0xbd062b16	-0.032755934

backbone.4.bias f4 [32]
0	0xb9f14582	-0.0004601889
1	0xbcf1db98	-0.029523656
2	0xbcf2a953	-0.029621756
3	0xbc4db29d	-0.012554792
4	0x3d6f10a6	0.058365487
5	0x3c3d0149	0.011535951
6	0x3d1815a5	0.037130017
7	0x3d227b39	0.039668296
8	0xbcc3ea4e	-0.023915436
9	0xbd2d0523	-0.042241227
10	0xbbd7e1b5	-0.0065881857
11	0x3cca8877	0.024723275
12	0xbd875243	-0.06607487
13	0x3a8070b5	0.0009799214
14	0xbc48e85d	-0.012262431
15	0xbd144060	-0.036194205
16	0x3c9906c1	0.018679978
17	0x3d8235ab	0.063578926
18	0x3d6d137a	0.057879902
19	0x3da501b8	0.080569685
20	0x3c209f2b	0.009803574
21	0x3d346ada	0.044047214
22	0x3d9c4293	0.076298855
23	0x3da1be26	0.07897596
24	0x3d97378d	0.07383642
25	0xbcd20556	-0.02563731
26	0x3ca16bc2	0.019704703
27	0x3d80237f	0.0625677
28	0xbd63ca94	-0.055613115
29	0xbb7c5678	-0.0038503688
30	0x3d3f51fa	0.04670904
31	0xbbea7a32	-0.00715568

backbone.5.weight f4 [32]
0	0x3f7f952c	0.99836993
1	0x3f800a28	1.00031
2	0x3f7f639d	0.9976137
3	0x3f7ef4d9	0.9959236
4	0x3f7f762d	0.99789697
5	0x3f80260c	1.0011611
6	0x3f7fb3ca	0.9988371
7	0x3f801784	1.0007176
8	0x3f7e4f9b	0.9934022
9	0x3f7ea115	0.9946454
10	0x3f7f7213	0.9978344
11	0x3f803dca	1.0018857
12	0x3f80993b	1.0046762
13	0x3f7f2726	0.9966911
14	0x3f8103dd	1.0079304
15	0x3f804bc0	1.0023117
16	0x3f80160b	1.0006727
17	0x3f8001bc	1.0000529
18	0x3f7eef82	0.9958421
19	0x3f801c34	1.0008607
20	0x3f7e0ada	0.9923531
21	0x3f800cd6	1.0003917
22	0x3f81f076	1.0151508
23	0x3f80307d	1.0014797
24	0x3f807a53	1.003733
25	0x3f8018e5	1.0007597
26	0x3f7f3b8d	0.9970024
27	0x3f7f9669	0.9983888
28	0x3f800448	1.0001307
29	0x3f80187b	1.0007471
30	0x3f8045f7	1.0021352
31	0x3f7ffae7	0.9999222

backbone.5.bias f4 [32]
0	0xb93369c3	-0.0001711017
1	0xbadec06d	-0.0016994603
2	0xbb0308e2	-0.0019994308
3	0xbb5a5548	-0.0033314992
4	0xba8b73cb	-0.0010639367
5	0xba1fed50	-0.0006100731
6	0xba355c91	-0.00069183955
7	0x3b7ef625	0.0038904038
8	0xbaa3ea6c	-0.0012505776
9	0xbb025605	-0.0019887697
10	0xbb33d13e	-0.002743795
11	0xba58a845	-0.000826482
12	0x3bbd77a5	0.005782085
13	0xbb198ed2	-0.0023431075
14	0xbbdb3fa2	-0.006690935
15	0xba33069d	-0.00068292936
16	0xbad56912	-0.0016281924
17	0xbaa65bc2	-0.0012692141
18	0xba8f885d	-0.0010950674
19	0x3a88ad5b	0.001042764
20	0xbb81d365	-0.003961968
21	0xbabec2e9	-0.0014553937
22	0xba8e58d7	-0.0010860217
23	0xbb4c2d47	-0.0031154917
24	0x3b0b7a6d	0.0021282688
25	0x3b860ca1	0.004090861
26	0xbaa6bd12	-0.0012721142
27	0xbad485ed	-0.0016214229
28	0x384afcf4	4.8396134e-05
29	0xbb5e5152	-0.0033922982
30	0x3aeebd11	0.0018214305
31	0xbb50727c	-0.003180652

backbone.5.running_mean f4 [32]
0	0xbd7677d0	-0.060172856
1	0x3ec283a0	0.37991047
2	0xbf196c85	-0.5993121
3	0xbd318180	-0.04333639
4	0xbcc6dd6b	-0.024275502
5	0x3ee5c1af	0.4487433
6	0xbf116cc9	-0.5680662
7	0x3ed6e2dd	0.41969958
8	0x3f3071a3	0.68923396
9	0x3de4b0ac	0.1116651
10	0x3ed3b499	0.41348723
11	0x3d30f88c	0.043205783
12	0xbd8f66c2	-0.07002021
13	0xbf39a918	-0.7252364
14	0x3edd2b42	0.43197066
15	0xbe1bdfda	-0.15222111
16	0x3ec9c284	0.39406216
17	0x3ec17a2d	0.37788525
18	0xbdea0a87	-0.11427789
19	0xbe70ddcf	-0.23522113
20	0x3f2df5ea	0.6795336
21	0x3d7834ab	0.060597103
22	0x3ec2569c	0.37956703
23	0x3f34b6cd	0.7059143
24	0x3e4907ae	0.19631836
25	0xbca28432	-0.019838426
26	0x3e925818	0.28582835
27	0x3ed10020	0.40820408
28	0x3e5cc902	0.21561053
29	0x3ef06e69	0.46959236
30	0xbeab37fb	-0.33441147
31	0x3ee8469b	0.45366368

backbone.5.running_var f4 [32]
0	0x3e802851	0.2503076
1	0x3e3f656c	0.18691033
2	0x3f1a08cf	0.6016969
3	0x3e94efc2	0.2908917
4	0x3e465f69	0.19372334
5	0x3dd42793	0.10359111
6	0x3ebec50c	0.3725971
7	0x3e71e279	0.23621549
8	0x3f599780	0.84996796
9	0x3de88268	0.11352998
10	0x3ecc1662	0.39860827
11	0x3e0d4c6d	0.13798685
12	0x3e34d302	0.17658618
13	0x3f55cf15	0.8351911
14	0x3dd18078	0.102295816
15	0x3dbf48d1	0.093400605
16	0x3dbdc49a	0.092660144
17	0x3e6a5878	0.2288531
18	0x3d85e1ab	0.065371834
19	0x3dfba1b7	0.12286704
20	0x3e70d53a	0.2351884
21	0x3dce6f0c	0.10079774
22	0x3daf5189	0.085604735
23	0x3e1ae99e	0.1512818
24	0x3dd4c74d	0.10389576
25	0x3e03b4d5	0.1286195
26	0x3ebb8f30	0.3663268
27	0x3e7f7136	0.2494553
28	0x3da0acc3	0.07845452
29	0x3eaf1122	0.3419276
30	0x3e34a893	0.17642431
31	0x3e7fcfe5	0.24981649

backbone.8.weight f4 [64, 32, 3, 3]
0	0xbb3f3a6b	-0.0029179107
1	0x3d36227c	0.04446648
2	0x3d4ce1c1	0.050019983
3	0xbd3f95f5	-0.04677387
4	0xbcd9cd72	-0.026587222
5	0x3ca8bb00	0.020596981
6	0xbd592c73	-0.053020906
7	0x3d136d44	0.035992876
8	0x3d48d0b6	0.049027167
9	0x3d12580c	0.0357285
10	0xbd43380b	-0.04766087
11	0xbd2bea38	-0.041971415
12	0x3d5caa07	0.05387309
13	0xbd3d1696	-0.046164118
14	0xbc9c6b06	-0.019094002
15	0xbc97c797	-0.018527789
16	0xbd679139	-0.05653498
17	0xbb95363f	-0.004553586
18	0xb99f01f6	-0.00030328304
19	0xbca48648	-0.020083562
20	0x3d5284c7	0.051396158
21	0xbd001941	-0.031274084
22	0xbd0ead9d	-0.03483354
23	0x3cdaffb2	0.026733253
24	0xbcd95243	-0.026528483
25	0xb8fecd36	-0.00012149887
26	0xbd4ebef5	-0.05047508
27	0xbc9430e7	-0.018089725
28	0xbca271a2	-0.019829575
29	0x3d02cf74	0.031936124
30	0xbd6cff09	-0.057860408
31	0x3d016b11	0.031596247
32	0x3bd78902	0.006577612
33	0x3d267be9	0.040645514
34	0xbc8664fe	-0.016405579
35	0xbbac1e11	-0.0052526076
36	0x3ca58055	0.020202795
37	0x3d2e763a	0.04259322
38	0x3ced8951	0.028996142
39	0xbcd005bd	-0.025393361
40	0xbd4fae29	-0.0507032
41	0x3cc8278f	0.024432926
42	0xbce8f30a	-0.028436203
43	0xbd377560	-0.044789672
44	0x3cf0e7f1	0.029407473
45	0xbc86e038	-0.016464338
46	0xbcfdce8a	-0.030982275
47	0xbd5c9650	-0.053854287
48	0x3d63a083	0.055572998
49	0x3bea12b1	0.0071433415
50	0xbd50d2f1	-0.05098242
51	0x3c983782	0.018581156
52	0xbd11d1b6	-0.035600387
53	0xbd2f91d6	-0.04286369
54	0xbc4de588	-0.012566932
55	0xbb85f03c	-0.004087476
56	0x3ca9273e	0.020648595
57	0x3d67a522	0.056553967
58	0x3d0de3c0	0.034641027
59	0x3d15e702	0.03659726
60	0xbc10691a	-0.008814121
61	0xbc54b50f	-0.012982621
62	0xbccd5a62	-0.025067512
63	0x3cd803b4	0.026368953
64	0xbc6c3a8c	-0.014418256
65	0x3d63cf3d	0.05561756
66	0x3c0983ec	0.008393269
67	0xbc41cde2	-0.011828871
68	0xbd0c6df4	-0.034284547
69	0x3a512fa9	0.0007979819
70	0xbd4c628d	-0.049898673
71	0x3cc3046a	0.023805816
72	0xba8c0bcb	-0.0010684667
73	0x3bf256bc	0.0073955934
74	0x3bd00d23	0.0063492223
75	0x3d5586de	0.052130572
76	0x3c94b6c8	0.018153563
77	0x3d16b95b	0.036797862
78	0xbd56d15a	-0.052445747
79	0xbd61e523	-0.055150162
80	0xbd2d6cde	-0.042340152
81	0xbd12c886	-0.035835765
82	0x3d511514	0.051045492
83	0xbd106475	-0.035252053
84	0x39d47dba	0.00040529465
85	0x3d3b6e4e	0.04575949
86	0x3c394c1c	0.01130965
87	0x3d2e0f7b	0.042495232
88	0xbacddcfa	-0.0015706115
89	0x3d2da70f	0.042395648
90	0xbca37aba	-0.019955982
91	0x3d156366	0.036471747
92	0xbcc159a1	-0.023602309
93	0x3d746ee8	0.05967608
94	0x3cb8f790	0.022578984
95	0xbd33fc37	-0.043941703
96	0xbd6e8870	-0.058235586
97	0x3d063a9e	0.032770745
98	0xbc04f34c	-0.008114647
99	0x3d0f7832	0.035026737
100	0xbc6e03e1	-0.014527292
101	0x3cee48b6	0.029087406
102	0xbc92e1d9	-0.017929958
103	0xbd484061	-0.04888952
104	0xbbcb460c	-0.0062034186
105	0x39ce24ab	0.00039318702
106	0x3d09efda	0.033676006
107	0x3c5ed5de	0.013600795
108	0xba4e2331	-0.00078635203
109	0xbcd3f5b4	-0.025873996
110	0xbc6c2ff6	-0.014415732
111	0x3a0760ab	0.0005164246
112	0xbc86d336	-0.016458135
113	0x3d703dcf	0.058652695
114	0xbc4b2eec	-0.012401324
115	0x3cb06013	0.021530187
116	0x3d1fac8e	0.03898292
117	0xbc042cee	-0.008067353
118	0xbd0f3f5a	-0.034972526
119	0xbd0b24fe	-0.033970825
120	0xbccd3c4f	-0.025053171
121	0xbd071714	-0.032980993
122	0xbd5a71a5	-0.053331036
123	0x3d604851	0.054756466
124	0x3cba73be	0.022760268
125	0xbd4ecda0	-0.050489068
126	0x3bdbcb35	0.006707574
127	0xbd3a602d	-0.045501877
128	0xbc0681c8	-0.008209653
129	0x3d644855	0.055733044
130	0xbca77815	-0.020443002
131	0xbc07db6d	-0.008292061
132	0xbcdf72bd	-0.027276391
133	0xbccdc71a	-0.025119353
134	0x3d0d2d35	0.03446694
135	0xbd148a42	-0.036264665
136	0x3d2ef7e1	0.042716864
137	0x3ce5ae05	0.02803708
138	0x3d503bcd	0.05083828
139	0xbd2556c4	-0.04036595
140	0x3b6e9470	0.0036404394
141	0x3d7a970b	0.061179202
142	0xbc9b0085	-0.018921146
143	0xbd4b135e	-0.049579017
144	0x3c6068d8	0.013696872
145	0x3d66c0a0	0.056336045
146	0xbd1d8d90	-0.038465083
147	0x3d2bfc9f	0.041988965
148	0xba43cf1f	-0.0007469523
149	0xbc0ed8f3	-0.008718717
150	0x3d6f7dba	0.05846951
151	0xbbddc880	-0.006768286
152	0xbd207a30	-0.039179027
153	0xbd1af6a1	-0.03783286
154	0xbbb5b1d2	-0.0055448795
155	0x3d4366b8	0.047705382
156	0x3d4e3e45	0.050352354
157	0x3d0e3382	0.03471709
158	0x3d62cefe	0.055373184
159	0xbd07ad43	-0.03312422
160	0xbd1e0f6f	-0.038588937
161	0xbc66355e	-0.01405081
162	0x3c1948e0	0.009355754
163	0x3d499670	0.049215734
164	0x3cc18ab6	0.023625713
165	0xbcc6707a	-0.024223555
166	0x3c55ab77	0.013041369
167	0x3d51d959	0.05123267
168	0xbccce7e6	-0.025012922
169	0x3ccb00b2	0.024780605
170	0xbd1cfbb3	-0.038325977
171	0x3d499baf	0.049220737
172	0xbd459a39	-0.04824278
173	0x3cc87aab	0.024472555
174	0xbbf8b1ec	-0.0075895693
175	0x3d0e00d8	0.034668773
176	0xbd1e37c7	-0.038627412
177	0xbcd197d8	-0.0255851
178	0x3d238be1	0.03992832
179	0xbc336f89	-0.010951885
180	0x3c955d74	0.018233038
181	0xbccc3d34	-0.024931528
182	0xbd13cb7e	-0.036082737
183	0xbd24333a	-0.040087916
184	0x3c2050d4	0.009784896
185	0x3c90f9bc	0.017697208
186	0x3d21b769	0.039481554
187	0x3c63a1b7	0.013893536
188	0x3cc96e89	0.02458884
189	0x3d01b55d	0.031667102
190	0x3ca87618	0.020564124
191	0xbcfa4b88	-0.030553594
192	0x3c9c11f3	0.019051528
193	0xbc1b68e0	-0.009485453
194	0x3c4a16c1	0.0123345265
195	0x3cf5eb7d	0.030019516
196	0xbd1a1e26	-0.037626408
197	0xbc70a1e9	-0.01468704
198	0xbc08cb66	-0.008349275
199	0x3c805297	0.015664382
200	0x3d206dba	0.039167143
201	0x3d2491f8	0.04017827
202	0x3d0e38e0	0.03472221
203	0x3cd1e30a	0.025620956
204	0xbd1fb146	-0.03898742
205	0xbd14f367	-0.03636494
206	0xbd95752d	-0.0729774
207	0x3d21111b	0.039322954
208	0xbc7e608f	-0.015525951
209	0xbc37c1e6	-0.011215663
210	0x3c223cb3	0.009902167
211	0x3d58bea8	0.0529162
212	0x3c496821	0.012292893
213	0xbd11f192	-0.03563077
214	0xbcacc499	-0.021089839
215	0xbd27cde5	-0.04096784
216	0x3d5b2020	0.053497434
217	0xbd49685d	-0.049171794
218	0x3c473390	0.01215829
219	0x3d26548f	0.040607985
220	0x3d6bb2e8	0.057543665
221	0x3cacb008	0.021080032
222	0xbd4d553b	-0.05013011
223	0x3c910800	0.01770401
224	0xbc6385ac	-0.01388685
225	0x3ca44353	0.020051634
226	0xbd3c0bd8	-0.045909733
227	0xbcb3453f	-0.021883605
228	0x3d5ccf31	0.05390853
229	0xbcb1b672	-0.021693442
230	0x3b657785	0.0035013866
231	0xbc0198d8	-0.007909976
232	0xbc94262c	-0.018084608
233	0x3d663458	0.056202263
234	0xbd476ecd	-0.048689652
235	0x3d3d3b9a	0.04619942
236	0xbc85e985	-0.016346702
237	0x3d03aab4	0.032145217
238	0xbc98b7c6	-0.018642318
239	0x3b20f65f	0.002456091
240	0xbc689f37	-0.014198116
241	0xbd133c70	-0.03594631
242	0x3abee2be	0.0014563424
243	0x3c1b3b75	0.009474625
244	0xbd3939ec	-0.045221254
245	0xbd598466	-0.05310478
246	0xbc86e0a6	-0.016464543
247	0xbc50376e	-0.012708528
248	0x3c20f477	0.00982391
249	0x3d1ef1af	0.038804706
250	0x3d4a101d	0.049331773
251	0x3d25ab49	0.040446553
252	0x3c217616	0.009854814
253	0xbcbd4895	-0.023105899
254	0xbd51847f	-0.05115175
255	0xbd176c7e	-0.0369687

backbone.8.bias f4 [64]
0	0xbd36bb8c	-0.044612452
1	0x3cd61f2f	0.026137916
2	0xbd17e512	-0.037083693
3	0xbd328830	-0.04358691
4	0xbce04489	-0.02737643
5	0x3d514bbe	0.051097624
6	0x3d28b896	0.04119166
7	0xbcff8bf5	-0.031194666
8	0xbd1124ec	-0.035435602
9	0xbca44569	-0.020052629
10	0x3ca96b03	0.02068091
11	0xbc85a2db	-0.016313007
12	0x3c42726f	0.011868103
13	0xbd2dbe61	-0.042417888
14	0x3d2254a9	0.03963152
15	0x3ccde494	0.025133409
16	0xbd144b57	-0.036204662
17	0xbbe564dd	-0.007000549
18	0xbd010a7f	-0.03150415
19	0x3c3826a2	0.0112396795
20	0x3d397910	0.04528147
21	0xbccd5294	-0.02506379
22	0x3bdbcc6f	0.00670772
23	0xbcc93c00	-0.024564743
24	0x3d50e085	0.05099537
25	0xbcca16a8	-0.024669006
26	0x3d6cf2b3	0.057848644
27	0xbcec5195	-0.028847495
28	0xbcaeb987	-0.0213287
29	0xbd30099c	-0.042977914
30	0xbb308841	-0.0026936682
31	0xbb20e754	-0.0024551945
32	0x3d054b4b	0.032542508
33	0xbcd25c79	-0.02567886
34	0xbc68c89a	-0.014207983
35	0x3d5401b7	0.051759448
36	0x3d10cc90	0.035351336
37	0xbcd68410	-0.02618602
38	0x3d6b65eb	0.057470243
39	0x3cfdbef8	0.03097485
40	0xbca47300	-0.020074368
41	0xbcdd7248	-0.027032033
42	0xbcec1e02	-0.028822903
43	0x3a5dbaea	0.00084583333
44	0x3d5933c5	0.053027887
45	0xbd194154	-0.037415817
46	0x3c7221b8	0.014778547
47	0xbc9e7878	-0.019344553
48	0x3d448f24	0.047988072
49	0x3d1ba0d9	0.037995193
50	0xbc881b96	-0.016614717
51	0x3bf50bbf	0.007478207
52	0xbcca233d	-0.024675006
53	0xbc186dd6	-0.009303531
54	0x3c3a79de	0.011381594
55	0xbd5131ad	-0.051072765
56	0xbd648b39	-0.055796836
57	0x3d3889f2	0.04505343
58	0x3d585bb4	0.05282183
59	0xbb2385c8	-0.0024951566
60	0xbd5ea6b3	-0.054358196
61	0x3d60fc16	0.054927908
62	0x3d7040e8	0.05865565
63	0xbc9e6669	-0.019335942

backbone.9.weight f4 [64]
0	0x3f803304	1.0015569
1	0x3f7efc56	0.99603784
2	0x3f7edd4f	0.9955644
3	0x3f803a07	1.0017709
4	0x3f8068bd	1.0031964
5	0x3f80dbd8	1.0067091
6	0x3f7fc637	0.99911827
7	0x3f802afa	1.0013115
8	0x3f802323	1.0010723
9	0x3f7fd6c2	0.9993707
10	0x3f8038e0	1.0017357
11	0x3f810657	1.008006
12	0x3f804cf0	1.002348
13	0x3f807848	1.0036707
14	0x3f80a48c	1.0050216
15	0x3f8078d1	1.003687
16	0x3f81657a	1.0109093
17	0x3f7f220e	0.9966134
18	0x3f805759	1.0026656
19	0x3f7f396e	0.99697006
20	0x3f7ff2e5	0.9998
21	0x3f7fb98a	0.99892485
22	0x3f7eb3b8	0.9949298
23	0x3f7f9b60	0.9984646
24	0x3f8004f2	1.0001509
25	0x3f806c09	1.003297
26	0x3f81d607	1.0143441
27	0x3f7f9b01	0.9984589
28	0x3f80d829	1.0065967
29	0x3f80151a	1.000644
30	0x3f80cfa4	1.0063367
31	0x3f7f76f9	0.9979091
32	0x3f819976	1.0124958
33	0x3f7ec87a	0.9952465
34	0x3f8076b1	1.0036222
35	0x3f803274	1.0015397
36	0x3f8025bb	1.0011514
37	0x3f7fe09b	0.99952096
38	0x3f8024e2	1.0011256
39	0x3f7fd1b2	0.99929345
40	0x3f801c54	1.0008645
41	0x3f805d26	1.0028427
42	0x3f80291b	1.0012544
43	0x3f8045be	1.0021284
44	0x3f7f455e	0.9971522
45	0x3f7f5856	0.99744165
46	0x3f809064	1.0044065
47	0x3f7e6300	0.9936981
48	0x3f7fcf5e	0.9992579
49	0x3f80489c	1.0022159
50	0x3f808c56	1.0042827
51	0x3f7e5cfa	0.9936062
52	0x3f7fffb9	0.99999577
53	0x3f7f6318	0.9976058
54	0x3f7f9272	0.9983283
55	0x3f80a6f5	1.0050951
56	0x3f7f8d98	0.9982543
57	0x3f7fffbd	0.999996
58	0x3f7fb819	0.99890286
59	0x3f8018c0	1.0007553
60	0x3f804a9e	1.0022771
61	0x3f80cfbb	1.0063394
62	0x3f8079e4	1.0037198
63	0x3f80b83a	1.0056221

backbone.9.bias f4 [64]
0	0xbb4028b4	-0.0029321136
1	0xbb2e05a1	-0.0026553648
2	0xbba1ace8	-0.004933942
3	0xbb42469b	-0.0029644135
4	0xbb025be2	-0.0019891192
5	0x3b084842	0.0020795022
6	0xba1996e7	-0.0005858973
7	0xba31ea1e	-0.00067869003
8	0xbb56e293	-0.0032788857
9	0xbbcf5601	-0.006327391
10	0xbbbcd17f	-0.0057622786
11	0xbb7d1c84	-0.0038621733
12	0x39d0330b	0.00039710882
13	0xb859c9ba	-5.1924704e-05
14	0x3af6e635	0.0018836918
15	0xbb86d413	-0.0041146367
16	0xbb8f43fc	-0.004372118
17	0xbb2e36c4	-0.0026582936
18	0x3a726f2e	0.00092481344
19	0xbb467d93	-0.003028725
20	0xbb7f3dc9	-0.003894674
21	0xbad8d60a	-0.0016543281
22	0xbbbac4fc	-0.005699752
23	0xbaf30000	-0.0018539429
24	0x3a3ce1ce	0.00072052784
25	0xbb646aac	-0.003485362
26	0xbb0185e1	-0.0019763636
27	0xbb9cb945	-0.004782828
28	0xbb8b7f20	-0.004257098
29	0xbb1b1f8a	-0.0023669922
30	0xbb748f36	-0.0037316806
31	0xba1eab16	-0.00060527155
32	0xbbf0d380	-0.0073494315
33	0xbbbdec55	-0.0057959952
34	0xbbbed155	-0.005823294
35	0xbb64db19	-0.0034920631
36	0x38e5988e	0.000109479864
37	0xbb955a70	-0.0045579
38	0xb8c4e640	-9.388896e-05
39	0x3a2927ad	0.00064527505
40	0x37a2d728	1.9412095e-05
41	0x3b411efc	0.002946793
42	0x39c967bc	0.00038414996
43	0xbb9b78d1	-0.004744627
44	0xbba844cc	-0.0051351544
45	0xba099faf	-0.000524993
46	0xba768f35	-0.0009405495
47	0xbbd5d38c	-0.0065254625
48	0xbb2b43c3	-0.0026132918
49	0xbb527d07	-0.003211798
50	0x3b3cd10c	0.0028811125
51	0xbb8a0a88	-0.004212681
52	0xba6f4b75	-0.00091283704
53	0xbb532032	-0.0032215235
54	0xbb3f6d33	-0.0029209375
55	0x3aff5075	0.0019478934
56	0xbba3d9db	-0.0050003356
57	0xbb40cc71	-0.0029418732
58	0xb9db8c01	-0.00041875246
59	0xbaf2d7c2	-0.0018527436
60	0x3a35da92	0.00069371716
61	0xbb9036ea	-0.0044010775
62	0x3ad75e5b	0.0016431318
63	0xbb403b73	-0.002933231

backbone.9.running_mean f4 [64]
0	0xbd168da2	-0.036756165
1	0xbf4987c7	-0.78722805
2	0x3f0cec04	0.5504763
3	0x3e9e3dc6	0.30906504
4	0xbf64c026	-0.89355695
5	0xbe238eb7	-0.1597241
6	0xbdce9351	-0.10086692
7	0xbef480b9	-0.47754458
8	0x3f0bf98a	0.5467764
9	0x3f211805	0.62927276
10	0x3e82dfb5	0.255613
11	0x3f2b5d99	0.66939694
12	0xbf392cdb	-0.7233407
13	0xbf837ecc	-1.027307
14	0xbf286a9f	-0.6578769
15	0xbda59a48	-0.080860674
16	0x3f3a8ff5	0.7287591
17	0x3cb58ed4	0.022162832
18	0xbf0d2931	-0.5514098
19	0x3e6d4167	0.2316948
20	0xbebf6de5	-0.3738853
21	0xbf213d59	-0.62984234
22	0xbf547b45	-0.83000594
23	0xbf66e1fa	-0.9018856
24	0xbf77152e	-0.9651669
25	0x3eb376a0	0.3505144
26	0x3f50f77f	0.8162765
27	0x3f5fb1cd	0.8738068
28	0x3f90e2e4	1.1319242
29	0xbe458ff8	-0.19293201
30	0x3f92c630	1.1466732
31	0xbe6fdeb2	-0.23424795
32	0x3f7492eb	0.9553668
33	0x3faab42b	1.3336233
34	0x3ecfa77f	0.40557477
35	0x3f3967b7	0.7242388
36	0xbe0e10cc	-0.13873595
37	0x3f0cbd9b	0.54976815
38	0xbf1d9848	-0.6156049
39	0xbf16e438	-0.58941984
40	0xbe935306	-0.2877428
41	0xbf953154	-1.1655679
42	0xbf9217fb	-1.1413568
43	0x3d3ae019	0.045623872
44	0xbcff2a25	-0.031148026
45	0xbf83b730	-1.0290279
46	0xbe9af233	-0.30262908
47	0x3f09dc85	0.5385211
48	0xbf547dfd	-0.8300474
49	0x3e834489	0.25638226
50	0xbf2946c1	-0.66123587
51	0xbf81d98e	-1.0144517
52	0x3f46fbe2	0.7772809
53	0xbd4f62da	-0.05063138
54	0xbf696092	-0.9116298
55	0x3ef798cd	0.48358765
56	0x3f902415	1.1261011
57	0xbf231bf8	-0.6371455
58	0xbf279810	-0.65466404
59	0xbf5dc934	-0.86635137
60	0xbf09e24d	-0.5386093
61	0x3fdacca8	1.7093706
62	0xbf6c1e7c	-0.92234015
63	0xbdedbaf1	-0.11607922

backbone.9.running_var f4 [64]
0	0x3eb6390b	0.35590395
1	0x3effbdd6	0.4994952
2	0x3ea9abc2	0.33138853
3	0x3ee492a9	0.44643143
4	0x3eafdb78	0.3434713
5	0x3eb29d80	0.34885788
6	0x3f38e940	0.7223091
7	0x3ecabf26	0.3959896
8	0x3e87374f	0.26409385
9	0x3ecf5811	0.40496877
10	0x3ed57ed7	0.41698334
11	0x3e97a3e9	0.2961724
12	0x3ec0ffd2	0.37695175
13	0x3e744150	0.2385304
14	0x3ec95753	0.39324436
15	0x3ea3e0f0	0.3200755
16	0x3e9bcddf	0.30430505
17	0x3ed55979	0.41669825
18	0x3ee02a64	0.4378234
19	0x3e53c6ad	0.20681258
20	0x3e853e4c	0.2602409
21	0x3ef6eae7	0.4822609
22	0x3f13abbf	0.5768394
23	0x3f392242	0.723179
24	0x3f0145ac	0.50496936
25	0x3e464644	0.19362742
26	0x3e9b82be	0.30373186
27	0x3eaec2df	0.3413305
28	0x3ea2c186	0.31788272
29	0x3e9e3964	0.3090316
30	0x3ebfa37d	0.3742942
31	0x3e8bf347	0.27334043
32	0x3eaab6b8	0.33342528
33	0x3f2f8967	0.68569034
34	0x3e80e98b	0.2517818
35	0x3ef540be	0.47900957
36	0x3e918e1d	0.28428736
37	0x3e890f6b	0.26769575
38	0x3f0ba603	0.5455019
39	0x3e213718	0.15743673
40	0x3f0226e3	0.50840586
41	0x3f4d92dd	0.8030222
42	0x3ee5cdbd	0.44883528
43	0x3eabe978	0.3357656
44	0x3e9d7763	0.30755147
45	0x3f102867	0.5631165
46	0x3e859c1c	0.26095665
47	0x3e477e49	0.19481768
48	0x3eea3c20	0.45748997
49	0x3e894a82	0.26814657
50	0x3ecf6310	0.40505266
51	0x3f2a0406	0.6641239
52	0x3edd846b	0.4326509
53	0x3e459331	0.1929443
54	0x3ec9eec0	0.39439964
55	0x3e7c1ec0	0.24621105
56	0x3eed7ef0	0.46385908
57	0x3ee17788	0.44036508
58	0x3ed90f3b	0.42394432
59	0x3f33ca4c	0.70230556
60	0x3ee593e7	0.44839403
61	0x3ef930ad	0.4866995
62	0x3f0e2b27	0.55534595
63	0x3e90871a	0.28228074

classifier.1.weight f4 [128, 576]
0	0x3d1b8987	0.037972953
1	0xbcf6abe6	-0.030111264
2	0x3cede0a6	0.029037785
3	0xbd24a469	-0.040195856
4	0x3c74f56d	0.014951092
5	0xbac16b70	-0.001475675
6	0x3c664661	0.014054866
7	0xbd121822	-0.035667546
8	0xbb23eb65	-0.0025012132
9	0xbcf1b1ca	-0.029503722
10	0xbd1c20b5	-0.03811713
11	0x3ca41297	0.020028396
12	0x3d05ddfe	0.03268241
13	0x3cca7639	0.024714576
14	0x3c31e143	0.010856929
15	0xbae16d37	-0.0017198686
16	0x3d007a85	0.031366844
17	0xbcf084a1	-0.029360117
18	0xbcd36b8a	-0.025808115
19	0x3ce85242	0.028359536
20	0xbbd927cb	-0.006627058
21	0x3c59652a	0.013268748
22	0xbb83206f	-0.004001669
23	0xbc9a91af	-0.018868295
24	0xbceb406f	-0.028717248
25	0x3ce13033	0.027488803
26	0x3cc6f5e0	0.024287164
27	0xbc8273ae	-0.015924301
28	0xbc07d911	-0.008291499
29	0x3d04f823	0.032463204
30	0xbc8cc78e	-0.017184999
31	0xbd04a719	-0.03238592
32	0xbc83252b	-0.016008934
33	0xba801ef4	-0.000977485
34	0x3cc0fd27	0.023558212
35	0x3d1937b9	0.037406657
36	0xbcc8d40a	-0.02451517
37	0x3ce46696	0.027880948
38	0x3d2d5b46	0.042323373
39	0x3c745a09	0.014914044
40	0x3bb2dc75	0.0054584094
41	0xbc259817	-0.010107062
42	0xbc696090	-0.014244214
43	0x3cc90fbf	0.024543641
44	0x3d18afe5	0.03727712
45	0x3c3e8561	0.01162848
46	0x3d08f552	0.03343708
47	0x3d27d991	0.040978972
48	0xbd2f0450	-0.042728722
49	0x3c32206a	0.010871986
50	0x3af587b7	0.0018732463
51	0xbcbb1559	-0.022837328
52	0x3cef0652	0.029177818
53	0xbcc2d497	-0.023783011
54	0xbd04ec9e	-0.03245222
55	0xbc2c79dc	-0.0105271
56	0x3c8b6c11	0.017019304
57	0xbc066a43	-0.008204046
58	0xbca3497f	-0.019932507
59	0x3ce0d84a	0.027446885
60	0x3d120200	0.03564644
61	0x3d0e9fe4	0.034820452
62	0x3ba4e819	0.005032551
63	0xbd088d51	-0.033337895
64	0x3c9be678	0.019030795
65	0xbd25b5dc	-0.040456638
66	0xbcb4c60d	-0.022067094
67	0xbd0e5eb5	-0.03475829
68	0xbce461c6	-0.027878653
69	0x3d00e6c0	0.03147006
70	0x3bcda96b	0.0062762997
71	0x3d0e47f6	0.034736596
72	0xbccc4c49	-0.02493872
73	0x3bd0787f	0.0063620205
74	0xbd0c5873	-0.03426404
75	0x3bd47160	0.006483242
76	0x3c90e046	0.017685067
77	0xbcfbce6b	-0.030738076
78	0x3ca4a5cf	0.020098595
79	0x3c97a348	0.018510476
80	0xbc5680ee	-0.013092263
81	0xbd03707c	-0.032089695
82	0x3bfeb937	0.007773544
83	0xbca6072c	-0.020267092
84	0x3c9a2bf1	0.018819781
85	0x3d185f4e	0.037200265
86	0xbb167864	-0.0022959942
87	0xbc827ab6	-0.015927654
88	0xbc112f3a	-0.008861357
89	0x3d0e79ea	0.034784235
90	0x3d25d569	0.040486727
91	0xbcccac30	-0.02498445
92	0x3c543869	0.012952902
93	0x3cf219c9	0.029553311
94	0xbc4a0fb6	-0.012332847
95	0xbd0dc6d7	-0.034613457
96	0xbd2139cd	-0.039361764
97	0x3c8503e2	0.016237203
98	0xbbe66bb7	-0.0070318836
99	0xbcb4c16f	-0.022064893
100	0x3c118145	0.008880918
101	0x3c34a815	0.011026402
102	0xbc9349a2	-0.017979447
103	0x3cb6ac48	0.022298947
104	0xbc214df9	-0.00984525
105	0x3c042118	0.008064531
106	0x3cbe24c1	0.023210885
107	0x3cec56fe	0.028850075
108	0xbc8144e0	-0.015779912
109	0xbc9f7c58	-0.019468471
110	0x3c263e9b	0.010146762
111	0x3d044528	0.032292515
112	0x3d14f5aa	0.036367096
113	0xbd151656	-0.036398254
114	0xbce99999	-0.028515624
115	0x3be1c4d7	0.00688992
116	0x3d040602	0.032232292
117	0xba00928c	-0.00049046497
118	0x3bea15b1	0.007143699
119	0xbd0b6d23	-0.034039628
120	0x3b2ae72a	0.0026077726
121	0xbd15d078	-0.036575764
122	0xbd1044f4	-0.03522201
123	0xbc9d330c	-0.01918938
124	0xbd15013d	-0.036378134
125	0xbce1e3ea	-0.027574498
126	0x3d0c8d64	0.034314528
127	0x3cc3df1c	0.023910098
128	0xbca84107	-0.02053882
129	0x3d04ba94	0.032404497
130	0xbd113f96	-0.03546103
131	0x3c105d61	0.008811326
132	0x3d1cf086	0.03831532
133	0xbc7df14e	-0.015499426
134	0x3c62a773	0.013833868
135	0x3bcfa1ae	0.0063364124
136	0x3b1ce167	0.0023938061
137	0xbb0980e4	-0.0020981366
138	0x3c66e716	0.014093181
139	0x3bdda761	0.006764338
140	0xbc8e5f9a	-0.01737957
141	0xbb892fad	-0.0041865916
142	0x3d075cfb	0.033047657
143	0xbd0e5375	-0.03474756
144	0xbb255fe5	-0.002523416
145	0xbb3a588e	-0.002843413
146	0x3d1ae3cd	0.037814904
147	0x3cbab44d	0.022791052
148	0xbc6e6773	-0.014551031
149	0x3c48e63a	0.012261922
150	0xbc2a78dd	-0.010404793
151	0x3d00f1fa	0.031480767
152	0xbb503210	-0.003176812
153	0x3b0b6aee	0.0021273452
154	0x3bd0b8bc	0.0063696783
155	0xbc8e6c60	-0.017385662
156	0xbc83ef92	-0.016105447
157	0xbbbcdb9d	-0.0057634846
158	0xbcb2af30	-0.021812052
159	0x3bbeca03	0.0058224215
160	0x3d04909b	0.03236447
161	0xbcd35d62	-0.025801364
162	0x3b50593f	0.0031791476
163	0x3ccfbdf4	0.025359131
164	0xbc95aea9	-0.018271761
165	0xbc8d7b3b	-0.017270675
166	0xbc8bd68f	-0.017070083
167	0xbcbac937	-0.022801025
168	0xbd1ff85e	-0.03905522
169	0xbb2c61b3	-0.002630335
170	0x3b9a118b	0.0047017983
171	0xbd2b6cf0	-0.041851938
172	0xbd0cdf03	-0.034392368
173	0xbd1f8637	-0.038946357
174	0x3c9f9553	0.019480383
175	0x3cbb1df8	0.022841439
176	0xbcd6b9a4	-0.026211567
177	0x3cd1233f	0.025529502
178	0xbcefba2f	-0.029263584
179	0x3d002428	0.03128448
180	0x3c9830dc	0.018577985
181	0x3ce64d59	0.028113054
182	0xbd3a3c54	-0.04546769
183	0x3bfac91b	0.007653368
184	0x3ca5de83	0.020247703
185	0x3d17475f	0.0369333
186	0xbc1718c0	-0.009222209
187	0x3ccc734a	0.024957318
188	0xbc8de538	-0.017321214
189	0xbc234889	-0.009966024
190	0x3c996567	0.01872511
191	0x3d02ca1f	0.03193104
192	0x3ce163a7	0.027513338
193	0x3d2165ac	0.039403602
194	0xbcb50590	-0.022097379
195	0x3c8f2872	0.01747534
196	0x3d175700	0.036948204
197	0x3c6a95c5	0.014317934
198	0x3cc3e99e	0.023915108
199	0x3d1391b7	0.036027636
200	0xbcdce294	-0.02696351
201	0x3cb959a0	0.022625744
202	0xbd21fd01	-0.039547924
203	0xbb87ecd8	-0.004148107
204	0x3c932abd	0.017964715
205	0xbcfbcb8e	-0.03073671
206	0x3d05e6d5	0.03269084
207	0x3c8a94ea	0.01691671
208	0xbbdbfe7d	-0.006713687
209	0x3d0874ac	0.033314392
210	0xbc484e44	-0.012225691
211	0xbc86d2a6	-0.016457867
212	0x3d1dfb16	0.038569532
213	0xbca678a7	-0.020321203
214	0x3ce3d959	0.0278136
215	0x3bbae1da	0.005703193
216	0x3abf693b	0.0014603505
217	0x3d0fdcc5	0.03512265
218	0xbbad11fb	-0.0052816845
219	0x3c283341	0.010266126
220	0x3c17741b	0.00924399
221	0xbcd37e17	-0.02581696
222	0x3cea223f	0.028580783
223	0xbc5b3bf5	-0.013380994
224	0x3cb756d8	0.022380278
225	0x3d17fbdd	0.03710543
226	0x3d2db19e	0.042405717
227	0x3c1003a3	0.00878993
228	0xbc8e58bc	-0.017376296
229	0x3ca28f74	0.019843794
230	0x3d09274d	0.033484746
231	0x3a814f82	0.0009865614
232	0x3c4e52f6	0.012593022
233	0xbd1c63e5	-0.038181204
234	0x3ca24ba7	0.019811464
235	0x3ba39af8	0.004992839
236	0x3d05a018	0.03262338
237	0xbd164b86	-0.03669312
238	0x3ca84174	0.020539023
239	0xbd3282a3	-0.043581616
240	0x3cc872e7	0.024468852
241	0x3cb438a6	0.021999668
242	0x3ce3f34e	0.027825978
243	0xbce3a6c4	-0.027789481
244	0x3d03cf4d	0.03218012
245	0x3c3105eb	0.010804634
246	0xbc5397b6	-0.012914589
247	0x3c8c1c1a	0.017103244
248	0xbd0b91d2	-0.034074612
249	0xbcb88d51	-0.022528322
250	0xbb7ed8a7	-0.003888646
251	0xbca059b2	-0.01957402
252	0xbbc2cab8	-0.005944576
253	0x3c8d001a	0.017211962
254	0x3ce02b7b	0.027364483
255	0xbcfc32d0	-0.030785948

classifier.1.bias f4 [128]
0	0xbc6afd64	-0.01434264
1	0xbb4de90b	-0.0031419422
2	0x3a607600	0.0008562505
3	0xbd14fb0d	-0.036372233
4	0xbb3eabe7	-0.002909416
5	0xbd0e182a	-0.034691013
6	0xbc235e49	-0.00997121
7	0x3bb85057	0.0056248116
8	0x3ca99d4b	0.020704886
9	0x3d12b0f8	0.0358133
10	0xbd0dd4d4	-0.034626797
11	0xbc1113c6	-0.008854812
12	0x3c67ea74	0.014155019
13	0xbca35636	-0.01993857
14	0xbaa8063a	-0.0012819238
15	0xbd21c9ab	-0.039498966
16	0x3c6b51d8	0.014362775
17	0x3c60ed2a	0.013728419
18	0xbd126e3d	-0.035749663
19	0xbd134819	-0.03595743
20	0x3d222043	0.03958155
21	0xbd28f16f	-0.041245874
22	0x3ced52bf	0.02897012
23	0x3d0b2220	0.03396809
24	0xbbfa7da2	-0.007644371
25	0xbc5188cd	-0.0127889635
26	0xbc59a417	-0.013283751
27	0xbd186f87	-0.037215736
28	0xbd1a0f66	-0.03761234
29	0xbba68d4e	-0.005082763
30	0x3cccdcd8	0.02500765
31	0x3c28124e	0.01025827
32	0xbcdc0a2f	-0.026860325
33	0x3cd1f0dd	0.025627548
34	0xbc8e5df2	-0.017378781
35	0xbd114f8c	-0.035476252
36	0xbca87978	-0.020565733
37	0xbc7d4ea9	-0.015460649
38	0xbcd9dc39	-0.026594268
39	0xbcc9b4f0	-0.02462241
40	0x3d194fb5	0.03742953
41	0xbca7eccb	-0.020498654
42	0xbc8ab73d	-0.016933078
43	0xbc943aa0	-0.01809436
44	0xbbdc1476	-0.0067163063
45	0x3b57abd5	0.0032908816
46	0xbb9de221	-0.0048182164
47	0x3cd70d65	0.026251504
48	0xbc889ec6	-0.016677272
49	0x3cb2d573	0.021830296
50	0xbc030bec	-0.007998448
51	0xbb99c14d	-0.0046922327
52	0xbd0d55a0	-0.034505486
53	0xbb7ba23c	-0.003839626
54	0xbd0a48af	-0.033760723
55	0xbc56598c	-0.013082873
56	0xbc293014	-0.010326404
57	0xbb37f88f	-0.0028071736
58	0x3c1e6d03	0.009669545
59	0x3c4ee96c	0.012628894
60	0xbb838a81	-0.0040143137
61	0xbaeaf34d	-0.0017925292
62	0x3cc0139e	0.023446854
63	0xbc421591	-0.011845962
64	0xbc9234f0	-0.017847508
65	0xbc21266c	-0.009835821
66	0xbd20e1f1	-0.039277975
67	0xbbc34240	-0.0059588253
68	0x3cf72932	0.03017101
69	0x3c07c947	0.008287734
70	0x3c48fc86	0.0122672375
71	0xbb00c5e7	-0.001964921
72	0xbc98ac93	-0.018636977
73	0x3c5473ac	0.012967031
74	0x3b80a185	0.0039255046
75	0x3d0a6f85	0.03379776
76	0x3d018920	0.031624913
77	0x3ba33d2d	0.004981658
78	0xbca9e94c	-0.020741127
79	0x3cfd4f79	0.030921685
80	0x3b46f45e	0.0030358057
81	0x3cb164eb	0.021654567
82	0xbcc0a6ab	-0.023516973
83	0xbc574e78	-0.013141267
84	0xbd1b3972	-0.03789658
85	0xbd079880	-0.03310442
86	0xbb9793dc	-0.0046257805
87	0x3ceac813	0.028659856
88	0xbd24a987	-0.040200736
89	0x3b8d1cfc	0.0043064337
90	0xbd21e89a	-0.039528467
91	0x3c8a76ce	0.016902354
92	0x3b88a364	0.0041698683
93	0x3ae154cf	0.0017191413
94	0xbcc6a068	-0.02424641
95	0x3c97bfce	0.018524077
96	0xbc857fb1	-0.01629624
97	0xbcb5c4fe	-0.02218866
98	0x3cc494a1	0.023996653
99	0x3d1a13eb	0.03761665
100	0x3ba77184	0.0051099677
101	0x3cffad8a	0.03121068
102	0xbd268c78	-0.040661305
103	0xbcc8c24b	-0.024506709
104	0x3b48d94b	0.0030647095
105	0xbc914e64	-0.017737575
106	0xbcce3f09	-0.025176542
107	0xbc158039	-0.009124809
108	0x3cd7981f	0.026317654
109	0x3d187c04	0.037227646
110	0x3c6065f0	0.013696179
111	0xbc9d28c1	-0.019184472
112	0x3cf45dd0	0.02982989
113	0x3d17e483	0.03708316
114	0x3cdc7517	0.026911302
115	0xb80cba2b	-3.3551984e-05
116	0xbcea7f21	-0.028625073
117	0x3d0bd5d6	0.034139477
118	0x3ca1ceae	0.019751873
119	0xbc463d6c	-0.012099605
120	0x3cb5d8ef	0.022198169
121	0xbc1f0697	-0.009706161
122	0xbca26b71	-0.019826623
123	0xbcdac7d6	-0.026706617
124	0x3c8600aa	0.016357739
125	0xbbdbb8ea	-0.006705393
126	0x3c4274ba	0.01186865
127	0xbd1e2c70	-0.038616598

classifier.3.weight f4 [5, 128]
0	0xbdb436b9	-0.087995
1	0xbd5ec86a	-0.05439035
2	0x3da74061	0.08166576
3	0xbd1c9b52	-0.038234062
4	0xbd2541b7	-0.040345874
5	0xbcd0ca36	-0.025487047
6	0xbdb4562b	-0.08805498
7	0x3d546c32	0.051860996
8	0x3d90b50d	0.07065783
9	0x3c7114c9	0.014714428
10	0x3d00b2a7	0.031420376
11	0xbd63d1f2	-0.05562014
12	0xbcd873f3	-0.026422476
13	0xbdaa6d53	-0.08321633
14	0xbdd46208	-0.103702605
15	0xbd75f835	-0.06005116
16	0xbd85f0d0	-0.06540072
17	0x3d03da1d	0.03219043
18	0xbd9ae84b	-0.075638376
19	0x3d62018b	0.055177253
20	0x3cc92a15	0.0245562
21	0xbd88ccc2	-0.066796795
22	0xbcfa6e00	-0.03057003
23	0x3d0ffd12	0.035153456
24	0xbc398d78	-0.011325233
25	0x3cea7ef3	0.028624987
26	0xbc295ee6	-0.010337567
27	0x3c7c4a6b	0.015398602
28	0x3d2c5ff8	0.04208371
29	0xbd944c3d	-0.07241104
30	0xbdb6cbf8	-0.08925623
31	0x3d6356d4	0.055502728
32	0xbd159c85	-0.03652622
33	0xbd18b8f4	-0.03728576
34	0x3c2be297	0.010491035
35	0xbdb287db	-0.087173186
36	0x3d260967	0.04053631
37	0x3d958425	0.07300595
38	0xbd83cf51	-0.06436027
39	0xbde08dfe	-0.10964583
40	0x3cad02c1	0.021119477
41	0xbb8eba8e	-0.004355735
42	0xbd16388d	-0.036675025
43	0x3ca621c9	0.020279782
44	0xbd8b4775	-0.06800739
45	0x3d199e55	0.037504513
46	0xbc9739c3	-0.01846016
47	0x3cd36ca1	0.025808634
48	0xbd81d891	-0.06340135
49	0xbdaf8230	-0.08569753
50	0xbc9aca83	-0.018895393
51	0xbc42cf94	-0.011890311
52	0xbdd3dde3	-0.10345056
53	0xbd709d5a	-0.058743812
54	0x3dad5aca	0.08464582
55	0x3d87d830	0.06633031
56	0xbb02b418	-0.001994377
57	0x3c1c0a1b	0.009523894
58	0x3d142379	0.03616664
59	0xbda43c05	-0.0801926
60	0xbc9be231	-0.019028755
61	0x3d8a045a	0.06739111
62	0xb91e6646	-0.00015106154
63	0xbde64890	-0.11244309
64	0xbcb5c4c8	-0.02218856
65	0x3d84f511	0.06492055
66	0x3de8356e	0.11338316
67	0xbd179df3	-0.037015866
68	0xbda23d18	-0.07921809
69	0xbc0f2718	-0.008737348
70	0xbda4e9fa	-0.0805244
71	0x3d3283b2	0.043582626
72	0xbd2b01b2	-0.041749664
73	0x3d20d732	0.039267726
74	0x3d0d13ae	0.034442596
75	0xbd82e990	-0.06392205
76	0x3d75bbf1	0.059993688
77	0xbdba712e	-0.091036186
78	0xbbdfd7db	-0.006831152
79	0xbd9d771b	-0.07688733
80	0xbd9ac344	-0.07556775
81	0x3bf1fa66	0.007384586
82	0x3d7d7fdd	0.061889518
83	0x3d7670d6	0.060166202
84	0xbc1030a4	-0.008800659
85	0xbbe77831	-0.0070638885
86	0xbd2f978f	-0.042869147
87	0x3d22ee60	0.039778113
88	0xbd87d10e	-0.06631671
89	0x3ccd6186	0.025070917
90	0x3d0f9a04	0.03505899
91	0xbcf7f556	-0.030268352
92	0xbd7068f7	-0.058693852
93	0xbdabe25b	-0.08392783
94	0xbd5f5107	-0.054520633
95	0x3d3f94ea	0.046772875
96	0xbd09f3a0	-0.033679605
97	0xbcc3b8cb	-0.023891827
98	0x3d51ad86	0.051190875
99	0x3d3cfeea	0.046141542
100	0x3cda744a	0.02666678
101	0x3bad6243	0.0052912547
102	0xbc199450	-0.009373739
103	0x3d02ddd1	0.03194982
104	0xbdd65493	-0.1046535
105	0x3d16379c	0.036674127
106	0x3d7f0cf7	0.062268224
107	0x3d0aba51	0.03386909
108	0xbb4a579b	-0.003087497
109	0xbc83a4f4	-0.016069867
110	0x3e061e2d	0.13097449
111	0x3cb1cae5	0.021703193
112	0x3d1060cf	0.035248574
113	0xbd66dbe2	-0.05636204
114	0xbd502821	-0.05081952
115	0xbd25dd77	-0.04049441
116	0x3d7137c0	0.058891058
117	0xbd7a937c	-0.06117581
118	0x3df17bc6	0.11791186
119	0x3d80fe07	0.06298452
120	0xbde52f43	-0.11190655
121	0x3cc4883f	0.023990748
122	0xbd57e37a	-0.052707173
123	0x3b17de04	0.0023173103
124	0x39cb9795	0.00038832115
125	0xbd222f4a	-0.03959588
126	0xbd982924	-0.07429722
127	0x3d8ee606	0.06977467
128	0xbc65e9ba	-0.014032776
129	0x3cc40095	0.023926059
130	0x3c6ffc58	0.014647566
131	0xbd4cc286	-0.0499902
132	0x3ce8acca	0.028402705
133	0x3cd00dc7	0.025397195
134	0x3d26bcc7	0.040707376
135	0x3c5580bf	0.013031184
136	0x3c023d05	0.0079491185
137	0xbce535ad	-0.027979696
138	0xbb6b3d38	-0.0035894644
139	0x3d61b833	0.055107307
140	0xbd7ca584	-0.061681286
141	0x3d096dd5	0.03355201
142	0xbcdd5fe3	-0.027023261
143	0x3d19545f	0.03743398
144	0xbcb68377	-0.022279484
145	0xbd8cd6ec	-0.068769306
146	0xbdc3b9a4	-0.095568925
147	0xbc805200	-0.0156641
148	0xbd86b783	-0.06577971
149	0xbdb0482d	-0.086075164
150	0x3d7cdec7	0.061735895
151	0xbdd4287f	-0.103592865
152	0xbd154889	-0.036446128
153	0x3d41dfa5	0.047332425
154	0x3d92c593	0.071665905
155	0xbc7f2803	-0.015573504
156	0xbd3766a8	-0.044775635
157	0x3d8d41bf	0.06897306
158	0xbd36b7c6	-0.044608854
159	0x3d4dc6ac	0.050238296
160	0xbd8532d6	-0.06503837
161	0x3d38527d	0.045000542
162	0x3d01d9dd	0.03170191
163	0x3da843de	0.0821607
164	0xbda3e33e	-0.080023274
165	0xbc839a03	-0.01606465
166	0xbd812ca6	-0.06307344
167	0xbca122b9	-0.019669877
168	0xbc6861ac	-0.014183443
169	0x3cb83c0d	0.022489572
170	0x3da0b1be	0.07846402
171	0x3dad59f2	0.08464421
172	0x3c9c0a28	0.019047812
173	0xbd3742f6	-0.044741593
174	0x3b2707b1	0.0025486762
175	0xbd0e2d14	-0.03471096
176	0x3d63a43c	0.055576548
177	0xbce92dbd	-0.028464193
178	0xbcec95b5	-0.02887998
179	0xb996a7a9	-0.00028735146
180	0xbdafef91	-0.085906155
181	0xbcda86f9	-0.026675688
182	0xbd091855	-0.03347047
183	0xbd793d3e	-0.06084942
184	0xbd8a7aba	-0.067616895
185	0xbd95f276	-0.073216364
186	0xbd95151d	-0.07279418
187	0xbc4941bc	-0.012283739
188	0x3d456790	0.048194468
189	0x3db7755a	0.0895793
190	0x3cb37e45	0.021910796
191	0x3c8ee04c	0.017440937
192	0xbd412bfc	-0.047161087
193	0x3cb2caea	0.021825273
194	0xbd9bcab7	-0.07607024
195	0x3dc5a972	0.0965146
196	0x3de723e3	0.11286142
197	0x3a8ca453	0.0010730125
198	0xbd0870f1	-0.033310834
199	0xbcd470fb	-0.02593278
200	0xbd4d713c	-0.050156817
201	0x3c3c416a	0.011490205
202	0xbcbe3bdb	-0.0232219
203	0xbbafc6fd	-0.0053642974
204	0xbd54be04	-0.051939026
205	0xbd916ca2	-0.07100798
206	0x3d339552	0.043843575
207	0xbd82acf0	-0.063806415
208	0x3da8f6af	0.08250176
209	0x3d659c36	0.056057177
210	0x3cc1f2a2	0.023675267
211	0x3b5c619a	0.003362751
212	0xbd49eb5d	-0.049296726
213	0x3d91d886	0.07121377
214	0xbcc3b7af	-0.023891298
215	0xbdc3152f	-0.09525525
216	0x3d50f355	0.05101331
217	0xbd399d79	-0.045316193
218	0xbd7277ef	-0.05919641
219	0x3c5d982f	0.013525053
220	0xbda2a351	-0.079413064
221	0xbd607564	-0.054799452
222	0x3a68c9e5	0.0008880182
223	0x3d757bbe	0.059932463
224	0xbc067d76	-0.008208623
225	0x3d10db6a	0.0353655
226	0x3d9cc137	0.0765404
227	0xbdcb0bbc	-0.099143475
228	0xbd8617db	-0.06547519
229	0xbcd6a4a9	-0.026201563
230	0xbd869829	-0.06571991
231	0xbd82bbcf	-0.06383478
232	0x3dbbdccf	0.09172975
233	0xbc13e94a	-0.009027788
234	0x3c23cded	0.009997827
235	0x3c4371a2	0.011928948
236	0xbd8e3a92	-0.06944765
237	0x3d475738	0.048667163
238	0x3dbcb2c3	0.092137836
239	0xbba31e4e	-0.004977978
240	0xbd9aff18	-0.075681865
241	0xbceca64d	-0.028887892
242	0x3da09221	0.07840372
243	0xbc66ef1c	-0.014095094
244	0xbc109fdf	-0.008827179
245	0x3db05c94	0.08611408
246	0xbd4aa924	-0.04947771
247	0x3dd8b3e4	0.105811864
248	0xbcc2b9c4	-0.02377022
249	0x3c835e94	0.01603631
250	0xbd772601	-0.060338978
251	0xbd05134d	-0.03248911
252	0x3d78c750	0.060736954
253	0x3d9dc17a	0.07702918
254	0x3c728374	0.014801849
255	0xbdca7fbe	-0.09887646

classifier.3.bias f4 [5]
0	0x3daf0417	0.08545702
1	0xbcfe6af9	-0.031056868
2	0xbc49daca	-0.01232023
3	0xbc7b7fb2	-0.015350269
4	0x3c15ac0f	0.00913526
