models/epoch=4-step=125.ckpt (torch, 800661 bytes, 38 tensors)

backbone.0.weight f4 [16, 1, 3, 3]
0	0x3f0d15e3	0.5511152
1	0x3e587e20	0.21141863
2	0x3eb662f3	0.35622367
3	0x3f251112	0.6447917
4	0x3e722b16	0.23649248
5	0x3eb41798	0.3517425
6	0x3ece69e4	0.40315163
7	0x3e2b0d9b	0.16704409
8	0x3f1916bd	0.5980032
9	0xbebb0e04	-0.3653413
10	0xbe01fbe0	-0.12693739
11	0x3e1baa99	0.15201797
12	0xbecb47af	-0.39703128
13	0x3c2d0dbd	0.0105623575
14	0x3e4c6cb0	0.19963336
15	0xbebd1c74	-0.3693577
16	0xbdad0284	-0.084477454
17	0xbe2c6d8b	-0.16838662
18	0x3e4fc6d6	0.20290694
19	0xbe485f9e	-0.19567725
20	0xbe2e764e	-0.17037317
21	0xbe9fbae6	-0.3119728
22	0x3db7d6b9	0.08976502
23	0xbed1719a	-0.40906984
24	0xbeeca101	-0.46216586
25	0x3d531bc4	0.05154015
26	0xbd53714f	-0.05162173
27	0xbe0685b6	-0.13136944
28	0x3e503dad	0.20336027
29	0xbe035c95	-0.12828286
30	0x3eaa4c81	0.33261493
31	0x3e61dd96	0.22057185
32	0x3edf44b3	0.436071
33	0x3c4da40f	0.012551322
34	0x3e8e1673	0.27751502
35	0xbdbbd1ce	-0.091708764
36	0x3da35d69	0.07976801
37	0x3e9802a2	0.2968951
38	0xbe27733b	-0.1635255
39	0x3e2cd375	0.1687754
40	0x3c0ace43	0.008472028
41	0xbc36385c	-0.011121836
42	0x3da7e669	0.08198244
43	0x3e44a4f8	0.19203556
44	0x3e81a2b6	0.2531945
45	0x3e11dd47	0.14244567
46	0x3e4d32e6	0.20038947
47	0x3f250ed8	0.64475775
48	0x3f1a639f	0.6030826
49	0x3f1cd1e4	0.6125777
50	0x3f14fa39	0.5819431
51	0x3ec4fba3	0.38473234
52	0x3e5e0e88	0.2168523
53	0x3f33ef00	0.7028656
54	0xbe2ba09b	-0.16760485
55	0xbd88baa4	-0.06676224
56	0xbe2448f1	-0.1604345
57	0xbe2d3d92	-0.16918018
58	0xbdff5261	-0.124668844
59	0xbe2bc589	-0.16774572
60	0xbe377b7b	-0.17918198
61	0xbdf4c35f	-0.119513266
62	0xbec6a2af	-0.38795993
63	0xbf71d4d8	-0.944654
64	0xbead0454	-0.33792365
65	0xbf1e511e	-0.61842525
66	0xbf494ace	-0.7862977
67	0xbf49b36c	-0.787894
68	0xbf0906ec	-0.53526187
69	0xbefb24b3	-0.49051437
70	0xbee1f5aa	-0.4413274
71	0xbe811bc8	-0.25216508
72	0xbe013bc3	-0.12620454
73	0x3eac6cea	0.33676845
74	0xbd92db9e	-0.07170795
75	0x3e6fe905	0.23428734
76	0xbd8d306b	-0.068940006
77	0x3db39d23	0.08770206
78	0x3d0e8060	0.034790397
79	0x3ead439d	0.33840647
80	0x3ddbec6d	0.10738454
81	0xbf5fa199	-0.87355953
82	0xbe903f4d	-0.28173295
83	0xbe70b0b4	-0.23504907
84	0xbec55486	-0.3854105
85	0xbe079814	-0.13241607
86	0xbea8b558	-0.32950854
87	0xbd977fec	-0.07397446
88	0xbe714d92	-0.23564747
89	0xbdd89230	-0.10574758
90	0x3e9bf742	0.3046208
91	0x3e460fb7	0.19341932
92	0x3e5b99e4	0.21445423
93	0x3db270ab	0.08712896
94	0x3d6d6056	0.0579532
95	0xbe8cfb1a	-0.27535325
96	0x3dec3db9	0.1153521
97	0x3ea177f9	0.31536844
98	0x3e104439	0.14088525
99	0xbf1a67fe	-0.6031493
100	0xbda0624d	-0.078312494
101	0xbee0e6b2	-0.43926007
102	0x3c13fa98	0.009031914
103	0xbee0e111	-0.43921712
104	0xbe572665	-0.2101074
105	0xbe067c77	-0.13133417
106	0xbe558eea	-0.20855299
107	0xbef781ea	-0.48341304
108	0x3c33de4a	0.010978291
109	0xbe9f4580	-0.31107712
110	0x3e53ad9e	0.20671698
111	0x3c38acfd	0.011271712
112	0xbeaeed15	-0.34165254
113	0x3e54b6c4	0.20772845
114	0xbe6885ef	-0.22707342
115	0xbe2805e5	-0.16408499
116	0xbd6e6d49	-0.05820969
117	0x3f0b5dc7	0.5443997
118	0x3d91a614	0.07111755
119	0x3d99496f	0.074847095
120	0x3f1b82a0	0.6074619
121	0x3e2bb4bc	0.16768163
122	0x3e3b8d6f	0.18315671
123	0x3df06a37	0.11739009
124	0x3ef60e6a	0.48057872
125	0x3f0e422f	0.5556974
126	0xbe421b3f	-0.18955706
127	0xbf03ffac	-0.51562
128	0xbed72132	-0.42017514
129	0xbf141b16	-0.5785383
130	0xbec984e7	-0.3935921
131	0xbd28c811	-0.041206423
132	0xbf0c1b60	-0.5472927
133	0xbed5cf6a	-0.41759807
134	0xbe865d39	-0.26242998
135	0xbc95c679	-0.018283116
136	0x3d8bdb3a	0.068289235
137	0x3dd8b587	0.105814986
138	0xbe1212f2	-0.1426504
139	0xbe949efe	-0.2902755
140	0x3e274ceb	0.16337936
141	0xbe9cfd25	-0.30661884
142	0x3cbc14a5	0.022959063
143	0xbe7e6961	-0.24844886

backbone.0.bias f4 [16]
0	0xbe456350	-0.19276166
1	0xbe76f3fc	-0.2411651
2	0x3e97a34c	0.29616773
3	0xbda8beae	-0.08239494
4	0xbea121d5	-0.31471124
5	0xbe9ffe81	-0.3124886
6	0xbe4279f8	-0.1899184
7	0xbd8d3e2c	-0.06896624
8	0x3e148247	0.14502822
9	0xbe872f43	-0.26403245
10	0xbdab4ffd	-0.08364866
11	0xbd12499d	-0.035714734
12	0xbca4e9b4	-0.02013097
13	0x3cba3728	0.022731379
14	0x3e6b7cf2	0.22996882
15	0xbd8ad506	-0.06778912

backbone.1.weight f4 [16]
0	0x3f6783b3	0.9043533
1	0x3f889590	1.0670643
2	0x3f7fd59b	0.9993531
3	0x3f7532c4	0.9578059
4	0x3f7c7db1	0.9862929
5	0x3f7f59b4	0.9974625
6	0x3f769424	0.96319795
7	0x3f8cb69f	1.0993232
8	0x3f7aa50f	0.9790811
9	0x3f8af384	1.0855565
10	0x3f775357	0.9661154
11	0x3f7b4079	0.9814525
12	0x3f8f18e9	1.1179477
13	0x3f7689a7	0.9630379
14	0x3f7c082c	0.9844997
15	0x3f72194a	0.9456984

backbone.1.bias f4 [16]
0	0xbcadaa00	-0.021199226
1	0x3d9e3006	0.077240035
2	0x3d1b3c73	0.037899446
3	0xbd172119	-0.0368968
4	0xbc1d0ca7	-0.009585536
5	0x3ade07a7	0.0016939536
6	0xbb249c4d	-0.0025117577
7	0x3dd0daca	0.10197981
8	0xbc95e943	-0.018299704
9	0x3bfbaa1e	0.0076801917
10	0xbd2be5be	-0.041967146
11	0x3ca1e27c	0.019761316
12	0x3d9a4aa0	0.07533765
13	0x3cccd525	0.025003979
14	0x3c9e782e	0.019344416
15	0xbc49abd9	-0.012309038

backbone.1.running_mean f4 [16]
0	0x40268597	2.6019037
1	0xbf92f438	-1.148078
2	0xbf3349c6	-0.70034444
3	0x3f50d1fe	0.8157042
4	0x3ecfa0d0	0.40552378
5	0x403bcb06	2.9342666
6	0xbfb53c80	-1.4159088
7	0xc0862d97	-4.193065
8	0x3f56e2c6	0.8393978
9	0xc017ce94	-2.3719835
10	0x3f550f8e	0.8322686
11	0xc0059cc6	-2.0876937
12	0xbf0ec404	-0.55767846
13	0x400fda8e	2.2477145
14	0xc01c4e68	-2.4422855
15	0xbf17bae3	-0.5926954

backbone.1.running_var f4 [16]
0	0x3f770af2	0.96501076
1	0x3dd6104b	0.104523264
2	0x3dfc6b02	0.123250976
3	0x3dd0f473	0.10202875
4	0x3d849a1a	0.06474705
5	0x3fa75fc3	1.3076099
6	0x3e3e42a7	0.18580113
7	0x40070f08	2.1102924
8	0x3d770e2a	0.060316242
9	0x3f0d4a3e	0.5519141
10	0x3dd4a9bf	0.10383939
11	0x3f05526d	0.52078897
12	0x3d18c071	0.0372929
13	0x3f1d23e4	0.6138289
14	0x3f62ab36	0.885425
15	0x3d11a17a	0.035554387

backbone.4.weight f4 [32, 16, 3, 3]
0	0xbe1f48ce	-0.15555117
1	0xbdf46747	-0.11933761
2	0xbda570b7	-0.08078139
3	0xbddffd11	-0.109369405
4	0xbc4999e9	-0.012304761
5	0x3d4e65e7	0.05039015
6	0xbc3afd19	-0.011412882
7	0x3d318843	0.04334284
8	0xbccf2fde	-0.02529138
9	0x3c92f35f	0.017938314
10	0x3da07604	0.0783501
11	0x3db6138d	0.08890448
12	0x3b98b118	0.004659783
13	0x3da21b05	0.0791531
14	0x3ded144e	0.115761384
15	0x3d626f8c	0.05528216
16	0x3dee6a31	0.11641348
17	0x3d78dde3	0.060758483
18	0x3dd240cb	0.102662645
19	0x3d90214c	0.07037601
20	0x3d473ac8	0.048640043
21	0xbaffd695	-0.0019518906
22	0x3cf0bcbc	0.02938687
23	0x3c993863	0.018703645
24	0xbc9d9bc3	-0.019239312
25	0xbd3b2f03	-0.04569913
26	0x3d55b0e7	0.05217066
27	0xbdab08d8	-0.08351296
28	0xbd11c860	-0.035591483
29	0xbadb0e4d	-0.0016712636
30	0x3bd1dfa6	0.006404835
31	0x3c7cf81b	0.015440012
32	0x3d415659	0.04720149
33	0xbd2d22ca	-0.042269506
34	0x3d8e8561	0.06959034
35	0xba460f98	-0.0007555424
36	0x3cd90c0c	0.026495002
37	0xbd80d45b	-0.062905036
38	0x3d0793f2	0.033100076
39	0x3ccbafb8	0.024864063
40	0x3b5b735e	0.0033485512
41	0x3c13dff9	0.009025567
42	0xbd44f66f	-0.04808658
43	0xbd5ebcbe	-0.054379217
44	0xbceb5c18	-0.028730437
45	0x3b937379	0.0044998494
46	0x3cb9b52c	0.022669397
47	0x3cdf5438	0.027261838
48	0x3d9394d4	0.07206121
49	0x3dc0e07f	0.09417819
50	0x3c367953	0.011137324
51	0x3d3aad33	0.045575332
52	0xbda92f34	-0.082609564
53	0x3d89c99e	0.067279086
54	0x3d53af77	0.05168101
55	0x3d774155	0.06036504
56	0xbcbd87d9	-0.023136066
57	0x3d95155e	0.07279466
58	0x3c4c5282	0.012470843
59	0x3d974013	0.07385268
60	0xbd223dc8	-0.0396097
61	0xbd09931c	-0.03358756
62	0x3d9b5a03	0.07585528
63	0x3da064c8	0.078317225
64	0x3e23d67a	0.15999785
65	0x3d5bdf19	0.05367956
66	0xbca42679	-0.020037876
67	0x3d00d8b2	0.031456657
68	0x3e36005e	0.17773578
69	0xbad6d527	-0.0016390429
70	0x3e11ee3d	0.14251037
71	0x3e05b97d	0.1305904
72	0xbdbfe91d	-0.09370635
73	0x3d21d593	0.03951032
74	0xbd491c38	-0.049099177
75	0xbc1c3c5a	-0.009535873
76	0xbd6aee68	-0.05735627
77	0x3d0d84cc	0.034550473
78	0xbc21df45	-0.009879892
79	0xbcd73762	-0.026271526
80	0xbd9311bb	-0.07181116
81	0xbb6664a7	-0.0035155208
82	0xbd73ce63	-0.059522998
83	0x3d09b237	0.033617225
84	0x3d6459b5	0.055749614
85	0xbd1dddaa	-0.038541473
86	0x3cf557c6	0.02994908
87	0xbd729029	-0.059219513
88	0xbbd4950e	-0.0064874953
89	0xbd11efef	-0.03562921
90	0xbd37e5d5	-0.04489692
91	0xbdbe2d40	-0.092859745
92	0xbd9e9d67	-0.07744866
93	0x3cd11cad	0.025526369
94	0x3da1a3bc	0.07892558
95	0xbdb4f61d	-0.08836005
96	0x3b6fa55d	0.003656707
97	0xbda8fce8	-0.08251363
98	0xbd51b632	-0.051199146
99	0x3d913331	0.07089842
100	0x3df4250d	0.119211294
101	0xbd10ca77	-0.035349336
102	0x3d3b03a6	0.045657776
103	0xbc8afeac	-0.01696714
104	0x3d98e12a	0.07464822
105	0x3d24f5d4	0.040273502
106	0xbbab2b22	-0.0052236477
107	0x3ccd8ac8	0.02509059
108	0x3bb5e6fa	0.005551216
109	0x3dd14318	0.10217875
110	0x3d8c0075	0.06836025
111	0x3dd0af88	0.1018973
112	0x3cf6803f	0.03009045
113	0x3d0c9203	0.034318935
114	0x3ded8fc7	0.11599689
115	0x3dbcf391	0.09226144
116	0x3d903602	0.07041551
117	0xbe1273cf	-0.1430199
118	0x3d1c9f73	0.038238
119	0x3d9da14a	0.07696779
120	0xbc479c10	-0.012183204
121	0x3d46f7cc	0.04857616
122	0x3cf4643d	0.029832954
123	0xbddce5bc	-0.10786006
124	0xbd657e97	-0.05602893
125	0x3d206185	0.039155502
126	0xbcd8d84d	-0.026470328
127	0x3d374251	0.04474098
128	0x3d2e07dc	0.042487964
129	0x3cbed569	0.023295121
130	0x3d88ff96	0.06689374
131	0x3d6ef293	0.058336806
132	0x3dae2e7f	0.08504962
133	0x3cd0588b	0.025432846
134	0x3dc07c1f	0.09398674
135	0x3cf0ce5b	0.029395273
136	0x3defb31b	0.117040835
137	0x3d826bbe	0.063682064
138	0xbc23955e	-0.009984342
139	0xbc4f1ced	-0.012641174
140	0x3c9c4f2a	0.019080717
141	0x3d1afd61	0.037839297
142	0x3d388586	0.045049213
143	0x3da3a329	0.07990105
144	0xbdcb97b8	-0.099410474
145	0xbdc75246	-0.09732489
146	0xbc8b71ec	-0.017022096
147	0xbdf890a5	-0.12136964
148	0xbdd4890b	-0.10377701
149	0x3b1970f9	0.0023413284
150	0xbbf9e060	-0.0076256245
151	0xbcc23e49	-0.02371134
152	0x3d4cc4f4	0.049992517
153	0x3e5264f2	0.2054632
154	0x3e2390b9	0.15973176
155	0x3d925dfa	0.07146831
156	0x3d96accb	0.073571764
157	0x3b1c685a	0.002386591
158	0x3daf5795	0.08561627
159	0xbd30a57d	-0.043126572
160	0x3d05f0b3	0.03270025
161	0x3c984231	0.01858625
162	0x3e2372b1	0.1596172
163	0x3cbd4c8b	0.023107788
164	0x3e26df78	0.16296184
165	0x3d158c65	0.036510844
166	0x3d845d19	0.064630695
167	0x3d7f1c2b	0.062282722
168	0x3cd329ff	0.025776861
169	0x3c2f74fe	0.010709045
170	0x3dc6e0d4	0.09710851
171	0xbd8300fb	-0.063966714
172	0x3c3910ec	0.011295538
173	0xbb96bd19	-0.004600179
174	0xbdcb1987	-0.09916978
175	0xbdaaf099	-0.083466716
176	0xbd99beab	-0.0750707
177	0x3bbbc8e0	0.0057307333
178	0x3d3a06ac	0.04541652
179	0xbdad9c40	-0.08477068
180	0xbe02be4f	-0.1276791
181	0xbdc240aa	-0.0948499
182	0xbbb8f066	-0.005643892
183	0xbdc74ec2	-0.09731819
184	0x3d07a8f5	0.033120114
185	0xbd20b026	-0.03923049
186	0xbccfceab	-0.025367102
187	0x3d174d71	0.03693909
188	0xbbd9402c	-0.0066299643
189	0x3ceea90f	0.029133348
190	0x3cd6b236	0.026208024
191	0xbdb9b6b3	-0.0906805
192	0xbd5dafc5	-0.054122705
193	0xbdef2d61	-0.11678577
194	0x3cd1f64c	0.025630139
195	0xbc1dde08	-0.009635456
196	0xbd2f6cbb	-0.042828303
197	0x3dba3a71	0.09093178
198	0x3e282617	0.1642078
199	0x3dffdcc1	0.12493277
200	0x3e01eefd	0.12688823
201	0x3df36859	0.11885137
202	0xb9da8b97	-0.00041684203
203	0xbb9d0cdb	-0.0047927923
204	0x3d1622d2	0.0366543
205	0x3dd0cbcd	0.10195122
206	0x3d950705	0.072767295
207	0x3e8267e8	0.254699
208	0x3e3d8ee1	0.18511535
209	0x3d8dc3fd	0.069221474
210	0xbc23acda	-0.0099899415
211	0x3d6086d7	0.054816093
212	0x3de39141	0.11111689
213	0x3ded4186	0.11584763
214	0x3d84ada5	0.064784326
215	0x3e17d366	0.14826736
216	0xbdd79690	-0.105267644
217	0x3cdf552b	0.027262291
218	0xbc84de49	-0.016219275
219	0xbdc5dba5	-0.096610345
220	0x3c93460f	0.017977742
221	0xbdbf667c	-0.09345719
222	0xbc056f8b	-0.00814427
223	0xbc8340f3	-0.016022181
224	0x3d557fb4	0.05212374
225	0x3c146c2e	0.009058995
226	0xbda14f6e	-0.07876478
227	0x3d36fa99	0.044672582
228	0xbbe94091	-0.0071182926
229	0x3cea02a0	0.028565705
230	0xbdae5b60	-0.08513522
231	0xbdb4e225	-0.08832196
232	0xbcfb39be	-0.030667182
233	0xbbd2835a	-0.0064243497
234	0x3bdd3ccc	0.0067516323
235	0xbc78b7c0	-0.015180528
236	0xbd25ebff	-0.040508267
237	0x3c0d0220	0.008606464
238	0xbdd2f77a	-0.10301109
239	0x3d0cca45	0.034372587
240	0xbdd3778d	-0.10325537
241	0x3d8a8f30	0.06765592
242	0xbdac4c13	-0.084129475
243	0x3dde2e41	0.10848666
244	0x3d96b8b3	0.07359447
245	0x3e2b6571	0.16737916
246	0x3d6de4f1	0.058079664
247	0x3cc40603	0.023928648
248	0x3e1a858a	0.15090004
249	0xbb159d27	-0.0022829266
250	0x3d4bc0a4	0.049744263
251	0xbcaa1df4	-0.020766236
252	0x3e0f43c9	0.13990702
253	0x3dc37a43	0.09544804
254	0x3d832573	0.06403627
255	0x3d152e3f	0.036421057

backbone.4.bias f4 [32]
0	0x3d970a57	0.07375019
1	0x3d98c92a	0.07460244
2	0x3da785da	0.08179827
3	0x3ccdb7d8	0.025112078
4	0x3d5d7226	0.05406394
5	0x3d9cc2ee	0.076543674
6	0xbca5ab5f	-0.020223318
7	0xbd5e322b	-0.054247063
8	0x3d9534ab	0.07285436
9	0xbcf5c62c	-0.030001722
10	0x3cab314d	0.020897532
11	0xbd91f2d7	-0.07126396
12	0x3d4c0242	0.04980684
13	0xbd985f28	-0.074400246
14	0x3ce9f31b	0.028558305
15	0xbbeae24e	-0.007168091
16	0xbd87c189	-0.06628711
17	0x3d02a4e6	0.03189554
18	0xbb0db421	-0.0021622258
19	0xbda6d8c6	-0.08146815
20	0xbda3d200	-0.07999039
21	0x3d4c3b94	0.049861506
22	0xbd3e893b	-0.046517592
23	0xbcb982b8	-0.02264534
24	0xbd2fe9c2	-0.04294754
25	0x3ca0d297	0.019631667
26	0xbd4353d1	-0.047687355
27	0x3d853a25	0.06505231
28	0xbd8ae60f	-0.067821614
29	0x3c98d885	0.018657932
30	0x3d827eaa	0.063718155
31	0x3da41fbf	0.080138676

backbone.5.weight f4 [32]
0	0x3f7fc46a	0.9990908
1	0x3f7960cd	0.9741333
2	0x3f7225ce	0.94588935
3	0x3f74232d	0.95366174
4	0x3f792c92	0.97333634
5	0x3f85b5f4	1.0446153
6	0x3f7a4362	0.9775907
7	0x3f77fd7c	0.9687116
8	0x3f76556c	0.96224093
9	0x3f7ca359	0.9868675
10	0x3f7f1f34	0.9965699
11	0x3f731050	0.94946766
12	0x3f7106d4	0.94151044
13	0x3f871d0f	1.0555743
14	0x3f89e444	1.0772786
15	0x3f7a047f	0.9766311
16	0x3f7d70c2	0.9900018
17	0x3f7433a2	0.95391285
18	0x3f8154c5	1.0103995
19	0x3f86e1e5	1.0537688
20	0x3f8595b9	1.0436317
21	0x3f8371ca	1.0269101
22	0x3f7623e8	0.9614854
23	0x3f7498df	0.9554576
24	0x3f85f17e	1.0464323
25	0x3f81ca10	1.013979
26	0x3f87651b	1.057773
27	0x3f88c184	1.0684056
28	0x3f713726	0.94224775
29	0x3f91a1a0	1.1377449
30	0x3f711515	0.94172794
31	0x3f806151	1.0029699

backbone.5.bias f4 [32]
0	0x3d84da28	0.064869225
1	0x3d80d44a	0.06290491
2	0x3c3ccd6d	0.011523587
3	0xbd26cb40	-0.040721178
4	0xbd2ff16b	-0.042954843
5	0x3d9f05c6	0.07764773
6	0xbc39128b	-0.011295925
7	0xbccaea30	-0.024769872
8	0xbceefd33	-0.02917347
9	0xba1e79d6	-0.00060453766
10	0x3a8bd34a	0.0010667827
11	0x3bf06aa6	0.0073369322
12	0xbd0a10ff	-0.033707615
13	0x3c1ad553	0.0094502745
14	0x3d0f8498	0.03503856
15	0xbc88b6c6	-0.016688716
16	0x3df62c60	0.120201826
17	0x3c610c26	0.013735807
18	0x3cc72d16	0.02431349
19	0x3d5056dc	0.050864086
20	0x3dae8134	0.08520737
21	0x3d08c322	0.03338922
22	0xbd2742ef	-0.040835317
23	0xbd5eecea	-0.054425158
24	0x3d4265ee	0.04746049
25	0x3d3ab3cd	0.045581628
26	0x3df07159	0.11740369
27	0x3dcc30f7	0.09970277
28	0x3c54f6b7	0.0129982745
29	0x3debd28e	0.115147695
30	0xbd48c84f	-0.049019154
31	0x3d4b706f	0.049667772

backbone.5.running_mean f4 [32]
0	0x3ff855e2	1.9401209
1	0x401dcd79	2.465666
2	0x3febc4e3	1.841946
3	0xbfc0a2fe	-1.5049741
4	0xbf4db0b6	-0.80347764
5	0x4090be40	4.523224
6	0xbfd697db	-1.6765093
7	0xc02d43da	-2.7072663
8	0xbf920781	-1.140854
9	0xc01ccdbc	-2.450057
10	0xc00ccfbf	-2.2001798
11	0xbfaf2a5a	-1.36848
12	0x4005adff	2.0887449
13	0x40b33712	5.6004725
14	0x402c1ca3	2.6892478
15	0xc0205083	-2.504914
16	0x4025b01f	2.5888746
17	0x40833eda	4.1014223
18	0x3f2fe132	0.68702996
19	0x3fbba161	1.4658624
20	0x4046796b	3.1011608
21	0xc0091fa7	-2.142557
22	0xc00ff3d7	-2.2492578
23	0xc01caee7	-2.4481752
24	0x409b980b	4.86231
25	0x3eee4ade	0.46541494
26	0x400e89ed	2.2271683
27	0x3fcd1ddd	1.6024739
28	0x405d6fbb	3.4599445
29	0xbf42b8c9	-0.7606321
30	0xbfcc618b	-1.5967268
31	0x3f78b50a	0.97151244

backbone.5.running_var f4 [32]
0	0x4104843a	8.282282
1	0x41a76bee	20.9277
2	0x411fc30d	9.98512
3	0x4003e20b	2.0606716
4	0x4000f529	2.0149634
5	0x4203dc3d	32.965076
6	0x3fa98f7b	1.3246912
7	0x4181ed0f	16.240751
8	0x4051e7be	3.2797694
9	0x413f107f	11.941527
10	0x40e7b028	7.2402534
11	0x4010ef8c	2.2646208
12	0x4162ce85	14.17542
13	0x422f8f10	43.88971
14	0x41cc458a	25.533955
15	0x40d6e78e	6.715766
16	0x41b68f2b	22.819906
17	0x4206436b	33.565838
18	0x40468fa9	3.1025183
19	0x41099630	8.599167
20	0x41d55bc3	26.669806
21	0x409145cf	4.5397716
22	0x40c46fe2	6.1386576
23	0x419e324b	19.774557
24	0x4200ff18	32.249115
25	0x3ee840fd	0.45362082
26	0x41885d8f	17.045683
27	0x4080f558	4.029949
28	0x41ec4c22	29.537174
29	0x4008f252	2.13979
30	0x40ba0796	5.813426
31	0x40cf8723	6.485246

backbone.8.weight f4 [64, 32, 3, 3]
0	0x3d31a953	0.04337437
1	0x3c43821b	0.011932875
2	0xbc3fc215	-0.011703988
3	0x3d5c1b2c	0.05373685
4	0xbd9ea4c9	-0.07746274
5	0xbd8f62b2	-0.070012465
6	0xbcfe77b0	-0.03106293
7	0xbca969f3	-0.020680403
8	0xbc09290f	-0.008371606
9	0x3dca300f	0.09872448
10	0x3d1307ee	0.035896234
11	0xbd82e1ab	-0.06390699
12	0xbac8d714	-0.0015322887
13	0xbb54aca7	-0.0032451542
14	0x3cc33bd5	0.023832241
15	0x3b8fe545	0.0043913447
16	0xbc2c9fae	-0.0105361175
17	0xbd0f0a94	-0.034922197
18	0x3b282a02	0.0025659804
19	0x3d189806	0.037254356
20	0xbc007d6f	-0.007842406
21	0x3d1804fb	0.037114125
22	0xbd3f7257	-0.046739902
23	0xbd9bcf49	-0.07607896
24	0x3c45c557	0.012070975
25	0xbc476d00	-0.012171984
26	0xbdc24c7a	-0.09487243
27	0xbda4d618	-0.08048648
28	0xbcb183ff	-0.021669386
29	0xbc9d41bc	-0.019196384
30	0xbd6508c9	-0.05591658
31	0x3d231533	0.03981514
32	0x3c197d1f	0.00936821
33	0x3d40455d	0.04694115
34	0xbc439fa3	-0.011939916
35	0x3da8467c	0.08216569
36	0x3cb94a8e	0.022618558
37	0x3cdd1714	0.026988544
38	0xbc598159	-0.013275468
39	0xbd236156	-0.03988775
40	0xbd67d007	-0.056594875
41	0xbba7357c	-0.0051028114
42	0xbc827c7f	-0.015928505
43	0x3d1a67b5	0.03769656
44	0xbcfe84ca	-0.031069178
45	0x3d9baf43	0.07601788
46	0xbcf61567	-0.030039502
47	0xbd57faec	-0.052729532
48	0x3d21d73e	0.03951191
49	0xbd3c2869	-0.045936976
50	0xbddbe86b	-0.107376896
51	0x3ceb49b1	0.028721662
52	0xbd8d1110	-0.0688802
53	0xbd1d1173	-0.03834672
54	0x3c02c29a	0.007980967
55	0xbd2f34b8	-0.042774886
56	0xbce33ece	-0.027739909
57	0x3d18a672	0.03726811
58	0x3b174503	0.0023081906
59	0xbd4f742c	-0.0506479
60	0x3cee7a19	0.029110955
61	0x3c4a92e9	0.012364128
62	0x3a3c7b9b	0.00071900495
63	0x3beb0af5	0.007172937
64	0xbc81c94b	-0.015843054
65	0x3cf12242	0.02943528
66	0xbb0e4aa4	-0.002171197
67	0xbd36fca7	-0.04467454
68	0x3caa8097	0.02081327
69	0x3cc1a1dc	0.02363675
70	0x3d0a1eec	0.033720896
71	0xbc7a4d0f	-0.015277161
72	0xbc42d579	-0.011891716
73	0x3cd45ced	0.025923217
74	0x3d11eeb9	0.035628054
75	0xbd8a82c2	-0.06763221
76	0x3d0e3d62	0.034726508
77	0x3d2fb1d9	0.042894218
78	0xbc943160	-0.01808995
79	0xbcc0f65e	-0.023554977
80	0xbcf516d7	-0.029918117
81	0xba72da30	-0.000926408
82	0xbc740692	-0.014894145
83	0xbd640178	-0.055665463
84	0x3d24de17	0.040250864
85	0xbccdf341	-0.025140407
86	0x3cf2965f	0.029612718
87	0x3c8b329f	0.016991911
88	0x3d29264e	0.041296296
89	0xbcb76555	-0.022387186
90	0x3c1ac45e	0.009446232
91	0x3d04ba20	0.032404065
92	0x3c7468ff	0.014917611
93	0xbd8fa70b	-0.07014283
94	0x3c19d339	0.009388738
95	0x3c20d849	0.009817191
96	0xbcbf93d5	-0.023385921
97	0x3d138d7f	0.036023613
98	0x3b1b0e03	0.0023659475
99	0x3df8f44d	0.12155972
100	0x3d822793	0.063552044
101	0xbd115220	-0.03547871
102	0x3ceffb80	0.02929473
103	0xbc0c8af1	-0.008578048
104	0xbd0aec11	-0.033916537
105	0x3cfa5ee0	0.030562818
106	0xbae62d24	-0.001756106
107	0xbde295a2	-0.110636964
108	0x3dc251bb	0.09488245
109	0x3c9d29d1	0.019184979
110	0xbd624483	-0.05524112
111	0xbc87b5b2	-0.016566131
112	0xbd0b395a	-0.03399024
113	0x3cd31bca	0.025770087
114	0x3cd14f99	0.02555065
115	0xbbde1b94	-0.00677819
116	0xbd2eba88	-0.04265836
117	0x3b67f93f	0.0035396365
118	0x3ca7920e	0.020455386
119	0xbd41437c	-0.0471835
120	0xbd18a3b6	-0.037265502
121	0xbc431e7b	-0.011909123
122	0xbdba2a92	-0.09090151
123	0xbd8e017f	-0.06933879
124	0xbd91aa52	-0.07112564
125	0xbde8a069	-0.11358721
126	0x3db5e079	0.088807054
127	0x3d6e266f	0.058142122
128	0x3d3ff4b1	0.046864215
129	0x3db66fd7	0.089080505
130	0x3d9a8360	0.07544589
131	0x3c557a4c	0.013029646
132	0x3dd0c4df	0.101938
133	0x3c882c89	0.016622799
134	0xbcc7e19a	-0.024399567
135	0x3aba3b57	0.0014208358
136	0xbd30f83a	-0.043205477
137	0x3d61994d	0.05507784
138	0xbda4a193	-0.0803863
139	0xbc464381	-0.012101055
140	0x3d2c4f04	0.042067543
141	0xbad303cf	-0.0016099158
142	0x3d3ea4f8	0.046544045
143	0x3d6e6daa	0.058210053
144	0x3e245e1a	0.16051522
145	0x3dabe899	0.08393974
146	0x3b0bc366	0.0021326183
147	0x3d186d64	0.037213698
148	0x3d8b66ea	0.06806739
149	0xbca496ea	-0.020091493
150	0x3c30eb7c	0.010798331
151	0xbcccffc6	-0.025024306
152	0xbd9c15b0	-0.07621324
153	0x3dda842e	0.106697425
154	0x3d2ccfe4	0.042190447
155	0x3d2acc7e	0.041698925
156	0x3c08350b	0.008313428
157	0xbd2b2e6d	-0.041792322
158	0xbd8c9b90	-0.06865609
159	0xbaf90f1a	-0.0019001693
160	0xbd4c1134	-0.049821094
161	0xbda006d6	-0.07813804
162	0x3da95bf6	0.08269493
163	0xbd11bc6f	-0.035580095
164	0x3cf3c073	0.029754853
165	0xbbec635d	-0.0072139935
166	0xbd177985	-0.036981124
167	0xbd7c7bfb	-0.061641674
168	0xbd2cb424	-0.042163983
169	0xbd0833c9	-0.03325251
170	0xbd0d6115	-0.034516413
171	0x3d46cd84	0.04853584
172	0x3d150559	0.036382053
173	0xbd01b107	-0.031662967
174	0xbd45db87	-0.04830506
175	0xbd2cf12c	-0.042222187
176	0xbd1bb2fb	-0.038012486
177	0xbd9dc444	-0.0770345
178	0xbc0c940f	-0.008580222
179	0xbde9d4f5	-0.114175715
180	0x3cefddc6	0.029280555
181	0x3cfb909a	0.0307086
182	0xbd8d35b2	-0.06895007
183	0x3d4cab08	0.049967796
184	0xbd3fcfe5	-0.046829123
185	0xbdc38b6e	-0.095480785
186	0xbced0b87	-0.02893616
187	0xbd97206e	-0.07379232
188	0xbd8c0793	-0.06837382
189	0xbc3633a7	-0.011120713
190	0x3bd74faf	0.0065707783
191	0x3cf5ee2b	0.030020794
192	0x3d28e78c	0.041236445
193	0x3d5adf3a	0.05343554
194	0x3d0f7cf0	0.03503126
195	0x3b8d30d3	0.004308799
196	0x3d599a7e	0.05312585
197	0xbd10853b	-0.03528331
198	0xbdaa45b0	-0.08314073
199	0xbc4fdf4e	-0.012687517
200	0x3cb3b4bf	0.021936772
201	0xbd5810f6	-0.05275055
202	0xbd3cab0b	-0.046061557
203	0x3d5ef2bc	0.05443071
204	0x3cfd512b	0.030922493
205	0xbcc1e405	-0.023668298
206	0x3d8ba0a0	0.06817746
207	0xbd26026e	-0.04052966
208	0xbd2318d3	-0.039818596
209	0x3d181846	0.037132524
210	0x3c8b4b80	0.017003775
211	0xbd39d103	-0.045365345
212	0x3c9a6bb9	0.018850194
213	0x3cc98e06	0.024603855
214	0x3995ea32	0.00028593984
215	0xbd0adc24	-0.03390135
216	0x3d933b4c	0.07189044
217	0x3d0e91b6	0.03480693
218	0xbd0813b3	-0.03322191
219	0xbcacd75c	-0.021098785
220	0x3d20eab7	0.03928634
221	0xbd5fc997	-0.05463561
222	0xbcc1dc89	-0.02366473
223	0x3bf96488	0.007610861
224	0xbda73e62	-0.081661955
225	0x3d12f9d9	0.035882805
226	0xbd3313e3	-0.043720137
227	0xbda0f79d	-0.078597285
228	0x3d7d1edb	0.061797004
229	0xbbbc6ab3	-0.005750024
230	0xbcdf4727	-0.027255608
231	0x3cbffeda	0.023436952
232	0xbc544afb	-0.01295733
233	0xbdccf5b5	-0.100078024
234	0x3be19d5c	0.006885214
235	0x3cb27a62	0.021786872
236	0xbda7b231	-0.08188284
237	0xbcfcbef5	-0.030852774
238	0xbd623f09	-0.055235896
239	0xbd551fc9	-0.052032266
240	0x3cc7ceb9	0.024390565
241	0xbd1a7e9e	-0.037718408
242	0xbdc9c2a4	-0.09851578
243	0x3d616cb7	0.05503532
244	0xbc98bdb4	-0.018645145
245	0xbd21d103	-0.03950597
246	0x3d9a432e	0.07532345
247	0xbd2c6294	-0.0420862
248	0xbd591d56	-0.053006493
249	0x3cb71a65	0.022351453
250	0xbce4a919	-0.027912663
251	0xbdc0fa16	-0.094227
252	0x3cee223e	0.029069062
253	0xbbc29b80	-0.005938947
254	0xbb81fa3d	-0.0039665983
255	0xbc0ad586	-0.0084737595

backbone.8.bias f4 [64]
0	0x3c9609d4	0.018315233
1	0x3b1a8a17	0.0023580843
2	0xbcb4fe4f	-0.02209392
3	0xbc870598	-0.01648216
4	0xbd019339	-0.031634543
5	0x3cbdfd6f	0.023192136
6	0xbd1d8ed6	-0.038466297
7	0x3cf0aa30	0.029378027
8	0x3d6e7b67	0.058223154
9	0xbcb49d5e	-0.022047695
10	0xbd67abeb	-0.056560438
11	0xbccc04e5	-0.024904678
12	0x3d179b8a	0.037013568
13	0xbc8bead7	-0.017079754
14	0x3d0fabce	0.035075955
15	0x3ce94a5e	0.028477844
16	0xbd0e35f2	-0.034719415
17	0xbd22bdea	-0.039731897
18	0x3d63cfce	0.0556181
19	0x3d1a121d	0.03761493
20	0xbb8249f3	-0.0039761006
21	0x3b822938	0.003972199
22	0x3d4987f6	0.049201928
23	0xbc93f8eb	-0.01806303
24	0x3c467800	0.012113571
25	0xbb0f3e8d	-0.0021857352
26	0x3c916a0b	0.01775076
27	0x3d0e6963	0.034768473
28	0xbd37b1dd	-0.044847358
29	0xbd518004	-0.051147476
30	0x3d24ee1d	0.040266145
31	0xbd55dcce	-0.05221253
32	0xba4b707c	-0.0007760597
33	0x3ca072ff	0.019586084
34	0x3cfb4071	0.030670376
35	0x3c685eac	0.014182728
36	0x3c919187	0.017769588
37	0xbd152a8b	-0.036417525
38	0xbbfedc76	-0.007777746
39	0x3b901b79	0.0043978062
40	0xbca9401a	-0.020660449
41	0xbd0aa78a	-0.033851184
42	0x3d6d9caf	0.058010753
43	0xbccd81f3	-0.025086379
44	0x3c89c5ba	0.016817916
45	0x3d222f4d	0.03959589
46	0x3bf30e75	0.007417495
47	0xbc1e2b88	-0.009653933
48	0x3d450d63	0.04810847
49	0x3d048355	0.03235181
50	0xbd0f248f	-0.034946974
51	0x3d02b847	0.03191402
52	0xbd70a871	-0.05875439
53	0xbc89996f	-0.016796796
54	0xbd0b5407	-0.03401568
55	0x3cea3ea7	0.028594328
56	0xbd57541f	-0.05257046
57	0xbcc40258	-0.023926899
58	0xbc471236	-0.012150338
59	0x3d5af96a	0.053460516
60	0x3a776521	0.00094373716
61	0xbd232f20	-0.039839864
62	0xbd50eba6	-0.05100598
63	0xbc93a817	-0.018024487

backbone.9.weight f4 [64]
0	0x3ec350c6	0.38147563
1	0x3f0885b4	0.53329015
2	0x3e66615a	0.22498074
3	0x3e8ebfb7	0.27880642
4	0x3e84389d	0.25824443
5	0x3e862798	0.26202083
6	0x3e2d613e	0.16931626
7	0x3e7c0d4e	0.2461445
8	0x3e27c0a0	0.16382074
9	0x3e62851c	0.2212109
10	0x3f2101ef	0.62893575
11	0x3f06699c	0.525049
12	0x3e3781e0	0.17920637
13	0x3e7b1671	0.2452028
14	0x3ec7019a	0.3886841
15	0x3e478d5a	0.19487515
16	0x3e5f9af9	0.21836461
17	0x3ec20817	0.37896797
18	0x3e2bb9a2	0.16770032
19	0x3df98d64	0.12185171
20	0x3e42d994	0.19028312
21	0x3e939f75	0.28832594
22	0x3e427f45	0.18993862
23	0x3e7a1ef9	0.24425878
24	0x3ecd69d7	0.40119812
25	0x3e5d8015	0.2163089
26	0x3ec0ac61	0.37631515
27	0x3e1bd73a	0.15218821
28	0x3e24108b	0.16021936
29	0x3e78f2fe	0.24311444
30	0x3f083b8e	0.53215873
31	0x3e76f1d0	0.24115682
32	0x3e8312a7	0.25600168
33	0x3e16dad2	0.14731911
34	0x3e5e2302	0.21693042
35	0x3e510d20	0.20415163
36	0x3e5bad46	0.21452817
37	0x3e964d60	0.29355907
38	0x3e1ce9ad	0.15323515
39	0x3e0e10af	0.13873552
40	0x3e8248e9	0.2544625
41	0x3e8cc671	0.2749515
42	0x3e59ce2a	0.21270052
43	0x3f2ebd70	0.6825781
44	0x3e9bd668	0.30437016
45	0x3e2c7fbf	0.16845606
46	0x3e6fdb5b	0.23423521
47	0x3e2e2115	0.17004807
48	0x3e4fef62	0.20306161
49	0x3e458d01	0.1929207
50	0x3e3007c9	0.1719047
51	0x3df2409d	0.1182873
52	0x3f0a7310	0.5408182
53	0x3e815f4e	0.25268024
54	0x3e39dadf	0.18149899
55	0x3e28a59f	0.1646943
56	0x3e7ac625	0.24489649
57	0x3e3411c4	0.17584902
58	0x3e242243	0.16028695
59	0x3e46d390	0.19416642
60	0x3e08b795	0.13351281
61	0x3e596297	0.21229015
62	0x3e02ac38	0.12761009
63	0x3e3d2d2b	0.18474261

backbone.9.bias f4 [64]
0	0xbf08402f	-0.53222936
1	0xbef22050	-0.47290277
2	0xbf2a2f40	-0.6647835
3	0xbf1e1f29	-0.61766297
4	0xbf1e6611	-0.6187449
5	0xbf288bd6	-0.6583837
6	0xbf28942d	-0.658511
7	0xbf32dcb9	-0.69868046
8	0xbf3b44b4	-0.7315171
9	0xbf3195ec	-0.6936939
10	0xbef64302	-0.48097998
11	0xbec48585	-0.38383117
12	0xbf390f0f	-0.722886
13	0xbf30f516	-0.6912397
14	0xbf1434d1	-0.5789309
15	0xbf27f83c	-0.6561315
16	0xbf2056d5	-0.62632495
17	0xbf0fbb18	-0.5614486
18	0xbf2c2de7	-0.6725754
19	0xbf2fd717	-0.68687576
20	0xbf24d7cc	-0.6439178
21	0xbf134a4b	-0.5753524
22	0xbf205b07	-0.62638897
23	0xbf26c91b	-0.6515061
24	0xbf02ce9d	-0.51096517
25	0xbf321edd	-0.69578344
26	0xbee74a16	-0.4517371
27	0xbf2a80f5	-0.6660302
28	0xbf2bea2f	-0.6715421
29	0xbf1cf1b8	-0.61306334
30	0xbedfa534	-0.43680727
31	0xbf38418f	-0.71975034
32	0xbf2fa68c	-0.68613505
33	0xbf3f43f1	-0.74713045
34	0xbf2477f6	-0.64245546
35	0xbf2004a8	-0.62507105
36	0xbf1f5241	-0.62234885
37	0xbf17bfb4	-0.5927689
38	0xbf27165a	-0.6526848
39	0xbf299a73	-0.66251296
40	0xbf1e5fb8	-0.61864805
41	0xbf1a21a4	-0.6020758
42	0xbf25618f	-0.6460199
43	0xbeb3d5fb	-0.35124192
44	0xbf2526e7	-0.64512485
45	0xbf338f1b	-0.70140237
46	0xbf241cd6	-0.641065
47	0xbf1fffe1	-0.62499815
48	0xbf1d7a9f	-0.6151523
49	0xbf385d57	-0.72017425
50	0xbf2fce98	-0.6867461
51	0xbf3d2c44	-0.7389567
52	0xbee399d3	-0.44453296
53	0xbf311168	-0.69167185
54	0xbf39459e	-0.7237185
55	0xbf378e22	-0.7170125
56	0xbf133f36	-0.5751833
57	0xbf181b4c	-0.5941665
58	0xbf3526c7	-0.70762295
59	0xbf228f34	-0.6349976
60	0xbf3a5237	-0.727817
61	0xbf26186d	-0.6488102
62	0xbf2a7c61	-0.6659604
63	0xbf2b3caf	-0.6688947

backbone.9.running_mean f4 [64]
0	0xbfbbfd45	-1.4686667
1	0xbf4b70ec	-0.7946918
2	0x4041557a	3.020842
3	0xc0226f2e	-2.5380359
4	0xc0028711	-2.0394938
5	0x408d55e6	4.4167356
6	0xc0c8b12e	-6.2716284
7	0x4040a82f	3.010265
8	0x3fa94c41	1.3226396
9	0x405301cb	3.2969844
10	0x4089b497	4.3032947
11	0xbe28bd73	-0.16478519
12	0x406ccf23	3.7001426
13	0x40c40b51	6.1263814
14	0xbe00fb56	-0.12595877
15	0x40d9b167	6.8029056
16	0xc0a5a6ee	-5.176627
17	0xbfed810a	-1.8555005
18	0xc0b157c7	-5.541965
19	0xc0f60c3f	-7.688995
20	0xc07e7f5a	-3.976523
21	0xc04685d0	-3.1019173
22	0xc03c5f77	-2.9433267
23	0xbfbdefbc	-1.4838786
24	0x3f98c5d0	1.1935368
25	0x3f95d661	1.1706048
26	0x3f331a00	0.6996155
27	0xc11c439a	-9.766504
28	0xc0acc130	-5.3985825
29	0xc0838e49	-4.111119
30	0xbf49f45c	-0.7888849
31	0x4084b964	4.1476307
32	0x409824d0	4.7544937
33	0x403c5922	2.9429402
34	0xbfd092db	-1.6294817
35	0x40259436	2.587171
36	0xbfda8e4e	-1.7074678
37	0xc087f467	-4.2485843
38	0xc0c3c90a	-6.118291
39	0xc103e102	-8.242434
40	0xc0953b4d	-4.663489
41	0xbf483d6b	-0.78218716
42	0xc0b980d4	-5.796976
43	0xc0726cd6	-3.7878928
44	0xc02f33eb	-2.7375438
45	0x40195718	2.3959408
46	0x40903e16	4.507579
47	0xc0957d43	-4.6715407
48	0x40286bf8	2.63159
49	0x406ee0c3	3.7324684
50	0x4038e607	2.8890398
51	0x40bd473b	5.914945
52	0xbf68fe99	-0.91013485
53	0x406f74da	3.741507
54	0x4093222c	4.5979214
55	0x40b49416	5.643077
56	0x3fee31ab	1.8608907
57	0x3fe43bc7	1.7830743
58	0x409cdb99	4.9018064
59	0xc05ac662	-3.4183583
60	0xbf312599	-0.69197994
61	0xc03dca0a	-2.9654565
62	0xc0fd0f93	-7.908151
63	0xbfe48f98	-1.7856321

backbone.9.running_var f4 [64]
0	0x4060f4aa	3.514933
1	0x40cf8d83	6.4860244
2	0x413bfae6	11.7487545
3	0x40e17a8f	7.046211
4	0x4094a1fa	4.6447725
5	0x41a4fc08	20.623062
6	0x41e4c89d	28.597956
7	0x40a797af	5.237266
8	0x4088d318	4.2757683
9	0x40db4f98	6.853466
10	0x4073ad05	3.8074353
11	0x40842270	4.129204
12	0x40d63c59	6.6948667
13	0x41706027	15.023475
14	0x40320d76	2.7820716
15	0x41d4cddc	26.600517
16	0x416cf999	14.810937
17	0x408e857f	4.453796
18	0x417b9b28	15.72538
19	0x41ef866b	29.940634
20	0x412a0e72	10.628527
21	0x40c10d5f	6.032882
22	0x40b3159f	5.5963893
23	0x409163d2	4.543435
24	0x409c5f46	4.88663
25	0x403ac32a	2.9181619
26	0x40d1a32e	6.5511694
27	0x423d5a7f	47.338375
28	0x418815e5	17.01069
29	0x411b1e6a	9.694925
30	0x404a3dce	3.1600223
31	0x40bd335c	5.9125195
32	0x41017068	8.089943
33	0x408436cd	4.1316895
34	0x40905928	4.5108833
35	0x412e4339	10.891412
36	0x40906c04	4.5131855
37	0x416826a6	14.509436
38	0x41c0edaf	24.116056
39	0x41c76e38	24.928818
40	0x41443d3e	12.264952
41	0x409d78c3	4.9209914
42	0x41c36bd8	24.427658
43	0x4108ab69	8.541848
44	0x414c0bcc	12.75288
45	0x409c53ab	4.8852134
46	0x4147c8b8	12.486504
47	0x41c4fe1c	24.624077
48	0x412ef667	10.935157
49	0x40c38fe2	6.111314
50	0x40b388ab	5.610433
51	0x41d932ab	27.14974
52	0x401706ab	2.359782
53	0x40b59f29	5.6756787
54	0x40f6ff0d	7.718634
55	0x41918c41	18.193483
56	0x408f7b26	4.483783
57	0x409ddd54	4.9332676
58	0x4179edad	15.620526
59	0x41752d58	15.32357
60	0x40b78a6c	5.735647
61	0x40ad92ce	5.4241705
62	0x41f9a0ee	31.203579
63	0x40984f73	4.7596984

classifier.1.weight f4 [128, 576]
0	0x3c1c3b01	0.009535552
1	0xbd85a39c	-0.06525347
2	0xbaeaf265	-0.0017925022
3	0xbd8780d6	-0.066163704
4	0x3d23850e	0.039921813
5	0xbc99bf0c	-0.018767856
6	0xbd6c950a	-0.057759322
7	0xbcb9df87	-0.022689594
8	0xbd6f080a	-0.058357276
9	0xbd2d026b	-0.042238634
10	0x3cbf37b2	0.023341987
11	0xbd7cce68	-0.06172028
12	0x3c568e95	0.013095518
13	0xbc97a069	-0.018509107
14	0x3d047a13	0.03234298
15	0xbd05d082	-0.03266955
16	0xbc160046	-0.009155339
17	0xbcb3a729	-0.021930294
18	0xbc38a6bf	-0.011270224
19	0xbcdf6c04	-0.027273186
20	0x3b16a6c1	0.0022987577
21	0xbd742c11	-0.059612337
22	0xbcc4ebb6	-0.024038177
23	0xbcf684c2	-0.0300926
24	0xbd922358	-0.071356475
25	0xb9a4dbeb	-0.0003144437
26	0x3c455fa4	0.012046728
27	0xbdc759f9	-0.09733958
28	0xbc13f77f	-0.009031176
29	0xbd40965a	-0.047018386
30	0xbdb93d69	-0.09044916
31	0x3c92d754	0.017924942
32	0x3cfb25ea	0.030657727
33	0xbdd2f1a9	-0.10299999
34	0x3c112c77	0.008860699
35	0x3d346181	0.0440383
36	0xbd0b437d	-0.03399991
37	0xbd87a5bc	-0.06623408
38	0x3ca792ad	0.020455683
39	0xbd271406	-0.04079058
40	0xbc3e413d	-0.011612234
41	0x3d92785d	0.07151864
42	0xbdf3d64f	-0.119061105
43	0x3d90e327	0.07074576
44	0x3cdb0e90	0.026740342
45	0xbd267ef0	-0.0406484
46	0xbd45bae9	-0.048273955
47	0x3ce39f70	0.027785987
48	0xbce59d6b	-0.028029164
49	0x3bffc169	0.0078050387
50	0x3de974b6	0.11399214
51	0xbcb1267a	-0.021624792
52	0xbcee2072	-0.029068206
53	0x3cc20923	0.023685997
54	0xbd1348e4	-0.035958186
55	0xbd0c4693	-0.034246992
56	0xbd2a7a34	-0.04162045
57	0xbc8d66fc	-0.01726102
58	0x3db3fd6a	0.08788569
59	0x3c540bd1	0.01294227
60	0xbd91066b	-0.07081302
61	0x3d958eb5	0.0730261
62	0x3cbf8002	0.023376469
63	0x3b397340	0.0028297454
64	0x3c36a8da	0.011148656
65	0xbcc13c2a	-0.023588259
66	0x3d03c8dd	0.03217398
67	0x3c25fe70	0.010131463
68	0xbc4769fd	-0.012171266
69	0x3d61a587	0.0550895
70	0x3c26950a	0.01016737
71	0xbc499197	-0.012302778
72	0x3ca035c1	0.019556882
73	0x3ccb4cd6	0.024816912
74	0x3ce30eb9	0.027716981
75	0x3cc90c9c	0.024542145
76	0xbbefb726	-0.007315534
77	0x3c404c9b	0.011737014
78	0x3d649826	0.055809163
79	0xba53e22b	-0.0008082713
80	0x3cdbe824	0.026844092
81	0x3cad7055	0.021171728
82	0xbd8090b3	-0.06277599
83	0x3c6df833	0.014524507
84	0x3c616e86	0.013759261
85	0x3cd6e127	0.026230408
86	0x3cb67d02	0.022276405
87	0x3c31ddac	0.010856073
88	0x3cfa4473	0.030550217
89	0xbc322c40	-0.010874808
90	0xbae09863	-0.0017135259
91	0xbbb4c273	-0.005516344
92	0xbcfb68f6	-0.030689698
93	0x3d0570c2	0.032578237
94	0x3cd8f7e7	0.026485397
95	0x3b4b293a	0.0030999915
96	0x3af9c14f	0.0019054803
97	0x3c74881e	0.014925031
98	0xbce22cbe	-0.027609225
99	0xbc43e5e1	-0.011956663
100	0x3d393ae3	0.045222174
101	0x3b860b51	0.0040907045
102	0x3c8f43c2	0.017488364
103	0x3c3467de	0.011011092
104	0xbc87ce91	-0.01657799
105	0xbd74b651	-0.059744183
106	0xbc3c42a3	-0.011490497
107	0xbd988738	-0.07447666
108	0x3d0acc84	0.033886448
109	0xbc95e851	-0.018299254
110	0x3d2c6b7b	0.04209469
111	0xbcd10e37	-0.025519473
112	0x3d25e0c6	0.040497564
113	0xbcf6f249	-0.030144827
114	0x3d03ce59	0.03217921
115	0x3d180114	0.037110403
116	0xbc339a87	-0.010962135
117	0xba4ccd8c	-0.00078126113
118	0xbcaa6839	-0.02080165
119	0xbcb37993	-0.021908557
120	0x3ab8f8ff	0.0014112293
121	0x3a70c2ac	0.0009184282
122	0x3d015864	0.031578436
123	0x3d5570ba	0.052109458
124	0x3d12f6f8	0.03588006
125	0xbcab7a8e	-0.020932462
126	0xbcb4ebaf	-0.022085039
127	0xbcd77ea7	-0.02630551
128	0xbd1308ed	-0.035897184
129	0xbd597353	-0.053088497
130	0x3cc9b2be	0.024621364
131	0xbc2e86ae	-0.010652227
132	0xbd907bb3	-0.07054844
133	0xbc29328e	-0.010326995
134	0x3c824064	0.015899844
135	0x3d10b572	0.03532929
136	0xbc086101	-0.008323909
137	0x3cc0f205	0.023552904
138	0xbc906d83	-0.017630344
139	0x3d20e744	0.039283052
140	0xbc71ef4e	-0.014766527
141	0x3d9c1a00	0.076221466
142	0x3d8de1a0	0.069278
143	0x3c6f3936	0.0146010425
144	0xbd061e4f	-0.03274375
145	0xbccc9f14	-0.024978198
146	0xbbc01c1c	-0.005862726
147	0xbc13fe06	-0.009032732
148	0xbc90980e	-0.01765063
149	0x3c56d2bc	0.013111766
150	0xbda3400b	-0.079711996
151	0x3bcd7427	0.00626995
152	0xba51cc61	-0.0008003172
153	0x3c2a6a3c	0.010401305
154	0x3b6abb64	0.003581726
155	0x3c64ecb7	0.013972453
156	0xbb2734cd	-0.002551365
157	0x3d2c7322	0.042101987
158	0xbc239cf5	-0.009986152
159	0xbdcb7979	-0.099352784
160	0x3ca5532e	0.020181265
161	0x3c05d3f5	0.00816821
162	0xbd428eab	-0.04749934
163	0xbd2754ae	-0.04085224
164	0x3cace654	0.021105923
165	0xbd50b615	-0.050954897
166	0x3ca3ee44	0.020011075
167	0x3d2cb941	0.04216886
168	0xbdecb981	-0.115588196
169	0x3ce1f823	0.027584141
170	0x3d31a5cf	0.043371018
171	0xbd45c13e	-0.048279993
172	0xbd22abbb	-0.039714556
173	0x3d234fdc	0.03987108
174	0xbd89adb6	-0.06722586
175	0x3cff14c1	0.031137826
176	0x3cfc7101	0.030815603
177	0xbd81673d	-0.06318519
178	0x3d434660	0.047674537
179	0x3db17c1a	0.086662486
180	0x3c52471b	0.012834336
181	0xbcfc9f59	-0.030837702
182	0xbcaa160c	-0.020762466
183	0xbd0fd721	-0.035117272
184	0xbbc7ac72	-0.006093555
185	0xbc3753b8	-0.011189394
186	0x39f73965	0.00047154273
187	0x3cf119c3	0.02943123
188	0x3c6b6307	0.014366872
189	0x3bb26e4a	0.0054452764
190	0xbd7a5e09	-0.061124835
191	0xbc9b9fb2	-0.018997047
192	0xbd8b6fca	-0.068084314
193	0x3c39db38	0.01134377
194	0x3c916fe1	0.017753543
195	0xbd919490	-0.07108414
196	0xbd1913a3	-0.037372243
197	0x3c54d110	0.0129892975
198	0x379ea04b	1.890971e-05
199	0xbd6e61fa	-0.058198906
200	0x3ce18707	0.027530206
201	0xbc093d51	-0.008376435
202	0x3c5b67d5	0.013391455
203	0xbd2feedf	-0.042952415
204	0xbc21fd17	-0.0098870015
205	0xbcb106f3	-0.021609759
206	0xbbb0d07b	-0.0053959466
207	0xba7a2d23	-0.0009543469
208	0xbd9372ab	-0.071996056
209	0xbb7daf20	-0.003870912
210	0xbdc5c5e2	-0.09656884
211	0x3ccc2ec9	0.024924653
212	0x3b288faa	0.0025720396
213	0xbd8f9ebb	-0.07012697
214	0x3c719b70	0.014746532
215	0xbd24b113	-0.040207934
216	0xbca6deb1	-0.02036986
217	0x3d0b0c2d	0.03394716
218	0xbce12629	-0.027484016
219	0x3cc1270d	0.023578191
220	0x3c9e7493	0.019342696
221	0x3d538409	0.05163959
222	0xba1ae572	-0.0005908824
223	0x3cc06087	0.023483528
224	0x3d0a1b57	0.03371748
225	0x3ccbb232	0.024865244
226	0xbbad22be	-0.0052836826
227	0x3c4b16ff	0.012395619
228	0x3ce006e3	0.027347034
229	0x3c15fe04	0.0091548
230	0x3d55740d	0.052112628
231	0xbc962d66	-0.018332195
232	0x3cd42332	0.025895689
233	0x3c5e0f81	0.013553501
234	0xbd104cf2	-0.03522963
235	0x3c29bc0d	0.010359776
236	0x3d4cecad	0.0500304
237	0x3d324f45	0.04353263
238	0xbbebbe69	-0.0071943295
239	0x3d8bbf92	0.068236485
240	0x3cd37b11	0.025815519
241	0x3d29325f	0.041307803
242	0x3db81ab0	0.08989465
243	0xbc62da07	-0.013845927
244	0xbd1cc24b	-0.03827123
245	0xbbc42c82	-0.005986751
246	0xbce6f8e5	-0.028194854
247	0x3d1e894b	0.03870515
248	0x3cb1b322	0.021691862
249	0xbcc5d500	-0.024149418
250	0x3d156ec1	0.036482576
251	0x3cc5e32f	0.024156181
252	0xbcdc18a6	-0.026867222
253	0xbd84166d	-0.0644959
254	0xbd1007b8	-0.03516361
255	0x3cb9f09b	0.022697737

classifier.1.bias f4 [128]
0	0xbba8d331	-0.005152129
1	0x3cd1c1a1	0.025605025
2	0xbcba5376	-0.022744875
3	0xbc4aed4c	-0.012385678
4	0x3d7b2121	0.06131089
5	0x3b7b8b96	0.003838276
6	0xbd51485b	-0.051094394
7	0x3cd9c466	0.026582908
8	0xbd396203	-0.045259487
9	0xbca49b7b	-0.02009367
10	0x3ce8c72a	0.028415281
11	0xbdb893e6	-0.090125844
12	0x3c1273f2	0.008938776
13	0x3ab882ca	0.0014077064
14	0x3d34a662	0.044103988
15	0x3d977828	0.07395965
16	0xbd4a2b0f	-0.04935747
17	0xbb1c000c	-0.002380374
18	0x3bafc3d7	0.005363922
19	0xbd067450	-0.032825768
20	0xbc986e28	-0.018607214
21	0x3d9cc2f4	0.07654372
22	0x3c890e75	0.016730526
23	0x3df3afdb	0.11898776
24	0x3c1215b5	0.008916308
25	0x3d1c9f55	0.03823789
26	0x37d489fd	2.5336625e-05
27	0x3ce66433	0.02812395
28	0x3d08ec90	0.03342873
29	0x3c1ea9e9	0.009684064
30	0x3d075c2a	0.03304688
31	0x3a315bf9	0.0006765719
32	0x3c2917e9	0.010320642
33	0x3e7344c3	0.237567
34	0x3cde6246	0.02714647
35	0xbc6c7d2d	-0.014434141
36	0x3db8215b	0.08990737
37	0x3d8ae710	0.06782353
38	0x3cc01ae0	0.023450315
39	0x3d39d2b8	0.045366973
40	0xbce6ad4c	-0.028158806
41	0x3d134008	0.035949737
42	0x3d863450	0.065529466
43	0x3d01652a	0.03159062
44	0xbcc97793	-0.02459315
45	0xbca99800	-0.020702362
46	0x3a7c5852	0.0009626198
47	0xbc905502	-0.01761866
48	0xbbfee870	-0.0077791736
49	0xbbb3778a	-0.0054768967
50	0x3d09e3ea	0.03366462
51	0xbc5b8e20	-0.013400584
52	0x3c28218e	0.010261906
53	0x3c8d3780	0.017238379
54	0xbdb95e00	-0.09051132
55	0xbcce527c	-0.025185816
56	0xbc6e52f2	-0.014546143
57	0xbc035921	-0.008016855
58	0xbc075275	-0.008259405
59	0x3c9d5e3e	0.019209977
60	0xbd49e8be	-0.049294226
61	0xbd323669	-0.04350892
62	0xbdef99f8	-0.11699289
63	0xbcf73eca	-0.030181307
64	0x3be3ffba	0.006957975
65	0x3e035890	0.12826753
66	0xbd102abb	-0.035197
67	0x3c2aadfc	0.010417458
68	0x3c98b9d5	0.0186433
69	0xbc6f2fdd	-0.014598814
70	0x3cde151c	0.027109675
71	0x3d953409	0.072853155
72	0xbb107174	-0.002204028
73	0x3d3f2c69	0.046673212
74	0xbcc9197d	-0.024548287
75	0xbd1adfa3	-0.037810933
76	0x3c6acea3	0.014331493
77	0xbbbb1557	-0.005709331
78	0xbda9744d	-0.08274136
79	0x3d8d7d0c	0.069086164
80	0xbd20ce22	-0.039259084
81	0xbd8f7a65	-0.07005767
82	0xbd2f395c	-0.04277931
83	0x3c1cc96b	0.009569506
84	0x3d193799	0.037406538
85	0xbc6fcb89	-0.014635929
86	0xbb5dd759	-0.003385028
87	0xbd0d1440	-0.03444314
88	0xbccd22b6	-0.025040966
89	0x3ac6f5e9	0.0015179488
90	0xbca7de62	-0.020491783
91	0x3cda2d5d	0.026632959
92	0x3d259d5b	0.04043327
93	0x3d3c5299	0.04597721
94	0xbc487cb9	-0.012236767
95	0xbcadfdb3	-0.021239137
96	0x3c2b7b19	0.0104663605
97	0x3cf66a3e	0.030079957
98	0x3cfc96b7	0.030833585
99	0xbcad53e1	-0.02115816
100	0xbc8b9a39	-0.017041313
101	0x3cf6b5e4	0.03011603
102	0xbd08efd3	-0.03343184
103	0x3b95332a	0.0045532184
104	0x3ae7788e	0.001765983
105	0xbd9ba350	-0.07599509
106	0xbd2cffea	-0.042236246
107	0xbcf248fa	-0.029575814
108	0x3d4565be	0.048192732
109	0xbcd7f7b4	-0.026363231
110	0x3ca6d187	0.020363582
111	0x3c15490c	0.009111654
112	0x3d6788e4	0.056527033
113	0x3cf8aec9	0.030356782
114	0xbc936685	-0.017993221
115	0x3bf64374	0.0075153653
116	0xbd670c64	-0.0564083
117	0x3e0b70f3	0.13617305
118	0x3affb144	0.0019507785
119	0x3b9b75cc	0.004744267
120	0x3da3ac05	0.079917945
121	0xbc6e1eca	-0.014533708
122	0xbc3c6443	-0.011498514
123	0x3d96c7c7	0.07362323
124	0xbc24c8dc	-0.010057654
125	0xbcc284ff	-0.023745058
126	0x3d324f01	0.043532375
127	0xbc9aee10	-0.018912345

classifier.3.weight f4 [5, 128]
0	0xbe023296	-0.1271461
1	0xbc4af128	-0.012386598
2	0xbd7216ec	-0.05910389
3	0xbd2754a6	-0.04085221
4	0xbd82d5a9	-0.06388409
5	0xbd93aa6c	-0.0721024
6	0xbd5ac5f4	-0.05341144
7	0xbc7e4355	-0.015518983
8	0x3c7215f8	0.014775746
9	0x3de0dd50	0.10979712
10	0x3d07452b	0.033024948
11	0xbde74df1	-0.11294163
12	0x3cf7aed5	0.030234734
13	0x3d960e95	0.07327
14	0xbde8f087	-0.11374002
15	0x3d11f272	0.035631604
16	0x3d78d40d	0.060749102
17	0x3c917b35	0.017758945
18	0xbdf04be7	-0.11733227
19	0xbd5768bd	-0.05259012
20	0x3cc0b1a6	0.02352221
21	0x3da82d3f	0.08211755
22	0xba782f8b	-0.00094675337
23	0x3dbe2eee	0.09286295
24	0x3c673dc1	0.014113844
25	0xbd046538	-0.032323092
26	0xbbbebc2f	-0.005820773
27	0x3d1af7e7	0.037834074
28	0xbc85deb6	-0.016341548
29	0x3db23a15	0.087024845
30	0x3b9109e2	0.004426227
31	0x3c6b2c7e	0.0143538695
32	0xbc96f2af	-0.018426267
33	0xbcabf890	-0.020992547
34	0x3cec57be	0.028850432
35	0xbd49cf45	-0.049269933
36	0xbd510ece	-0.05103951
37	0xbd73a7d7	-0.059486236
38	0xbd07e4a7	-0.033177044
39	0x3e38d5b5	0.18050273
40	0xbb87ea3d	-0.0041477964
41	0xbb5bba6d	-0.0033527866
42	0xbdc30988	-0.09523302
43	0x3d7ae8d4	0.0612572
44	0xbe090a7c	-0.13382906
45	0x3c5af725	0.013364588
46	0x3ce736dc	0.028224401
47	0xbce2edb1	-0.02770123
48	0xbd5b1283	-0.05348445
49	0x3ca245b8	0.019808635
50	0x3db7b328	0.08969718
51	0xbd01672b	-0.03159253
52	0x3e476ffe	0.19476315
53	0xbd92eb20	-0.07173753
54	0x3e834011	0.25634816
55	0x3d29e3f6	0.041477166
56	0x3d57cba4	0.05268444
57	0x3e267d50	0.1625874
58	0xbdb5be5d	-0.088741995
59	0xbe4f1b4a	-0.20225254
60	0x3d2d142a	0.042255558
61	0xbb4086af	-0.0029377153
62	0x3dafe4bd	0.0858855
63	0xbca4290d	-0.020039106
64	0xbdcd0e77	-0.100125246
65	0xbe0c8936	-0.13724217
66	0x3dc8d6c3	0.098065875
67	0xbd82d0f4	-0.06387511
68	0xbe8cda7d	-0.27510443
69	0x3dae625d	0.08514855
70	0xbd53c8fb	-0.05170534
71	0xbdbd7ea2	-0.09252669
72	0xbdcbcc5a	-0.09951086
73	0xbd42d74d	-0.047568608
74	0x3e4412cd	0.19147797
75	0x3dbebc3a	0.09313245
76	0xbe1d0fef	-0.1533811
77	0xbbf2e699	-0.0074127433
78	0x3e3679a8	0.17819846
79	0x3dac6c91	0.08419145
80	0xbd17a673	-0.037023973
81	0xbd861175	-0.065462984
82	0xbd47224a	-0.048616685
83	0x3e193c2c	0.1496436
84	0xbe3ab431	-0.182328
85	0xbd52dba5	-0.051479
86	0x3da56765	0.080763616
87	0xbcb1a5f2	-0.021685574
88	0xbcc70821	-0.024295868
89	0xbd95eb32	-0.073202506
90	0x3c7bc642	0.015367093
91	0xbd667668	-0.056265265
92	0x3d430597	0.047612753
93	0xba5aa9e9	-0.00083413586
94	0xbe320ca2	-0.17387632
95	0xbdde521e	-0.10855506
96	0xbc35ed8b	-0.011103998
97	0x3d89a3d8	0.06720704
98	0xbd875577	-0.06608098
99	0x3b4776e9	0.0030435866
100	0x3d4722f7	0.04861733
101	0xbe153dde	-0.14574382
102	0x3b99ca90	0.004693337
103	0xbc1ad977	-0.009451262
104	0xbd68f82c	-0.0568773
105	0x3e803c98	0.2504623
106	0x3d20cd4b	0.039258283
107	0x3de0db13	0.10979285
108	0x3d182b25	0.03715052
109	0xbe05aa98	-0.13053358
110	0x3cb5f8f1	0.022213431
111	0xbc8d47b1	-0.0172461
112	0x3dab11d9	0.083530135
113	0x3d9c7f2c	0.076414436
114	0xbc91514c	-0.01773896
115	0xbd14b8bf	-0.036309
116	0x3db83111	0.08993734
117	0xbe9db6a9	-0.3080342
118	0x3d61d64d	0.055136014
119	0x3adceccc	0.0016855239
120	0xbdcc127b	-0.09964462
121	0x3cc5ed6e	0.024161067
122	0x3da624eb	0.0811251
123	0xbd421cd0	-0.04739076
124	0x3b247bf8	0.0025098305
125	0xbc3301cd	-0.010925722
126	0xbe030591	-0.12795092
127	0x3da57db6	0.08080618
128	0xbdf439dd	-0.11925099
129	0x3dd1440b	0.10218056
130	0xbd596776	-0.053077184
131	0xbd35fac4	-0.0444286
132	0xbd09299b	-0.033486944
133	0xbcc90cec	-0.024542294
134	0xbdaafa6d	-0.08348546
135	0x3d5bb4cf	0.05363923
136	0xbd59489b	-0.053047758
137	0xbbe50aa9	-0.006989796
138	0x3d1ea1ee	0.038728647
139	0x3cc70033	0.024292087
140	0x3cbc493a	0.022984136
141	0x3d2fb12b	0.04289357
142	0x3d934ec7	0.0719276
143	0x3e41dfb5	0.18932994
144	0x3cef9b92	0.029248986
145	0xbc4d795c	-0.012541141
146	0x3cac76e5	0.021052787
147	0x3c6aa8a6	0.0143224355
148	0xbdf4d87c	-0.119553536
149	0xbc796118	-0.015220903
150	0xbd3f6539	-0.046727393
151	0x3e464767	0.19363175
152	0x3cc24cf6	0.023718338
153	0xbd8420fd	-0.064516045
154	0x3def70be	0.11691426
155	0x3dfbfeda	0.123044685
156	0x3d8e3d9e	0.06945346
157	0xbcc21e9a	-0.023696233
158	0xbcdcedee	-0.026968922
159	0xbcbff620	-0.023432791
160	0xbddea3b6	-0.10871069
161	0x3e9daaa1	0.30794242
162	0x3c66575a	0.014058912
163	0xbbdb9506	-0.0067011146
164	0x3e1abcb8	0.15111053
165	0x3d150ec0	0.03639102
166	0xba53f93f	-0.0008086152
167	0xbe28b293	-0.1647437
168	0x3c130657	0.0089736795
169	0x3cef07b2	0.029178474
170	0x3d215c82	0.039394863
171	0x3e8e31c8	0.27772355
172	0xbde72f51	-0.11288322
173	0xbc2277f9	-0.009916299
174	0xbccaf33e	-0.02477419
175	0x3d935974	0.07194796
176	0x3c85349b	0.016260436
177	0x3d9516c8	0.07279736
178	0xbdb1ff31	-0.08691252
179	0xbc0ec8e7	-0.008714891
180	0xbde76364	-0.11298254
181	0x3cca6410	0.024705917
182	0xbe19b06a	-0.15008703
183	0x3de8648b	0.11347302
184	0xbd5f5842	-0.05452753
185	0x3d11d5fd	0.035604466
186	0x3ce1ace4	0.027548261
187	0x3e03e60a	0.12880722
188	0x3c407269	0.0117460275
189	0xbda9cada	-0.08290644
190	0xbe10b77e	-0.14132497
191	0x3d021f7d	0.03176831
192	0x3c9b12bf	0.018929837
193	0x3e06b31d	0.13154264
194	0xbce7a1d0	-0.0282754
195	0x398fc0a7	0.00027418623
196	0x3dbe708b	0.092988096
197	0x3dd5ebce	0.10445367
198	0x3d831610	0.064006925
199	0x3bf7020c	0.007538086
200	0xbd1f3a80	-0.03887415
201	0x3d691a55	0.056909878
202	0xbd304c0f	-0.043041285
203	0x3c4f1574	0.012639392
204	0x3e21c59c	0.15798038
205	0x3c2c0d62	0.010501238
206	0xbddc0899	-0.107438274
207	0x3db8531c	0.09000227
208	0x3db8a3f4	0.090156466
209	0x3c6809ba	0.014162475
210	0x3e22087a	0.15823546
211	0x3e08e1e5	0.13367422
212	0xbd07f7a1	-0.03319514
213	0x3d2b0ef3	0.041762304
214	0xbe5b3c24	-0.2140966
215	0xbd9199bc	-0.07109401
216	0xbd2a5051	-0.041580502
217	0xbca8d279	-0.020608174
218	0xbde6f4e8	-0.11277181
219	0xbd3be21f	-0.045869943
220	0x3db5790e	0.0886098
221	0x3dc52e7a	0.09628005
222	0x3c6e07b2	0.014528202
223	0x3e28b35d	0.16474672
224	0x3cab5d84	0.020918615
225	0x3cab88ea	0.02093931
226	0x3d15d50d	0.036580134
227	0xbdbea677	-0.093090944
228	0x3df81f0e	0.12115298
229	0xbd32c3d7	-0.0436438
230	0xbd51735c	-0.051135406
231	0xbce866f2	-0.0283694
232	0xbcd47a58	-0.025937244
233	0xbe3dbf63	-0.1853004
234	0x3d3ede3e	0.046598665
235	0x3cba9c6d	0.022779668
236	0x3e183ded	0.14867373
237	0xbd5178f2	-0.051140733
238	0x3cf9aec8	0.03047885
239	0xbd5dd3e0	-0.054157138
240	0x3e033a22	0.12815145
241	0x3dbdf3c5	0.09275011
242	0xbc111c2f	-0.008856817
243	0x3ca05eaa	0.01957639
244	0xbd31de27	-0.04342475
245	0x3d23db63	0.040004145
246	0xbdb260a6	-0.087098405
247	0xbd03a93b	-0.032143813
248	0x3b717f36	0.0036849505
249	0x3d25d9da	0.040490963
250	0x3d91ddd8	0.071223915
251	0x3db73584	0.08945754
252	0x3c0a8d75	0.008456578
253	0x3de6683a	0.112503484
254	0x3c0fd3ad	0.008778495
255	0x3d184f9f	0.037185308

classifier.3.bias f4 [5]
0	0xbe7435c9	-0.23848642
1	0x3ea0f088	0.3143351
2	0xbd23ce29	-0.03999153
3	0xbdfadf30	-0.12249601
4	0x3d4edc73	0.050503206
