models/epoch=0-step=25-v1.ckpt (torch, 800661 bytes, 38 tensors)

backbone.0.weight f4 [16, 1, 3, 3]
0.29753283 0.012329645 -0.3115906 -0.14368302 0.23663966 0.08237098 0.0048843627 0.08757647
0.2673812 0.22881141 -0.30273837 -0.28478432 -0.027143052 0.2851273 0.15909256 0.23474313
-0.2739874 0.29137725 0.2120814 -0.2775526 -0.11847807 -0.10726992 -0.1382588 0.0012003686
0.082186915 0.1773788 0.07819795 0.011236531 0.06253041 -0.11313701 0.20502706 0.20283982
0.25334284 0.09821674 -0.18729797 0.12163807 0.2630988 -0.15917847 -0.25772518 -0.18419866
0.3135441 0.17477134 -0.029991597 -0.050128847 0.3213127 -0.304008 0.33215764 0.23029067
0.060891245 -0.16643104 -0.026126837 -0.17622027 -0.0076983613 0.17721385 0.09120456 -0.29291034
0.06685537 0.11771597 0.012802603 -0.13897407 -0.23197955 -0.28842768 -0.22902353 0.25350907
-0.085543334 0.11836546 -0.26992685 -0.1703466 0.29552037 -0.048637535 -0.26602614 -0.22378738
0.068631016 -0.2995482 -0.27123553 -0.30126846 0.22311877 0.29580137 -0.24041715 -0.08166928
0.06518198 0.24121444 0.29243666 -0.15396616 -0.22680216 -0.329845 0.08930823 -0.14954704
-0.15095982 -0.3329678 -0.22963388 -0.104249194 0.30293074 0.18931036 0.15619454 0.25873074
0.12010783 0.23905066 -0.21615389 -0.2751863 -0.096690156 0.19493394 0.09349866 0.16192241
-0.3132045 -0.06476165 0.30075288 0.17387076 -0.06338463 -0.21681443 0.08903149 0.14890255
-0.25657052 -0.36410433 0.06954912 0.011413157 0.008840586 0.31346583 -0.15451951 0.3235683
0.15155038 0.20361029 0.1406515 -0.25122908 0.14326946 0.31144843 0.27162296 -0.039877646
-0.22749674 0.015188848 -0.18102077 0.30046192 -0.122854955 -0.29062894 -0.06377259 -0.14901122
0.30184606 -0.03214905 -0.20241879 0.1275453 0.10682998 0.21432123 -0.07096171 -0.079928875
00000000: 3956 983e 4802 4a3c ce88 9fbe a421 13be
00000010: ab51 723e 1eb2 a83d 010d a03b 4b5b b33d
00000020: 30e6 883e 8a4d 6a3e 8600 9bbe 40cf 91be
00000030: 1b5b debc 35fc 913e 29e9 223e 8160 703e
00000040: 1448 8cbe 662f 953e de2b 593e 601b 8ebe
00000050: a1a4 f2bd 55b0 dbbd b793 0dbe b055 9d3a
00000060: 9d51 a83d caa2 353e 3f26 a03d 6d19 383c
00000070: f20f 803d 60b4 e7bd 9df2 513e 3eb5 4f3e
00000080: 27b6 813e dc25 c93d 0acb 3fbe 611d f93d
00000090: e3b4 863e aeff 22be 8ef4 83be 939e 3cbe
000000a0: da88 a03e 42f7 323e f0b0 f5bc e853 4dbd
000000b0: 1983 a43e f0a6 9bbe 9110 aa3e 51d1 6b3e
000000c0: 1969 793d e66c 2abe f307 d6bc 1673 34be
000000d0: 8942 fcbb 8c77 353e 75c9 ba3d 58f8 95be
000000e0: 78eb 883d 1215 f13d 02c2 513c 384f 0ebe
000000f0: 0c8c 6dbe cbac 93be 2585 6abe f1cb 813e
00000100: 5831 afbd 9769 f23d da33 8abe 576f 2ebe
00000110: 724e 973e 2738 47bd 9434 88be 8528 65be
00000120: 6b8e 8c3d 625e 99be 62df 8abe dc3f 9abe
00000130: 3f79 643e 4773 973e ea2f 76be 3942 a7bd
00000140: 217e 853d eb00 773e 42ba 953e 4ea9 1dbe
00000150: d33e 68be 72e1 a8be 3ce7 b63d dc22 19be
00000160: 3695 1abe c17a aabe 2525 6bbe 9a80 d5bd
00000170: bd19 9b3e 93da 413e 76f1 1f3e 5b78 843e
00000180: 18fb f53d b2c9 743e 7257 5dbe 38e5 8cbe
00000190: 7d05 c6bd c39c 473e 3a7c bf3d fdce 253e
000001a0: 575c a0be c2a1 84bd 48fc 993e 2d0b 323e
000001b0: cdcf 81bd 9a04 5ebe 2456 b63d e979 183e
000001c0: 365d 83be e26b babe c56f 8e3d 40fe 3a3c
000001d0: 1bd8 103c 987e a03e 5d3a 1ebe bfaa a53e
000001e0: 0630 1b3e 377f 503e f206 103e 19a1 80be
000001f0: 3bb5 123e 2b76 9f3e 2a12 8b3e be56 23bd
00000200: e8f4 68be a5da 783c 825d 39be 25d6 993e
00000210: 619b fbbd 51cd 94be 349b 82bd 6696 18be
00000220: 918b 9a3e b9ae 03bd df46 4fbe 3c9b 023e
00000230: adc9 da3d 0677 5b3e 5f54 91bd c0b1 a3bd

backbone.0.bias f4 [16]
-0.10615705 -0.25675848 -0.088100746 -0.18302006 -0.23602223 -0.017017256 0.022558892 0.25667822
-0.25128654 -0.07930842 -0.2193537 0.26947817 0.07526764 0.044373658 -0.18612744 -0.2048
00000000: de68 d9bd d975 83be 2a6e b4bd 9c69 3bbe
00000010: d0af 71be c667 8bbc 6dcd b83c 546b 833e
00000020: a1a8 80be 746c a2bd 429e 60be 0bf9 893e
00000030: ec25 9a3d 27c1 353d 3198 3ebe 17b7 51be

backbone.1.weight f4 [16]
0.9970242 0.99911344 1.0005536 0.9982939 1.0008547 0.9996005 0.99948263 1.0021051
0.99812424 0.99418294 1.0010078 1.0057491 1.0020523 1.0025527 0.9976736 1.0016468
00000000: fa3c 7f3f e6c5 7f3f 2412 803f 3090 7f3f
00000010: 021c 803f d2e5 7f3f 18de 7f3f fb44 803f
00000020: 1285 7f3f c682 7e3f 0621 803f 63bc 803f
00000030: 4043 803f a653 803f 8967 7f3f f635 803f

backbone.1.bias f4 [16]
-0.0037345279 -0.004500853 -0.0008464274 -0.004073906 0.00012578595 0.000287214 -0.0018340731 0.0012981647
-0.00035863067 -0.002803456 0.0016507121 0.006843629 0.00024956377 0.005006662 0.000809391 0.0008624651
00000000: fbbe 74bb e47b 93bb c8e2 5dba 677e 85bb
00000010: 69e5 0339 3695 9639 4865 f0ba 2e27 aa3a
00000020: 9806 bcb9 30ba 37bb b55c d83a 8540 e03b
00000030: e2d7 8239 ed0e a43b 4f2d 543a 0e17 623a

backbone.1.running_mean f4 [16]
0.26844206 -0.045281496 -0.17074682 0.3122773 0.07155915 0.0643751 -0.63792086 -0.059294134
-0.6332008 -0.599444 0.32795477 0.34621096 -0.24608961 0.9146142 -0.39789906 -0.023844015
00000000: 3d71 893e 1779 39bd 41d8 2ebe cfe2 9f3e
00000010: 9b8d 923d 18d7 833d c84e 23bf 68de 72bd
00000020: 7319 22bf 2975 19bf b0e9 a73e 9042 b13e
00000030: eafe 7bbe 2824 6a3f 6db9 cbbe 8654 c3bc

backbone.1.running_var f4 [16]
0.09072781 0.07813669 0.07373051 0.10332943 0.084051035 0.07392081 0.13048999 0.08538614
0.09389635 0.11103168 0.11058567 0.07407163 0.088568576 0.17429048 0.07951719 0.07585552
00000000: 81cf b93d 2106 a03d 0600 973d 619e d33d
00000010: f322 ac3d cb63 973d 2b9f 053e eede ae3d
00000020: bb4c c03d 9464 e33d bd7a e23d deb2 973d
00000030: 7163 b53d 3479 323e e9d9 a23d 245a 9b3d

backbone.4.weight f4 [32, 16, 3, 3]
-0.004067944 0.058043074 0.051908463 -0.04299657 -0.022470264 0.025821978 0.020702079 -0.036283705
-0.011648322 0.0617716 0.04189079 0.057559855 0.020641739 0.011537114 -0.043627422 0.07151138
-0.022937635 -0.055957224 0.07938685 0.04937493 0.02103974 0.021431552 -0.03829875 -0.04219289
0.011086497 0.07229179 0.044543788 -0.0016012252 -0.03346454 -0.050398346 -0.021790102 0.025014674
0.012268002 0.06076939 -0.019619783 -0.034480732 -0.023427486 -0.054549724 0.0041542077 0.036850974
-0.0030521045 0.018973362 0.04836777 -0.015358579 -0.013349954 0.045544606 -0.041765194 -0.045514483
-0.07830747 -0.02938091 -0.028219318 0.052944563 0.05042218 0.042516317 -0.06914479 -0.0058286088
0.07019126 -0.04673087 0.040582713 0.056310296 0.011047718 -0.048731603 -0.051867437 -0.07633016
-0.038140863 0.0073897517 0.02790391 -0.021130355 0.0054951278 -0.019487748 0.06898528 0.019630222
-0.05550356 -0.031804968 0.054705057 0.01804131 0.07892544 0.061646774 0.075040996 -0.043984782
-0.04916577 -0.06783738 0.017807 0.09060735 -0.009144582 -0.02732246 0.044163227 0.047730412
0.081066035 0.05184595 -0.081836306 -0.0834865 -0.055189572 0.065055996 -0.046498 0.040194724
-0.0225108 -0.064476445 -0.028690733 -0.06441581 -0.054208666 0.08593183 -0.009843251 -0.07541013
0.0045600436 -0.0059568174 -0.025027236 -0.026622728 0.03145418 -0.0054507162 -0.035555802 -0.06873026
0.08241544 -0.048901573 -0.01280567 0.05113942 0.08257439 0.04821333 0.05108046 0.023841936
0.032064386 -0.048413675 0.0040254886 -0.00011185337 0.051047903 -0.026538743 0.037424736 -0.026841907
-0.039449293 -0.079858944 0.08822129 -0.0069578323 -0.09436093 -0.05230642 0.0146141015 0.028219488
0.0507063 0.005666289 -0.058786314 -0.042405237 0.0043813004 -0.02370117 -0.010129227 0.044638608
-0.05189331 -0.0766143 0.0006571152 -0.015941363 -0.046857618 -0.063993074 0.021941457 -0.045925792
0.057157222 -0.054796487 -0.07199032 -0.027464163 0.007345631 0.056390904 -0.07909235 0.08422542
0.008108578 0.040832214 -0.023168711 -0.072625 0.087131 0.0694628 -0.05661254 0.013871159
0.027496876 0.07105239 -0.0011242584 -0.03455938 -0.04670759 -0.0017910545 0.057769276 0.01060368
0.05097869 -0.08264962 0.07092954 -0.0064542606 -0.062626235 -0.0006709955 -0.06727398 -0.044000518
-0.010273829 -0.058485042 -0.052189846 0.00078288827 -0.019631274 0.024744261 0.0765964 0.0185817
-0.007949575 0.056706034 0.06696816 0.054617766 0.05578236 0.08241818 0.08449098 -0.044016805
0.081707776 -0.072411336 -0.036629 -0.009283433 -0.054638237 -0.07010324 -0.021812793 0.036743548
-0.045370143 0.048035152 -0.057115704 -0.06741839 -0.05292472 -0.005603407 0.011472348 -0.06519565
-0.034032818 -0.0057747625 0.025570862 0.011877637 -0.046444353 0.022882346 0.082581624 -0.06669354
0.028013866 -0.04349975 0.013725481 -0.068301305 -0.017096074 0.003897484 -0.007255313 0.054801866
-0.03329154 -0.03649741 -0.013590917 -0.062457066 -0.050632793 -0.011204288 -0.004261184 -0.053180993
-0.0057318546 0.033872157 0.010795514 -0.06997387 -0.0021775549 -0.0061348663 0.011092994 -0.00031171832
0.061154507 -0.059795156 -0.05089768 0.043987595 -0.028908491 0.0020750002 0.059394974 0.019859925
00000000: 634c 85bb 93be 6d3d f89d 543d 2c1d 30bd
00000010: 8f13 b8bc 9d88 d33c 6897 a93c 399e 14bd
00000020: 9bd8 3ebc 3804 7d3d ad95 2b3d e2c3 6b3d
00000030: dd18 a93c 2a06 3d3c abb2 32bd 8f74 923d
00000040: b5e7 bbbc 6733 65bd 9395 a23d 5e3d 4a3d
00000050: 885b ac3c 3991 af3c 26df 1cbd 74d2 2cbd
00000060: 24a4 353c b80d 943d 8c73 363d 34e0 d1ba
00000070: 1d12 09bd 7f6e 4ebd 2881 b2bc 93eb cc3c
00000080: bbff 483c 53e9 783d abb9 a0bc ab3b 0dbd
00000090: 00eb bfbc 886f 5fbd 0520 883b 0cf1 163d
000000a0: d105 48bb 066e 9b3c 481d 463d 8da2 7bbc
000000b0: c4b9 5abc fb8c 3a3d fb11 2bbd 656d 3abd
000000c0: ab5f a0bd 3cb0 f0bc 332c e7bc 66dc 583d
000000d0: 7d87 4e3d 9725 2e3d c99b 8dbd eafd bebb
000000e0: 6fc0 8f3d de68 3fbd 0f3a 263d a0a5 663d
000000f0: 7d01 353c ca9a 47bd f372 54bd fd52 9cbd
00000100: 9839 1cbd bb25 f23b be96 e43c 9119 adbc
00000110: 7910 b43b c5a4 9fbc 2848 8d3d 8fcf a03c
00000120: b357 63bd ed45 02bd 6912 603d 5fcb 933c
00000130: a9a3 a13d 5481 7c3d 18af 993d 6329 34bd
00000140: 0c62 49bd 53ee 8abd fcdf 913c 5990 b93d
00000150: 28d3 15bc 5ad3 dfbc 80e4 343d f780 433d
00000160: f305 a63d 6b5c 543d cb99 a7bd f8fa aabd
00000170: 760e 62bd 143c 853d b074 3ebd 39a3 243d
00000180: 9268 b8bc 3a0c 84bd d408 ebbc 70ec 83bd
00000190: e809 5ebd 07fd af3d 9645 21bc a070 9abd
000001a0: 6b6c 953b 6831 c3bb eb05 cdbc e817 dabc
000001b0: 19d6 003d ec9b b2bb f6a2 11bd 73c2 8cbd
000001c0: 6dc9 a83d 044d 48bd dfce 51bc 9277 513d
000001d0: c31c a93d 577b 453d bf39 513d 2a50 c33c
000001e0: f255 033d 6b4d 46bd 3fe8 833b d292 eab8
000001f0: 9b17 513d c767 d9bc ae4a 193d 8fe3 dbbc
00000200: 9595 21bd 168d a3bd 5dad b43d 87fe e3bb
00000210: 4e40 c1bd 423f 56bd fc6f 6f3c 8e2c e73c
00000220: 69b1 4f3d 47ac b93b ebc9 70bd 1db1 2dbd
00000230: 0391 8f3b f528 c2bc 0ff5 25bc f9d6 363d
00000240: 148e 54bd f5e7 9cbd 4142 2c3a 7697 82bc
00000250: c6ed 3fbd cd0e 83bd 92be b33c af1c 3cbd
00000260: b11d 6a3d 4872 60bd a96f 93bd 86fc e0bc
00000270: 9eb3 f03b 26fa 663d 2cfb a1bd 617e ac3d
00000280: d7d9 043c ae3f 273d 4fcc bdbc 6abc 94bd
00000290: bd71 b23d 8342 8e3d 8de2 67bd dc43 633c
000002a0: 2141 e13c ea83 913d da5b 93ba 238e 0dbd
000002b0: 7550 3fbd d1c1 eaba 7a9f 6c3d 0fbb 2d3c
000002c0: 08cf 503d 3444 a9bd 8243 913d 437e d3bb
000002d0: 2f42 80bd bfe5 2fba f1c6 89bd e339 34bd
000002e0: 9053 28bc 038e 6fbd 05c5 55bd be3a 4d3a
000002f0: c4d1 a0bc 7ab4 ca3c 93de 9c3d a638 983c
00000300: ef3e 02bc 9644 683d 9a26 893d e1b6 5f3d
00000310: 0b7c 643d ddca a83d 9b09 ad3d f74a 34bd
00000320: 6856 a73d 654c 94bd 4a08 16bd 8a19 18bc
00000330: 58cc 5fbd 4a92 8fbd beb0 b2bc 6780 163d
00000340: 0bd6 39bd 82c0 443d 28f2 69bd a712 8abd
00000350: 97c7 58bd c99c b7bb 84f6 3b3c 4c85 85bd
00000360: ff65 0bbd 383a bdbb fc79 d13c 6c9a 423c
00000370: 6f3c 3ebd c273 bb3c 8e20 a93d 9f96 88bd
00000380: 567d e53c cb2c 32bd d7e0 603c 8ee1 8bbd
00000390: 110d 8cbc ee6c 7f3b fabd edbb ec77 603d
000003a0: b65c 08bd 4f7e 15bd 70ac 5ebc fbd2 7fbd
000003b0: 5564 4fbd 3192 37bc 67a1 8bbb 50d4 59bd
000003c0: 48d2 bbbb 88bd 0a3d abdf 303c 764e 8fbd
000003d0: 4fb5 0ebb fd06 c9bb 64bf 353c 206e a3b9
000003e0: 267d 7a3d c4eb 74bd 167a 50bd 562c 343d
000003f0: 80d1 ecbc bafc 073b 2548 733d 48b1 a23c

backbone.4.bias f4 [32]
-0.013472292 -0.004061237 -0.052780762 0.029440338 -0.032846138 0.02512483 0.05856674 -0.06783652
-0.013992517 0.07960982 -0.017330615 0.013369902 0.03216281 -0.044969957 -0.003973479 0.0007695644
0.07950778 0.012027046 -0.010992302 -0.03462282 -0.027155103 -0.07487481 -0.0070268265 0.080085084
0.028339365 -0.011513907 0.015447199 0.01655754 -0.0639817 -0.0118019255 0.043425027 0.0027432183
00000000: e3ba 5cbc 2014 85bb a430 58bd dd2c f13c
00000010: ac89 06bd 96d2 cd3c aee3 6f3d e0ed 8abd
00000020: df40 65bc 790a a33d eff8 8dbc 6f0d 5b3c
00000030: 27bd 033d 6b32 38bd f533 82bb 98bc 493a
00000040: fad4 a23d 160d 453c 0e19 34bc a8d0 0dbd
00000050: 6174 debc f757 99bd 4b41 e6bb a603 a43d
00000060: f527 e83c d4a4 3cbc 4016 7d3c aea3 873c
00000070: d608 83bd dd5c 41bc 71de 313d 91c7 333b

backbone.5.weight f4 [32]
1.0008184 1.005075 0.999284 0.9987134 0.9995809 0.9981339 0.99725246 1.0066881
1.0030102 1.0010034 0.99988997 0.998744 1.0003042 1.0033574 0.99898416 1.0050397
0.99922353 0.99756855 1.0010481 1.0005949 0.9991241 0.99964845 0.99979055 0.9955498
0.99906194 1.0013582 0.99546576 0.99883246 1.0003291 0.9971332 1.0011655 0.9982266
00000000: d11a 803f 4ca6 803f 14d1 7f3f aeab 7f3f
00000010: 89e4 7f3f b485 7f3f f04b 7f3f 28db 803f
00000020: a362 803f e120 803f caf8 7f3f b0ad 7f3f
00000030: f809 803f 046e 803f 6dbd 7f3f 24a5 803f
00000040: 1dcd 7f3f a760 7f3f 5822 803f 7e13 803f
00000050: 99c6 7f3f f6e8 7f3f 46f2 7f3f 5adc 7e3f
00000060: 86c2 7f3f 812c 803f d8d6 7e3f 7cb3 7f3f
00000070: c90a 803f 1f44 7f3f 3126 803f c78b 7f3f

backbone.5.bias f4 [32]
-0.00043713537 0.0014551963 0.00024232442 -0.0009195277 0.0011914055 -0.0004604335 -0.0015844279 0.00020179513
0.0014575012 0.001681219 -0.0018624931 0.00025029824 -0.00019210156 0.00082767167 -0.0010678312 0.0019828575
0.0009928446 -0.00081420573 -0.00030301357 -0.0005556267 -0.0011924455 -0.0014322107 0.00094588817 0.0012210994
0.0011176653 0.0012401554 -0.0030442015 -0.0010975279 0.0008220279 0.0003971048 -0.0007720298 -2.358699e-05
00000000: 512f e5b9 49bc be3a 7718 7e39 760c 71ba
00000010: ef28 9c3a 5766 f1b9 94ac cfba f898 5339
00000020: a009 bf3a 595c dc3a e61e f4ba 763a 8339
00000030: df6e 49b9 1bf8 583a 78f6 8bba d4f2 013b
00000040: 5622 823a 6c70 55ba cbdd 9eb9 7aa7 11ba
00000050: d54b 9cba 04b9 bbba 7bf5 773a 4c0d a03a
00000060: a07e 923a b68c a23a 3a81 47bb edda 8fba
00000070: 5c7d 573a 8132 d039 0b62 4aba addc c5b7

backbone.5.running_mean f4 [32]
0.040485736 -0.46008593 -0.8245312 -0.10711986 -0.6304661 -0.16304553 -0.3147736 0.0717725
0.18306622 0.1933555 -0.108580366 -0.027936565 0.58899903 0.58104926 -0.23732755 0.2199173
-0.22994488 -0.36577913 -0.29086208 0.2961147 -0.1354426 -0.4854891 -0.21952088 0.24084733
0.030346502 0.20329362 -0.41253167 0.44541737 -0.3703985 -0.37739068 -0.0046065673 0.57975745
00000000: 5fd4 253d 6290 ebbe 7a14 53bf a861 dbbd
00000010: 3a66 21bf 68f5 26be 012a a1be 76fd 923d
00000020: b675 3b3e fcfe 453e 625f debd 39db e4bc
00000030: a4c8 163f a5bf 143f fe05 73be 0032 613e
00000040: ac76 6bbe 6747 bbbe e0eb 94be 599c 973e
00000050: 77b1 0abe 0792 f8be 15ca 60be afa0 763e
00000060: 3a99 f83c 342c 503e 5a37 d3be bf0d e43e
00000070: dfa4 bdbe 5a39 c1be b0f2 96bb fc6a 143f

backbone.5.running_var f4 [32]
0.19080451 0.14437063 0.21694979 0.12419867 0.1591364 0.16544996 0.21174604 0.15062727
0.41676047 0.35831654 0.164691 0.2547244 0.39086697 0.21227789 0.22606406 0.14731994
0.16431682 0.39381763 0.1285277 0.18118577 0.20901068 0.18947013 0.21594341 0.14674897
0.31371728 0.49809653 0.23689722 0.5007483 0.43448338 0.16722782 0.25003022 0.23553346
00000000: 4262 433e e5d5 133e 1628 5e3e df5b fe3d
00000010: a7f4 223e b76b 293e f4d3 583e 093e 1a3e
00000020: a161 d53e 4475 b73e c2a4 283e 3d6b 823e
00000030: b71f c83e 605f 593e 567d 673e 0adb 163e
00000040: ab42 283e 77a2 c93e c49c 033e c388 393e
00000050: e506 563e 7504 423e 4520 5d3e 5d45 163e
00000060: 8d9f a03e 8206 ff3e 2f95 723e 0a31 003f
00000070: 9b74 de3e c53d 2b3e f603 803e af2f 713e

backbone.8.weight f4 [64, 32, 3, 3]
-0.04460319 0.013291593 -0.036656037 -0.030562673 0.043941293 0.03940983 -0.04909576 -0.013201566
-0.026540034 -0.06395029 0.038675696 0.019302078 -0.00018439569 -0.027002672 0.008694125 0.0461895
0.047540337 -0.040392246 0.02512974 0.020156328 -0.0029992287 0.0079671005 -0.0140973525 0.006052673
0.0041786595 -0.04127787 -0.021881118 -0.033017617 0.01543566 0.040465448 -0.03421532 -0.054738175
-0.016223136 -0.0599202 -0.042407226 0.012976926 0.00825276 0.015190821 -0.05633542 -0.057699878
0.008290507 -0.043032706 0.054458313 0.023991372 0.05853692 0.037199408 0.042251907 -0.028912112
-0.023300784 0.035194855 0.05038002 0.03687138 -0.035990655 -0.012664684 -0.03519335 -0.031348072
0.011957172 -0.03989756 -0.02579824 0.028477019 -0.03309886 0.057029296 0.017864874 0.031214815
-0.06387263 -0.033310678 0.033066534 -0.028810883 -0.0023028876 -0.042220246 -0.03220414 -0.022255698
-0.032292917 0.05744093 0.0024599368 0.04990057 -0.04702166 0.03407308 -0.013051183 0.050811492
0.030644808 0.010925666 -0.013877308 0.034365587 0.03266791 -0.035644557 -0.04706678 -0.007177501
0.02570151 -0.047056198 -0.030775234 -0.046040844 0.0026089628 0.009465131 -0.038110442 -0.03334123
-0.054961756 0.0094510075 -0.05761323 -0.042518944 0.011579648 -0.0077437772 -0.02568146 -0.0008266266
-0.027662093 -0.041417953 0.014216207 0.0021793782 -0.046372525 0.025254678 0.004795009 0.011420883
0.027442077 -0.037404027 -0.018764392 0.04216158 -0.002126938 -0.0037236623 0.035257887 0.005876948
0.0031448605 0.020336712 0.038620837 0.009802408 0.001227071 -0.024017148 -0.03602574 0.02627487
0.0077337977 -0.009665408 -0.005223489 0.02886164 0.0069063045 -0.015875991 0.018141245 0.04378746
-0.016344193 -0.05756483 0.04728708 0.020082057 0.010929983 0.03033682 -0.03403778 -0.016411822
0.00052504236 0.056915708 0.053644042 -0.0059113465 -0.010698533 0.028721787 -0.045031 0.019362617
-0.023295397 0.052383173 0.041094158 0.01971716 0.058065597 0.0077070976 -0.030081479 0.0039368006
0.03299564 -0.04924074 -0.046616655 -0.030627338 -0.013234212 0.04390428 0.026707012 -0.043603357
0.045685202 0.024525497 0.042022236 -0.02748657 0.0147051085 -0.022873364 0.010782333 -0.028027892
-0.025755612 0.03003533 0.033209253 0.024090363 0.032683283 -0.048255198 0.034732122 -0.043945506
0.015154475 0.0023567239 -0.016166208 0.012414703 0.063414246 -0.035855748 0.0016509438 -0.00602268
-0.015724957 -0.028432272 0.006010255 0.017876739 -0.03884842 0.03100943 0.026500953 -0.028207088
0.024121068 0.040096305 0.033778775 0.028064892 -0.019395318 -0.0010120765 -0.02587995 -0.0004094581
-0.031246254 0.026186878 0.005285978 0.012323262 -0.051080655 0.041213274 0.040158566 -0.015901394
-0.053569652 -0.03295044 0.04681427 -0.050046455 -0.050922558 -0.021474244 -0.0026264517 -0.009522582
-0.030420413 0.0055186236 -0.0018718014 -0.046548195 -0.05334674 -0.03439091 -0.057875708 -0.0019053615
-0.024266737 0.045701344 0.026941547 -0.038444713 -0.0032797798 -0.018716386 0.04562925 0.016328271
0.017964236 -0.019111712 -0.029699013 -0.0019577504 -0.049499284 -0.054904383 -0.009642412 -0.011428481
-0.054138217 0.016678654 -0.02893329 -0.038506687 -0.026093546 0.036162972 -0.0073636635 0.0028746712
00000000: d6b1 36bd fbc4 593c a424 16bd 925e fabc
00000010: c9fb 333d 346c 213d a318 49bd 624b 58bc
00000020: 7c6a d9bc 5ff8 82bd 686a 1e3d 641f 9e3c
00000030: 575a 41b9 b534 ddbc ce71 0e3c 3331 3d3d
00000040: a8b9 423d 5772 25bd e2dc cd3c e21e a53c
00000050: b58e 44bb 7188 023c 95f8 66bc 8055 c63b
00000060: 23ed 883b fc12 29bd 0840 b3bc 7b3d 07bd
00000070: dae5 7c3c 19bf 253d 5d25 0cbd 2335 60bd
00000080: 62e6 84bc e26e 75bd 33b3 2dbd 2c9d 543c
00000090: 9636 073c ece2 783c f8bf 66bd b556 6cbd
000000a0: e8d4 073c 1043 30bd ae0f 5f3d 8e89 c43c
000000b0: 69c4 6f3d 685e 183d 5610 2d3d 18d9 ecbc
000000c0: 49e1 bebc 7b28 103d 485b 4e3d 7206 173d
000000d0: f06a 13bd 897f 4fbc e726 10bd d666 00bd
000000e0: 04e8 433c a06b 23bd d556 d3bc a348 e93c
000000f0: ac92 07bd 8d97 693d 5b59 923c 36b6 ff3c
00000100: a7cf 82bd c770 08bd c670 073d cd04 ecbc
00000110: 0bec 16bb 23ef 2cbd 7de8 03bd 9551 b6bc
00000120: 9445 04bd 2e47 6b3d e436 213b 8a64 4c3d
00000130: c999 40bd 3790 0b3d a1d4 55bc b61f 503d
00000140: d20a fb3c 9101 333c a65d 63bc eec2 0c3d
00000150: c9ce 053d 0700 12bd 19c9 40bd 3e31 ebbb
00000160: f98b d23c 00be 40bd 581c fcbc 5395 3cbd
00000170: 22fb 2a3b a313 1b3c b219 1cbd d090 08bd
00000180: 941f 61bd 66d8 1a3c dafb 6bbd 5828 2ebd
00000190: 90b8 3d3c 83bf fdbb ed61 d2bc f9b1 58ba
000001a0: 9d9b e2bc dfa5 29bd 18eb 683c e6d3 0e3b
000001b0: 1ef1 3dbd e6e2 ce3c 731f 9d3b a81e 3b3c
000001c0: 35ce e03c f734 19bd c8b7 99bc 9fb1 2c3d
000001d0: 1964 0bbb b008 74bb 936a 103d 6a93 c03b
000001e0: 011a 4e3b 2d99 a63c e230 1e3d 479a 203c
000001f0: acd5 a03a 9cbf c4bc ba8f 13bd 653e d73c
00000200: cc6b fd3b a95b 1ebc cd29 abbb 3f6f ec3c
00000210: 484e e23b 5e0e 82bc f39c 943c 7b5a 333d
00000220: 42e4 85bc 19c9 6bbd 19b0 413d 2083 a43c
00000230: ac13 333c ec84 f83c 336b 0bbd 1672 86bc
00000240: ffa2 093a 7220 693d dbb9 5b3d f8b3 c1bb
00000250: e648 2fbc f449 eb3c 6d72 38bd 5a9e 9e3c
00000260: fdd5 bebc bd8f 563d 5952 283d e285 a13c
00000270: 31d6 6d3d d28b fc3b 6f6d f6bc 4700 813b
00000280: 7026 073d a8b0 49bd 1bf1 3ebd 2fe6 fabc
00000290: 4fd4 58bc f9d4 333d aac8 da3c 6f99 32bd
000002a0: 6820 3b3d b2e9 c83c 821f 2c3d 842b e1bc
000002b0: b2ed 703c ec60 bbbc 62a8 303c c09a e5bc
000002c0: 6ffd d2bc a70c f63c 6d06 083d 2759 c53c
000002d0: e8de 053d 3ea7 45bd 4543 0e3d 3400 34bd
000002e0: 7a4a 783c 4473 1a3b ff6e 84bc 0a67 4b3c
000002f0: 54df 813d 7add 12bd 7b64 d83a e759 c5bb
00000300: a0d1 80bc ccea e8bc acf1 c43b 3d72 923c
00000310: 851f 1fbd 7d07 fe3c 8718 d93c 8d12 e7bc
00000320: 8c99 c53c 063c 243d 9d5b 0a3d 58e8 e53c
00000330: eee2 9ebc a7a7 84ba 3002 d4bc 89ac d6b9
00000340: 25f8 ffbc dd85 d63c ff35 ad3b 82e7 493c
00000350: f339 51bd 40cf 283d 4f7d 243d a443 82bc
00000360: da6b 5bbd 0af7 06bd 52c0 3f3d 83fd 4cbd
00000370: 2c94 50bd c1ea afbc 8c20 2cbb 9b04 1cbc
00000380: 3b34 f9bc 92d5 b43b 3c57 f5ba 52a9 3ebd
00000390: 1c82 5abd 7cdd 0cbd 140f 6dbd 53bd f9ba
000003a0: 09cb c6bc 5531 3b3d 85b4 dc3c 3478 1dbd
000003b0: 93f1 56bb 1b53 99bc bde5 3a3d dec2 853c
000003c0: bc29 933c 2a90 9cbc 584b f3bc 9a4d 00bb
000003d0: c3bf 4abd 6be3 60bd 35fb 1dbc 863e 3bbc
000003e0: 09c0 5dbd aca1 883c 8205 edbc 30b9 1dbd
000003f0: 22c2 d5bc a01f 143d e34a f1bb fb64 3c3b

backbone.8.bias f4 [64]
-0.044642355 0.0124449525 -0.044581827 0.044863053 0.04656228 0.05281696 -0.037620727 -0.0014637037
-0.032067534 0.036054675 0.024050474 0.038393714 -0.011265143 0.0022312163 -0.04700741 -0.038197506
-0.019660318 0.03193731 0.00010007066 -0.024919668 -0.034027033 -0.01671282 0.018766616 -0.005043552
-0.015486326 -0.042522117 0.04773129 -0.025079357 -0.04084444 -0.027699541 0.05267903 0.00897999
-0.05166153 -0.03198666 0.042890944 0.043089528 0.0044829487 -0.055370957 0.00097512896 -0.019418612
0.034356754 0.044315122 -0.00039768705 -0.044029437 0.058244906 -0.011236013 -0.016736247 -0.035267726
0.03889859 0.005689375 -0.028476132 0.04306897 -0.05021736 -0.044610642 -0.052322756 0.03335754
0.05069862 0.023826633 0.0049384097 -0.03761109 0.0016635426 0.037841063 -0.0003017316 0.026001409
00000000: e7da 36bd eae5 4b3c 6f9b 36bd 52c2 373d
00000010: 17b8 3e3d 9956 583d 3118 1abd bfd9 bfba
00000020: 3f59 03bd 11ae 133d 8005 c53c ba42 1d3d
00000030: 6f91 38bc 9939 123b d88a 40bd fd74 1cbd
00000040: ad0e a1bc b2d0 023d 07dd d138 5524 ccbc
00000050: ee5f 0bbd 53e9 88bc 72bc 993c 6144 a5bb
00000060: 5cba 7dbc ac2b 2ebd e381 433d 3973 cdbc
00000070: 804c 27bd 26ea e2bc f7c5 573d cf20 133c
00000080: 0a9b 53bd 7204 03bd 6aae 2f3d a57e 303d
00000090: b3e5 923b a8cc 62bd cc9f 7f3a c813 9fbc
000000a0: abb9 0c3d c683 353d a780 d0b9 3658 34bd
000000b0: 3692 6e3d 4117 38bc 741a 89bc e474 10bd
000000c0: 2154 1f3d f06d ba3b c746 e9bc 1769 303d
000000d0: b8b0 4dbd a6b9 36bd 6350 56bd eaa1 083d
000000e0: 5ba9 4f3d 1230 c33c 62d2 a13b 160e 1abd
000000f0: 3a0b da3a 3bff 1a3d bb31 9eb9 e800 d53c

backbone.9.weight f4 [64]
0.9960222 0.9922067 0.9965186 0.996997 1.0012902 0.99927056 0.99876004 0.99582016
0.99721956 0.9974057 0.99440444 0.9940456 0.99652857 0.9968351 0.99730617 0.9956436
0.99958485 0.9991885 0.9977865 0.99739385 1.0004256 0.9958892 0.99561423 0.9973345
1.0016589 0.9961397 0.9970384 0.9957212 0.9964127 0.99600035 0.9970234 0.993478
1.0012293 0.9951903 0.9967532 0.9971871 0.9979533 0.9971852 0.9964039 1.0000268
0.9956033 0.9960592 0.9974436 0.9967089 0.99776775 0.9957658 0.99725777 0.994365
0.9972705 0.99761754 0.995362 0.99832845 0.99749 0.99728864 0.9952999 0.9991576
0.9959708 0.99973494 0.9994841 0.99652594 1.0004781 0.9975748 0.99409777 0.99780995
00000000: 50fb 7e3f 4201 7e3f d81b 7f3f 323b 7f3f
00000010: 472a 803f 32d0 7f3f bdae 7f3f 12ee 7e3f
00000020: c849 7f3f fb55 7f3f 4a91 7e3f c679 7e3f
00000030: 7f1c 7f3f 9630 7f3f 754f 7f3f 80e2 7e3f
00000040: cbe4 7f3f d1ca 7f3f f06e 7f3f 3455 7f3f
00000050: f20d 803f 98f2 7e3f 93e0 7e3f 5051 7f3f
00000060: 5c36 803f 0303 7f3f e93d 7f3f 96e7 7e3f
00000070: e714 7f3f e1f9 7e3f ed3c 7f3f 9354 7e3f
00000080: 4828 803f cbc4 7e3f 382b 7f3f a747 7f3f
00000090: de79 7f3f 8747 7f3f 5314 7f3f e100 803f
000000a0: dcdf 7e3f bcfd 7e3f 7758 7f3f 5128 7f3f
000000b0: b56d 7f3f 82ea 7e3f 494c 7f3f b48e 7e3f
000000c0: 1f4d 7f3f dd63 7f3f 0bd0 7e3f 7492 7f3f
000000d0: 815b 7f3f 4f4e 7f3f f9cb 7e3f cbc8 7f3f
000000e0: f1f7 7e3f a1ee 7f3f 31de 7f3f 531c 7f3f
000000f0: ab0f 803f 1061 7f3f 317d 7e3f 7970 7f3f

backbone.9.bias f4 [64]
-0.0009482581 -0.0039276024 -0.0015412829 -0.0009485449 -0.00035763186 -0.0014108989 -0.0018100943 -0.002910669
-0.001172922 -0.0016256054 -0.0032968104 -0.0026501329 -0.0048173037 -0.0010811525 -0.00063155283 -0.0028687941
-0.0026983866 -0.0030879967 -0.0015407122 -0.0031548222 -0.001798811 -0.003373024 -0.0031464742 -0.0017612472
0.00057418697 -0.002593596 -0.00085834105 -0.0025877277 -0.0026980897 -0.0013487261 -0.0011724785 -0.0036354007
-0.0011936227 -0.0014205711 -0.0040690363 -0.0025693043 -0.0013313408 -0.0021286518 -0.0022642396 -0.001115957
-0.0031908897 -0.0017917152 -0.0010097433 -0.001590301 -0.0021108503 -0.0023786398 -0.0024330849 -0.0026572917
-0.0028823589 -0.0034575458 -0.002420857 -0.00083623803 -0.0031819665 -0.0016239143 -0.0025266982 -0.00094569335
-0.0038668865 -0.00059984304 -0.0010063496 -0.0033512956 -0.0025087704 -0.0025541089 -0.0047562257 -0.0025948586
00000000: 8694 78ba 1eb3 80bb df04 caba c5a7 78ba
00000010: 8980 bbb9 e9ed b8ba b040 edba ecc0 3ebb
00000020: bbbc 99ba 4412 d5ba 4d0f 58bb daad 2dbb
00000030: 79da 9dbb 75b5 8dba cb8e 25ba 6102 3cbb
00000040: 6ad7 30bb fd5f 4abb b9f1 c9ba 22c1 4ebb
00000050: 15c6 ebba f40d 5dbb 1435 4ebb a6d9 e6ba
00000060: 0985 163a 52f9 29bb 4b02 61ba de96 29bb
00000070: 6fd2 30bb bdc7 b0ba daad 99ba e73f 6ebb
00000080: 5573 9cba 7532 baba 8d55 85bb c661 28bb
00000090: 6280 aeba da80 0bbb a363 14bb 4e45 92ba
000000a0: 3f1e 51bb fcd7 eaba 5d59 84ba a671 d0ba
000000b0: 3156 0abb f4e2 1bbb 6474 1fbb f525 2ebb
000000c0: f5e5 3cbb fe97 62bb 3ea7 1ebb fc36 5bba
000000d0: 8a88 50bb 86d9 d4ba f696 25bb 68e8 77ba
000000e0: 976b 7dbb c93e 1dba 7de7 83ba 69a1 5bbb
000000f0: 2f6a 24bb d662 27bb 1dda 9bbb 810e 2abb

backbone.9.running_mean f4 [64]
-0.4955057 -0.01837946 -0.19156878 -0.07327519 0.5932973 0.8114728 0.19237375 -0.5897905
-0.79218966 -0.08700473 0.06857398 -0.5556346 0.6975765 -0.028025914 -0.18251374 -0.81302965
0.48827976 0.50259465 0.1415803 -0.1603335 0.6719066 0.6062652 0.0104658855 0.49645
-1.0794604 -1.1045526 1.1190093 0.31804648 0.17690873 0.114654034 -0.4277196 0.7384386
-0.1533652 -0.10182386 0.35179487 0.308917 -1.1813211 0.12450346 0.33208665 -0.37920287
0.82574064 0.8333216 -1.0042336 -0.26379162 -0.5585753 -0.32597545 0.67539304 0.09333228
-0.44770074 0.67577016 -0.6053467 -0.38000128 1.3604453 -0.4334994 -0.37111834 -0.57895803
-1.117998 -1.0362415 -0.5433201 -0.4896128 0.5427509 -0.18481475 0.5092352 -0.3511432
00000000: ecb2 fdbe 8590 96bc 9b2a 44be 4e11 96bd
00000010: 55e2 173f aebc 4f3f a0fd 443e 83fc 16bf
00000020: f1cc 4abf 892f b2bd 8470 8c3d 123e 0ebf
00000030: 6094 323f 9a96 e5bc e2e4 3abe b622 50bf
00000040: ceff f93e 0baa 003f 6dfa 103e 772e 24be
00000050: 1202 2c3f 3234 1b3f 1b79 2b3c b22e fe3e
00000060: c22b 8abf fb61 8dbf b23b 8f3f fdd6 a23e
00000070: 9027 353e bccf ea3d 10fe dabe 500a 3d3f
00000080: c40b 1dbe 0789 d0bd 751e b43e 5e2a 9e3e
00000090: 8835 97bf acfb fe3d 4307 aa3e e126 c2be
000000a0: bd63 533f 9054 553f ba8a 80bf b20f 87be
000000b0: cafe 0ebf 41e6 a6be 8fe6 2c3f ff24 bf3d
000000c0: 0839 e5be 46ff 2c3f 00f8 1abf 878f c2be
000000d0: 1223 ae3f a2f3 ddbe 3903 bebe 9836 14bf
000000e0: 8f1a 8fbf 90a3 84bf 0717 0bbf 87ae fabe
000000f0: b9f1 0a3f 1440 3dbe 3d5d 023f 0bc9 b3be

backbone.9.running_var f4 [64]
0.30812144 0.34254614 0.3031802 0.25733462 0.40544584 0.33091617 0.28796116 0.32334298
0.34672025 0.23805973 0.25032592 0.33647868 0.30349642 0.43855745 0.35960367 0.42079505
0.3280533 0.3764407 0.444457 0.2601331 0.3294952 0.35291255 0.3424142 0.3985903
0.33789054 0.4787851 0.39763558 0.25463176 0.3618006 0.37111238 0.5294006 0.35466763
0.5187841 0.29215947 0.4310671 0.281143 0.53434205 0.2338498 0.25853246 0.4717217
0.3290713 0.3151931 0.38570774 0.28093362 0.25617734 0.37018377 0.3883356 0.28071323
0.51297635 0.29937312 0.36771792 0.4991379 0.5114088 0.32405388 0.31761357 0.30266124
0.43836167 0.70135546 0.4381711 0.33052644 0.3610766 0.69041634 0.4464325 0.40813646
00000000: 18c2 9d3e 3562 af3e 6f3a 9b3e 5dc1 833e
00000010: 9996 cf3e d86d a93e a56f 933e 368d a53e
00000020: 5185 b13e eec5 733e b82a 803e ef46 ac3e
00000030: e263 9b3e 9a8a e03e f91d b83e 7372 d73e
00000040: 9af6 a73e d6bc c03e de8f e33e 2a30 853e
00000050: 98b3 a83e f4b0 b43e ea50 af3e 0714 cc3e
00000060: fdff ac3e 5223 f53e e496 cb3e 185f 823e
00000070: ee3d b93e 7102 be3e cc86 073f ff96 b53e
00000080: 09cf 043f ed95 953e d4b4 dc3e faf1 8f3e
00000090: a4ca 083f 5276 6f3e 5e5e 843e 8285 f13e
000000a0: 097c a83e fd60 a13e 7c7b c53e 88d6 8f3e
000000b0: ad29 833e ba88 bd3e ecd3 c63e a5b9 8f3e
000000c0: 6b52 033f 6f47 993e 8645 bc3e 018f ff3e
000000d0: b0eb 023f 64ea a53e 3f9e a23e 6af6 9a3e
000000e0: f170 e03e 088c 333f f657 e03e c33a a93e
000000f0: 08df b83e 20bf 303f cd92 e43e 43f7 d03e

classifier.1.weight f4 [128, 576]
0.033123516 -0.037217118 -0.01846381 -0.042651635 0.018065061 -0.0068068253 0.018068004 0.01367745
-0.0011265983 0.038582172 -0.03896074 0.013617454 -0.013300244 -0.0048304372 0.023968456 -0.028464613
0.0353206 0.034824185 -0.012610964 0.010354276 -0.042108607 -0.02260498 -0.008970729 0.04005678
-0.029613145 -0.016485004 0.015324672 -0.020100206 -0.011309677 0.0026213608 0.00589786 0.024075145
0.0053504966 -0.012050071 0.039030544 0.0020337023 -0.037460588 0.016086178 -0.03147629 0.034807906
-0.030778535 -0.0065411716 0.036691844 0.03878149 0.017388312 0.014243791 0.0018133199 0.02715922
0.034070246 0.0051810555 -0.011257705 -0.03281521 0.038816966 -0.028488593 -0.017831301 -0.019970447
0.015334245 0.016539097 0.041195694 0.0329854 0.006319405 -0.04062091 0.010667867 -0.0014796896
-0.036384564 0.036155574 0.024809057 -0.016133457 0.027852403 0.01853787 0.0005240293 0.027278312
-0.011576538 -0.006904654 -0.004646778 -0.01688247 -0.029319111 0.021774562 -0.025247563 0.03127731
-0.022728639 -0.025613783 -0.03394024 -0.0013522406 -0.037852786 0.02245305 -0.026332684 0.014073873
-0.027048388 -0.037024815 0.0057175914 -0.03454472 0.00870083 -0.0029147742 -0.022364583 -0.027919723
-0.027284982 0.036816146 -0.03249957 -0.00011643384 -0.03856283 0.0023758078 0.005661415 0.0054174983
-0.012065691 -0.015798785 0.015643794 0.009210375 -0.033568982 -0.007606373 -0.016448082 0.029519709
0.035946704 -0.042604677 -0.011467388 0.037898768 -0.00045674332 -0.040232934 -0.008215615 -0.008089082
0.0062732813 -0.001496721 0.013900485 -0.02192928 -0.006647061 -0.0021578467 -0.029336218 -0.01824125
-0.034313295 0.0035258448 -0.00815937 0.02771658 0.038227107 0.017926741 -0.007622238 -0.04143706
0.008055613 -0.02240854 -0.023057103 -0.021718156 0.0076117744 0.0080254115 0.04061092 -0.012989723
-0.029607015 0.012532883 0.037629068 -0.00763997 0.026776409 -0.025453227 0.032430023 0.0034592855
-0.014263848 -0.020192418 -0.028539538 -0.010605637 -0.0064143683 -0.029736608 -0.00980534 0.010599532
0.022809653 0.021054275 -0.030865502 0.010365381 -0.017899003 0.028417684 -0.0069410955 0.020141797
-0.0021607052 -0.0084389495 0.0011502196 -0.022193298 0.025583189 0.00084514485 -0.00055664225 0.0040292647
-0.0047938614 -0.012340869 0.01910049 0.0016131344 -0.020699099 -0.011299192 -0.017368667 0.013515349
-0.032318454 0.0014452054 -0.040872768 0.017251072 0.007570679 -0.014835909 0.026999464 -0.01805453
0.0017714283 -0.011216471 -0.0041115354 -0.017436257 -0.033662982 -0.021672022 -0.012744932 0.0015430428
-0.03274932 -0.029641407 -0.003977437 -0.020808209 0.041143723 0.025456341 0.040041775 -0.014479446
-0.02481438 0.0155870905 -0.022347443 0.006485557 0.0027479576 -0.00802008 -0.0043124105 -0.035415716
-0.0036708491 0.022343088 -0.0061248546 -0.023828374 -0.018976718 0.008976123 0.01634079 0.028202448
0.0016871671 0.025915269 -0.018558593 0.031411108 0.009440235 -0.0073439064 0.003477547 -0.039862677
0.0008034921 0.015014493 0.02735672 0.026125442 0.039022427 0.023190515 0.029688569 0.02029198
0.026833441 0.013659636 0.038194455 0.020303728 0.005401748 -0.02643576 0.020546509 -0.0322727
-0.019246949 -0.037916105 -0.019412106 0.024168015 0.0052045076 -0.02275563 0.015489006 0.012928504
00000000: 86ac 073d fa70 18bd 6b41 97bc 7bb3 2ebd
00000010: 2efd 933c ca0b dfbb 5a03 943c 6217 603c
00000020: 5eaa 93ba 5708 1e3d 4c95 1fbd be1b 5f3c
00000030: 44e9 59bc a548 9ebb 7f59 c43c 9f2e e9bc
00000040: 55ac 103d cea3 0e3d 379e 4ebc fba4 293c
00000050: 137a 2cbd 142e b9bc f7f9 12bc 9412 243d
00000060: 4497 f2bc 8f0b 87bc 5514 7b3c 30a9 a4bc
00000070: 394c 39bc 23cb 2b3b d642 c13b 3d39 c53c
00000080: 3853 af3b a96d 45bc 7ede 1f3d dd47 053b
00000090: 4670 19bd 29c7 833c 48ed 00bd bc92 0e3d
000000a0: 4423 fcbc 5357 d6bb 304a 163d 57d9 1e3d
000000b0: ef71 8e3c ca5e 693c ebac ed3a 037d de3c
000000c0: 3e8d 0b3d d8c5 a93b 3d72 38bc 3e69 06bd
000000d0: 8afe 1e3d e960 e9bc f312 92bc 1099 a3bc
000000e0: 7c3c 7b3c 007d 873c d1bc 283d b31b 073d
000000f0: 0313 cf3b 1c62 26bd 47c8 2e3c 25f2 c1ba
00000100: fb07 15bd de17 143d 5d3c cb3c 502a 84bc
00000110: b92a e43c bbdc 973c 035f 093a c476 df3c
00000120: 85ab 3dbc 7040 e2bb 0044 98bb 1b4d 8abc
00000130: a22e f0bc 9160 b23c fad3 cebc a31c 003d
00000140: 6931 babc ffd3 d1bc ec04 0bbd aa3d b1ba
00000150: 860b 1bbd 75ef b73c a4b7 d7bc 1a96 663c
00000160: 9594 ddbc 55a7 17bd a25a bb3b c47e 0dbd
00000170: ed8d 0e3c cc05 3fbb ee35 b7bc e7b7 e4bc
00000180: c184 dfbc 87cc 163d 451e 05bd f12d f4b8
00000190: 0ff4 1dbd 71b3 1b3b 6483 b93b 4585 b13b
000001a0: 2daf 45bc 746c 81bc 6a27 803c 1de7 163c
000001b0: a17f 09bd e23e f9bb 21be 86bc 51d3 f13c
000001c0: da3c 133d 3e82 2ebd b6e1 3bbc bd3b 1b3d
000001d0: 0d77 efb9 4acb 24bd c99a 06bc 1288 04bc
000001e0: 1990 cd3b 9f2d c4ba dcbe 633c 09a5 b3bc
000001f0: 97cf d9bb a96a 0dbb 8252 f0bc ad6e 95bc
00000200: 198c 0cbd dc11 673b e1ae 05bc e20d e33c
00000210: 0794 1c3d 1adb 923c f7c3 f9bb e8b9 29bd
00000220: b1fb 033c 1d92 b7bc 40e2 bcbc 46ea b1bc
00000230: 316c f93b 047d 033c a357 263d d9d2 54bc
00000240: 698a f2bc b956 4d3c f020 1a3d b758 fabb
00000250: 335a db3c 4983 d0bc 58d5 043d 2eb5 623b
00000260: eab2 69bc 926a a5bc c0cb e9bc 44c3 2dbc
00000270: 9f2f d2bb 309a f3bc 94a6 20bc a9a9 2d3c
00000280: 4fdb ba3c 047a ac3c a6d9 fcbc 8fd3 293c
00000290: eea0 92bc 34cc e83c 2172 e3bb 6900 a53c
000002a0: 9e9a 0dbb 8543 0abc f7c2 963a b8ce b5bc
000002b0: d693 d13c b68c 5d3a a1eb 11ba ec07 843b
000002c0: d315 9dbb 5b31 4abc a178 9c3c cf6f d33a
000002d0: 2891 a9bc 3f20 39bc bc48 8ebc 7b6f 5d3c
000002e0: 5b60 04bd 0c6d bd3a 346a 27bd 1f52 8d3c
000002f0: 7513 f83b 5012 73bc fb2d dd3c 18e7 93bc
00000300: 452f e83a 4ac5 37bc 0fba 86bb 7bd6 8ebc
00000310: 32e2 09bd 8689 b1bc 1fd0 50bc ed3f ca3a
00000320: 2724 06bd 89d2 f2bc 2955 82bb fa75 aabc
00000330: 5286 283d d189 d03c d802 243d 333b 6dbc
00000340: 8747 cbbc ff60 7f3c fc11 b7bc cc84 d43b
00000350: 1417 343b a766 03bc 1f4f 8dbb 1210 11bd
00000360: a192 70bb da08 b73c 01b3 c8bb b933 c3bc
00000370: 1075 9bbc 9710 133c 1fdd 853c d208 e73c
00000380: ef23 dd3a 424c d43c 3108 98bc efa8 003d
00000390: 37ab 1a3c 27a5 f0bb 8fe7 633b 0c47 23bd
000003a0: 71a1 523a 59ff 753c 331b e03c 0605 d63c
000003b0: fbd5 1f3d 09fa bd3c 7135 f33c 5e3b a63c
000003c0: ced1 db3c aacc 5f3c ca71 1c3d 0154 a63c
000003d0: 2601 b13b cf8f d8bc 2751 a83c 6130 04bd
000003e0: c7ab 9dbc eb4d 1bbd 2306 9fbc 00fc c53c
000003f0: 938a aa3b 046a babc 9ac5 7d3c 13d2 533c

classifier.1.bias f4 [128]
0.0013490545 -0.018317332 0.015110608 0.030195301 0.038584124 -0.023411043 0.0078044925 -0.006743811
0.023018725 -0.008796477 -0.039808586 0.017687082 0.0008957294 0.011005446 0.01029695 0.0031449317
-0.014518146 0.008266052 0.009029631 0.016733993 0.035783242 -0.03562811 -0.025491176 0.027999006
-0.007607908 0.01446592 -0.017688943 -0.037557416 -0.019888557 0.007770559 0.03906759 -0.023684958
-0.033816695 0.03180216 -0.040192544 -0.022104375 -0.037991185 0.038300958 0.002427267 -0.033338934
0.019923208 -0.002005935 -0.008498599 -0.020155374 -0.022167513 0.027775988 -0.009378409 -0.025026893
-0.001800342 0.026275737 -0.024990328 0.009539134 -0.014570364 -0.03380855 -0.02338152 -0.014185075
-0.015324148 -0.031534567 -0.0025254723 0.036452893 0.011962067 0.041190382 0.035936873 -0.01545438
0.033817966 -0.001695459 -0.035477385 -0.032208268 -0.025768261 -0.02665999 -0.0072763725 -0.02447372
-0.02494734 -0.034150377 0.02428678 -0.03182331 -0.029731909 0.03734342 -0.02647497 0.007313543
-0.03498853 -0.027526516 -0.025664553 -0.0037682673 0.026880031 0.019522212 -0.010960688 -0.0072120065
0.035269298 -0.010993349 0.030158 0.036300875 0.00055670517 0.016290946 0.00084729295 0.008764751
-0.023330292 -0.03269636 0.019687569 -0.0172251 -0.03683238 0.035827864 -0.038588654 -0.03175327
0.036003184 -0.005037042 0.012406936 -0.011299021 -0.015939541 -0.003948026 0.0029201133 -0.011418661
0.028953845 -0.008233227 0.019121794 -0.015178114 0.017384866 0.008018278 -0.02248536 0.034672875
-0.029794196 -0.037753016 0.015479186 -0.0052210456 -0.038708925 -0.02322885 0.024872245 0.0065796375
00000000: c2d2 b03a 3b0e 96bc 7c92 773c 235c f73c
00000010: 630a 1e3d 84c8 bfbc d4bc ff3b 30fb dcbb
00000020: c491 bc3c 191f 10bc 540e 23bd 80e4 903c
00000030: 62cf 6a3a 3050 343c 8ab4 283c 331b 4e3b
00000040: 85dd 6dbc 566e 073c 04f1 133c ba15 893c
00000050: 7391 123d c8ee 11bd dfd2 d0bc 2c5e e53c
00000060: c24b f9bb 7702 6d3c 67e8 90bc ced5 19bd
00000070: 54ed a2bc 2ca0 fe3b 5605 203d f506 c2bc
00000080: 6083 0abd fb42 023d f0a0 24bd 3c14 b5bc
00000090: a59c 1bbd 77e1 1c3d c812 1f3b 688e 08bd
000000a0: ff35 a33c 0176 03bb b53d 0bbc e21c a5bc
000000b0: a598 b5bc 788a e33c e6a7 19bc 3305 cdbc
000000c0: 74f9 ebba 3740 d73c 84b8 ccbc 074a 1c3c
000000d0: 89b8 6ebc d67a 0abd 9a8a bfbc 8468 68bc
000000e0: 2312 7bbc 642a 01bd 6582 25bb a14f 153d
000000f0: 8cfc 433c 3fb7 283d 8b32 133d 5e34 7dbc
00000100: b584 0a3d 2a3a deba bc50 11bd d1ec 03bd
00000110: f617 d3bc 0d66 dabc a36e eebb 1c7d c8bc
00000120: 5d5e ccbc 44e1 0bbd 12f5 c63c 2959 02bd
00000130: 5590 f3bc 6af5 183d 09e2 d8bc 72a6 ef3b
00000140: 2250 0fbd 4a7f e1bc 783e d2bc 09f5 76bb
00000150: 8333 dc3c 0ced 9f3c 7594 33bc b252 ecbb
00000160: 8a76 103d 731d 34bc e90d f73c 3ab0 143d
00000170: daef 113a 9774 853c de1c 5e3a 089a 0f3c
00000180: 2b1f bfbc 9eec 05bd d347 a13c a71b 8dbc
00000190: 8ddd 16bd 3dc0 123d 230f 1ebd b80f 02bd
000001a0: 1378 133d c50d a5bb 7646 4b3c 871f 39bc
000001b0: a493 82bc 715e 81bb 5f5f 3f3b 5615 3bbc
000001c0: 9d30 ed3c a8e4 06bc 4fa5 9c3c a0ad 78bc
000001d0: b56a 8e3c 185f 033c 3833 b8bc 2505 0e3d
000001e0: f512 f4bc e8a2 1abd 699c 7d3c 4e15 abbb
000001f0: 408d 1ebd 6e4a bebc e1c0 cb3c 009a d73b

classifier.3.weight f4 [5, 128]
0.0029501724 0.032581154 -0.08007789 -0.0045984727 0.024078703 -0.07510946 -0.024656735 0.0003337004
-0.07667702 -0.019008221 -0.077777945 0.015659964 -0.067955345 0.059409786 0.040016744 0.034530245
-0.039805997 -0.030492052 0.05993363 0.04102856 0.000822595 -0.038375225 -0.05837303 -0.04123376
-0.06453625 -0.074755624 -0.01883759 0.07032618 -0.099396065 -0.038220674 -0.0027972558 0.0033740143
-0.06082054 -0.04540351 0.004086371 -0.052151773 -0.047935866 0.019855363 0.012246874 -0.022582395
0.033855125 -0.079105265 -0.02199341 -0.05415823 -0.061003655 0.031041864 -0.008336656 0.011837157
0.050538223 -0.00046657154 -0.05605858 -0.042364582 -0.000940014 0.008525783 -0.054669436 -0.0076170014
-0.002509897 0.0419929 -0.016432887 -0.04531958 -0.037701234 0.038217116 0.07931224 -0.015470126
0.046202697 0.009905667 0.007787559 -0.026309548 -0.06330127 0.03148645 0.023704696 -0.08202699
-0.033595894 -0.07408445 0.032574795 -0.022846669 -0.031145666 -0.064355135 -0.03458748 -0.046801742
0.026219182 -0.059146304 -0.010461464 -0.077506475 -0.034275487 0.0700783 -0.06328165 -0.017962256
-0.004923997 0.040282354 0.0491451 -0.041543506 -0.03443182 -0.006297051 0.061758194 0.012070504
-8.911866e-05 0.009102574 -0.0334751 -0.037081704 -0.0798469 -0.019307032 0.06202922 0.04270941
-0.061298262 0.0021473959 0.06413261 0.08214906 0.039565474 -0.069813944 -0.067363985 0.0077707814
-0.028702637 -0.01392819 0.046279345 0.004833097 -0.04683059 -0.03689042 0.076603696 -0.026798965
0.02262542 0.018536452 -0.02675569 -0.040525213 0.06127824 0.03390452 0.028917344 -0.038113963
-0.09859049 -0.02104424 -0.0024055967 -0.038443506 0.07813974 0.0008040353 0.055755235 -0.0046617463
-0.10476883 0.009929009 0.039350804 0.058567215 -0.06548909 0.052195378 -0.062794656 -0.090248555
-0.022552513 0.011988735 -0.08370222 0.060823373 -0.06398785 -0.046799324 -0.0013836358 -0.014400377
0.048690755 0.08629836 -0.04231385 0.0027569975 -0.06025044 -0.031038092 0.025437737 0.0048150853
0.0051163454 0.08662596 0.010468643 0.07208737 -0.034441467 0.03083928 -0.07388267 0.009223462
-0.015929472 0.030047482 -0.011617161 -0.019826565 0.06541673 -0.039289355 0.038015217 -0.0021999062
-0.06414288 0.07800064 0.057798773 0.04591325 0.044991866 0.020532878 0.04428412 -0.07705649
-0.0045965146 -0.023975212 0.05629691 -0.022248132 -0.03078586 -0.048127748 -0.048897244 -0.09503024
-0.013214219 0.06161065 -0.049694736 0.011988207 -0.026696933 0.07521173 -0.03183786 0.00857731
-0.05407443 -0.048318345 -0.0037244363 0.042878922 -0.075221054 0.03794907 -0.03401547 0.053330794
0.042352483 -0.08584973 -0.07272649 -0.06856887 -0.08070699 -0.06587619 0.03957593 -0.06251969
-0.07699396 -0.055223435 0.044712678 -0.028265977 0.04643551 -0.054632567 0.035089016 0.05718237
0.07520417 -0.027698249 8.7208576e-08 -0.066375785 0.021259954 -0.034659423 0.07977353 -0.06986708
-0.025925454 -0.023672715 -0.014914336 -0.0042165965 -0.06625022 -0.0509145 -0.037637956 -0.042948376
-0.08866913 -0.04311662 -0.06196297 -0.01588527 -0.016344909 0.027880704 0.061586797 -0.031419806
0.009560916 -0.03927635 -0.049684618 -0.027021373 -0.038389247 0.02938806 -0.057187848 0.012536192
00000000: ae57 413b d173 053d e0ff a3bd c9ae 96bb
00000010: b340 c53c fdd2 99bd ecfc c9bc 82f4 ae39
00000020: d708 9dbd 21b7 9bbc 0b4a 9fbd 5349 803c
00000030: 2c2c 8bbd ad57 733d 99e8 233d 966f 0d3d
00000040: 9d0b 23bd 78ca f9bc f77c 753d 900d 283d
00000050: 6aa3 573a 572f 1dbd 8f18 6fbd bbe4 28bd
00000060: 952b 84bd 7a19 99bd 4a51 9abc 2c07 903d
00000070: 2a90 cbbd 488d 1cbd 2a52 37bb 911e 5d3b
00000080: f51e 79bd 08f9 39bd f7e6 853b 199d 55bd
00000090: 6658 44bd b7a7 a23c 1da7 483c b7fe b8bc
000000a0: acab 0a3d f101 a2bd 862b b4bc 05d5 5dbd
000000b0: f8de 79bd 824b fe3c 7896 08bc a3f0 413c
000000c0: 2b01 4f3d 2c9e f4b9 ae9d 65bd 7c86 2dbd
000000d0: 466b 76ba baaf 0b3c 0fed 5fbd 0a98 f9bb
000000e0: 167d 24bb bf00 2c3d 439e 86bc 06a1 39bd
000000f0: 9c6c 1abd 8d89 1c3d 756e a23d 6976 7dbc
00000100: 0a3f 3d3d 614b 223c c82e ff3b 1f87 d7bc
00000110: 19a4 81bd f0f7 003d 5a30 c23c c4fd a7bd
00000120: d99b 09bd 97b9 97bd 266d 053d f028 bbbc
00000130: 3225 ffbc a0cc 83bd 9aab 0dbd 2fb3 3fbd
00000140: 9cc9 d63c 6543 72bd 8f66 2bbc b7bb 9ebd
00000150: 7464 0cbd 3685 8f3d cf99 81bd 9525 93bc
00000160: 7b59 a1bb 1cff 243d 5f4c 493d 8629 2abd
00000170: 6108 0dbd 7e57 cebb 29f6 7c3d 5dc3 453c
00000180: 37e5 bab8 f622 153c 301d 09bd fce2 17bd
00000190: c686 a3bd c829 9ebc 5a12 7e3d 10f0 2e3d
000001a0: e313 7bbd 53bb 0c3b f557 833d c43d a83d
000001b0: 680f 223d 9dfa 8ebd 21f6 89bd 0aa2 fe3b
000001c0: cb21 ebbc 1033 64bc 698f 3d3d f55e 9e3b
000001d0: 6fd1 3fbd 691a 17bd 66e2 9c3d 8189 dbbc
000001e0: f258 b93c c2d9 973c c02e dbbc c4fd 25bd
000001f0: e4fe 7a3d 77df 0a3d 11e4 ec3c 631d 1cbd
00000200: d0e9 c9bd f864 acbc 37a7 1dbb f076 1dbd
00000210: ba07 a03d e5c5 523a 9a5f 643d 90c1 98bb
00000220: 0a91 d6bd 48ad 223c 4f2e 213d 2de4 6f3d
00000230: 251f 86bd d2ca 553d 7c9a 80bd 3cd4 b8bd
00000240: 0cc0 b8bc 666c 443c 126c abbd ee21 793d
00000250: 100c 83bd a6b0 3fbd 1d5b b5ba 8fef 6bbc
00000260: f56f 473d 32bd b03d 4a51 2dbd beae 343b
00000270: 2ac9 76bd 9943 febc cd62 d03c ddc7 9d3b
00000280: 04a7 a73b f468 b13d ac84 2b3c 8ba2 933d
00000290: 7f12 0dbd a8a2 fc3c cc4f 97bd 011e 173c
000002a0: 867e 82bc 2326 f63c e855 3ebc 526b a2bc
000002b0: 35f9 853d e0ed 20bd d8b5 1b3d 4d2c 10bb
000002c0: 585d 83bd cdbe 9f3d 68be 6c3d 880f 3c3d
000002d0: 6449 383d 9134 a83c 4463 353d cbcf 9dbd
000002e0: 5c9e 96bb aa67 c4bc 9797 663d b741 b6bc
000002f0: a132 fcbc 9a21 45bd 7a48 48bd 379f c2bd
00000300: 7480 58bc 735b 7c3d b58c 4bbd 2f6a 443c
00000310: 87b3 dabc 9c08 9a3d 6a68 02bd d887 0c3c
00000320: 267d 5dbd 75e9 45bd ac15 74bb cfa1 2f3d
00000330: 7f0d 9abd 7c70 1b3d ce53 0bbd 6471 5a3d
00000340: cc79 2d3d fcd1 afbd a0f1 94bd d66d 8cbd
00000350: b549 a5bd 19ea 86bd 5f1a 223d 530a 80bd
00000360: 02af 9dbd f831 62bd a424 373d 0d8e e7bc
00000370: 2933 3e3d 66c6 5fbd 80b9 0f3d 1038 6a3d
00000380: a504 9a3d 70e7 e2bc 6c47 bb33 07f0 87bd
00000390: 5b29 ae3c 0af7 0dbd 4e60 a33d 7916 8fbd
000003a0: 9e61 d4bc 48ed c1bc 425b 74bc 602b 8abb
000003b0: 32ae 87bd b98b 50bd 422a 1abd a3ea 2fbd
000003c0: 2998 b5bd 0e9b 30bd e2cc 7dbd d321 82bc
000003d0: c2e5 85bc 1366 e43c 7042 7c3d 0eb2 00bd
000003e0: 63a5 1c3c 3de0 20bd 1982 4bbd ed5b ddbc
000003f0: 0b3e 1dbd 3bbf f03c ce3d 6abd 9a64 4d3c

classifier.3.bias f4 [5]
-0.017143147 0.009335997 -0.07656824 -0.01918826 -0.05850758
00000000: c96f 8cbc 02f6 183c cfcf 9cbd b330 9dbc
00000010: a5a5 6fbd

momentum_buffer f4 [16, 1, 3, 3]
-0.044324443 -0.07850683 -0.056772716 -0.03876308 -0.032605022 -0.005356215 -0.056358162 -0.04134987
-0.009373255 0.09216047 0.022497643 -0.038104407 0.015687764 -0.011514943 -0.08260702 -0.039041635
-0.06591861 -0.11475146 -0.028522596 -0.011645436 -0.13902184 -0.05629149 -0.07574098 -0.14651248
-0.22065277 -0.14256077 -0.05176969 0.022892697 0.021357534 -0.017491061 -0.0003920514 -0.00016143266
-0.020455768 -0.023239415 -0.042446226 -0.03496581 0.10980336 0.12329475 0.13918602 0.059721604
0.07796958 0.065623 -0.02114764 0.011293793 -0.0030298177 0.26273504 0.17741564 0.20978631
0.3086571 0.19383141 0.13438743 0.44867975 0.35671914 0.2406607 0.0040827547 -0.0019006813
0.008699041 0.0023424234 -0.0069578257 -0.030650709 0.027519707 0.016674541 -0.022252662 -0.0019598147
-0.090127066 -0.112574026 -0.04739093 -0.055750497 -0.07729289 0.013350242 0.014754014 -0.04380474
0.03709039 0.044743195 0.0009625163 0.023764208 0.03784235 0.015597924 -0.01673356 -0.0055304077
-0.00038251514 0.023935132 0.0134103745 -0.0063361367 0.0150408065 0.011941429 0.011316481 -0.0010877876
-0.002645668 0.016453376 0.025577776 0.024495374 0.011062092 0.004364549 0.00917031 0.014973406
-0.0022416064 -0.005849166 -0.0019952594 -0.2994981 -0.55796623 -0.65566736 -0.010308221 -0.38518
-0.56204677 -0.06647429 -0.3045142 -0.3977425 0.17188391 0.19174902 0.18176761 0.15655318
0.2138209 0.23310213 0.14287712 0.22113575 0.21704097 0.0016701843 -0.0036324596 0.0083762165
0.01365331 0.0019277113 0.0026529052 0.046954744 0.023687635 0.005277237 0.10230319 0.122097716
0.16058022 0.09074573 0.15173975 0.25785276 0.043499216 0.09219659 0.21258605 0.077238426
-0.04241718 -0.012249168 0.1965071 0.13159606 0.07331957 0.35061145 0.31604943 0.29552868
00000000: 8c8d 35bd 30c8 a0bd 828a 68bd 09c6 1ebd
00000010: d88c 05bd 3083 afbb d1d7 66bd 7b5e 29bd
00000020: 4892 19bc a1be bc3d fa4c b83c 5e13 1cbd
00000030: a083 803c 2ca9 3cbc df2d a9bd 1fea 1fbd
00000040: 5600 87bd d002 ebbd 38a8 e9bc 80cc 3ebc
00000050: be5b 0ebe e891 66bd 161e 9bbd 5e07 16be
00000060: cdf2 61be 73fb 11be 740c 54bd 7789 bb3c
00000070: fff5 ae3c 6a49 8fbc 408c cdb9 4046 29b9
00000080: db92 a7bc 9660 bebc 18dc 2dbd 4f38 0fbd
00000090: 96e0 e03d f581 fc3d c886 0e3e a49e 743d
000000a0: 84ae 9f3d 5a65 863d d13d adbc 9a09 393c
000000b0: e88f 46bb 3585 863e 72ac 353e 39d2 563e
000000c0: 4e08 9e3e be7b 463e dc9c 093e 5ab9 e53e
000000d0: e4a3 b63e c26f 763e a1c8 853b 4820 f9ba
000000e0: 6c86 0e3c 5883 193b 79fe e3bb 3217 fbbc
000000f0: 0271 e13c 0c99 883c 374b b6bc 3c70 00bb
00000100: 8a94 b8bd 368d e6bd fe1c 42bd a25a 64bd
00000110: bc4b 9ebd f9ba 5a3c d2ba 713c 996c 33bd
00000120: 18ec 173d a444 373d 6051 7c3a 28ad c23c
00000130: 9400 1b3d 6f8e 7f3c d214 89bc 6c38 b5bb
00000140: 508c c8b9 9c13 c43c 30b7 5b3c 5e9f cfbb
00000150: b76d 763c fca5 433c c368 393c 1894 8eba
00000160: f262 2dbb 3bc9 863c 7c88 d13c 86aa c83c
00000170: c73d 353c 7e04 8f3b 113f 163c 0453 753c
00000180: eae7 12bb 5caa bfbb e6c2 02bb d157 99be
00000190: e0d6 0ebf d1d9 27bf d0e3 28bc 5036 c5be
000001a0: 4ce2 0fbf ac23 88bd 49e9 9bbe e8a4 cbbe
000001b0: 5602 303e db59 443e 4a21 3a3e 7a4f 203e
000001c0: def3 5a3e 53b2 6e3e 614e 123e 6971 623e
000001d0: fd3f 5e3e 16ea da3a 8f0e 6ebb 663c 093c
000001e0: 22b2 5f3c 42ab fc3a 5ddc 2d3b 9e53 403d
000001f0: 920c c23c acec ac3b 5684 d13d 5e0e fa3d
00000200: 246f 243e e6d8 b93d aa61 1b3e 4705 843e
00000210: 3c2c 323d 91d1 bc3d 28b0 593e 2e2f 9e3d
00000220: a3bd 2dbd bcb0 48bc 2839 493e 1ec1 063e
00000230: 9228 963d 5883 b33e 3bd1 a13e 894f 973e

momentum_buffer f4 [16]
4.3966214e-05 -0.0001185874 0.00037930114 1.543307e-05 -4.577053e-05 0.0001836224 -9.633449e-05 0.0001298864
0.0005031858 -8.8446235e-05 0.00010082544 0.0003982668 -0.00031718373 -5.804077e-06 0.00016612616 2.3455268e-05
00000000: 5d68 3838 20b2 f8b8 f0dc c639 4476 8137
00000010: bbf9 3fb8 c38a 4039 2f07 cab8 1d32 0839
00000020: 3ae8 033a 367c b9b8 3f72 d338 77ce d039
00000030: ae4b a6b9 a4c0 c2b6 2732 2e39 cec1 c437
