models/epoch=3-step=100-v1.ckpt (torch, 800661 bytes, 38 tensors)

backbone.0.weight f4 [16, 1, 3, 3]
000000 3d fb 0d bf 83 4f e2 be 57 59 66 bf 56 0f 23 bf
       -0.55461484 -0.44201288 -0.8998007 -0.63695276
000010 2d 22 70 be 31 1c 9c be 67 8d fe be 93 99 41 bf
       -0.23450537 -0.30490258 -0.49717256 -0.7562496
000020 9a fd f6 bd b1 f7 ec be 6a 86 10 bf f2 11 17 bf
       -0.120600894 -0.46282724 -0.564551 -0.5901176
000030 81 2e e5 be e2 c7 a7 be 6e f4 28 bd 9c 86 5d bf
       -0.44762042 -0.32769686 -0.04124873 -0.8653352
000040 21 b9 79 bd 2e 6c 39 3e 86 3c ec 3f 0b 06 65 40
       -0.06096757 0.18107674 1.845597 3.5784938
000050 c3 3e 79 40 0e 37 43 40 25 6a 7c 40 7e 83 84 40
       3.8944557 3.0502353 3.9439785 4.1410513
000060 30 dd 2e 40 f1 08 55 40 00 88 69 40 7c eb fb 3e
       2.7322502 3.3286707 3.6489258 0.49203098
000070 0e d5 d0 3e de 4f 86 3e bf 9d 2b 3e ff e1 13 bc
       0.40787548 0.2623281 0.16759394 -0.00902605
000080 8b a3 13 3f 3b a2 91 3e a0 01 f6 3e 20 80 7d 3e
       0.5767142 0.28444085 0.48048115 0.24755907
000090 b9 7c 56 bf f5 3d 19 bf 4a a5 40 bf 17 b0 27 bf
       -0.8378406 -0.59860164 -0.7525221 -0.65503067
0000a0 c8 55 67 bf 12 23 0a bf 5b 01 8c bf eb a2 28 bf
       -0.90365267 -0.53959763 -1.0937914 -0.65873593
0000b0 a6 ec 42 bf 8f 0e 70 bf 6c de 06 bf 6f 48 55 bf
       -0.76142347 -0.93772215 -0.5268314 -0.8331365
0000c0 9a e6 e6 be 11 f8 c0 be 17 70 9f be e5 de 6f bf
       -0.4509781 -0.3768926 -0.31140205 -0.93699485
0000d0 7b 94 8b be d1 17 af be f2 82 a6 bc a2 d5 24 3f
       -0.2726172 -0.34197858 -0.020326111 0.6438848
0000e0 de 3f 6d 3e 9e b1 91 3d ae 7e f6 3e 00 2e 33 3f
       0.23168895 0.07113956 0.48143524 0.69992065
0000f0 e6 d9 03 3f 3b cc 3c 3f 6b 8a 57 3f fa 9f b6 3f
       0.5150436 0.7374913 0.84195584 1.4267571
000100 46 8d 75 3f 7c d9 7c 3f 91 30 87 3f 92 86 82 3f
       0.9591869 0.98769355 1.0561696 1.0197318
000110 18 d5 78 3f 53 a1 5e 3f 9c e0 6f 3f 86 4a bd 3e
       0.97200155 0.8696491 0.937021 0.3697092
000120 2a 9f 15 3f 4d ec fc 3e 88 ba a2 3e 50 8f 1e 3f
       0.5844599 0.49399033 0.31782937 0.6193743
000130 77 c4 cf 3e 53 12 6b 3d c3 a8 a7 3e 79 1a 10 be
       0.40579578 0.057390522 0.32745942 -0.14072599
000140 4f 6a d9 3e a9 3e 20 bf 43 9f dd be 69 ad 18 bf
       0.4246392 -0.6259561 -0.4328557 -0.596396
000150 ff e6 a9 be 02 5a 33 bf 15 4a 32 be 40 3c 3f bf
       -0.3318405 -0.70059216 -0.17411073 -0.7470131
000160 21 ce 0f bf 44 09 ea be f3 54 49 be 86 4b aa be
       -0.561739 -0.45710194 -0.19661312 -0.33260745
000170 9e d8 0b bf 8c 69 c7 be 8b ac 8b be 1a 97 06 3d
       -0.54627407 -0.38947713 -0.27280077 0.032858945
000180 1e 2e 30 bf 93 60 0f bf 34 3b 15 3f 7e c2 31 bf
       -0.6882037 -0.56006736 0.5829346 -0.69437397
000190 3c 6e 11 be 49 0d d6 be 4d 9b 5c bf 26 a3 1d 3e
       -0.14202207 -0.4180701 -0.8617447 0.15394267
0001a0 4e 88 6b 3e cd db 22 bf 4f 24 42 3e cd f9 a3 bd
       0.23001215 -0.6361664 0.18959163 -0.0800663
0001b0 a4 d5 f8 3e 3f aa f9 3e f4 e8 2c 3f 62 3d 58 3c
       0.48600495 0.487627 0.6754296 0.013198229
0001c0 23 01 18 3f 3b ef 15 3f 24 72 07 3f 60 d4 71 3f
       0.59376734 0.5856816 0.5290854 0.94464684
0001d0 d0 1f 09 3f 64 3f fe be 79 3b 02 bf e9 f9 dc be
       0.5356417 -0.49657738 -0.50872 -0.43159416
0001e0 81 c8 d7 bd 27 b4 a3 3d b8 84 9f bd ca 0d 28 bf
       -0.1053629 0.07993346 -0.07788986 -0.6564604
0001f0 be a5 10 bf 27 9f cf bc eb cf e1 3e af 7d 0d 3f
       -0.565029 -0.025344444 0.4410394 0.552699
000200 4b 73 c9 3e a6 f9 8e 3e 2b 96 1c be c9 20 6b 3e
       0.39345774 0.27924842 -0.1529166 0.22961725
000210 46 75 58 3e df e7 8a 3e 27 6f 5a 3d 9f 5f 1e 3f
       0.21138486 0.2713003 0.05332866 0.61864656
000220 9c 20 c0 3e fb 59 ee 3d a3 9f fb 3e f9 6e 88 3e
       0.3752488 0.11638256 0.4914523 0.26647165
000230 b9 6b 8f 3e 46 cc 2a 3e 49 5c 0b 3f 11 52 0b 3d
       0.28011873 0.16679487 0.5443769 0.03401381

backbone.0.bias f4 [16]
000000 84 3b ee 3d e0 9a 95 3e 4c d4 22 3e 26 7c 98 3e
       0.116324455 0.29219723 0.15901297 0.29782218
000010 39 7c 1f be 8c ef 4f 3e 2f b8 09 3e 4d bd 36 3d
       -0.15574731 0.20306224 0.13449167 0.044614125
000020 87 ae 28 3c 7a a2 30 be 8f cd 10 be a4 53 10 3e
       0.010295517 -0.1724948 -0.14140914 0.14094406
000030 6c a7 40 3e 8a 28 a4 be c5 41 21 be f9 05 50 3e
       0.18813866 -0.3206218 -0.15747745 0.20314778

backbone.1.weight f4 [16]
000000 88 21 ab 3f 05 54 c1 3f 99 47 01 3f a3 48 4e 3f
       1.3369608 1.5103766 0.50499874 0.80579585
000010 84 48 89 3f 6d 4a 88 3f d7 a2 08 3f 37 fd c2 3f
       1.0725255 1.0647713 0.53373474 1.5233525
000020 ca a1 95 3f b1 de 69 3f 86 17 d5 3f 88 35 e0 3f
       1.1689999 0.91355425 1.6647804 1.7516336
000030 f3 d5 92 3f fe 4c 9e 3f eb db db 3f 6a f8 9f 3f
       1.1471542 1.2367246 1.7176489 1.2497685

backbone.1.bias f4 [16]
000000 d9 51 a2 3f 19 bf c2 3f d2 ef a3 bf fd aa 40 be
       1.2681228 1.5214568 -1.2807562 -0.18815227
000010 7f b1 8a 3f 2f 30 87 3f a3 25 53 bf 91 a0 60 3f
       1.0835418 1.056158 -0.82479304 0.87745005
000020 38 9d b3 3e 78 98 93 3f cc cf 92 3f eb a6 a3 3f
       0.35080886 1.1530905 1.1469665 1.2785314
000030 1c 7d d5 3e 73 59 70 3f f7 c8 84 3f 52 f6 ee 3e
       0.41697013 0.9388649 1.037383 0.46672302

backbone.1.running_mean f4 [16]
000000 6a 6f 5a c0 02 cb 0e c0 d9 c7 c0 41 5e da 26 40
       -3.4130502 -2.2311406 24.097582 2.607078
000010 0a b9 b1 c0 6f 4b 70 c0 d0 0d 5e 40 3c c8 db 40
       -5.553838 -3.754604 3.469593 6.8681927
000020 87 6e 1d 40 34 1c 76 c0 d2 72 01 c0 6c e6 d2 bf
       2.459871 -3.8454714 -2.022633 -1.6476569
000030 e6 3a 81 40 b7 12 22 c0 fd 52 d3 3f 86 fe 1f 40
       4.0384398 -2.5323923 1.6509701 2.4999099

backbone.1.running_var f4 [16]
000000 5d 35 c5 3f ff af 4a 3f 1b 29 8e 42 66 b7 28 3f
       1.540691 0.791748 71.080284 0.65904844
000010 31 cc 66 40 7e 98 f7 3f 0d 3e b1 3f 80 be b8 40
       3.6062129 1.9343412 1.3847061 5.7732544
000020 e1 b3 3e 3f 93 b8 d5 3f 66 20 e3 3e 57 f4 cc 3e
       0.74493223 1.6696953 0.44360656 0.40030167
000030 b0 22 eb 3f a2 8c 1a 3f ad 3c cf 3e 8e f6 27 3f
       1.8369961 0.6037084 0.4047598 0.6561059

backbone.4.weight f4 [32, 16, 3, 3]
000000 5b 71 44 bf 04 26 5b bf 9a 89 74 bf 4d cf 79 bf
       -0.76735467 -0.8560488 -0.95522463 -0.9758194
000010 6c 3d 83 bf 47 25 51 bf 2f 2a 98 bf 33 7f a4 bf
       -1.025312 -0.81697506 -1.1887873 -1.2851318
000020 62 d0 90 bf d0 19 48 bf cd 15 41 bf db 2a 83 bf
       -1.1313593 -0.78164387 -0.7542389 -1.0247453
000030 59 c9 8e bf 21 ed 88 bf b1 6f 7e bf 1c 37 94 bf
       -1.1155196 -1.0697366 -0.9938918 -1.1579318
000040 c0 72 ae bf 5c 2f ab bf 03 3b 4b bf 7a 90 63 bf
       -1.3628769 -1.3373828 -0.7938692 -0.8889233
000050 12 de 8e bf 36 91 7b bf 39 64 8f bf f3 ed 80 bf
       -1.116152 -0.9826845 -1.120246 -1.0072616
000060 44 68 be bf 05 1c cb bf 18 45 a1 bf 6f 79 28 3e
       -1.4875569 -1.5867926 -1.2599211 0.16452573
000070 de 72 3a 3e 50 ab 59 3e 68 54 78 3e 59 2d 93 3e
       0.18207881 0.21256757 0.24250948 0.28745535
000080 8c d1 46 3e f1 5d 4b 3e 42 d7 9a 3e ba e4 9e 3e
       0.19415873 0.19860055 0.30242354 0.3103388
000090 c3 34 83 bf c0 d2 73 bf 8a 81 8d bf 47 1b ac bf
       -1.0250477 -0.95243454 -1.1055157 -1.3445824
0000a0 88 2f a5 bf 1f 30 92 bf 31 ce b2 bf c6 6f b6 bf
       -1.290513 -1.1420935 -1.3969175 -1.425286
0000b0 64 55 b9 bf 71 70 3c bf a4 6c 81 bf 20 35 8d bf
       -1.4479184 -0.7360907 -1.011128 -1.1031837
0000c0 42 d3 98 bf 49 2e 96 bf d1 a7 67 bf 34 f7 b2 bf
       -1.1939471 -1.1732875 -0.9049044 -1.398169
0000d0 6b 3f c7 bf 86 46 86 bf 9a 59 94 3e 38 4c 52 3e
       -1.5566229 -1.0490272 0.2897461 0.20536888
0000e0 99 08 b7 3e fa c2 7c 3e 84 39 86 3e 91 17 26 3e
       0.35748747 0.24683753 0.26215756 0.16219927
0000f0 24 a9 0b 3e 64 96 64 3e c5 fd 59 3e 8d e1 b5 3d
       0.13638741 0.22322994 0.21288212 0.08880911
000100 7f 12 3d 3d 15 ec 13 3e a7 8e 29 3e 92 ed 80 3e
       0.046160217 0.14445527 0.16558324 0.25181252
000110 21 ee 74 3d b4 b3 16 3e fb b1 82 3e 4b 1b 70 3e
       0.05979741 0.14716989 0.25526413 0.23447911
000120 10 55 68 3e 87 a3 5a 3e 5a f3 18 3e fa 50 8f 3e
       0.22688699 0.21351443 0.14936581 0.27991468
000130 42 40 86 3e 83 a7 72 3e e9 09 9b 3e a7 55 d5 3e
       0.262209 0.23696713 0.30280998 0.4166691
000140 ca fa b6 3e 94 48 5d bf a4 5a 57 bf 52 98 81 bf
       0.35738212 -0.8643887 -0.8412268 -1.012461
000150 a1 f3 88 bf a0 68 93 bf b3 6f 89 bf 47 8f 88 bf
       -1.069935 -1.1516304 -1.0737213 -1.0668725
000160 d8 e8 9f bf 53 fa 91 bf de 28 2e bf d1 77 2c bf
       -1.2492933 -1.1404518 -0.6803111 -0.67370325
000170 ba 72 74 bf 59 f8 83 bf cb 99 88 bf 13 eb 56 bf
       -0.9548756 -1.0310165 -1.0671934 -0.83952445
000180 13 59 a1 bf fa 01 b3 bf bb 51 93 bf 67 86 1e bf
       -1.2605308 -1.3984978 -1.1509317 -0.6192383
000190 6d 68 52 bf 48 48 6c bf 17 aa 7b bf d7 5d 6d bf
       -0.8219059 -0.9229779 -0.9830641 -0.92721313
0001a0 72 6a 5d bf 53 d1 9c bf f1 c8 a9 bf 9b 9b 89 bf
       -0.8649055 -1.2251381 -1.3264447 -1.0750612
0001b0 ec 58 dc 3d 69 96 e8 3d 3f e5 44 3e e9 5e 63 3e
       0.10759148 0.113568135 0.19228075 0.22204174
0001c0 9b e6 e9 bd ea b8 60 3c ed 28 08 3e 46 a3 48 3e
       -0.11420938 0.013715962 0.13296862 0.19593534
0001d0 df 23 9b 3e 70 e3 30 bf 90 2d 3f bf 96 d5 71 bf
       0.30300805 -0.6909704 -0.746789 -0.9446653
0001e0 a8 fd 6a bf 09 31 7e bf 52 d0 80 bf e6 78 96 bf
       -0.917933 -0.9929357 -1.0063574 -1.1755645
0001f0 bc 6b ac bf 3f d5 9a bf ae 6d cb 3d 28 4c 10 3e
       -1.3470378 -1.2096328 0.09933029 0.14091551
000200 b7 1d 97 3e 2e 32 38 3e 26 f7 2f 3e 2e 9d 8a 3e
       0.29514858 0.17987892 0.17184123 0.27073044
000210 6e ff 90 3e fa 20 a8 3e 9c 56 a0 3e ca d2 20 3e
       0.28319877 0.3283766 0.31316078 0.1570541
000220 a4 5b b4 3d 5b 6f 5e 3d 7a 91 b1 3e 43 b5 bd 3d
       0.088065416 0.054305416 0.34681302 0.092630886
000230 f2 be 84 3e 43 6b 29 3e d1 9e 55 3e 9b 8a c9 3e
       0.2592693 0.16544823 0.20861365 0.3936356
000240 4e a0 5e 3e d1 fd 61 3e 07 00 0e 3e 33 16 3a 3e
       0.21740839 0.2206948 0.13867198 0.18172531
000250 0c c7 2f 3e f2 62 21 3e 60 36 90 3e 4b 1e 59 3e
       0.17165774 0.15760401 0.28166485 0.21202962
000260 85 06 5f 3d a6 45 c8 3d 79 85 06 3e 1a 96 03 3e
       0.054449577 0.097789094 0.13136853 0.12850228
000270 8d ee 95 3d d9 f7 d7 3d 8f 64 02 3e fb ee 1d 3e
       0.073208906 0.1054532 0.12733673 0.15423195
000280 09 94 16 3e 25 21 06 3e ee 30 f9 3d 38 11 c3 3d
       0.14704908 0.13098581 0.12167536 0.095247686
000290 ba 62 21 3e 1c d6 4f 3d 5a 67 35 3e 11 8a ce 3d
       0.15760317 0.0507413 0.17715207 0.10084928
0002a0 a3 8d a1 3d c4 32 36 3e 06 4f 3e 3e b9 46 55 bd
       0.07888343 0.17792803 0.18584833 -0.0520694
0002b0 b6 67 5e bd c4 45 54 bd 69 df 91 bc 84 06 9a bd
       -0.054298125 -0.051824346 -0.017806726 -0.07520774
0002c0 5a a1 8c bd 37 d8 9d bd db 77 b6 3b 21 fc 62 3d
       -0.06866713 -0.07707255 0.005568487 0.05541623
0002d0 43 01 e9 3d 2a b2 10 3e f0 9c 50 3e 23 d2 2d 3d
       0.11377194 0.14130464 0.20372367 0.04243673
0002e0 9d 2c cc 3d 50 da 47 3e f9 e3 99 3c 0e e0 82 bd
       0.09969447 0.19516873 0.018785464 -0.06390391
0002f0 26 31 4c bd 9f 37 64 3e 33 e4 2a 3e d0 58 07 3e
       -0.04985156 0.22286843 0.16688614 0.13217473
000300 37 7d 34 3e ee 70 36 3e 11 ad 19 3e 2a 66 43 3e
       0.1762589 0.17816517 0.15007426 0.19081941
000310 9c 6e 15 3e 44 de 96 3d 98 31 81 3d 43 94 b9 bd
       0.14592975 0.073666126 0.063082874 -0.09061482
000320 78 0f 14 be b5 0d 7a bc 80 52 7b be 74 38 a6 bd
       -0.14459026 -0.015262057 -0.2454319 -0.08116236
000330 52 18 9d bd 2e 64 38 3d db ad 5c 3d 4a cf 81 be
       -0.07670654 0.045017414 0.05387674 -0.25353462
000340 6b 53 2e be ff 09 06 be bb 53 7d bd a4 af 58 be
       -0.17024009 -0.1308975 -0.06184743 -0.21160752
000350 37 3d 1f be 6b cc b3 bd 79 2c a0 bd 01 b5 48 be
       -0.15550695 -0.08779224 -0.078209825 -0.19600298
000360 21 d9 d8 bd 04 67 32 be 8f fe 74 bd dd 35 29 be
       -0.10588289 -0.1742211 -0.05981308 -0.16524453
000370 6f 23 58 bd 94 11 42 bd 7d f2 f8 bd 59 0e 37 be
       -0.052768167 -0.047380045 -0.12155626 -0.17876567
000380 1c e7 20 be b5 05 40 3e 81 ec 59 3e 13 0b 26 3e
       -0.15713161 0.18752177 0.21281625 0.16215162
000390 61 e7 17 3e 13 e2 38 3e bf 76 e9 3d 6d dd e4 3d
       0.14834358 0.1805499 0.11399602 0.11175046
0003a0 fd 16 bc 3d 6d 50 22 3d 72 24 92 3e fa 6b 6e 3e
       0.09184072 0.03962748 0.2854343 0.23283377
0003b0 99 2d 0b 3e 4f 57 7a 3e 06 5c 6a 3e a3 6e c7 3d
       0.13591613 0.24447368 0.22886667 0.09737899
0003c0 a0 ba 6a 3e 7e c1 37 3e d2 d6 65 3e cf b1 59 3e
       0.22922754 0.17944905 0.22445229 0.21259235
0003d0 1a 6d 6d 3e 28 c1 79 3e 70 92 65 3e 58 46 e4 3d
       0.2318615 0.2439009 0.22419143 0.111462295
0003e0 64 97 1f 3e a0 92 6a 3e 25 09 ea 3d 35 05 b9 3d
       0.15585095 0.22907495 0.114275254 0.09034196
0003f0 d7 de ab bd ce 6a ab bd d4 e4 70 bd 91 03 46 be
       -0.08392113 -0.08369981 -0.058811978 -0.19337298

backbone.4.bias f4 [32]
000000 a3 12 a2 bc a3 19 75 3d 70 26 5c 3c a3 46 98 bd
       -0.019784277 0.059838902 0.013436899 -0.07435348
000010 bc 40 2b 3d a9 c6 7b bd ce 21 6a 3a 54 0f 43 bd
       0.041809782 -0.061468754 0.0008931429 -0.04762204
000020 64 b9 41 bd e6 4c b7 bc f0 89 93 bc 6a a2 9c 3d
       -0.047295943 -0.022375535 -0.01801011 0.076481655
000030 bd d9 81 bd a2 34 83 bd ed 47 5a bd 19 d6 97 3d
       -0.063403584 -0.06406523 -0.05329125 0.07413883
000040 a7 92 ae 3c 40 f1 1b bd 2f 71 68 bc a1 37 77 bd
       0.021310164 -0.03807187 -0.014187141 -0.060355786
000050 3b 79 93 bd df 4e 60 3d ed 3c 2f bd 61 06 94 bc
       -0.07200857 0.054762717 -0.042782713 -0.018069448
000060 d7 69 5c bd f5 e5 20 3d 23 05 46 bd 69 e8 97 bd
       -0.053811874 0.039281804 -0.048344743 -0.074173756
000070 52 03 8e bd 92 a2 a5 3d 0f 10 9a bd 54 54 13 3d
       -0.06934227 0.080876485 -0.07522594 0.035969093

backbone.5.weight f4 [32]
000000 cb 81 16 be 66 88 95 3f 33 8f 8b 3f ce c1 8d 3e
       -0.1469795 1.168225 1.0903076 0.27686924
000010 6b 2e 00 40 ed 19 ce 3f e8 2e 1c 3f fb d3 f7 3f
       2.0028331 1.6101662 0.61009073 1.9361566
000020 12 f6 3c 3f 10 3a a4 3f c6 d6 92 3f 98 a0 d8 3f
       0.73812973 1.2830219 1.1471794 1.6924009
000030 d5 db 59 3f 63 90 bb 3f 83 96 a3 3f d6 8f ec 3f
       0.8510106 1.4653438 1.2780308 1.8481395
000040 d8 4f d4 3f c2 2e 9c 3f 21 11 0d 40 68 aa 9a 3f
       1.6586866 1.2201769 2.2041705 1.2083254
000050 3c dd 4c 3f 0e b1 38 3f ba 53 99 be 3d 69 81 3f
       0.80025077 0.72145164 -0.2994669 1.0110241
000060 2a 2d e1 3f c4 3e bb 3f 63 99 f1 3f 95 34 d1 3f
       1.7591908 1.462853 1.8874935 1.6344172
000070 d9 31 9b 3e ae e0 de 3f 01 10 91 3f 7d 4c 8f 3f
       0.30311468 1.7412317 1.1333009 1.1195217

backbone.5.bias f4 [32]
000000 90 83 5e bf e2 9a c6 3e 99 5b c1 3e 9a 9e 0c 3e
       -0.869195 0.3879004 0.37765196 0.13732377
000010 34 ee 4c 3f ee 9b f4 3e ed 4f d3 3e 5a 35 55 3f
       0.8005097 0.47775215 0.41271916 0.83284533
000020 3d 77 96 be a9 b6 53 3e 56 a8 7d 3c a4 a5 90 3f
       -0.29387847 0.20675148 0.015482029 1.130055
000030 37 e0 c0 3e 6d d1 b8 3e c2 aa b4 3f 56 ad 2e 3f
       0.37671062 0.3609728 1.4114611 0.6823324
000040 05 fd f8 3e 45 52 b0 3e 43 43 8d 3f 46 52 50 3f
       0.4863054 0.34437767 1.1036152 0.8137554
000050 db 19 88 3f 77 76 b3 3e dd 50 cb bf d5 9c 1c 3e
       1.063289 0.3505132 -1.5884053 0.15294202
000060 87 cb 57 3f 4d 74 9c 3e 65 85 4d 3f 3a 51 df 3e
       0.84294933 0.3055748 0.8028167 0.43616658
000070 52 fa 78 bf e6 5c 2c 3f 67 64 c1 3f 0a 43 48 3f
       -0.9725696 0.6732925 1.5108765 0.78227293

backbone.5.running_mean f4 [32]
000000 34 d3 c3 c2 4c 6d 14 41 23 b5 88 41 91 34 20 41
       -97.912506 9.276684 17.088446 10.012834
000010 d2 35 c2 c1 06 a7 4d c1 94 a4 4d 41 52 18 3d c1
       -24.27628 -12.853277 12.85268 -11.818438
000020 40 90 e6 42 b0 4c c5 c1 e7 47 32 c1 66 d1 0b 41
       115.28174 -24.662445 -11.142554 8.738623
000030 11 87 50 41 b5 81 90 c1 9f 40 31 42 83 07 05 c1
       13.032975 -18.063334 44.313107 -8.314334
000040 be dc 1e c1 18 59 c1 40 1e a9 36 c1 62 2d b8 41
       -9.928892 6.0421257 -11.416288 23.02216
000050 d3 be 26 42 db 36 3e 41 14 1c 83 41 14 3a 9d c1
       41.68635 11.888392 16.38871 -19.653358
000060 80 e4 15 41 1a 68 04 c1 ba 3c 3e c1 11 63 85 c1
       9.368286 -8.275415 -11.889826 -16.673372
000070 c8 f4 9e c1 fd d5 0a c1 c1 fe 61 41 49 62 ef 41
       -19.869522 -8.677243 14.124696 29.92299

backbone.5.running_var f4 [32]
000000 af b0 33 46 f2 25 b4 43 be 86 93 44 1e 48 9a 43
       11500.171 360.29645 1180.2107 308.56342
000010 62 5e 37 44 a1 95 6d 43 74 94 ee 43 04 b4 ce 42
       733.47473 237.58449 477.1598 103.35159
000020 44 2c a9 46 fa 07 9d 44 cd c7 7f 43 db c1 c3 43
       21654.133 1256.2493 255.78047 391.5145
000030 12 93 df 43 e0 6c 0f 44 30 ee 8b 45 94 42 8b 42
       447.149 573.7012 4477.7734 69.630035
000040 f5 b5 2e 43 52 06 7e 43 d8 f1 c5 42 ef fa a7 44
       174.71077 254.02469 98.97235 1343.8417
000050 61 5b 21 45 c7 af dc 43 b4 68 85 44 60 73 99 44
       2581.7112 441.37326 1067.272 1227.6055
000060 2c 0c e9 43 36 7a 66 42 21 5c 21 43 80 d2 de 43
       466.0951 57.619347 161.35988 445.64453
000070 67 c2 64 44 9f 32 38 42 b7 95 08 44 ce 28 06 45
       915.03754 46.049435 546.3393 2146.5503

backbone.8.weight f4 [64, 32, 3, 3]
000000 9b 36 a5 3d 42 9b 0d bc 6a c8 51 be 23 e2 9e 3d
       0.08067056 -0.008642973 -0.20486608 0.07757976
000010 d4 1e 55 bd 3c 53 94 be 1a ef 18 bd 66 5b 3c be
       -0.052031353 -0.28969753 -0.0373374 -0.1839424
000020 46 e2 eb bd af 23 05 be a7 ec 06 be bb 2e eb bd
       -0.115177676 -0.13001893 -0.13176213 -0.114835225
000030 4c 8e 09 be d6 08 29 be c6 2d 77 be ea 18 f4 bd
       -0.13433188 -0.16507277 -0.24138555 -0.119188145
000040 20 3c 9b be ba f0 a1 be 66 8b f2 bd 48 25 0e be
       -0.3031931 -0.31628972 -0.118429944 -0.13881409
000050 80 9b 53 be ae 28 dd bd 1f d5 0f be e3 b4 52 be
       -0.20664787 -0.10798775 -0.14046143 -0.20576815
000060 5a f2 45 be 78 9b 8e be ac e3 a7 be 98 41 2e be
       -0.19330731 -0.27852988 -0.32790887 -0.1701721
000070 21 99 51 be f8 fb 5f be e8 ed 12 bd df 86 0c be
       -0.2046857 -0.21873462 -0.035871416 -0.13723324
000080 7b 78 1d be 8b 06 40 be 36 c8 94 be fb c2 97 be
       -0.15377991 -0.18752496 -0.29059 -0.29640946
000090 e8 d5 de 3d 89 8d 6b 3d d4 69 7d 3c 3b a5 c6 bd
       0.10880643 0.057508025 0.015467126 -0.09699484
0000a0 e3 19 9c bd e5 8f 25 3d d9 2e 0f bd ec e5 c7 3d
       -0.07622125 0.04042043 -0.034956787 0.09760651
0000b0 3e 28 5b 3d ae 79 7f 3d e6 b6 e0 3d 14 b9 f5 3d
       0.053505175 0.062371902 0.10972385 0.119981915
0000c0 ad 68 d0 3d aa f0 af 3d 07 4a 11 3e 51 94 eb 3d
       0.10176215 0.08590825 0.14188395 0.115028985
0000d0 f2 a6 c8 3b ec 4f 45 3e 71 9e 20 be 32 82 39 be
       0.006123417 0.19268769 -0.1568544 -0.18116072
0000e0 e9 dd 82 be d2 fd 18 bd fb 1d 04 be e6 78 a4 be
       -0.2555993 -0.037351437 -0.12902062 -0.32123488
0000f0 87 61 3a be 57 81 7a be 8b 9d ad be 17 07 dc 3d
       -0.18201266 -0.24463402 -0.33909258 0.1074354
000100 e8 3d 03 3e 02 14 53 3d f4 93 d4 3c 10 c5 6a 3d
       0.12816584 0.051532753 0.025949456 0.05731684
000110 d7 5b e6 3d dd 3b d6 3d 56 95 86 3d e3 b0 fe 3d
       0.11247986 0.10460637 0.06571452 0.12436082
000120 c2 d1 ad 3d cf 1a 37 3e 6f 06 37 3d 16 f2 db 3d
       0.08487274 0.1788132 0.04468387 0.107395336
000130 c3 06 eb 3d 05 04 d4 3d 97 f3 26 3d a6 2a 9c 3d
       0.11475899 0.10352329 0.04075965 0.07625322
000140 09 08 1d 3e 2d b2 f6 3d 7d 55 b7 3d 42 ad 68 bc
       0.15335096 0.12045703 0.089518525 -0.014201464
000150 37 bd 43 3d 2c 71 7c bd 1d 2e 0d be b4 59 0d 3d
       0.04778787 -0.061631367 -0.13787122 0.034509376
000160 ef 42 13 bd 47 7e 5a be 2b 12 0c 3d fa e5 f2 3c
       -0.035952505 -0.21337233 0.034197014 0.029650677
000170 ac e9 75 3d 20 a6 b2 3d a0 28 b3 3c a1 a2 85 bc
       0.0600373 0.08723092 0.021869957 -0.016312899
000180 52 db ae 3d 37 f1 28 bd d9 d2 b1 3d c0 d3 e8 bd
       0.08537926 -0.041245665 0.08682794 -0.11368513
000190 59 93 f6 3b 36 48 b2 bd 46 60 89 bd 71 d0 9f 3a
       0.0075248894 -0.087051794 -0.06707816 0.0012192858
0001a0 ec c8 79 be e7 8e c9 bd a9 1e 67 be 26 4c 81 be
       -0.24393052 -0.098417096 -0.2257029 -0.2525341
0001b0 ad a4 35 be 35 df 0b be e5 1e 21 be 44 3f 16 bd
       -0.177386 -0.13659365 -0.15734442 -0.03668143
0001c0 3d 1f a1 bd 3f 18 5b be 82 be d0 bd c2 45 72 be
       -0.07867286 -0.21395968 -0.101925865 -0.23659423
0001d0 26 8d 7a be 39 85 6a 3e ce 0a fc 3d 11 27 c0 3d
       -0.24467906 0.22902383 0.12306748 0.09382451
0001e0 bd f0 59 3d 3b 7a ba 3b a1 e8 c4 3b 5d fa 7d 3d
       0.0532081 0.0056908405 0.006009177 0.062006343
0001f0 d5 bf 81 3d a1 7e ef 3d a9 38 eb bd 97 d3 41 bd
       0.06335417 0.116940744 -0.114854164 -0.04732093
000200 24 bc 1c be 12 f5 11 be 81 0a 43 be 54 18 a9 be
       -0.15306145 -0.14253643 -0.19046976 -0.33026373
000210 77 97 59 be 58 ec 80 be 43 58 aa be 97 5b e5 3d
       -0.21249186 -0.25180316 -0.33270463 0.1119911
000220 bd 51 06 3e bc 02 a0 3d 8e c6 97 3b b0 32 a4 3c
       0.13117118 0.078130215 0.004631824 0.020043701
000230 a7 e6 c7 3b c9 9d e4 3d dc 30 af 3d 2d bf 0e 3e
       0.006100494 0.11162908 0.08554241 0.13940115
000240 ab 15 4b 3e d4 5c e8 3d 72 83 81 3b 33 22 95 3d
       0.19832484 0.113458306 0.003952437 0.072819136
000250 e9 09 f9 3c 94 1c 26 3c e5 7b 66 bb 23 19 9a 3d
       0.030400233 0.0101386495 -0.0035169062 0.07524326
000260 01 b1 2f 3d 63 3b 1f be be f7 1e be f2 41 16 be
       0.042893413 -0.15549998 -0.15524194 -0.14673594
000270 3c 7d 13 be 66 1a 0c be f8 85 93 be 0b 71 22 be
       -0.14403242 -0.13681945 -0.28813148 -0.15863435
000280 5a 95 31 be e3 30 97 be 57 47 3c 3e b3 c7 40 3e
       -0.1734213 -0.29529485 0.18386589 0.18826179
000290 a0 81 14 3b 35 71 92 3d bb 21 25 3d 5d cf f3 3c
       0.002266027 0.07150499 0.04031537 0.029761964
0002a0 cb 8d be 3d 02 2b 90 3d 1c 0b 48 3e 24 46 09 be
       0.093043886 0.07039453 0.19535488 -0.13405663
0002b0 a2 b8 17 be 85 3f 00 be 84 ff 40 be 7f 89 59 be
       -0.14816526 -0.12524231 -0.18847471 -0.21243857
0002c0 c7 8a 9d be aa 88 56 be 5b 9b 88 be e4 ee d9 be
       -0.3076994 -0.2095057 -0.26681027 -0.42565072
0002d0 6a c5 b9 bd 62 c1 60 bd 8b c2 81 bd ee 51 26 bd
       -0.09070857 -0.054871924 -0.06335934 -0.040605478
0002e0 76 9c 96 bd e0 85 66 be 29 6b 31 be a0 9e 76 be
       -0.07354061 -0.22512007 -0.17326035 -0.24083948
0002f0 d9 22 96 be 40 f2 1e bd e6 e8 e3 bc e0 64 4a 3c
       -0.29323462 -0.038805246 -0.027821016 0.012353152
000300 a8 c1 86 bd b6 c9 b2 bc 49 71 3c be f8 c9 41 be
       -0.06579906 -0.021824699 -0.1840259 -0.18924701
000310 24 6f 4b be ce 00 95 be a0 a7 a1 bd a2 35 76 bd
       -0.19866616 -0.29102176 -0.078933 -0.060109742
000320 5d 86 5d bd cd d5 87 be a3 b1 91 be 35 c8 93 be
       -0.054083217 -0.26530305 -0.2845584 -0.28863683
000330 17 0c 67 be 4c bc b5 be ee 07 16 bf 2b 49 4a 3e
       -0.22563206 -0.35495222 -0.5860585 0.19754474
000340 3d e5 c4 3d 65 70 22 3d 36 e4 24 bc c5 01 8d bd
       0.09614036 0.03965797 -0.010064175 -0.06885103
000350 b9 a6 e0 bd 4e d2 48 bc f4 39 17 be f2 e2 a3 be
       -0.109693 -0.012257172 -0.14768201 -0.32009083
000360 01 3b 12 be 3d e1 f3 bd 0e 41 98 bd d3 55 cb bd
       -0.1428032 -0.11908195 -0.07434283 -0.09928479
000370 3c df be bd 5d 6d 66 be aa 62 bc bd 68 22 60 be
       -0.09319922 -0.22502656 -0.09198506 -0.21888125
000380 38 26 9c be bd 13 87 3d 66 f2 d1 3d 16 dc 99 3c
       -0.3049791 0.06595562 0.10251312 0.018781703
000390 59 fa 3a 3c 21 42 b9 3d 76 31 5a 3d 9f 9c 95 3d
       0.011412227 0.09045816 0.053269826 0.07305264
0003a0 27 ab a8 3c fc 0e 91 3d 2b b2 3f 3e c0 15 41 3e
       0.020589424 0.07082936 0.1872031 0.18855953
0003b0 68 66 a5 3d 03 27 bb 3d 50 c1 dc 3d 9d f8 08 3e
       0.08076173 0.091383 0.10779059 0.13376088
0003c0 3d b0 81 3d f3 94 49 3e 30 37 ff 3d b1 8a cb 3d
       0.06332443 0.19685726 0.12461698 0.09938563
0003d0 31 bb b2 3d 23 52 f1 3c 50 62 65 3d 9b 0b 80 3d
       0.0872711 0.029458111 0.05600196 0.062522136
0003e0 08 5e fc 3c 25 d8 88 3d 08 3a 99 3d aa f2 de 3d
       0.030806556 0.06681851 0.07481772 0.10886128
0003f0 0f e0 c8 3b bf 17 b2 bc f4 1e 98 bc 6d 0d da bc
       0.0061302255 -0.021739839 -0.018569447 -0.02661773

backbone.8.bias f4 [64]
000000 7f 33 b0 ba 5a 30 ed 3c 53 fa 1e 3d e7 d5 32 bd
       -0.0013443081 0.02895372 0.038812947 -0.043661024
000010 cb 8e 80 bc 8b e8 a6 bc 5b b1 fe 3c 2e 5d 70 bc
       -0.015693089 -0.020374557 0.031090429 -0.014670653
000020 2d 5f 9c 3c 89 e4 15 3d 53 fa 2b bb dd ca 95 bc
       0.019088352 0.0365949 -0.0026241734 -0.01828521
000030 18 59 01 bc be bf 4c 3d 97 40 59 bc 9b 04 46 bd
       -0.007894777 0.049987547 -0.013260028 -0.048344236
000040 3d 0d 53 3b e9 bf c2 3c 93 71 5f 3d af 94 04 3d
       0.0032203936 0.02377315 0.054551672 0.03236836
000050 97 3f cb bb d2 27 7b ba 8b 9f eb bc 1a 18 c1 3b
       -0.006202649 -0.0009580824 -0.0287626 0.0058927657
000060 97 7e 51 ba 35 95 b0 bc 57 1a 21 bd ef 20 4a bd
       -0.00079915806 -0.021555522 -0.03933176 -0.049347814
000070 59 f0 9d bb 78 19 7e bc b1 fb 2d bd c5 69 37 bd
       -0.0048199114 -0.015509002 -0.04247636 -0.044778604
000080 eb 32 06 bd 07 65 25 bd 4d d3 65 bd 40 ba 38 3d
       -0.032763403 -0.04037955 -0.056109715 0.045099497
000090 c0 c4 52 bd 22 95 e3 3c 61 b1 e2 bc 58 41 f5 3b
       -0.051457167 0.027781073 -0.027672471 0.007484596
0000a0 cc 29 31 bd c3 70 39 bd e6 c9 35 bc 19 2f 71 3c
       -0.04325275 -0.045273554 -0.0110955 0.014720702
0000b0 52 16 48 bb 99 5a b4 3c 70 0a 00 bd 1a 69 39 3d
       -0.0030530882 0.022015857 -0.031259954 0.04526625
0000c0 9b a7 5f 3d a0 34 b5 bc d1 ca 1b 3c 89 9c 6f bd
       0.0546032 -0.02211982 0.009508804 -0.058498893
0000d0 5b 0e 70 ba 3c 03 73 bc 00 c6 1c 3d f8 ae 2e 3d
       -0.00091574126 -0.014832314 0.038274765 0.042647332
0000e0 67 88 5f bd 4f 76 57 bd af 8f 37 3d 14 ac 57 bd
       -0.054573443 -0.052603062 0.04481476 -0.05265434
0000f0 b6 ea 63 3d 8b 86 12 bc 93 e0 b8 3c 41 b6 b4 bc
       0.05564376 -0.00894321 0.022568023 -0.022059562

backbone.9.weight f4 [64]
000000 d9 8a 76 bf ce 27 86 3f 7a e8 b0 3f af fa 44 41
       -0.96305615 1.0480897 1.3820946 12.311202
000010 fc 47 a1 40 79 b9 3b 3f 1d ca e6 be 14 50 96 bf
       5.040037 0.73329884 -0.45076075 -1.1743188
000020 5f 93 d5 be 75 d8 e8 3f ef 83 aa 40 86 ac b1 bf
       -0.41713998 1.8191057 5.328605 -1.3880775
000030 e3 df bd 3f d5 38 8c 3f 94 cf 2c 40 4c 62 91 3f
       1.483395 1.0954844 2.7001696 1.1358123
000040 39 07 9f bf f3 8f 7a bd db b7 95 be 38 7c 63 bf
       -1.2424079 -0.061172437 -0.29241833 -0.8886142
000050 2a bc cf bd 1e 9c 99 bf a3 54 c6 bf ec 13 41 be
       -0.10143311 -1.2000768 -1.5494579 -0.18855256
000060 cc 5f b9 40 f3 af cf bf 64 31 4f 40 39 a1 83 bf
       5.792944 -1.622557 3.2373896 -1.0283576
000070 92 41 14 40 5c 6c 4f bd 4c 0b 56 bf 9c 23 12 3e
       2.316502 -0.05064045 -0.8361099 0.14271396
000080 92 e4 fd 3d 54 f4 ae bf a4 64 e4 3f e7 0d 3a 40
       0.12397112 -1.3668313 1.7843213 2.9070985
000090 3a 85 0c 40 f6 bb 2d 3f 93 44 ef bf d6 12 c8 bf
       2.1956315 0.6786493 -1.8692802 -1.5630748
0000a0 44 31 a7 bf 75 c6 97 bf 3c 6b 70 3f 11 8d e3 bf
       -1.306191 -1.1857439 0.93913627 -1.7777425
0000b0 fa 54 49 40 0f 80 6d 40 86 7f 1f 40 6e 34 13 3f
       3.1458116 3.710941 2.4921584 0.57501876
0000c0 98 68 ea bf 8c 5c 49 40 d9 41 15 40 7e af c9 be
       -1.831317 3.1462736 2.332144 -0.39391702
0000d0 2a c1 39 40 a4 d2 8f bf 64 51 c1 bd 4e 20 56 bf
       2.9024148 -1.1236157 -0.09439352 -0.83643043
0000e0 27 85 ff bc 58 07 21 40 bc 64 be bf 40 62 9a bf
       -0.031191422 2.5160732 -1.4874492 -1.2061234
0000f0 b7 a7 c5 bf 29 12 c7 3f 20 b4 15 40 62 56 81 bf
       -1.5441808 1.5552417 2.339119 -1.0104487

backbone.9.bias f4 [64]
000000 86 b0 73 c0 0f 70 b0 c0 86 43 04 c1 a7 ca db c1
       -3.8076491 -5.513679 -8.266485 -27.473951
000010 c4 69 76 c1 c7 b2 ca c0 60 82 09 c1 11 b9 14 c0
       -15.400822 -6.3343234 -8.59433 -2.3237956
000020 78 87 82 c0 d9 15 08 c1 7e 78 5d c1 21 b4 08 c0
       -4.0790367 -8.505334 -13.841917 -2.1359942
000030 8e e3 9a c0 03 be be c0 69 3d c7 c0 31 72 b5 c0
       -4.8402777 -5.960695 -6.2262464 -5.6701894
000040 f0 79 69 c0 21 5b 81 c0 9f 59 87 c0 58 86 a0 c0
       -3.6480675 -4.042374 -4.22969 -5.0163994
000050 b6 8e 67 c0 3d 02 80 c0 cd 7a 82 c0 2c 4c 5b c0
       -3.6180854 -4.000273 -4.0774903 -3.4265242
000060 bd b9 0e c1 48 ae 7f c0 f3 5c 28 c1 9f ef bf c0
       -8.920346 -3.9950123 -10.522693 -5.9980006
000070 60 ba 3d c1 36 f2 7f c0 39 22 77 c0 7c 44 89 c0
       -11.858002 -3.9991584 -3.8614638 -4.28961
000080 98 cc 84 c0 1b 4b 67 c0 42 73 98 c0 84 0d 17 c1
       -4.149975 -3.613959 -4.7640696 -9.4408
000090 59 a2 0d c1 2a 0a 8f c0 b0 ce 74 c0 c1 fd 7c c0
       -8.852136 -4.4699907 -3.8251152 -3.952988
0000a0 fd 12 89 c0 dc 87 4b c0 a8 12 b1 c0 46 c0 36 c0
       -4.283568 -3.1801672 -5.5335274 -2.8554854
0000b0 f9 e2 16 c1 fa ba 83 c1 4f 7c 24 c1 21 51 a6 c0
       -9.430413 -16.466297 -10.280349 -5.1974034
0000c0 01 f7 71 c0 da 76 36 c1 93 37 e6 c0 00 54 98 c0
       -3.780701 -11.4040165 -7.194284 -4.760254
0000d0 6c 4e c6 c0 e4 54 00 c0 37 c4 d8 c0 70 59 6e c0
       -6.197073 -2.0051813 -6.773952 -3.7242088
0000e0 8c 3a 7c c0 7d b8 ea c0 a4 47 a3 c0 6c a1 89 c0
       -3.9410734 -7.3350205 -5.102495 -4.300955
0000f0 f0 98 a7 c0 93 ba ef c0 1c 74 1f c1 86 c2 3f c0
       -5.237419 -7.491525 -9.965847 -2.9962478

backbone.9.running_mean f4 [64]
000000 da 90 a2 c1 80 9f cf 40 72 e5 08 42 c8 f0 34 c1
       -20.320728 6.48822 34.224068 -11.3087845
000010 89 4d 25 42 cd d5 b6 41 d1 0e db 41 c0 90 25 c2
       41.325718 22.854395 27.382235 -41.391357
000020 42 7b 07 42 2d 43 18 c0 de f4 2c c2 5a 2d b7 c1
       33.87037 -2.3791 -43.23913 -22.897144
000030 99 34 f8 c1 c7 60 d0 bf b5 c7 b3 c1 4a 5a df be
       -31.025682 -1.6279534 -22.472513 -0.43623573
000040 12 8a 06 c1 6c 40 5f c2 9c 4d b9 c1 29 cc 8e 41
       -8.408709 -55.812912 -23.162895 17.849688
000050 bb f9 54 c1 31 62 92 c1 fb 2a 84 c0 b2 86 4e c1
       -13.310969 -18.297945 -4.1302466 -12.907885
000060 f0 c0 21 42 44 cb 26 c1 bd 6a 1c c2 1d 45 15 c2
       40.438416 -10.424625 -39.104237 -37.317493
000070 b0 aa d7 c1 9c 45 96 c1 d2 08 c5 41 9a bc 1a c0
       -26.958344 -18.783989 24.629307 -2.4177613
000080 44 4d b3 c1 32 ed ac 41 76 88 a0 42 b0 36 89 c2
       -22.412727 21.615818 80.266525 -68.60681
000090 12 89 ad c1 85 1b 9e c1 72 63 93 41 78 46 fe c0
       -21.691929 -19.763437 18.423557 -7.946102
0000a0 0d 9d 88 c1 30 fc 01 c2 5a 77 bb 41 a9 d6 83 c1
       -17.076685 -32.496277 23.433277 -16.479815
0000b0 87 74 29 c2 9e e7 ce 41 8c 62 06 42 bb 9b af 41
       -42.363796 25.863094 33.596237 21.95104
0000c0 8f 78 ad 41 6d e1 1c 42 92 4b af 41 bf fc aa c0
       21.683867 39.220142 21.9119 -5.343353
0000d0 b8 81 1f 42 8f 0b 08 c2 20 71 f9 41 a8 88 0c 41
       39.87668 -34.011288 31.180237 8.783363
0000e0 51 75 52 40 be f9 cf 41 55 ee 82 c1 ed 03 5f c1
       3.2884104 25.996944 -16.366373 -13.938458
0000f0 77 2c 71 c1 c5 35 e6 41 d4 c7 ac 41 0b 2e 1e c1
       -15.073356 28.776255 21.597572 -9.886241

backbone.9.running_var f4 [64]
000000 72 47 ee 43 ee 0f 9d 43 19 54 cd 44 bc d2 25 45
       476.55817 314.12445 1642.628 2653.171
000010 04 66 a8 44 e8 12 5c 44 63 c7 94 44 74 4b 69 45
       1347.188 880.2954 1190.2308 3732.7158
000020 61 d6 af 44 ce 7b e1 43 a4 c1 53 44 27 ce 3b 44
       1406.6993 450.96722 847.02563 751.2211
000030 43 09 05 45 da 63 89 44 61 b8 9b 44 dd ad 1e 44
       2128.5789 1099.1204 1245.7618 634.7166
000040 75 23 80 43 a4 2a 49 45 58 66 a1 44 77 a8 01 44
       256.277 3218.665 1291.1982 518.63226
000050 fd d0 e3 43 d3 0e 8d 44 fd 26 66 43 1f a1 57 44
       455.63272 1128.4633 230.1523 862.5175
000060 bd e3 31 45 25 c0 9b 43 da 21 ed 45 c3 42 03 45
       2846.2336 311.50113 7588.2314 2100.1726
000070 2b f8 3d 44 6e 0b 40 44 d1 78 ca 43 bf dd 8f 43
       759.8776 768.1786 404.94388 287.7324
000080 1f 78 ca 44 0b 66 1a 44 4b c0 23 46 16 31 7d 46
       1619.7538 617.5944 10480.073 16204.271
000090 56 4c 7c 44 25 24 4f 44 6c d9 1a 43 09 9c 81 43
       1009.19275 828.56476 154.8493 259.21902
0000a0 db 4f fc 43 09 1a 82 44 56 d5 32 44 72 4b 71 44
       504.62387 1040.8136 715.3334 965.17883
0000b0 48 6c b8 45 fe e7 44 44 63 54 13 45 c3 66 28 44
       5901.535 787.6249 2357.2742 673.60565
0000c0 96 ef 49 43 27 5f 35 45 90 0a 3e 44 70 ce 80 44
       201.93588 2901.947 760.16504 1030.4512
0000d0 ac 10 8b 44 23 00 f8 44 e6 6d 83 44 c2 97 ed 42
       1112.521 1984.0043 1051.4343 118.7964
0000e0 72 7d 90 42 fc a4 88 44 e2 e3 a4 43 9b 4b 08 44
       72.24501 1093.1558 329.78033 545.18134
0000f0 23 54 af 43 85 d2 b3 44 b4 26 5f 44 c7 6d 1f 43
       350.65732 1438.5787 892.60474 159.42882

classifier.1.weight f4 [128, 576]
000000 82 74 1b 3d f3 25 44 3d fc 93 b4 3c 44 40 39 3d
       0.037952907 0.047887754 0.02204322 0.045227304
000010 e4 32 b3 bd 2b ae 36 bd b0 6f 84 3d 70 7c 0c bd
       -0.08749941 -0.044599693 0.06466615 -0.03429836
000020 39 cd 51 bc 56 40 83 be 22 a2 a6 bd b8 cb 9a bd
       -0.012805277 -0.25635022 -0.08136393 -0.075583875
000030 3a 9e f5 bd dc 18 76 bd 90 e4 29 3d c6 b2 2f be
       -0.1199307 -0.0600823 0.04147774 -0.1715804
000040 41 dd 53 3d 65 80 dd 3b 0e b9 d5 3d 50 93 be bd
       0.051724676 0.0067596906 0.10435687 -0.093054414
000050 6c b9 86 bd 79 bd bc bd 7b b2 0a be 17 ad 47 bd
       -0.06578335 -0.092158265 -0.13544647 -0.048749056
000060 7d da a2 bc a5 8c be bd 71 a1 75 bc ff 09 d0 be
       -0.019879574 -0.093041696 -0.014992104 -0.40632626
000070 4d 13 9c bc f0 1f 68 bc 04 5f 40 3d 9c 9c eb bd
       -0.019052172 -0.014167771 0.046965614 -0.1150448
000080 a8 98 d7 bd 2b 8a 9d 3d 9a b2 27 bd d5 f3 0e be
       -0.10527164 0.07692369 -0.040941812 -0.13960202
000090 2c 9b 8b 3e 58 91 c3 3d 82 85 4d 3b 2a 48 9c 3d
       0.27266824 0.095492065 0.0031360094 0.07630952
0000a0 f1 1f 3f bd 71 3c 12 3d 2a a9 17 3e a6 91 e0 3c
       -0.04666132 0.035702173 0.14810625 0.0274132
0000b0 ed 13 22 3e 00 58 39 3d fd 28 06 be a3 d2 16 be
       0.15827914 0.04524994 -0.13101573 -0.14728789
0000c0 da bc 24 bd fa 69 e5 bd bb fe ad bc c1 20 9e bd
       -0.040219165 -0.11201854 -0.021239629 -0.07721091
0000d0 9f da 43 bd ce 61 4c bd 54 36 4a 3e 9c 40 91 bc
       -0.047815915 -0.04989796 0.19747287 -0.017731003
0000e0 57 d5 67 3c 5c 20 87 bc b1 5f a0 bd 8c 34 4c 3d
       0.014149985 -0.016494922 -0.07830752 0.0498548
0000f0 93 22 46 bd 76 57 bb 3b d2 c4 c7 3b 5b bc f8 3d
       -0.048372816 0.0057172133 0.006096461 0.12145301
000100 da 26 6d 3d 3a 07 d3 3d da f3 bd 3d 88 5d 6d bc
       0.05789838 0.10304113 0.092750266 -0.014487632
000110 ff 30 32 bd 06 c1 e0 3c 7d 9b c4 bb 76 50 b7 bd
       -0.043503758 0.02743579 -0.005999981 -0.089508936
000120 ec 76 cd 3a e9 73 e0 3a b9 6a 92 bd ac a4 4e bd
       0.00156757 0.0017124388 -0.07149262 -0.050450012
000130 ae 9b b9 bc 13 2b 98 bd e9 79 12 3c 3c 1f 9c 3c
       -0.022657242 -0.07430091 0.008940198 0.019057862
000140 84 3a 5a bd ec ee 5c 3d 12 86 c8 3d 43 2f 3c 3b
       -0.05327846 0.05393879 0.09791197 0.0028714694
000150 32 1f 9d 3d ea 68 26 bc d4 37 6c bc 1e a4 18 3d
       0.07671966 -0.010156849 -0.014417607 0.03726589
000160 10 53 51 3c f1 7c d9 3c 3e 9b 8b 3d b3 3d 22 3e
       0.012776151 0.026548835 0.068167195 0.15843849
000170 f0 4c af 3d 9a 19 05 3e 0a 5d 20 3e b9 4c f6 3d
       0.085595965 0.12998047 0.15660492 0.120263524
000180 ab 23 bc 3d f3 ff 39 3e 12 a9 50 3e d8 9b 19 be
       0.091864906 0.18164043 0.20376995 -0.15000856
000190 2f ce 13 be 19 a9 c5 bd 27 bc 08 be 6b b9 5b bd
       -0.14434122 -0.096513934 -0.13353024 -0.053643625
0001a0 70 75 1d bc 29 67 cf bd fc 95 32 3d 6b 6b 7b 3d
       -0.009610519 -0.10127098 0.043600067 0.06138174
0001b0 51 ab 02 3e 98 30 91 3d 7c 80 0c bd f9 bd 40 3c
       0.12760665 0.07089347 -0.03430222 0.011764043
0001c0 97 a6 c3 bc 43 34 f1 3c 68 15 a0 3b 2e f9 be bc
       -0.023883147 0.029443866 0.0048853643 -0.023312178
0001d0 26 36 fd 3b 12 56 db 3c 0f 74 58 3d cf 9b 15 3d
       0.0077274023 0.02677444 0.052845057 0.036525544
0001e0 61 dc 07 3d ca 28 ad bc c4 0f 92 bc 75 77 10 bc
       0.033169154 -0.021137614 -0.017829783 -0.008817543
0001f0 42 4d db 3b c1 a4 3d 38 fa 3d 5e bc aa 00 92 3d
       0.0066925595 4.521455e-05 -0.013564581 0.07129033
000200 29 1b 2f 3d 96 54 02 3d 86 33 dd bc 09 0e ed bc
       0.04275051 0.03181895 -0.027002107 -0.028937357
000210 ca 8d 3c b9 d2 17 94 bc 92 9d f2 bb cf a9 63 3d
       -0.00017981898 -0.018077765 -0.0074040378 0.055581864
000220 16 a6 43 3d d4 65 48 3d 6f 8b ea 3c 3d 12 00 3c
       0.047765814 0.048925236 0.02863094 0.007816848
000230 13 fa ce 3c c5 82 a8 39 1e fe 39 3d a0 65 84 bd
       0.025265729 0.00032140888 0.04540836 -0.06464696
000240 8c 5f 8c bd be 00 b4 bc 00 0e 36 3d 29 76 9b bc
       -0.068541616 -0.02197301 0.044446945 -0.018977242
000250 ae 04 9a 3d 8c 83 a7 3c b6 48 79 38 4c 7c 3e bc
       0.07520424 0.020448469 5.9433944e-05 -0.011626314
000260 ae e6 dc bb cd 2c 02 bd 1e bc 30 3c 07 55 4e 3d
       -0.0067413663 -0.031781007 0.010787038 0.050374057
000270 e7 e5 87 3c ba 21 06 bc 26 fd 05 bc 0c de d7 bd
       0.016589118 -0.008186752 -0.008178031 -0.10540399
000280 23 49 95 bd 7b 69 8d bd f4 7f 2a 3d 86 47 00 3d
       -0.0728934 -0.069048844 0.04162593 0.03131821
000290 a1 0e ac 3c 19 39 02 bd ea d7 84 bc 70 f3 74 3b
       0.02100307 -0.031792734 -0.016216237 0.0037376545
0002a0 64 b9 42 bd 32 25 b8 b8 6e e6 00 3d 7a 36 15 3e
       -0.047540084 -8.780732e-05 0.031469755 0.14571562
0002b0 78 b6 90 3d a7 f8 db 3c 47 52 03 3e 2c 97 0c 39
       0.07066053 0.026851965 0.12824355 0.00013407756
0002c0 33 b0 2e 3d e8 84 59 3d ae 88 22 bb 46 48 f2 3b
       0.042648505 0.053105265 -0.0024800706 0.0073938696
0002d0 cf 61 84 bc 14 0f 66 bc a2 08 8c 3c 3e 81 9e bb
       -0.01615992 -0.014041681 0.01709396 -0.004837184
0002e0 f3 b4 91 3b 59 4a 58 bd 51 45 0f bd 0b 4b c6 3b
       0.0044466197 -0.05280528 -0.034978215 0.0060514263
0002f0 d8 be 56 bd 9b 16 c7 3b 18 db 48 bd 92 ce 64 bd
       -0.052428097 0.006075693 -0.04903707 -0.055861063
000300 a7 ad 17 bd 43 14 7c bd bb 75 c4 bc 7f 0a 74 bd
       -0.037030842 -0.06154276 -0.02398192 -0.059580322
000310 24 4b 58 bc 31 95 ce 3b 89 74 9b bd 48 27 23 3d
       -0.013201509 0.006304406 -0.07590587 0.039832383
000320 2a de 46 bc dc b1 ec bc 24 fb 6c bc 6d ae 55 bd
       -0.012137929 -0.028893404 -0.0144641735 -0.0521683
000330 e7 f5 a0 bd 9c b1 8d bc 5b 85 b8 3c 88 13 37 bd
       -0.07859402 -0.017296605 0.022524526 -0.04469636
000340 dd 27 29 bc ff ed 68 bd a7 e5 0c 3b b9 f7 d9 bb
       -0.010324446 -0.056867596 0.0021499188 -0.0066518453
000350 67 b8 1f 3d b3 6c 16 bd ad 29 9c 3d a8 34 fd ba
       0.03899422 -0.036724757 0.076251365 -0.0019318061
000360 eb 27 11 3e ff d3 c1 3d 08 49 b9 3d 1c 3c b2 3d
       0.14175384 0.09464263 0.09047133 0.08702871
000370 13 99 92 3a 33 8c 81 3d 09 bd 61 3d 2d 3c 79 3d
       0.0011184536 0.06325569 0.05511192 0.060848404
000380 69 62 c1 3c e5 2f a7 bd 83 56 74 bc ab 10 35 3c
       0.023606496 -0.08163432 -0.014913204 0.011051337
000390 1b ed 86 bc 51 03 2a 3d 0c 01 bd 3c 2e fd 57 3c
       -0.016470483 0.04150707 0.023071788 0.013182921
0003a0 90 46 90 3c 5c df 20 3c ba 61 2f bb 88 d5 e8 3c
       0.017611772 0.009818878 -0.002676113 0.028422132
0003b0 cd 79 77 bd a2 1a f3 bb d5 8d da bc c6 6d 07 3d
       -0.060418893 -0.0074189464 -0.026678959 0.033063672
0003c0 df 43 c8 bd 0d 19 f8 3c 9f 1e 9f 3c c4 e7 af 3b
       -0.097785704 0.030285383 0.019423781 0.005368205
0003d0 96 4e f6 3c 06 61 ba bb 62 53 10 3d 7e 1c 32 3b
       0.03006677 -0.0056878356 0.03523577 0.0027177627
0003e0 6e 6d 96 bd 21 0c af 3d d2 3d f3 3b ea 63 41 3d
       -0.07345091 0.08547235 0.007423141 0.047214426
0003f0 99 22 7b 3d 23 21 96 3d 09 99 2e 3c 90 12 05 3d
       0.06131229 0.07330539 0.010656604 0.032488406

classifier.1.bias f4 [128]
000000 0d 01 17 bd b7 a8 8e bd 54 16 98 3d e3 90 4c bd
       -0.036866236 -0.069657736 0.07426134 -0.049942862
000010 4d 68 55 3d 55 3b 4c b9 b6 f3 2d be 76 b1 07 3d
       0.052101422 -0.00019477059 -0.169875 0.033128224
000020 da 7c 96 3c dd aa 8c be 6c e0 82 3d 3f 91 76 3d
       0.01837008 -0.27474108 0.06390461 0.06019711
000030 fe 7a 3f be 39 cd 25 bd 39 01 c4 bc 85 aa d4 bd
       -0.18699262 -0.04047892 -0.023926364 -0.103840865
000040 87 71 82 bd 83 21 cc 3d 5a f7 16 3d d4 50 9e 3d
       -0.0636931 0.09967329 0.036856987 0.077302605
000050 76 8b af 3a 33 69 63 3d 20 e7 41 3d 0c 4f 0b bd
       0.0013393003 0.055520248 0.04733956 -0.03401093
000060 2f d7 94 bd e5 bc 9f 3d 5a 4d 7a bd ce 1b 9a 3b
       -0.072676055 0.07799701 -0.061108924 0.0047030216
000070 eb ce ca bc 95 cf de 3d 8f e7 09 3e fa 2a 11 3c
       -0.02475687 0.10879437 0.13467239 0.008860344
000080 b1 7f ae 3d 95 9d e7 3d 22 ee 0d 3d 83 d7 ea 3d
       0.08520449 0.11309353 0.03465093 0.11466887
000090 8c 8b 34 3e bb 35 8d 3e a3 cf a0 3e 64 65 28 3d
       0.17631358 0.27580056 0.31408414 0.04111232
0000a0 7a bf 4f be 31 54 eb 3c eb 2e 4f bc 9b 0e 22 bc
       -0.20287886 0.028726669 -0.012645463 -0.0098911775
0000b0 52 8a eb 3d 63 9a b0 bc b3 0c 7f 3c 3a 30 15 bd
       0.11500992 -0.021557992 0.015566993 -0.036422946
0000c0 8f fc 23 3d 0a 68 7c bd b2 f0 f5 bd b7 bf 31 be
       0.04003578 -0.061622657 -0.120087996 -0.1735829
0000d0 bb f9 f4 3d 25 4e 24 bc 2b 75 83 be 07 f8 3d 3d
       0.11961695 -0.010028397 -0.2567533 0.046379115
0000e0 44 c0 f3 3d 90 0e e6 ba 02 3a 68 3e fb 4e 6f bd
       0.11901906 -0.0017551947 0.22678378 -0.05842493
0000f0 84 e2 5f 3c 58 13 89 bd aa a7 93 bd 62 e6 ad bd
       0.013664845 -0.06693143 -0.07209714 -0.08491208
000100 a7 c5 81 bd 3f fa c7 bc 7e c5 52 3d a4 11 75 3e
       -0.06336527 -0.024411319 0.051457874 0.2393251
000110 06 ad 4d 3d 97 67 99 3d 85 21 88 3e bb 73 f6 3b
       0.050213836 0.07490461 0.26588073 0.0075211204
000120 57 d4 8d 3c 71 a5 aa 3d dd fb 98 bc 01 ea 47 3d
       0.017313166 0.08332337 -0.018674785 0.048807148
000130 8e bd b7 bd 6b f3 b0 3d e2 55 1f 3e 5d 25 ad ba
       -0.089717016 0.08640178 0.15560105 -0.0013209988
000140 3f bd c7 bb bc 1e 6d 3d 67 3f 89 3c a3 4d 88 bd
       -0.006095558 0.05789064 0.016753865 -0.06655433
000150 21 30 cb 3d 03 c9 5e be 29 c3 5c bc bb 7f 09 3c
       0.09921289 -0.21756367 -0.013474264 0.00839227
000160 06 06 ef bd 3e b5 81 3e c1 cd 6b be 00 ff 8c 3e
       -0.11671071 0.2533359 -0.23027708 0.275383
000170 c9 f5 11 be 05 c8 e7 bd be 96 86 3a 49 85 3a bc
       -0.14253916 -0.113174476 0.0010268313 -0.011384317
000180 d2 29 0f bc 8e 30 04 bc 78 21 c1 3d 52 51 96 3d
       -0.008737998 -0.008068217 0.09430212 0.07339729
000190 50 cb 56 bd df 7a b1 3e 3d 3a 60 3c 19 77 3e be
       -0.052439988 0.34664056 0.01368576 -0.1860012
0001a0 68 e5 92 3d 0b 11 20 3d d1 6b 51 bb d8 12 81 bd
       0.07172662 0.039078753 -0.0031955133 -0.06302422
0001b0 00 89 65 3d 19 35 9d 3c 72 ff 14 3c 7f 19 80 3c
       0.056038857 0.019190358 0.009094106 0.015637157
0001c0 c2 58 c4 bc a2 06 b8 bc 34 2d b3 3e b6 2e 0b 3e
       -0.023968104 -0.0224641 0.34995425 0.13592038
0001d0 9c fe 25 3e 9b b1 c9 bc b2 35 1d 3e 67 f4 c1 bd
       0.16210407 -0.024620822 0.15352514 -0.09470444
0001e0 7c 03 12 3e 41 d3 a0 bc ab 60 42 3d 46 86 8d 3c
       0.14259142 -0.019631984 0.04745547 0.01727594
0001f0 64 5b d0 3c b4 bc 58 bd ce 07 70 3d 55 7b 46 3e
       0.025434203 -0.052914336 0.058601193 0.19382985

classifier.3.weight f4 [5, 128]
000000 5b ff 3b 3e f3 4a eb bd 2e 3f 43 be db 9a 64 3c
       0.18359129 -0.11488905 -0.1906707 0.013952936
000010 c5 88 af bd f0 73 15 3e dd 4a 0f 3f ea 49 9c 3e
       -0.085710086 0.14595008 0.5597361 0.30525142
000020 7d f2 6e 3e b2 f5 63 3e b6 27 8e 3e a4 bf c5 3d
       0.2333469 0.22261694 0.27764672 0.09655693
000030 73 02 21 3e 7b 91 1b be 1b 22 44 be fc e9 46 3d
       0.1572359 -0.15192215 -0.19153635 0.04856299
000040 31 5d 5a 3d 9f 10 07 bf d2 3a 77 3d 38 ae 95 be
       0.05331153 -0.52759737 0.06035883 -0.2923448
000050 32 a7 19 be 90 45 ff bd 88 94 3b be bb b2 d4 3d
       -0.15005186 -0.1246444 -0.18318379 0.10385653
000060 99 7a 25 3f f3 2a 3a 3d eb 74 fc bc fc 9b 23 bc
       0.64640194 0.045451116 -0.03081747 -0.00998592
000070 bf a3 d1 3e 71 e9 2b be 8f 42 86 be 05 10 4d bd
       0.4094524 -0.1678827 -0.26222655 -0.050064106
000080 e0 9d c6 3d 4d 0e 51 be 23 33 0f bd 9e 5d 47 be
       0.09698081 -0.20415612 -0.034960877 -0.19469306
000090 9e b7 b5 be aa 14 20 bf 7d f3 96 be f8 9d bf 3c
       -0.3549165 -0.6253153 -0.29482642 0.023390755
0000a0 ca 7b 21 bf fe bb a7 3b d8 75 1d bf ba 86 fb bd
       -0.6307951 0.005118846 -0.6150794 -0.122815564
0000b0 07 d9 88 bd 6e 28 01 be 08 b2 08 be 44 cc eb 3e
       -0.0668202 -0.12613079 -0.13349164 0.4605428
0000c0 b1 10 3d 3e 5d f3 a6 bd 67 8e 06 3e 59 35 79 3e
       0.18463399 -0.081518866 0.1314026 0.24336757
0000d0 54 74 f3 be 84 2f 8d 3c 12 8d 9a be 63 9e cd 3c
       -0.4754969 0.017234571 -0.30185753 0.025099939
0000e0 07 c9 d5 3d de 77 0f be ab 2f 19 be 01 92 7d 3e
       0.104387335 -0.1401057 -0.1495959 0.24762727
0000f0 52 0f b1 3b e1 6b 67 be b7 6e 0f be 94 34 b1 be
       0.0054034377 -0.22599746 -0.14007078 -0.34610426
000100 b7 4a e7 bc 4f 37 b0 bd 0a 11 35 3e 00 7a d9 be
       -0.028233869 -0.08604299 0.17682281 -0.4247589
000110 2f bc 20 be e3 16 4e be ed 16 27 3f 60 9c a3 be
       -0.15696786 -0.20125918 0.65269357 -0.31955242
000120 1a 5d 09 bd 5c 7b 85 bc 11 23 75 3e 72 2e 02 be
       -0.033536054 -0.016294174 0.23939158 -0.1271303
000130 dc fd d1 3d f1 f5 60 3e 88 87 25 be 9b bb 87 3d
       0.10253498 0.21968819 -0.16164982 0.0662758
000140 f5 b4 6d be 20 a8 d8 be 9e 0b 47 be c9 61 92 bd
       -0.23213561 -0.4231577 -0.19438025 -0.07147557
000150 8e 89 06 be 65 51 e5 be f0 3c 87 bb 89 ee 75 3d
       -0.1313841 -0.44788662 -0.0041271374 0.060041938
000160 b2 0e d6 3d 78 4f 48 be d3 6d 11 bf 49 74 d4 be
       0.10452022 -0.19561565 -0.56808203 -0.4149497
000170 93 e6 76 3e 36 f3 3b bf 1f 8b 78 be 66 8e f9 be
       0.24111395 -0.73417985 -0.2427182 -0.48741454
000180 2e a6 2f be 83 d4 50 be c9 eb ad bd d7 9c 86 bd
       -0.17153236 -0.20393567 -0.08492238 -0.065728836
000190 98 be 21 3e 7b 6b 4b bf 89 0a 48 3e 22 98 02 3f
       0.15795362 -0.7946088 0.19535269 0.51013386
0001a0 e4 53 a9 bd fd 50 85 be 47 d1 86 bd 4b 3c c8 be
       -0.08267954 -0.26038352 -0.06582885 -0.391085
0001b0 13 63 15 3e 5d 46 c5 3d 12 e1 b6 bd 9b f9 1f 3e
       0.14588575 0.09632561 -0.089296475 0.1562256
0001c0 a2 e7 cd 3b c0 9a 81 3d d5 77 bb 3e d9 30 8a 3e
       0.0062837163 0.06328344 0.36614862 0.26990393
0001d0 86 69 35 3e d8 0b 94 be 27 00 03 3f 3c 38 92 bd
       0.17716035 -0.28915286 0.5117211 -0.07139632
0001e0 58 a3 67 3e b0 2a 93 3e 84 3d 97 bd 9e 60 ae 3e
       0.22620904 0.28743505 -0.0738478 0.34058088
0001f0 c2 25 24 3e 1d 32 95 be 1d 4b e3 bd ab 99 9d 3c
       0.16030028 -0.29139796 -0.11098311 0.019238314
000200 c8 16 0c be 80 6f 54 bd 35 a9 5f bd 2e 7f 61 bd
       -0.13680565 -0.051864147 -0.054604728 -0.05505293
000210 04 8e 1c be 8e d3 1f 3e 8d 42 e0 3d c2 e0 48 3d
       -0.1528855 0.15608045 0.109501936 0.04904247
000220 5a 80 e9 3c b1 71 e3 be 02 d9 84 3e cf 97 e6 bd
       0.028503586 -0.44422677 0.25946814 -0.11259424
000230 c5 28 4a be 21 5d 77 be 4f 64 48 be 49 fd a7 bd
       -0.19742115 -0.2415662 -0.19569515 -0.08202607
000240 b4 80 ce bc c3 76 21 3e 50 ed 7d be 11 c0 e7 be
       -0.025207855 0.1576796 -0.24797559 -0.45263723
000250 08 2b b0 bd 16 8b 99 3e 14 86 02 be 6e e4 29 3e
       -0.086019576 0.29988927 -0.12746459 0.16591045
000260 76 01 50 3c e7 d4 fa 3d cd d3 bc bd 54 d0 77 3e
       0.012695661 0.12247639 -0.09220085 0.24200565
000270 c7 3d 13 3f aa 54 ef 3d 1a de 5b bc a7 c6 8f bd
       0.5751614 0.1168607 -0.013419652 -0.07020312
000280 82 05 b3 3c bd 65 98 bd 60 bc 9f 3c 3b 89 10 be
       0.021853212 -0.0744128 0.019499004 -0.1411485
000290 b9 33 0a be 66 ad 90 3c fd 09 0e 3e 91 d3 1e 3e
       -0.13496293 0.017660808 0.13870998 0.15510394
0002a0 53 c3 0b 3e 62 d4 e1 3b b6 fe fd be 5c df 83 3d
       0.13648729 0.006891773 -0.49608392 0.06439087
0002b0 37 67 ac 3e 9a 8f d4 bb 47 b3 90 3d 97 7c 13 3e
       0.33672497 -0.006486845 0.070654444 0.14402996
0002c0 ef 19 d7 3d 17 c6 7d 3e ac 55 08 3e 5b 7f fd bd
       0.10502993 0.24782597 0.13313931 -0.12377807
0002d0 7a 17 87 3d 45 89 af bc fd ff 03 3c e6 fd a5 3b
       0.06596275 -0.02142776 0.008056638 0.0050656674
0002e0 d6 8e 34 3e 35 3a e0 bd 2e f8 92 3e 41 c5 34 3e
       0.17632613 -0.10948602 0.2870497 0.17653371
0002f0 56 af a8 bc 19 83 bd bd 7a c7 83 3d 4b d6 5b bd
       -0.02059142 -0.092535205 0.064345315 -0.053671163
000300 44 d9 d8 3d 2f 31 ad bd df 8d 0f 3e f8 ca d9 3e
       0.10588315 -0.08456647 0.14018963 0.42537665
000310 a8 e1 aa 3d 55 53 85 bd 15 02 99 be 7e 53 88 3e
       0.08343822 -0.06510035 -0.298844 0.266262
000320 1c 5c 90 be ba 45 62 3e 72 60 df bd db d3 7f 3e
       -0.28195274 0.22096911 -0.10907067 0.2498316
000330 c3 67 db bd e0 59 02 be 96 80 13 3c 0c b0 06 bd
       -0.1071315 -0.12729597 0.009002825 -0.032882735
000340 24 88 44 3f a3 44 d8 bd f7 e2 56 3d 70 1d 75 be
       0.76770234 -0.105599664 0.052462544 -0.23937011
000350 af fd 41 bb d2 d1 e6 bd 5e 07 9a 3d 76 e8 46 bd
       -0.002960067 -0.11270489 0.075209364 -0.048561536
000360 ee 07 03 bc 20 a2 34 3e f1 28 6d bd 47 b2 89 be
       -0.007997496 0.17639971 -0.057900373 -0.26893827
000370 e8 5a ea 3c 9a 02 23 be c1 a9 39 3c 68 4e ac be
       0.0286078 -0.15918961 0.011331976 -0.3365357
000380 b9 24 dd be 3f 1f 44 3c 12 f7 c4 3e 58 0d 2f bc
       -0.4319208 0.01197034 0.3846975 -0.010684334
000390 4b 20 97 3d cd a8 41 be 13 a3 d0 3e e5 35 52 3e
       0.07379206 -0.18912049 0.40749416 0.20528372
0003a0 d1 a9 07 3e 75 39 34 be ae bc f3 bd a7 05 86 be
       0.13248374 -0.17600043 -0.11901222 -0.26176187
0003b0 c7 a3 86 bd 8a d6 39 3d ef c8 57 3d dc e2 49 3d
       -0.06574207 0.045370616 0.05268186 0.049288616
0003c0 6a 4a 05 3e 88 96 a5 bd b3 66 9e be 16 d3 88 3e
       0.13016668 -0.08085352 -0.30937728 0.26723546
0003d0 34 87 29 3e 2f 42 b1 bd 07 68 f8 3d 3e d0 9f be
       0.16555482 -0.08655202 0.12129217 -0.31213564
0003e0 7e 63 07 be 65 90 8a 3c 55 0a 08 be e1 15 40 3e
       -0.13221547 0.016914556 -0.13285191 0.18758346
0003f0 52 f5 1d 3d a1 2e 2c be 53 07 8a bc 51 7e 03 bf
       0.038564034 -0.16814663 -0.016849196 -0.5136462

classifier.3.bias f4 [5]
000000 8e d4 8a 3d a1 92 d5 be c2 d2 99 3e 80 ef ba be
       0.06778823 -0.4171343 0.30043608 -0.3651085
000010 d2 f9 02 3f
       0.51162446
