models/epoch=4-step=125-v4.ckpt (torch, 800661 bytes, 38 tensors)

backbone.0.weight f4 [16, 1, 3, 3]
0	0xbd98d02d	-0.074615814
1	0xbe9db9e6	-0.30805892
2	0x3e508691	0.20363833
3	0x3e1ead44	0.15495783
4	0x3e28f7fb	0.16500847
5	0xbd827f2d	-0.06371913
6	0xbd0d075f	-0.034430858
7	0xbdade555	-0.08491007
8	0x3e04c5b7	0.12966047
9	0x3ea460ce	0.32105106
10	0xbc838330	-0.016053766
11	0x3e1636d9	0.1466936
12	0x3dbcbc05	0.092155494
13	0x3ea88581	0.32914355
14	0xbe87419a	-0.26417238
15	0xbca7f946	-0.020504605
16	0xbe4e15bb	-0.20125477
17	0x3e9fa1ab	0.3117803
18	0x3dd63178	0.10458654
19	0x3e9a496c	0.3013414
20	0x3d9cdbcd	0.07659111
21	0x3bd2f29a	0.0064376118
22	0xbe20fdd7	-0.15721832
23	0xbdd6b6d3	-0.1048409
24	0x3d2e885f	0.042610522
25	0x3e988338	0.29787612
26	0x3ea1503b	0.31506523
27	0xbea69dcc	-0.32542264
28	0x3e98b0e2	0.2982245
29	0x3e4696bd	0.1939344
30	0x3e83cf58	0.25744128
31	0x3e1fa4c6	0.155902
32	0xbe33a7ff	-0.17544554
33	0x3e25fe0f	0.16210197
34	0x3c8a4969	0.016880708
35	0xbc49ecdf	-0.012324541
36	0xbea4e0be	-0.32202715
37	0xbd8dcdad	-0.06923995
38	0x3e14a71c	0.14516872
39	0x3e7d0af5	0.24711211
40	0xbe1029ba	-0.14078417
41	0x3e9713cf	0.295073
42	0x3db7706a	0.08956988
43	0xbe6f32fc	-0.23359293
44	0x3e924c81	0.28573993
45	0x3df501e1	0.11963249
46	0x3d1c22d7	0.038119163
47	0x3dbf7e01	0.09350205
48	0xbe635134	-0.22198945
49	0x3e7b0ff6	0.24517807
50	0xbe9a111e	-0.30091184
51	0x3ea60fa5	0.3243381
52	0x3e47a8aa	0.19497934
53	0xbcd05807	-0.0254326
54	0xbe123759	-0.14278926
55	0x3e8da0b7	0.27661678
56	0x3cbae900	0.022816181
57	0xbe1b7639	-0.15181817
58	0xbc76d76b	-0.015066008
59	0xbd2f98b2	-0.04287023
60	0x3e177d9d	0.14794011
61	0xbe54e648	-0.2079097
62	0x3e54bb56	0.20774588
63	0x3e596392	0.2122939
64	0x3da94ce6	0.0826662
65	0xbe1764bd	-0.14784522
66	0x3e61eb2a	0.22062364
67	0xbe04e923	-0.1297956
68	0x3ea38594	0.3193785
69	0xbe88c580	-0.2671318
70	0x3e570d9d	0.21001287
71	0xbe56b76b	-0.20968406
72	0x3cd440d8	0.025909826
73	0xbe1aba48	-0.15110123
74	0xbcd074ef	-0.025446383
75	0xbced6584	-0.02897907
76	0xbe456d90	-0.19280076
77	0xbe1df8ce	-0.15426943
78	0x3e9a19ed	0.30097905
79	0xbe6e5bb5	-0.23277171
80	0x3ea733cc	0.32656705
81	0xbe41d1df	-0.18927716
82	0xbdc0ee6e	-0.09420477
83	0xbdf7c0e6	-0.12097339
84	0xbe50c740	-0.20388508
85	0x3ea66f97	0.3250701
86	0x3dcc9b6f	0.09990584
87	0x3e999edb	0.3000401
88	0xbda1021e	-0.07861732
89	0xbde43afe	-0.11144064
90	0xbea43f94	-0.32079756
91	0x3e1ca91e	0.15298888
92	0x3dd79bfa	0.10527797
93	0x3e2300f6	0.15918335
94	0xbe96ed66	-0.29477996
95	0x3e964cf8	0.29355597
96	0xbea82391	-0.32839635
97	0xbe2514d9	-0.16121234
98	0xbe7343fd	-0.23756404
99	0xbdb15066	-0.08657913
100	0xbe828b53	-0.2549692
101	0x3e67423d	0.22583862
102	0x3e86d15c	0.26331604
103	0x3db41550	0.087931275
104	0xbe619cb2	-0.22032431
105	0x3d3e480c	0.046455428
106	0x3ea06518	0.31327128
107	0xbe8a2407	-0.26980612
108	0x3e8ca9af	0.27473208
109	0x3d44575e	0.047934882
110	0x3ea0c8d3	0.31403217
111	0xbe4ebd3f	-0.20189379
112	0xbe9038d8	-0.28168368
113	0x3e25f7df	0.16207837
114	0xbe1ec6fb	-0.15505593
115	0x3e932c75	0.28744856
116	0xbe5047e9	-0.20339932
117	0x3e08b7c0	0.13351345
118	0xbe096fbe	-0.13421533
119	0xbd095e4a	-0.033537187
120	0x3e10a0f3	0.14123897
121	0xbdbb3106	-0.0914021
122	0x3e90d4d7	0.28287384
123	0xbdd2c4a8	-0.102914155
124	0xbe2cd7e4	-0.1687923
125	0xbdd8c6cf	-0.10584795
126	0x3e321852	0.1739209
127	0xbbcf5bd1	-0.006328084
128	0xbe70beaf	-0.2351024
129	0x3e274cf0	0.16337943
130	0x3e8436d1	0.25823072
131	0x3e6d716c	0.23187798
132	0xbe970f50	-0.2950387
133	0x3d79084c	0.06079893
134	0x3ce7ebeb	0.028310737
135	0x3ea9e228	0.33180356
136	0x3e60e774	0.21963292
137	0x3e1b952d	0.15193625
138	0xbb925b20	-0.0044664294
139	0xbe9ad4c5	-0.30240455
140	0x3e2a4ec1	0.16631605
141	0xbdb8bb43	-0.09020092
142	0xbddbe3cb	-0.107368074
143	0x3dfbda88	0.12297541

backbone.0.bias f4 [16]
0	0xbdbce7b7	-0.092238836
1	0xbe8827a3	-0.2659274
2	0xbe5fb7f4	-0.21847516
3	0xbe31ed2d	-0.17375632
4	0x3e9ec9e2	0.310134
5	0x3c6eaebe	0.014568029
6	0xbe972d70	-0.29526854
7	0xbca542c0	-0.02017343
8	0x3e0cd6ee	0.13753864
9	0xbe826c29	-0.25473145
10	0xbeaa85d7	-0.33305237
11	0x3e4deeaf	0.20110582
12	0xbe57cac6	-0.21073446
13	0x3e8f1890	0.27948427
14	0xbe5796eb	-0.21053664
15	0xbe9530ac	-0.29138696

backbone.1.weight f4 [16]
0	0x3f7fe76b	0.9996249
1	0x3f8008ea	1.000272
2	0x3f7fc2fc	0.999069
3	0x3f7fe1a6	0.9995369
4	0x3f800710	1.0002155
5	0x3f800857	1.0002545
6	0x3f8014ca	1.0006344
7	0x3f802079	1.000991
8	0x3f7f9c2f	0.9984769
9	0x3f7ff4a8	0.9998269
10	0x3f7fc223	0.99905604
11	0x3f803452	1.0015967
12	0x3f800032	1.000006
13	0x3f8014c9	1.0006343
14	0x3f801e66	1.0009277
15	0x3f7fb615	0.9988721

backbone.1.bias f4 [16]
0	0xba597392	-0.00082951144
1	0x39dd7e42	0.00042246474
2	0xbaae3618	-0.0013291268
3	0xba56abf6	-0.00081890763
4	0x381e42ef	3.7732472e-05
5	0xba1d3cc5	-0.000599813
6	0x39818898	0.00024706568
7	0x3ad771f7	0.0016437162
8	0xba5a38ba	-0.0008324493
9	0xba0ecf35	-0.00054477464
10	0xb833c113	-4.285674e-05
11	0xb9fa55b4	-0.0004774757
12	0x391e157c	0.00015076058
13	0x3a3faaf4	0.0007311546
14	0x398ce546	0.00026873703
15	0xba964778	-0.0011465391

backbone.1.running_mean f4 [16]
0	0xbce1baaa	-0.027554829
1	0x3e942677	0.28935596
2	0x3ef6d8e4	0.4821235
3	0x3e8f137d	0.27944556
4	0x3f0bd07b	0.5461499
5	0x3ec57572	0.38566166
6	0xbe6518f4	-0.223728
7	0x3e586b99	0.21134795
8	0x3cff69cf	0.031178383
9	0xbea0984e	-0.313662
10	0xbf559143	-0.83424777
11	0x3e91c414	0.28469908
12	0xbc8ef3d2	-0.017450247
13	0x3e5ca19a	0.21546021
14	0x3dbbe7c5	0.09175066
15	0x3dc2ca2a	0.09511216

backbone.1.running_var f4 [16]
0	0x3a533f2b	0.0008058424
1	0x3d1e2521	0.038609628
2	0x3d780b33	0.060557555
3	0x3cd633b8	0.026147708
4	0x3c0552ea	0.008137444
5	0x3c90df6d	0.017684663
6	0x3a75e490	0.0009380067
7	0x3bf210b9	0.0073872474
8	0x3b201c2f	0.0024430861
9	0x3a963408	0.0011459598
10	0x3d05cfb8	0.0326688
11	0x3afa05c4	0.0019075205
12	0x3bbf00b3	0.005828941
13	0x3a6f5432	0.00091296725
14	0x3c4b59fd	0.012411592
15	0x3ca06f72	0.019584391

backbone.4.weight f4 [32, 16, 3, 3]
0	0x3d60a20d	0.054842044
1	0x3d2a0348	0.041507035
2	0xbc424d9c	-0.011859324
3	0xbd877128	-0.0661338
4	0x3a8c1823	0.0010688346
5	0xba1f714d	-0.0006082252
6	0xbd2719c6	-0.040796064
7	0x3d20b871	0.039238397
8	0xbcf61618	-0.030039832
9	0x3d25d3d2	0.04048521
10	0x3d8d913d	0.06912468
11	0x3d9d8c31	0.07692755
12	0x3d488779	0.04895732
13	0x3cff7082	0.031181578
14	0xbc7b0187	-0.015320188
15	0xbda53b2c	-0.08067927
16	0x3c29e246	0.010368889
17	0x3d84fd96	0.0649368
18	0xbd8d0283	-0.06885245
19	0x3d3486ff	0.044074055
20	0x3cea1fa3	0.028579539
21	0xbcff809c	-0.031189255
22	0xbd3e5739	-0.0464699
23	0x3c7eede1	0.015559644
24	0x3da827eb	0.08210739
25	0xbd4edff3	-0.050506543
26	0xbd928719	-0.07154674
27	0x3b070dad	0.0020607517
28	0x3d937893	0.07200732
29	0x3d9adfc7	0.075622134
30	0x3c949731	0.0181385
31	0xbd67445b	-0.056461673
32	0xbd157417	-0.036487665
33	0xbd5ea1e0	-0.054353595
34	0xbd68696c	-0.056741163
35	0xbd4f6035	-0.05062886
36	0xbda0774e	-0.078352556
37	0xbcde2364	-0.027116485
38	0x3d03adad	0.032148052
39	0xbc0189f7	-0.007906429
40	0x3d1591a0	0.036515832
41	0xbd897d58	-0.067133605
42	0x3d43bec8	0.047789365
43	0xbd2b9ad5	-0.041895706
44	0xbcef17dd	-0.029186184
45	0xbcb0095b	-0.021488836
46	0xbd93d958	-0.072191894
47	0xbd97f01e	-0.074188456
48	0x3d82ab60	0.063803434
49	0x3c1bc250	0.009506777
50	0x3d36d3a3	0.044635426
51	0xbd0a5982	-0.033776768
52	0xbda5c2d9	-0.08093805
53	0xbd71c450	-0.05902511
54	0x3d3c3a18	0.04595384
55	0x3d9a6ecb	0.07540663
56	0x3b5ac3c9	0.0033380857
57	0xbd558087	-0.052124526
58	0xbd2bee46	-0.041975282
59	0x3d8afbfd	0.06786344
60	0xbda89b78	-0.08232778
61	0x3d8542bf	0.065068714
62	0xbd9510f9	-0.07278628
63	0x39d84e75	0.00041257186
64	0xbd9ce305	-0.07660488
65	0xbda4c054	-0.08044496
66	0xbda95a18	-0.08269137
67	0x3c74c305	0.014939074
68	0x3b00e3bb	0.0019666988
69	0x3ca5a4e5	0.02022023
70	0xbd6ee8c2	-0.058327444
71	0xbc20c92b	-0.009813587
72	0xbc61f2b2	-0.013790773
73	0xbce82229	-0.028336601
74	0xba11165e	-0.0005534644
75	0xbd1b38b4	-0.037895873
76	0x3d8d27e2	0.06892373
77	0xbcc868c5	-0.02446402
78	0x3d1a99ea	0.03774444
79	0x3ab7ae80	0.0014013797
80	0xbc582d53	-0.0131944
81	0x3adda08e	0.0016908811
82	0x3c89f420	0.01684004
83	0xbda6c43c	-0.081428975
84	0x3da243ed	0.07923112
85	0xbd95b40c	-0.07309732
86	0xbd5be8a0	-0.053688645
87	0xbd5a7070	-0.053329885
88	0xbbb34c77	-0.005471762
89	0xbd9f3c17	-0.07775133
90	0x3c4f4c2b	0.012652437
91	0xbc32376a	-0.01087747
92	0x3d05c98e	0.03266292
93	0x3d1183a2	0.035525925
94	0xbdabb313	-0.08383765
95	0xbd5f7958	-0.05455908
96	0xbda0b319	-0.0784666
97	0xbcc5ae59	-0.024130987
98	0xbd9767a8	-0.07392818
99	0xbd93bb00	-0.07213402
100	0x3d04d7d4	0.032432392
101	0xbd2430a3	-0.040085446
102	0xbda9897c	-0.08278176
103	0x3d862ff3	0.06552114
104	0xbd907f47	-0.07055526
105	0xbd918611	-0.07105649
106	0xbc3c25a6	-0.011483585
107	0x3d1830df	0.037155982
108	0x3c0e7473	0.008694756
109	0xbd8f68cc	-0.0700241
110	0x3a382606	0.0007024709
111	0xbca3b04d	-0.019981528
112	0xbd3e9891	-0.046532217
113	0x3d08aab1	0.03336591
114	0x3d4299ca	0.047509946
115	0xbc285610	-0.010274425
116	0xbcd90e54	-0.02649609
117	0x3ccfee90	0.02538231
118	0xbda788a0	-0.08180356
119	0xbd8ab432	-0.06772651
120	0x3cbb4ac9	0.022862809
121	0xbd3061c0	-0.04306197
122	0xbc166169	-0.009178498
123	0xbb20f487	-0.0024559812
124	0x3d8b8032	0.06811561
125	0xbcf1b4f0	-0.029505223
126	0x3b5768a4	0.0032868767
127	0xbc7985ed	-0.015229684
128	0xbb7064be	-0.003668114
129	0xbd8e2703	-0.06941035
130	0x3b75b589	0.0037492237
131	0x3b064adf	0.0020491404
132	0xbc53ae3e	-0.012919961
133	0x3d9db007	0.0769959
134	0x3da14ebc	0.078763455
135	0x3cf2ff22	0.029662672
136	0xbd4efea4	-0.050535813
137	0xbc86d066	-0.016456794
138	0x3c57d473	0.01317321
139	0x3da88529	0.08228523
140	0xbd5c49b6	-0.053781234
141	0xbd0611c6	-0.032731794
142	0x3c28d231	0.01030402
143	0x3c4fc40e	0.01268102
144	0x3c59e6f8	0.013299696
145	0xbd8ff39b	-0.07028886
146	0xbd06258e	-0.03275066
147	0x3d5bd3e0	0.053668857
148	0xbd9fbd82	-0.077998176
149	0x3cc126b3	0.023578024
150	0xbcf04b82	-0.02933288
151	0xbd620c16	-0.055187307
152	0x3c8264f2	0.015917275
153	0xbd636b9e	-0.055522554
154	0x3ccbfe82	0.024901632
155	0xbd943a62	-0.07237698
156	0x3ac5de0d	0.0015096084
157	0xbd64276f	-0.05570167
158	0x3d82cd67	0.06386834
159	0x3d57dc8e	0.05270057
160	0xbcd3e139	-0.02586423
161	0x3d566e63	0.052351367
162	0x3bb37187	0.00547618
163	0x3d624427	0.055240776
164	0x3ca0749b	0.019586852
165	0xbd8b19fe	-0.06792067
166	0xbc7cbfce	-0.015426589
167	0x3d942ca9	0.07235081
168	0xbd8d08d1	-0.06886447
169	0xbc82530e	-0.015908744
170	0xbb005117	-0.0019579583
171	0xbd30cf34	-0.043166354
172	0x3d96b0db	0.07357951
173	0x3c75d9ff	0.015005588
174	0x3d6e7cfe	0.05822467
175	0xbd2bc871	-0.041939203
176	0xbd8968c2	-0.06709434
177	0x3c620c58	0.013796888
178	0xbd202d53	-0.039105725
179	0x3d854acd	0.06508408
180	0x3b96f1a4	0.0046064425
181	0x3d2cd082	0.042191036
182	0xbd409de3	-0.047025573
183	0x3be4988c	0.006976193
184	0xbda2122a	-0.07913621
185	0x3aa2358c	0.0012375577
186	0x3d8f4794	0.06996074
187	0xbc5cf978	-0.013487212
188	0xbaea6213	-0.0017882012
189	0x3d1a5705	0.037680645
190	0xbd3ac0ef	-0.045594152
191	0xbd549e3b	-0.051908713
192	0xbd3e4db2	-0.046460815
193	0xbd91eb3d	-0.07124946
194	0xbc3628a0	-0.011118084
195	0xbd053aed	-0.0325269
196	0xbd1c1cdb	-0.038113456
197	0x3cd2ccf7	0.0257325
198	0x3d513035	0.051071364
199	0x3c034303	0.008011582
200	0x3d752ef0	0.059859216
201	0x3cf6d63d	0.030131454
202	0xbb6bebb6	-0.003599865
203	0x3c03f07a	0.00805294
204	0xbb8fd633	-0.004389548
205	0x3caed9af	0.021344034
206	0xbb9fe57d	-0.004879652
207	0xbd1e0616	-0.038580023
208	0x3c0a7516	0.008450767
209	0xbd9fe0a0	-0.07806516
210	0xbd5d168a	-0.053976573
211	0x3d9defad	0.0771173
212	0x3d132c63	0.035931002
213	0x3d2e7a1b	0.042596918
214	0xbd910c3b	-0.07082411
215	0x3ca84ef4	0.02054546
216	0x3cf1dcb9	0.029524194
217	0xbc1c85cf	-0.009553387
218	0x3cc064f3	0.023485636
219	0xbd51ae4e	-0.05119162
220	0x3d46a3f9	0.04849622
221	0x3d5b05b3	0.053472232
222	0x3d1b095f	0.037850734
223	0xbd90e4e0	-0.070749044
224	0x3d9ca7fe	0.076492295
225	0x3b741f8e	0.0037250253
226	0x3da8ed13	0.08248343
227	0x3d454b94	0.04816778
228	0xbd1e74f9	-0.038685773
229	0x3d56082b	0.052253883
230	0x3d62de12	0.055387564
231	0xbd23bd75	-0.039975602
232	0x3d9a5ffe	0.0753784
233	0x3d04f8ed	0.032463957
234	0xbb801101	-0.003908277
235	0xbd49ef7d	-0.04930066
236	0x3d22f349	0.039782796
237	0xbd49de82	-0.049284466
238	0x3d19e484	0.037571445
239	0xbca63c94	-0.020292558
240	0x3d6df166	0.058091544
241	0x3d9ca1b5	0.07648031
242	0xbd2b0f6e	-0.04176276
243	0x3cad2c01	0.021139147
244	0xbd959556	-0.07303874
245	0x3daa7013	0.08322158
246	0xbd714d12	-0.05891139
247	0x3c9fecd1	0.019522103
248	0x3dae6eb6	0.0851721
249	0xbd7852d8	-0.06062588
250	0x3d273f36	0.040831767
251	0x3d358f99	0.0443264
252	0x3d9f7bb5	0.07787267
253	0x3d9c007e	0.076172814
254	0xbd422a5b	-0.047403675
255	0x3d771b5b	0.060328823

backbone.4.bias f4 [32]
0	0x3b6f94da	0.0036557228
1	0xbd1c24e6	-0.038121127
2	0x3c80760f	0.015681295
3	0xbd3ef8d8	-0.046624035
4	0xbca1b6ae	-0.019740429
5	0xbd177f16	-0.036986433
6	0x3abb9e74	0.001431419
7	0xbd249cab	-0.040188473
8	0x3d286fd0	0.041122258
9	0x3d62cfae	0.05537384
10	0x3d4f5b96	0.050624453
11	0x3cd0b703	0.025477892
12	0x3d8b9e8e	0.06817351
13	0x3d946238	0.07245296
14	0x3b56824a	0.0032731467
15	0xbba6ea86	-0.0050938753
16	0x3d3d2dee	0.04618638
17	0x3ce5b0bd	0.028038377
18	0x3d589d63	0.05288447
19	0x3d802b7e	0.062582955
20	0xbcc0cbcf	-0.023534684
21	0x3d51317c	0.051072583
22	0xbd7e11ae	-0.06202858
23	0xbcf2f985	-0.029659996
24	0x3c487878	0.012235753
25	0xbc2ecae4	-0.01066849
26	0x3d6e9cd6	0.05825504
27	0xbd2cb4ee	-0.042164735
28	0xbd396a14	-0.04526718
29	0xbca70c0f	-0.020391492
30	0x3d42f7d0	0.047599614
31	0x3d1d9b2f	0.038478073

backbone.5.weight f4 [32]
0	0x3f7fe14e	0.9995316
1	0x3f802f79	1.0014488
2	0x3f7fc597	0.99910873
3	0x3f7ff8d7	0.99989074
4	0x3f7fe082	0.99951947
5	0x3f7fe284	0.9995501
6	0x3f801b03	1.0008243
7	0x3f7fed3e	0.9997138
8	0x3f7f8cac	0.99824023
9	0x3f7fb418	0.99884176
10	0x3f7fe7e1	0.99963194
11	0x3f804d2f	1.0023555
12	0x3f7fa148	0.9985547
13	0x3f800e4f	1.0004367
14	0x3f805097	1.0024594
15	0x3f8048bf	1.00222
16	0x3f7fcc62	0.9992124
17	0x3f7fc3ca	0.99908125
18	0x3f801b23	1.0008281
19	0x3f801bed	1.0008522
20	0x3f8029ab	1.0012716
21	0x3f800bf1	1.0003644
22	0x3f8000c5	1.0000235
23	0x3f7feb66	0.99968565
24	0x3f802886	1.0012367
25	0x3f7fb970	0.9989233
26	0x3f7fec17	0.9996962
27	0x3f7ffef6	0.99998415
28	0x3f7fb105	0.99879485
29	0x3f7f7440	0.9978676
30	0x3f7fd776	0.9993814
31	0x3f800ed9	1.0004531

backbone.5.bias f4 [32]
0	0xb971c653	-0.00023057433
1	0x397458eb	0.00023302778
2	0xb90adb67	-0.0001324244
3	0x37debf93	2.6553671e-05
4	0xb9809590	-0.00024525495
5	0x3861f5f1	5.387323e-05
6	0x3a5b18fe	0.0008357911
7	0x37dcebc6	2.6335834e-05
8	0xba281bcb	-0.0006412833
9	0xba6505d8	-0.00087365275
10	0xba0d2f4c	-0.0005385771
11	0x3a067a6d	0.0005129937
12	0xba83f449	-0.001006731
13	0xb88cb6f4	-6.709798e-05
14	0x39e16f33	0.00042998194
15	0x39c1d47b	0.0003697014
16	0xb98af2f9	-0.0002650244
17	0xb9e19a9c	-0.00043030537
18	0xb96c3011	-0.0002252462
19	0x396c5bc2	0.00022540896
20	0x38349e8b	4.3063e-05
21	0x37a9daff	2.0248348e-05
22	0xb9bb1169	-0.0003568039
23	0x39ac23e1	0.00032833128
24	0xba1436be	-0.0005653909
25	0xb99ad637	-0.0002953277
26	0xb76b6f77	-1.4033044e-05
27	0xb872eb05	-5.7916175e-05
28	0x39f0ade9	0.0004590594
29	0x38df9b1a	0.000106623585
30	0xb9b30629	-0.0003414613
31	0x3954ef7e	0.00020307113

backbone.5.running_mean f4 [32]
0	0xbf5ed748	-0.87047243
1	0x3e637fb9	0.22216691
2	0xbe9ea858	-0.3098781
3	0xbd08dd20	-0.033414006
4	0xbed55cc2	-0.4167233
5	0xbebf6a3f	-0.37385747
6	0xbe13b0d1	-0.14422919
7	0x3ddebaa7	0.10875445
8	0xbf07ae64	-0.53000474
9	0xbd18f661	-0.03734434
10	0x3e677f01	0.22607042
11	0xbe0f01df	-0.13965558
12	0xbe296d55	-0.16545613
13	0xbe7efb74	-0.24900609
14	0x3d22c43a	0.039737917
15	0x3e85bede	0.26122183
16	0xbb5e9f1b	-0.0033969346
17	0x3c757869	0.014982321
18	0x3e3995bb	0.18123524
19	0xbdad799c	-0.08470461
20	0xbed56142	-0.41675764
21	0xbd8925ef	-0.066966884
22	0x3e12d4e7	0.14339028
23	0x3e2dff01	0.16991808
24	0x3e7cdb16	0.2469295
25	0xbe74a9e9	-0.2389294
26	0x3ec17c13	0.37789974
27	0x3e2afb6c	0.16697472
28	0x3e385328	0.18000472
29	0x3de8416e	0.11340605
30	0x3e296c08	0.16545117
31	0xbcb7e469	-0.022447782

backbone.5.running_var f4 [32]
0	0x3e6c8ca4	0.23100525
1	0x3e51861f	0.2046132
2	0x3d918383	0.07105162
3	0x3da491ac	0.08035597
4	0x3e14ab0b	0.14518373
5	0x3dc4e756	0.09614436
6	0x3e21d10f	0.15802406
7	0x3d7784c9	0.06042937
8	0x3e1ed7b0	0.15511966
9	0x3ecd03c1	0.40041927
10	0x3e468cfa	0.19389716
11	0x3e1113f7	0.14167772
12	0x3dd2b80c	0.102890104
13	0x3e57676d	0.21035548
14	0x3e2a0031	0.16601636
15	0x3dde971d	0.10868666
16	0x3e747b6e	0.2387521
17	0x3d841901	0.064500816
18	0x3da5cec7	0.0809608
19	0x3da51410	0.08060467
20	0x3e055133	0.13019256
21	0x3d4d721a	0.050157644
22	0x3e01b90d	0.12668248
23	0x3e350d81	0.17680933
24	0x3dd2e55c	0.10297653
25	0x3e80cb8b	0.2515529
26	0x3d95a23f	0.073063366
27	0x3d98a1a1	0.07452703
28	0x3dea0c53	0.11428132
29	0x3e3d70ed	0.18500109
30	0x3e24367c	0.16036409
31	0x3dffc86e	0.12489401

backbone.8.weight f4 [64, 32, 3, 3]
0	0xbb09fd6e	-0.0021055597
1	0x3d2c226a	0.042025007
2	0xbb6cac04	-0.0036113271
3	0x3d08e20e	0.033418708
4	0x3ba3f8b3	0.0050040125
5	0xbcd284d7	-0.025698109
6	0xbd4e5e69	-0.050383005
7	0xbcbd9124	-0.023140498
8	0x37e23b7e	2.6969003e-05
9	0xbd488e74	-0.04896398
10	0x3d5acb04	0.053416267
11	0x3d50a9fe	0.050943367
12	0x3caadb92	0.020856652
13	0x3d0fd049	0.035110746
14	0xbd185399	-0.0371891
15	0xbd3088b3	-0.043099117
16	0x3d2bd36f	0.041949686
17	0xbc33183c	-0.010931071
18	0xbce75d7b	-0.028242817
19	0xbd01b1cc	-0.0316637
20	0x3d7007db	0.05860124
21	0x3d06f181	0.03294516
22	0xbb5eb85e	-0.0033984403
23	0x3c49cd38	0.012316994
24	0x3c44b299	0.012005472
25	0x3d2f4aab	0.04279582
26	0xbc374641	-0.011186183
27	0xbb93b7e6	-0.0045080064
28	0xbcd06575	-0.025439003
29	0xbd254bd7	-0.04035553
30	0xbd2319d7	-0.039819565
31	0xbcfa6fbe	-0.030570861
32	0x3d6576bd	0.05602144
33	0xbd4a162a	-0.049337544
34	0xbd65211d	-0.055939782
35	0xba24d4a8	-0.0006287792
36	0xbd2309d0	-0.03980428
37	0xbd1fa177	-0.038972344
38	0xbd1190f0	-0.035538614
39	0xbc954790	-0.0182226
40	0xbd05aab5	-0.032633502
41	0x3bf81972	0.0075713927
42	0x3cdc524e	0.026894715
43	0x3d1466fa	0.03623102
44	0x3d1f9d59	0.038968418
45	0x3d014547	0.03156021
46	0x3d1c755b	0.038197856
47	0x3d0e2fe7	0.034713652
48	0xbca2bc7f	-0.019865273
49	0xbd439311	-0.047747675
50	0xbcc4916e	-0.023995128
51	0x3ca35427	0.019937588
52	0x3d6b175c	0.057395324
53	0xbceb6a41	-0.02873719
54	0xbd4d65c6	-0.050145887
55	0xbd540522	-0.051762708
56	0x3d2a5d16	0.04159268
57	0xbc81aa3f	-0.01582825
58	0x3c73552a	0.014851848
59	0xbc49d084	-0.01231778
60	0xbcbbca1c	-0.022923522
61	0xbd387b5d	-0.045039523
62	0xbd4ffb92	-0.050777026
63	0xbc57d41c	-0.013173129
64	0x3d219380	0.039447308
65	0x3c82587e	0.015911337
66	0x3d5ebb8c	0.054378077
67	0x3c8fc62e	0.017550554
68	0x3acc8285	0.0015602863
69	0x3d28b18f	0.041184958
70	0xbd702883	-0.058632385
71	0x3ba81cf4	0.0051304046
72	0x3c4e9b5e	0.012610285
73	0x3bd642a2	0.006538705
74	0x3cd7d6d1	0.02634755
75	0x3d27adb0	0.040937126
76	0x3d59fc07	0.053218868
77	0x3cd0d1e2	0.025490705
78	0xbb4818f3	-0.003053245
79	0x3bc5cff9	0.006036755
80	0xbcfad91d	-0.030621106
81	0xbc632da6	-0.013865864
82	0x3c553fbe	0.013015686
83	0xbce8b786	-0.028407823
84	0xbd5c45a4	-0.053777352
85	0xbd29812f	-0.041382965
86	0xb99c9f9d	-0.0002987356
87	0xbd0da85c	-0.034584388
88	0x3cacbbeb	0.0210857
89	0xbd49baf9	-0.049250577
90	0x3b4eb42e	0.00315405
91	0xbc34125d	-0.010990706
92	0x3d579476	0.052631818
93	0x3d0f0c0b	0.034923594
94	0xbc16da54	-0.009207327
95	0xbcf3082d	-0.029666984
96	0x3d2c56f2	0.042075105
97	0x3d38275c	0.04495941
98	0x3d268629	0.04065529
99	0xbd49de95	-0.049284536
100	0x3cc72c1b	0.024313023
101	0x3d6a1f34	0.057158664
102	0xbd071a1f	-0.032983895
103	0x3d088c25	0.033336777
104	0x3aaa9b48	0.0013016248
105	0x3cdf4c8b	0.027258178
106	0xbcd8e849	-0.02647795
107	0xbc074049	-0.008255073
108	0x3d6a422e	0.05719202
109	0xbc1c4210	-0.009537235
110	0x3d477072	0.04869122
111	0xbd6a9564	-0.057271376
112	0x3d4b428a	0.049624003
113	0xbd403278	-0.04692313
114	0xbd14b090	-0.036301196
115	0x3d02a744	0.0318978
116	0xbd3f8b5b	-0.04676376
117	0xbd5c1035	-0.053726394
118	0x3d2c0080	0.041992664
119	0xbcd7a33b	-0.026322952
120	0xbc8875a6	-0.016657662
121	0xbd17c208	-0.037050277
122	0xbd61f57c	-0.055165753
123	0x3a0e160a	0.0005420154
124	0xbcd7386f	-0.026272027
125	0x3cc0ea79	0.023549305
126	0x3b0bb102	0.0021315222
127	0xbd36f8d7	-0.044670906
128	0xbcaf37a9	-0.021388846
129	0xbcae880e	-0.02130511
130	0xbd30a252	-0.04312355
131	0xbd47624c	-0.048677728
132	0xbbc7e181	-0.00609988
133	0x3d50f669	0.051016245
134	0x3ceee1a7	0.029160334
135	0xbc96ee1c	-0.018424086
136	0x3bd000bb	0.0063477433
137	0x3d450b4b	0.048106473
138	0x3d046e93	0.032332014
139	0x3cfbc952	0.030735645
140	0xbb808b02	-0.003922821
141	0xbca0302f	-0.019554226
142	0x3d097bde	0.033565395
143	0xbd2fb789	-0.042899642
144	0xbceefb04	-0.029172428
145	0xbd3c209c	-0.045929536
146	0xbd2c139c	-0.04201089
147	0xbd563978	-0.0523009
148	0x3ce164bc	0.027513854
149	0x3d327421	0.04356778
150	0xbc723632	-0.014783429
151	0xbc992a45	-0.018696913
152	0x3cc7b581	0.02437854
153	0xbd0b609c	-0.03402768
154	0xbd1c63e1	-0.03818119
155	0x3d3f9784	0.046775356
156	0xbcba4ab2	-0.022740696
157	0x3d69e101	0.057099346
158	0x3becb4f8	0.0072237216
159	0x3ba554fa	0.0050455304
160	0xbd5afbae	-0.053462677
161	0x3c82808f	0.015930442
162	0xbc87bec4	-0.016570456
163	0x3ccdc526	0.025118422
164	0x3b0dadf7	0.0021618584
165	0x3bea06bb	0.0071419156
166	0xbcf84dbd	-0.030310506
167	0x3d0bb208	0.03410533
168	0x3d600ab3	0.054697704
169	0xbcdadbb1	-0.026716085
170	0xbd4ca584	-0.049962536
171	0xbd6bc589	-0.05756143
172	0xbd539db5	-0.051664073
173	0x3d28b92f	0.04119223
174	0x3d028e3d	0.03187393
175	0x3ba52ee2	0.0050409893
176	0xbd70eca5	-0.05881943
177	0x3d026f51	0.03184444
178	0x3d35ae78	0.04435584
179	0xbd232245	-0.039827604
180	0xbc9624ca	-0.01832809
181	0x3c7bf150	0.015377358
182	0xbd0ae01f	-0.033905145
183	0xbc895f96	-0.016769212
184	0xbc27446c	-0.010209184
185	0xbbe56ac8	-0.0070012547
186	0x3c4a4059	0.012344443
187	0x3c8ba10a	0.017044563
188	0x3d101f2c	0.035185978
189	0x3d589a11	0.052881304
190	0xbc8cc509	-0.017183797
191	0x3cb46cdc	0.022024564
192	0x3ceaf8f6	0.028683167
193	0x3d59be51	0.053160015
194	0x3d4b82c3	0.04968525
195	0xbca83f3c	-0.020537965
196	0x3d01a9c6	0.03165605
197	0xbc9d4b70	-0.01920101
198	0xbbb2e1dd	-0.005459054
199	0xbcacdc53	-0.021101153
200	0x3d555721	0.052085046
201	0x3d40b3b4	0.04704638
202	0x3d11d366	0.035601996
203	0x3ca31b79	0.01991056
204	0x3ccf49ee	0.025303807
205	0xbceaa31e	-0.028642233
206	0x3c123bf9	0.008925431
207	0xbd3c704a	-0.046005525
208	0x3c0bcbc0	0.0085324645
209	0x3d3d3a4a	0.046198167
210	0x3d496b73	0.049174737
211	0x3c6651dd	0.014057604
212	0x3d561475	0.052265603
213	0x3b6ae7f5	0.0035843824
214	0xbcb2c68c	-0.02182319
215	0x3ca2095d	0.019779855
216	0x3cc858f9	0.024456488
217	0xbd1fa147	-0.038972165
218	0x3d044c86	0.03229954
219	0xbc9fbc86	-0.019499075
220	0xbd2f617d	-0.04281758
221	0xbc69e868	-0.014276601
222	0xbd05c48d	-0.03265815
223	0x3ae84fea	0.0017724012
224	0xbc1ff719	-0.0097635025
225	0xbce13407	-0.027490629
226	0xbd323410	-0.043506682
227	0x3d51ecfa	0.05125139
228	0x3cc7b091	0.024376186
229	0x3a9a8901	0.0011790098
230	0xbd6be143	-0.057587873
231	0xbd415b32	-0.04720611
232	0xba8597d5	-0.0010192344
233	0xbd107b40	-0.03527379
234	0x3ce3cd09	0.02780773
235	0x3d16924c	0.036760613
236	0xbd52508f	-0.051346358
237	0x3d0799cf	0.033105668
238	0xbd744303	-0.05963422
239	0x3c9275ad	0.017878378
240	0xbc89f117	-0.016838593
241	0x3d2286a7	0.039679196
242	0x3c8a60be	0.016891833
243	0x3bcde4b5	0.0062833675
244	0xbd68a82b	-0.056801002
245	0xbb3514e8	-0.002763087
246	0x3bba6c83	0.005689205
247	0x3c84a2f1	0.016190978
248	0x3d0de947	0.0346463
249	0xbd27d7b8	-0.04097721
250	0x3d4ff92d	0.050774742
251	0xbd4a5819	-0.049400423
252	0xbd499c59	-0.04922137
253	0x3bfab6d1	0.007651188
254	0x3cfa9060	0.030586421
255	0xbd312c9e	-0.04325544

backbone.8.bias f4 [64]
0	0x3a5e0ae6	0.0008470252
1	0xbd0dbf12	-0.034606047
2	0xbd28538f	-0.041095313
3	0x3c8adf9b	0.016952327
4	0xbd2e9a35	-0.042627532
5	0xbd5bd67b	-0.05367134
6	0xbd14a18b	-0.036286872
7	0x3d557a7e	0.05211877
8	0x3a58de41	0.00082728645
9	0xbd225c17	-0.039638605
10	0x3d51be44	0.051206842
11	0xbbc016db	-0.0058620996
12	0x3ca45a35	0.020062545
13	0x3cb7ec39	0.022451507
14	0xbb78eef0	-0.0037984215
15	0x3d37f322	0.044909604
16	0xbc9e4f79	-0.019325005
17	0x3d543c59	0.051815365
18	0xbcbee6eb	-0.02330347
19	0xbc93fd4b	-0.018065115
20	0x3d03a40a	0.03213886
21	0xbca3e82c	-0.02000817
22	0xbcb40b26	-0.021977972
23	0x3d3c8528	0.046025425
24	0xbcbef3a2	-0.023309533
25	0xbccf83db	-0.025331428
26	0x3cea6a26	0.028615069
27	0x3d5f8129	0.054566536
28	0x3bac0331	0.005249404
29	0xbc8d5c57	-0.017255945
30	0xbc80e907	-0.015736116
31	0x3d1f3bb8	0.03887531
32	0xbd0e5b3d	-0.03475498
33	0xbd65f8e5	-0.056145567
34	0xbd54b45f	-0.051929828
35	0xbd1b78f5	-0.03795715
36	0x3c9cabfb	0.019124975
37	0x3d219f8b	0.039458793
38	0x3c65a0b4	0.014015365
39	0x3ccc485a	0.024936844
40	0x3c7a8258	0.015289865
41	0x3d1d238e	0.038363986
42	0xbd0c652d	-0.034276176
43	0xbd5e92f0	-0.05433935
44	0x3b7efd27	0.0038908215
45	0xbd64b272	-0.05583424
46	0xbcee057c	-0.02905535
47	0xbc23478f	-0.009965791
48	0xbc1a3829	-0.009412804
49	0xbce2376d	-0.02761432
50	0x3d2b0eb0	0.041762054
51	0x3d492f8b	0.049117606
52	0xbd3d44fa	-0.04620836
53	0xbb4c7f3d	-0.003120377
54	0xbd67991b	-0.056542497
55	0x3d56e15f	0.052461024
56	0x3d3f4a28	0.04670158
57	0x3d1098c1	0.035301927
58	0xbd18ee91	-0.03733689
59	0xbbadfab6	-0.005309428
60	0x3c19e995	0.009394069
61	0x3c897728	0.016780451
62	0xbc84938d	-0.016183639
63	0x3d42d18a	0.047563113

backbone.9.weight f4 [64]
0	0x3f8000dc	1.0000262
1	0x3f7ff05f	0.9997615
2	0x3f7fdcdf	0.999464
3	0x3f801c68	1.0008669
4	0x3f800db3	1.0004181
5	0x3f8004e1	1.0001489
6	0x3f7fb4aa	0.99885046
7	0x3f7fb8e7	0.99891514
8	0x3f801cf5	1.0008837
9	0x3f800161	1.0000421
10	0x3f8009ac	1.0002952
11	0x3f802638	1.0011663
12	0x3f7fe3bf	0.9995689
13	0x3f800d09	1.0003978
14	0x3f80003f	1.0000075
15	0x3f7fc9cf	0.9991731
16	0x3f8020f8	1.0010061
17	0x3f800177	1.0000447
18	0x3f8006bb	1.0002054
19	0x3f7fdb3f	0.9994392
20	0x3f7fc356	0.99907434
21	0x3f7ff926	0.99989545
22	0x3f7ff1d3	0.9997837
23	0x3f7fe84f	0.9996385
24	0x3f801c03	1.0008548
25	0x3f8019be	1.0007856
26	0x3f800495	1.0001398
27	0x3f801676	1.0006855
28	0x3f7ffc12	0.99994004
29	0x3f800683	1.0001987
30	0x3f7fd5bb	0.999355
31	0x3f801c45	1.0008627
32	0x3f801c00	1.0008545
33	0x3f800e7f	1.0004424
34	0x3f7ffb4d	0.9999283
35	0x3f8000f4	1.0000291
36	0x3f8004f7	1.0001515
37	0x3f7fcecf	0.9992494
38	0x3f800b98	1.0003538
39	0x3f7fc63d	0.9991186
40	0x3f801433	1.0006164
41	0x3f80014f	1.0000399
42	0x3f801248	1.0005579
43	0x3f7fcfc2	0.9992639
44	0x3f7fb833	0.9989044
45	0x3f8010dd	1.0005146
46	0x3f7ffcbd	0.99995023
47	0x3f804476	1.0020893
48	0x3f7fd47a	0.9993359
49	0x3f8030a3	1.0014843
50	0x3f7feeec	0.9997394
51	0x3f7fbdf5	0.99899226
52	0x3f802326	1.0010726
53	0x3f7fd6d1	0.9993716
54	0x3f7ff246	0.99979055
55	0x3f7fdfbe	0.9995078
56	0x3f7fe4a6	0.99958265
57	0x3f7fe558	0.99959326
58	0x3f8008d1	1.000269
59	0x3f7febd6	0.9996923
60	0x3f80311e	1.0014989
61	0x3f800bc2	1.0003588
62	0x3f80143f	1.0006179
63	0x3f8004b6	1.0001438

backbone.9.bias f4 [64]
0	0x39ec5838	0.00045079156
1	0xb9f17fef	-0.0004606242
2	0x3901f727	0.0001239447
3	0x3a04ffc4	0.00050735124
4	0xb9765a32	-0.00023493989
5	0xb9ca5f17	-0.0003859929
6	0xba0ded77	-0.0005414108
7	0xb97b335b	-0.00023956357
8	0x399ec938	0.00030286028
9	0xb9ddb4e2	-0.00042287173
10	0xb990c962	-0.00027615862
11	0xb8f91d4f	-0.000118787044
12	0xb9eb2457	-0.00044849768
13	0xba4cb762	-0.00078093086
14	0xb9be6c60	-0.0003632037
15	0xb9c206a6	-0.00037007517
16	0xb6ec7131	-7.0465253e-06
17	0xb9fe1296	-0.00048460503
18	0x38e80802	0.00011064114
19	0xba45e98b	-0.0007549754
20	0xba230854	-0.00062191975
21	0xb9bf9873	-0.00036543942
22	0xb9cc0f81	-0.00038921463
23	0xb9d3e99a	-0.00040419103
24	0x3a3ce541	0.00072057924
25	0x3a0d48be	0.00053895626
26	0x39d08d0e	0.00039777945
27	0x38931b7a	7.014624e-05
28	0x38d7abad	0.00010283976
29	0xb8cece52	-9.8612756e-05
30	0xba3887d8	-0.0007039285
31	0xb9ec117c	-0.00045026455
32	0xb82de0d9	-4.145582e-05
33	0x37cd9181	2.450566e-05
34	0xb776dc00	-1.4713965e-05
35	0xb9303514	-0.00016804441
36	0xb9a37e31	-0.00031183803
37	0xb921d9c7	-0.00015435285
38	0xba238baf	-0.0006238771
39	0x39010727	0.00012305063
40	0x3a346912	0.0006882112
41	0x397ae08b	0.00023925507
42	0xb7db777f	-2.616248e-05
43	0xba42aca7	-0.000742624
44	0xb757f596	-1.2872179e-05
45	0x3880a27e	6.133782e-05
46	0xb9b31034	-0.00034153613
47	0xb9a75754	-0.00031917787
48	0xb99d144c	-0.00029960496
49	0xb8cf2b74	-9.878623e-05
50	0x39d8a8b3	0.0004132442
51	0xba1f416f	-0.0006075119
52	0x3993572f	0.00028102982
53	0xb950899e	-0.00019887692
54	0xb9a0d3c3	-0.00030675353
55	0xb9d961d0	-0.0004146234
56	0x3892db1b	7.002634e-05
57	0xba04845b	-0.0005055123
58	0xb9b57f20	-0.00034617726
59	0xb95e5335	-0.00021202567
60	0xb90425ac	-0.00012602535
61	0xb9e8e02e	-0.00044417515
62	0xb9c6ba15	-0.00037904145
63	0xb9096a16	-0.00013104858

backbone.9.running_mean f4 [64]
0	0xbea438c2	-0.32074553
1	0xbe00d545	-0.12581356
2	0xbf6244e5	-0.88386375
3	0xbddc00de	-0.10742353
4	0x3ea46499	0.32108
5	0xbf01d065	-0.5070861
6	0xbf176114	-0.59132504
7	0x3f6c429b	0.9228913
8	0xbfb8d9c2	-1.4441454
9	0x3f0bd93b	0.5462834
10	0x3f2daea0	0.6784458
11	0x3e9ea488	0.30984902
12	0xbc9b5436	-0.018961053
13	0x3f09a9ba	0.5377461
14	0x3f16bdbf	0.5888328
15	0xbea7867e	-0.32719797
16	0x3f22e7ed	0.6363514
17	0x3f2e4635	0.6807588
18	0x3eb72f92	0.3577848
19	0x3e7bb7bd	0.2458181
20	0x3f176d8e	0.5915154
21	0x3f3fa754	0.748647
22	0x3eae87e9	0.34088066
23	0xbee29bfb	-0.4425963
24	0xbe8c3ee2	-0.27391726
25	0xbfb29a48	-1.3953333
26	0xbeeefac3	-0.4667569
27	0x3f7ce69b	0.98789376
28	0x3faf8b34	1.3714356
29	0x3f2ffff8	0.6874995
30	0xbf03aae2	-0.5143262
31	0x3e86ebf9	0.26351908
32	0x3e4ab494	0.19795448
33	0x3d85a088	0.065247595
34	0x3ddaabbf	0.10677289
35	0xbf90071c	-1.125217
36	0xbf25e431	-0.6480132
37	0xbec4d3cc	-0.38442838
38	0xbe4a3800	-0.19747925
39	0xbeb0a81e	-0.34503263
40	0xbf74ac09	-0.95575005
41	0x3f1f8f22	0.6232778
42	0xbda864b3	-0.08222332
43	0xbeabbc3e	-0.33542055
44	0x3f3fa0d2	0.7485477
45	0xbe911b40	-0.28341103
46	0x3e8462e3	0.25856695
47	0x3f29c53c	0.6631658
48	0x3ee91db6	0.4553048
49	0xbef19cd2	-0.47189957
50	0xbe90925a	-0.28236657
51	0xbe63fdee	-0.22264835
52	0x3dd514f0	0.10404384
53	0x3f6cd004	0.92504907
54	0xbebf5ed8	-0.37377048
55	0xbef16e7a	-0.471546
56	0x3ddf6018	0.10907
57	0xbf2b1be5	-0.6683944
58	0x3f9e26cf	1.2355593
59	0xbecd0758	-0.40044665
60	0x3ed9084a	0.42389137
61	0x3d191be1	0.037380103
62	0xbf252eea	-0.6452471
63	0xbdefa378	-0.11701101

backbone.9.running_var f4 [64]
0	0x3e7a6929	0.24454178
1	0x3ec1da15	0.37861696
2	0x3f0dd729	0.55406433
3	0x3eb330d1	0.3499818
4	0x3ea0cbff	0.31405637
5	0x3f0fbb35	0.5614503
6	0x3eaa2710	0.33232927
7	0x3eec2762	0.46123797
8	0x3f91a996	1.1379879
9	0x3f298afb	0.6622769
10	0x3f182a6c	0.5943973
11	0x3e49661b	0.19667856
12	0x3ee637e5	0.4496452
13	0x3ea40975	0.32038465
14	0x3ed0f7eb	0.40814146
15	0x3e277bad	0.16355772
16	0x3ec5f0a0	0.38660145
17	0x3ea0ee9e	0.3143205
18	0x3ec1e6dd	0.37871447
19	0x3f2e6772	0.68126595
20	0x3e92f0b3	0.28699264
21	0x3ed26e05	0.41099563
22	0x3e6a6123	0.22888617
23	0x3e987e3c	0.2978381
24	0x3e85bdf5	0.26121488
25	0x3f06bb6d	0.5262974
26	0x3f03821b	0.513704
27	0x3eca67f2	0.3953243
28	0x3f10f7e1	0.56628233
29	0x3ec5114f	0.38489768
30	0x3ef16e5e	0.47154516
31	0x3e9b8f58	0.303828
32	0x3e72cf53	0.237119
33	0x3e52930c	0.20563906
34	0x3e57c85d	0.21072526
35	0x3eb40571	0.351604
36	0x3edc4540	0.43021584
37	0x3ee3ac12	0.44467217
38	0x3e882c76	0.2659642
39	0x3e62e166	0.22156295
40	0x3edded89	0.43345287
41	0x3eac1187	0.33607122
42	0x3ea20422	0.31643778
43	0x3e18e436	0.14930806
44	0x3eb59064	0.35461724
45	0x3f0192f8	0.5061488
46	0x3eceabc8	0.40365434
47	0x3e8f75c4	0.28019536
48	0x3e9e8f15	0.30968538
49	0x3e8174ba	0.25284368
50	0x3e946af7	0.28987858
51	0x3eca7166	0.3953964
52	0x3e66f7c0	0.22555447
53	0x3f14f529	0.58186585
54	0x3ec832d1	0.3910127
55	0x3f3dab55	0.74089557
56	0x3ebec053	0.37256107
57	0x3e969bad	0.29415646
58	0x3eee4929	0.46540192
59	0x3e8c2f12	0.27379662
60	0x3e5be674	0.2147463
61	0x3edd1172	0.43177372
62	0x3f03ca71	0.51480776
63	0x3e8117c0	0.25213432

classifier.1.weight f4 [128, 576]
0	0x3d229e6a	0.039701857
1	0xb990dd98	-0.0002763092
2	0x3d272354	0.040805176
3	0x3ce2def7	0.027694209
4	0x3c9f3151	0.019432696
5	0x3c3ae605	0.01140738
6	0xbc26da34	-0.01018386
7	0xbcade960	-0.021229446
8	0xbb9ce5f1	-0.0047881533
9	0xbc8d4d67	-0.017248822
10	0x3c9393e7	0.018014861
11	0xbc304df9	-0.010760778
12	0x39a5be82	0.00031613192
13	0xbccc85b4	-0.024966098
14	0x3d22b4de	0.03972327
15	0x3d188ada	0.037241794
16	0x3d033667	0.032034304
17	0x3cceddca	0.025252242
18	0xbc7c927f	-0.015415787
19	0xbcb82ff9	-0.022483813
20	0xbce139dd	-0.027493412
21	0xbd2af262	-0.04173506
22	0xb906ca65	-0.00012854634
23	0xbca0795d	-0.01958912
24	0x3d17088f	0.036873396
25	0xbd0dc437	-0.034610953
26	0x3d1ef935	0.03881188
27	0x3c637441	0.013882698
28	0x3b714813	0.0036816641
29	0xbc129552	-0.008946734
30	0xbcddd633	-0.027079677
31	0xbbab74bf	-0.005232423
32	0x3cf24e52	0.029578362
33	0xbc42e90f	-0.011896386
34	0x3d056cbb	0.032574397
35	0x3c2f50c5	0.010700409
36	0x3d15baf6	0.036555253
37	0xbd17cab5	-0.03705855
38	0xbc4bc554	-0.012437183
39	0xbd15e71b	-0.036597352
40	0x3cb5a643	0.022174006
41	0xbc81604e	-0.015792992
42	0x3d16191e	0.036645047
43	0xbcc7b455	-0.024377981
44	0x3cab4f21	0.020911755
45	0xbd0447c0	-0.03229499
46	0x3baae078	0.005214747
47	0xbb9bd853	-0.0047560125
48	0xbca23469	-0.019800382
49	0x3c837bc0	0.01605022
50	0x3cf999cb	0.030468842
51	0xbca38ad1	-0.019963654
52	0xbb9bb41a	-0.0047516944
53	0x3b7f9440	0.0038998276
54	0xbc86f9cf	-0.01647654
55	0x3c821c42	0.015882615
56	0x3c896281	0.016770603
57	0x3c1747f0	0.00923346
58	0xbcb97eee	-0.022643533
59	0x3d0fc39a	0.03509865
60	0xbc95dc9a	-0.018293668
61	0xbc6d5bec	-0.014487248
62	0xbaf1d6f6	-0.0018450904
63	0x3cb78909	0.02240421
64	0xbcb907c8	-0.022586718
65	0xbc98a5b2	-0.018633697
66	0x3b8a860d	0.004227406
67	0x3c0e4b3e	0.008684931
68	0x3c2440c1	0.010025204
69	0xbccbdf45	-0.024886737
70	0x3d1d8111	0.038453165
71	0xbc9ebaa1	-0.019376101
72	0xbd09615e	-0.033540122
73	0x3c178416	0.0092478
74	0x3d27f811	0.04100806
75	0xbcf188dd	-0.029484207
76	0x3d100b23	0.03516687
77	0x3d16934b	0.036761563
78	0xbd0a9115	-0.033829767
79	0x393a661a	0.00017776378
80	0x3d041437	0.03224584
81	0xbd04f8f5	-0.032463986
82	0xbd2c1264	-0.042009726
83	0x3a2ca452	0.0006585765
84	0xbd09e8ca	-0.03366927
85	0xbc6be424	-0.014397655
86	0x3c545695	0.012960096
87	0xbc92bd94	-0.017912664
88	0xbc82118a	-0.015877504
89	0x3b86670d	0.00410164
90	0xbcfeffd7	-0.031127853
91	0xbc3b2d7d	-0.0114244195
92	0x3c911597	0.01771049
93	0xbce089fb	-0.027409544
94	0x3c2c8447	0.010529584
95	0xbcf2211a	-0.0295568
96	0x3c50f642	0.012754025
97	0xbc2a2791	-0.01038541
98	0x3cbdb4d8	0.023157522
99	0xbd095040	-0.033523798
100	0xbc3dff73	-0.011596548
101	0x3c112ca8	0.008860745
102	0x3c2b1ba1	0.010443599
103	0xbd1f5eb3	-0.03890867
104	0xbd20a065	-0.039215464
105	0x3d0b7a22	0.03405202
106	0xbb9aac3d	-0.0047202394
107	0xbc5d85de	-0.013520686
108	0x3d0b26dc	0.033972606
109	0xbcac08d6	-0.021000307
110	0x3c4fe7a2	0.012689503
111	0xbb990bb8	-0.0046705864
112	0x3d255828	0.040367275
113	0x3c900fd6	0.017585676
114	0x3cb08ed0	0.021552473
115	0x3b6761d8	0.0035306122
116	0x3cde9951	0.027172716
117	0xbbc79d81	-0.006091774
118	0x3cd59dd3	0.026076233
119	0xbd06dbfa	-0.03292463
120	0xbd2187c9	-0.039436135
121	0xbd0638e6	-0.032769106
122	0xbd1a326f	-0.037645753
123	0x3c17ee6b	0.009273152
124	0xbc72bc26	-0.014815366
125	0x3b33156d	0.0027326003
126	0xbc999eb6	-0.018752437
127	0xbcddde58	-0.02708356
128	0x3d1fe27d	0.039034355
129	0xbcaee163	-0.021347707
130	0xbb92ab92	-0.004476019
131	0x3beb9d9e	0.0071904203
132	0x3ce223ed	0.027605021
133	0x3acec98c	0.0015776618
134	0x3d23e4ad	0.040013004
135	0xbc5f0864	-0.01361284
136	0x3d2175b1	0.03941888
137	0x3d18d177	0.037309136
138	0xbc91823b	-0.017762294
139	0xbccf06ff	-0.02527189
140	0xbb8c8b9a	-0.0042891027
141	0x3b2d59c9	0.0026451221
142	0x3caa89ad	0.020817602
143	0x3c7a4f83	0.015277746
144	0xbcb89326	-0.022531103
145	0x3b786cfe	0.0037906761
146	0x3caa63c7	0.02079953
147	0xbcb18131	-0.021668049
148	0x3cad4a31	0.021153541
149	0x3d26e5ea	0.040746607
150	0x3cbd0440	0.023073316
151	0xbc2ec54a	-0.010667155
152	0xba552b25	-0.0008131734
153	0x3d2272fd	0.039660443
154	0x3bfba926	0.007680076
155	0x3ccece94	0.025244989
156	0xbbe67f1a	-0.0070341947
157	0xbca3dd3f	-0.02000296
158	0x3cc0a084	0.02351404
159	0xbc4b540f	-0.012410178
160	0xbca4f831	-0.020137878
161	0x3c7397f6	0.014867773
162	0x3cafa7b6	0.021442275
163	0xbbdf59a1	-0.0068161045
164	0xbd0f7fc0	-0.03503394
165	0x3c7a304a	0.015270302
166	0xbc46c898	-0.012132786
167	0x3d24042b	0.040043037
168	0x3ce4128e	0.027840879
169	0x3ca72476	0.020403128
170	0x3cb18948	0.021671906
171	0xb8fc8bb7	-0.0001204232
172	0x3ad52d02	0.0016264024
173	0x3c8850b8	0.016640052
174	0x3bc656d4	0.006052831
175	0xbd264399	-0.04059181
176	0x3cff1aad	0.03114065
177	0xbc4434fd	-0.011975524
178	0x3c948cc7	0.018133534
179	0xbc199b4b	-0.009375404
180	0xbcb09348	-0.021554604
181	0xbceafd4b	-0.028685233
182	0x3cefac18	0.029256865
183	0x3c649946	0.013952559
184	0x3d0a54f5	0.033772428
185	0xbcfd5102	-0.030922417
186	0x3c3f246a	0.011666397
187	0x3cec9965	0.028881738
188	0xbcceffba	-0.025268424
189	0xbd23b08c	-0.03996329
190	0xbad59b1d	-0.0016296838
191	0x3d1be112	0.03805644
192	0x3ba7715a	0.005109948
193	0x3ca4f304	0.02013541
194	0x3c2858d3	0.010275084
195	0xbcbfd1db	-0.023415497
196	0x3d29e28a	0.04147581
197	0x3cab6e59	0.020926641
198	0xbcf0a903	-0.029377466
199	0xbccb7f1b	-0.024840882
200	0x3bc0a915	0.005879531
201	0x3d23e2da	0.040011264
202	0xbcfe2cef	-0.031027285
203	0xbc1cfa59	-0.009581172
204	0x3cc5cf69	0.024146752
205	0xbb7508e5	-0.0037389335
206	0x3c8d146e	0.017221656
207	0xbc9f5ab0	-0.019452423
208	0xbcf9ab28	-0.030477121
209	0xbd2707ae	-0.04077881
210	0x3c544e9a	0.012958193
211	0xbd06e8d2	-0.03293688
212	0xbc739547	-0.014867133
213	0xbb6c75ec	-0.003608103
214	0xbbda99d7	-0.006671171
215	0xbc1607a8	-0.009157099
216	0xbc17cce4	-0.009265158
217	0xbd2d61cd	-0.0423296
218	0x3d12dd95	0.03585585
219	0xbd1586a7	-0.036505368
220	0xbcd9d6be	-0.026591655
221	0xbb7d6568	-0.003866518
222	0x3c30444c	0.010758471
223	0xbcd29b93	-0.02570895
224	0xbcdfd1ef	-0.027321784
225	0xbc791e5e	-0.015204994
226	0x3bb4ef56	0.005521695
227	0x3d2cbb46	0.042170785
228	0xbc179cc5	-0.009253685
229	0x3d107139	0.035264228
230	0xbd27dff6	-0.04098507
231	0x3ab0539e	0.0013452654
232	0x3c8094fd	0.015696043
233	0xbc8fda5d	-0.017560178
234	0xbc808c48	-0.015691891
235	0xbd2cc9fd	-0.04218482
236	0xbd1deda9	-0.03855673
237	0xbd1aaf96	-0.037765108
238	0xbd10bad4	-0.035334423
239	0xbd2473f8	-0.04014966
240	0xbca4da6d	-0.020123685
241	0x3c9adc8d	0.018903995
242	0x3cd7f5c4	0.026362307
243	0x3ba4946c	0.005022576
244	0xbad57937	-0.0016286735
245	0xbcc4d7f6	-0.02402876
246	0xbc30649b	-0.010766174
247	0x3cfa1cc7	0.0305313
248	0x3c8fa63c	0.017535321
249	0x3bdb37ac	0.006689986
250	0x3d0d12d8	0.0344418
251	0x3ba7673c	0.005108742
252	0xbc53ca3d	-0.012926635
253	0x3c659757	0.014013133
254	0x3cf606da	0.030032564
255	0xbc1b4c14	-0.009478588

classifier.1.bias f4 [128]
0	0xbcf5e170	-0.030014724
1	0x3cf4134b	0.029794356
2	0xbb16d047	-0.0023012327
3	0x3c8ee3f4	0.01744268
4	0xbce3123d	-0.027718658
5	0x3c8a50fe	0.016884323
6	0x3d262cb2	0.04056997
7	0x3d1c111c	0.038102254
8	0xbc8299a8	-0.01594241
9	0x3d1219f1	0.03566927
10	0xbd00d7d2	-0.031455822
11	0xbc829ebe	-0.015944835
12	0xbd02725b	-0.03184734
13	0x3ba5c3b6	0.005058731
14	0x3ca9d282	0.02073026
15	0x3cce04be	0.025148746
16	0xbc6a5b62	-0.014304014
17	0xbd10f31b	-0.035388093
18	0x3c2888a2	0.010286482
19	0x3cc27174	0.02373574
20	0x3b8b09af	0.0042430977
21	0xbcaa0753	-0.020755446
22	0x3cc7dae4	0.024396367
23	0x3c3c7948	0.011503525
24	0x3cb35f26	0.021895956
25	0xbcdce863	-0.02696628
26	0x3ca91d92	0.020643983
27	0x3b9022f6	0.004398699
28	0x3c030b99	0.007998371
29	0xbc3b294d	-0.011423421
30	0xbc64a2b5	-0.013954808
31	0xbd2756fa	-0.04085443
32	0x3c7b7ae5	0.015349125
33	0x3ca09700	0.019603252
34	0xbcdc5b03	-0.026898867
35	0xbd0d1166	-0.03444042
36	0x3d28963a	0.041158892
37	0xbc66f99c	-0.014097597
38	0xbcda0c03	-0.026617056
39	0xbd1aea47	-0.03782108
40	0xbce24177	-0.027619107
41	0xbd176603	-0.03696252
42	0xbcb95f50	-0.022628456
43	0xbd0aeaa0	-0.033915162
44	0x3c64aa3d	0.013956604
45	0x3d20f253	0.0392936
46	0x3764c1cb	1.363498e-05
47	0xbcb012de	-0.021493372
48	0x3c780894	0.015138764
49	0xbcacb7b2	-0.021083687
50	0xbb7d80ea	-0.0038681575
51	0xbce76eae	-0.028251018
52	0x3d28f57f	0.04124975
53	0xbc9b181a	-0.018932391
54	0x3c3808a4	0.011232529
55	0x3d287d09	0.041134868
56	0x3cda93c6	0.026681792
57	0x3bdfa305	0.0068248534
58	0xbcf44a1b	-0.029820492
59	0x3b904238	0.004402425
60	0xbd1537d1	-0.036430184
61	0xbc815a18	-0.01579003
62	0x3cb43af5	0.02200077
63	0xbabd4126	-0.0014438971
64	0x3c8b8e18	0.017035529
65	0x3c839d09	0.016066091
66	0xbd002dc8	-0.03129366
67	0xbcd0cea6	-0.025489163
68	0x3a9c880d	0.0011942402
69	0xbb2e59de	-0.0026603858
70	0xbc492293	-0.01227631
71	0x3cdb955a	0.026804615
72	0xbc0fa62a	-0.008767644
73	0x3c62f2be	0.01385182
74	0xbcaab6ee	-0.02083918
75	0xbc6a21eb	-0.014290313
76	0xbb5ccf09	-0.0033692739
77	0xbd01420e	-0.031557135
78	0x3c4cefd7	0.012508354
79	0x3d15498a	0.036447085
80	0xbc9a1b2b	-0.018811783
81	0xbd13917d	-0.03602742
82	0x3b09a2ca	0.002100157
83	0xbc3b3e12	-0.011428373
84	0x3aed5ac4	0.0018108715
85	0x3b6857ef	0.0035452803
86	0x39ff35c1	0.0004867744
87	0xba81c624	-0.000990097
88	0xbd13c1d6	-0.03607353
89	0xbc3be371	-0.0114678005
90	0x3c4ab009	0.012371072
91	0xbce3d2cc	-0.027810477
92	0x3bb5bd60	0.005546257
93	0x3c7c4150	0.015396431
94	0x3ca9b468	0.020715907
95	0x3c13ac0a	0.009013185
96	0x3ca38fe3	0.019966071
97	0xba89a276	-0.0010500688
98	0x3cb41d46	0.021986615
99	0x3cd77a5a	0.026303459
100	0xbbb3a5f3	-0.005482429
101	0xbccb9574	-0.024851538
102	0x3cf1d39c	0.029519849
103	0x3b4a7908	0.0030894894
104	0x3c9a4207	0.018830312
105	0xbc61e665	-0.0137878405
106	0xbca495e4	-0.020091005
107	0x3ce2fdd3	0.027708923
108	0x3cc739c9	0.024319546
109	0x3d0a3e99	0.033751104
110	0x3c039e54	0.008033354
111	0x3a848e26	0.0010113164
112	0x3c96f26a	0.018426139
113	0x3c759cd9	0.014991009
114	0x3cc53d6c	0.02407714
115	0xbb401f34	-0.0029315474
116	0xbce1ba16	-0.027554553
117	0x3cb41c2d	0.021986092
118	0x3d0b51e1	0.034013633
119	0x3c87309d	0.016502673
120	0xbcfc95c5	-0.030833134
121	0x3cc220d5	0.023697296
122	0xbceefb99	-0.029172705
123	0xbd1a8fde	-0.03773486
124	0xbcfc5368	-0.03080149
125	0xbb8070ca	-0.0039196955
126	0x3c330b72	0.010928022
127	0xbd21c582	-0.039495

classifier.3.weight f4 [5, 128]
0	0x3dc06c6a	0.09395678
1	0xbbc06478	-0.005871352
2	0xbb453469	-0.0030091053
3	0xbcd4b497	-0.025965018
4	0x3c2fa949	0.010721513
5	0xbc778460	-0.015107244
6	0x3d22af5c	0.039718017
7	0x3cf7b68a	0.030238409
8	0xbd4d749b	-0.05016003
9	0xbd2aa89c	-0.041664705
10	0x3d62753c	0.055287585
11	0x3c27d43d	0.010243473
12	0x3d102ef5	0.03520103
13	0xbbe2a493	-0.0069165914
14	0xbd57e8ab	-0.052712124
15	0xbc5da662	-0.013528438
16	0xbd9c2c35	-0.07625619
17	0xbd7d4d6a	-0.061841406
18	0x3da4ef89	0.080535
19	0x3d25f832	0.0405199
20	0x3d5b142a	0.053486027
21	0xbd2507e4	-0.04029073
22	0x3cbdb2d8	0.023156568
23	0xbd619739	-0.055075858
24	0xbd81cb8a	-0.0633765
25	0xbd80c45c	-0.062874526
26	0x3d644d1f	0.05573761
27	0x3d620f62	0.05519045
28	0xbdb33e86	-0.0875216
29	0x3d2a19ee	0.041528635
30	0x3d85aa93	0.06526675
31	0xbd9411e9	-0.072299786
32	0xbd1a5142	-0.03767515
33	0x3d3efdbd	0.046628702
34	0x3dc183c7	0.09448963
35	0xbd066425	-0.03281035
36	0xbdb29e1a	-0.08721562
37	0x3cc60b56	0.024175327
38	0xbda9cb4d	-0.0829073
39	0xbda787e7	-0.08180218
40	0xbb249997	-0.002511596
41	0x3d4fdf47	0.050750043
42	0x3d2dd49e	0.042439096
43	0x3d4ee53f	0.050511595
44	0x3d75893a	0.059945323
45	0xbc1d7752	-0.009610968
46	0x3d722c00	0.059123993
47	0xbd78e186	-0.06076195
48	0xbd4b4bbd	-0.049632777
49	0xbd5e8de9	-0.054334555
50	0x3cf0e611	0.02940658
51	0xbd86efb0	-0.065886855
52	0xbcd81f9c	-0.02638226
53	0xbd4c0407	-0.04980853
54	0xbca8a70a	-0.020587463
55	0x3bb6bf0b	0.0055769733
56	0xbd8c7be3	-0.06859567
57	0x3d526d85	0.051373977
58	0x3ce7a26e	0.028275695
59	0xbcd6160c	-0.02613356
60	0xbdb21a79	-0.086964555
61	0x3d49546d	0.04915278
62	0xbd355ade	-0.04427611
63	0x3dbce66f	0.09223639
64	0x3d474468	0.04864922
65	0xbd8a3412	-0.06748213
66	0xbd5d839e	-0.054080598
67	0xbd15a784	-0.03653671
68	0x3d6c7bc8	0.057735234
69	0xbd8329cb	-0.06404456
70	0xbd817ae6	-0.06322269
71	0x3db27c5a	0.087151244
72	0xbd19582e	-0.03743761
73	0xbb04cad9	-0.0020262508
74	0xbd474fab	-0.04865996
75	0x3d765be0	0.060146213
76	0x3c3719ee	0.011175616
77	0xbc71e88f	-0.014764919
78	0x3d5675f0	0.052358568
79	0x3d58ba38	0.052911967
80	0x3ca5d44a	0.020242829
81	0xbd98851c	-0.074472636
82	0x3d449d04	0.048001304
83	0xbd6c6fcc	-0.057723805
84	0x3cff1fa2	0.031143013
85	0x3c0d1161	0.0086101005
86	0x3d806b68	0.06270486
87	0x3c261f8a	0.010139355
88	0x3d5a031b	0.053225618
89	0x3db8fa1b	0.09032079
90	0xbd4a0946	-0.04932525
91	0x3da0fe12	0.0786096
92	0x3ce00a1c	0.02734857
93	0x3d0ac281	0.0338769
94	0xbd92775e	-0.07151674
95	0x3b220df5	0.0024727557
96	0x3d895404	0.06705478
97	0xbda538fa	-0.08067508
98	0x3daaccb2	0.08339824
99	0x3d541da2	0.051786073
100	0x3c521ab1	0.012823747
101	0x3c43fa91	0.011961595
102	0xbc7027d6	-0.014657935
103	0x3d19e689	0.03757337
104	0xbc93ef87	-0.018058551
105	0xbda61174	-0.08108798
106	0x3c4c345d	0.012463656
107	0xbd9c41fd	-0.07629774
108	0x3c303064	0.010753725
109	0x3c9fc969	0.01950522
110	0x3d64b733	0.055838775
111	0x3d4988ea	0.049202837
112	0x3d35c5b9	0.044378016
113	0x3c8c7691	0.01714638
114	0xbd8c4d10	-0.06850636
115	0xbc61525a	-0.013752544
116	0x3ca1a2f6	0.019731026
117	0x3d4ade2b	0.049528282
118	0x3c34ac7d	0.011027453
119	0x3d6e7aec	0.058222696
120	0xbd577d25	-0.05260958
121	0xbcf783ff	-0.030214308
122	0xbd3cb5c0	-0.046071768
123	0x3c6ea03e	0.014564572
124	0x3b2c23b0	0.0026266389
125	0xbc23dfa7	-0.010002053
126	0x3cd01485	0.02540041
127	0x3ae63a14	0.0017564916
128	0x3c9c934d	0.019113207
129	0xbd911ffd	-0.070861794
130	0x3cd99fa4	0.02656538
131	0xbc9ce339	-0.019151317
132	0x3c15d9f9	0.009146207
133	0x3d949aa4	0.07256058
134	0xbd7f1fbb	-0.06228612
135	0x3d0e507f	0.034744736
136	0xbd085172	-0.033280797
137	0xbd1dceee	-0.03852742
138	0xbd71986d	-0.058983255
139	0x3d69eeb1	0.0571124
140	0x3c095a53	0.008383351
141	0x3d69d33c	0.057086214
142	0xbd560383	-0.052249443
143	0xbd42e627	-0.04758277
144	0x3d41e7f5	0.047340352
145	0xbdab3a65	-0.08360747
146	0x3cb7ec38	0.022451505
147	0xbd9d2f06	-0.07674985
148	0x3d9f0ec5	0.07766489
149	0x3d3d92ce	0.046282582
150	0x3d0a9c29	0.033840332
151	0xbd8382bb	-0.06421419
152	0xbd1a3c04	-0.03765489
153	0x3d0edd9a	0.034879304
154	0x3d36319e	0.044480912
155	0xbdb0f877	-0.08641141
156	0x3ceaa4ec	0.028643094
157	0xbcc930a1	-0.02455932
158	0x3d6c0b14	0.057627752
159	0xbd3ddb66	-0.046351813
160	0xbd9104eb	-0.07081016
161	0xbd8b72fd	-0.06809042
162	0xbd69f06c	-0.05711405
163	0xbd958aa7	-0.073018365
164	0xbc874338	-0.016511545
165	0x3d384d8a	0.044995822
166	0xbd80a1c2	-0.06280853
167	0x3d8a429b	0.06750985
168	0x3d499014	0.04920967
169	0xbbc16552	-0.005901971
170	0x3b7ea9d7	0.0038858557
171	0xbc0c9b45	-0.008581941
172	0xbd9422a7	-0.07233172
173	0x3cb1a88a	0.021686811
174	0xbb2fc683	-0.0026821203
175	0xbce25d60	-0.027632415
176	0x3d487017	0.048935022
177	0xbda598a8	-0.080857575
178	0x3d3fb6c8	0.046805173
179	0xbd1e18df	-0.038597938
180	0x3daae462	0.08344342
181	0xbdabb025	-0.08383206
182	0xbcf72520	-0.03016907
183	0xbc2bdea7	-0.010490096
184	0xba283db1	-0.0006417884
185	0xbd041616	-0.032247625
186	0x3cbb3a9f	0.022855101
187	0xbccd9972	-0.025097582
188	0x3d38b0ea	0.045090593
189	0x3cb3e737	0.021960838
190	0xbbeedcce	-0.0072895056
191	0xbd2e3874	-0.042534307
192	0x3d6ab0e6	0.05729761
193	0x3d3af644	0.045645013
194	0xbd74f9aa	-0.05980841
195	0x3d9db995	0.077014126
196	0xbdaf12df	-0.08548521
197	0x3d54d14c	0.051957414
198	0xbc17c541	-0.009263338
199	0xbd6d4d39	-0.057934973
200	0xbd81081b	-0.06300374
201	0xbd735697	-0.05940875
202	0x3cf6bb4c	0.030118607
203	0xbd6a25b4	-0.057164863
204	0xbd82def2	-0.0639018
205	0x3d49ba0b	0.04924969
206	0xbd572499	-0.052525137
207	0xbd0a1c08	-0.03371814
208	0xbaa49763	-0.0012557324
209	0x3c925a71	0.017865391
210	0x3d27cb62	0.040965445
211	0xbbd6da41	-0.0065567796
212	0xba969ab0	-0.0011490192
213	0x3c7f437b	0.015580053
214	0xbd9e94ee	-0.0774325
215	0x3d89560f	0.067058675
216	0xbc191311	-0.009342925
217	0x3d608f55	0.054824192
218	0x3d2933f9	0.04130933
219	0x3d5d0edc	0.05396925
220	0xbc1055c1	-0.008809508
221	0xbda79147	-0.08182006
222	0x3d37a1e2	0.044832118
223	0x3c240b6c	0.010012489
224	0x3d8a59e6	0.06755428
225	0xbd9a80af	-0.07544076
226	0x3d0f0dda	0.03492532
227	0xbadab22f	-0.0016685183
228	0xbd2b3448	-0.041797906
229	0x3d20c891	0.039253775
230	0x3c3814fa	0.01123547
231	0xbdb69da3	-0.089167856
232	0x3cc63a79	0.024197804
233	0xbd800435	-0.062508024
234	0x3d40ee24	0.04710211
235	0x3d975a7a	0.07390304
236	0x3cdd3ebb	0.027007451
237	0xbcfc3a1d	-0.03078943
238	0x3c8c5320	0.01712948
239	0xbdaa83b7	-0.08325904
240	0xbd98a4d3	-0.07453313
241	0x3d8336f9	0.064069696
242	0xbd75c633	-0.06000347
243	0x3cc2b1b8	0.023766384
244	0x3d3db338	0.046313494
245	0xbd60279d	-0.05472528
246	0x3d725052	0.05915863
247	0x3b944c0c	0.004525667
248	0xbcc0e2de	-0.023545679
249	0x3c729ad5	0.014807423
250	0xbd76cc06	-0.060253166
251	0xbac1bfcb	-0.001478189
252	0x3d4b42f4	0.0496244
253	0x3d610e73	0.05494542
254	0xbd304025	-0.043029923
255	0xbd78c1a7	-0.060731556

classifier.3.bias f4 [5]
0	0xbcc3cf49	-0.023902552
1	0xbd917e42	-0.0710416
2	0xbcf4ed96	-0.029898446
3	0x3d605161	0.05476511
4	0xbc3fc6fd	-0.011705157
