models/epoch=4-step=125-v5.ckpt (torch, 800661 bytes, 38 tensors)

backbone.0.weight f4 [16, 1, 3, 3]
000000 48 a6 e7 3d 29 46 42 bc 51 1d b3 3d 3f 62 a2 be
       0.113110125 -0.011857548 0.08745826 -0.3171558
000010 0c 8b 8a 3e 2c f9 75 be b5 13 75 3e 8e 3a aa 3d
       0.2705921 -0.24020833 0.23933299 0.0831195
000020 6c 5b b7 3d c4 20 55 be d9 3c 94 bd a5 8d 6c 3d
       0.08952984 -0.2081328 -0.07238168 0.05775227
000030 ce ed f8 bd 89 6e a3 3d 83 e8 7e be 4a 5b 3a 3d
       -0.12154733 0.07980067 -0.24893384 0.045497216
000040 54 de f3 bd a4 6f 26 3e e7 61 f8 3d cc 30 92 3e
       -0.1190764 0.16253525 0.121280484 0.28552854
000050 24 e7 51 be be 1b 5d 3e 92 9e cd 3d 7c be ed 3d
       -0.2049833 0.21592614 0.100400105 0.11608598
000060 6d 15 d3 3d d1 18 82 3e ba b1 87 be 85 08 84 3e
       0.10306821 0.25409558 -0.26502782 0.2578775
000070 96 c4 77 be af 4b 51 3e d8 e4 1a be e8 8b e2 3d
       -0.24196085 0.20439027 -0.1512636 0.11061841
000080 16 e0 a2 3e 03 55 83 3e 6c 25 94 be 1f 4b aa be
       0.3181159 0.25650796 -0.289348 -0.33260438
000090 dc 02 64 3e f9 cc 58 be 7b 5d 23 3e fe 84 28 3e
       0.22266716 -0.21171941 0.15953629 0.16456982
0000a0 59 73 a4 3d 34 38 13 3b 9a e5 47 3e 97 df c1 bd
       0.08029813 0.002246392 0.1952118 -0.094664745
0000b0 39 79 5f be 0b aa 9f 3e 5d 38 85 3e 9f 96 e3 3d
       -0.21823587 0.3118442 0.26019564 0.11112713
0000c0 60 6c 9c bd 77 b1 1d be 79 ec 8b 3c 6d 48 72 3c
       -0.076378584 -0.15399729 0.017080532 0.014787775
0000d0 dc 84 e7 bd ab 68 9e be 0d 1d cd 3c c6 80 90 3d
       -0.11304638 -0.3093923 0.025038267 0.070558116
0000e0 7b 22 6d 3e 63 6e 26 be 48 f3 6a 3d 36 b7 d2 3c
       0.23157685 -0.16253047 0.057360917 0.025722127
0000f0 fc 3b 80 3c 90 69 76 be 8a 6f ae bd 8a c0 0f 3e
       0.015653603 -0.24063706 -0.08517368 0.14038292
000100 5f 69 88 3e bf 00 4f bd a7 42 2d bd 91 36 7f 3e
       0.26642892 -0.05053782 -0.042299893 0.24923159
000110 18 ca 5e bc e5 ab 42 3e 5e ac 1f be 1e 48 a1 be
       -0.013597988 0.19010885 -0.15593097 -0.31500334
000120 d7 c5 bf 3d 4c 65 09 be 16 d2 62 3d 0f c2 2f 3e
       0.09363907 -0.13417548 0.055376135 0.17163871
000130 19 3b a4 3e 02 69 51 be ab 05 5c be 1c 46 7e 3e
       0.32076338 -0.20450214 -0.21486537 0.24831432
000140 d2 aa f1 bd 21 40 53 b9 3a 40 51 be ed 58 ab bd
       -0.118001595 -0.00020146418 -0.20434657 -0.083665706
000150 1f c9 b7 bc b1 95 a3 3e 01 84 5c be 33 c2 67 be
       -0.02243477 0.31950143 -0.2153473 -0.22632675
000160 c5 b7 2f bd 63 0f e1 bd 57 0d 96 3e 0b b3 b1 be
       -0.042899866 -0.10989263 0.29307052 -0.3470691
000170 34 52 9c be f4 8d 11 be 6e 26 9b 3e 75 f1 4a 3e
       -0.30531466 -0.14214307 0.30302757 0.19818671
000180 63 78 6b be 69 a5 10 3e 3d 7c d0 3c 65 47 f6 bd
       -0.22995143 0.14125599 0.025449866 -0.12025336
000190 48 f0 00 3e 6a ed 47 be 3f fc 5d bd 42 c5 8c 3c
       0.1259166 -0.1952416 -0.05419564 0.017183904
0001a0 fb 08 95 3d d5 8b ab 3d e5 d2 69 be 84 48 8f 3e
       0.072771035 0.0837628 -0.22834356 0.27985013
0001b0 aa b3 9e be e2 ae 13 3d 7f 45 90 3e 64 ea 10 be
       -0.30996448 0.036055453 0.2817802 -0.14151913
0001c0 04 fa 81 3d 70 7d 3f be 98 ee a6 bc fb ce 89 be
       0.06346515 -0.18700194 -0.020377442 -0.26915726
0001d0 d7 f8 49 be 21 cf 34 3c 66 04 98 3e 0c 6c 94 bd
       -0.19723831 0.0110357115 0.29690856 -0.07247171
0001e0 36 67 51 3e 91 e9 b1 bd fb 5f 61 3e 93 3d 4a 3d
       0.20449528 -0.086871274 0.2200927 0.049375128
0001f0 4f 4a 63 3d 8b c2 50 3e 7d 22 1e 3e 15 0a 42 bd
       0.055490788 0.20386712 0.15442844 -0.047372896
000200 49 62 16 be cf cb c0 bd e7 40 80 3e 0a e0 81 be
       -0.1468593 -0.094138734 0.25049517 -0.2536624
000210 77 c3 31 3e 6f c5 15 bd dc 23 ca bd c0 29 25 3e
       0.1735972 -0.03656524 -0.09870121 0.16129208
000220 4e e3 52 be 52 30 82 3d 05 6c 8c 3d 95 5b 34 3e
       -0.20594522 0.063568726 0.068565406 0.17613061
000230 7c 9e 95 bc f3 7d 99 be c0 25 69 be 20 32 57 be
       -0.018264048 -0.29978904 -0.22768307 -0.21015215

backbone.0.bias f4 [16]
000000 5a da b4 bd ca e3 49 be 6c 13 07 3e c6 4c 9f bd
       -0.0883071 -0.19715801 0.13191003 -0.07778315
000010 8c 6a 49 3e a5 28 8b 3e 73 85 86 be 8f a4 b0 3d
       0.1966955 0.27179447 -0.2627369 0.08625137
000020 85 0d 87 3e c0 ab a0 be 13 81 96 be 66 96 89 3e
       0.26377502 -0.31381035 -0.2939535 0.26872557
000030 9e 51 00 3e c8 9e 72 3e 0c 9c af 3d 64 04 db 3d
       0.12531134 0.23693383 0.085746855 0.10694197

backbone.1.weight f4 [16]
000000 10 fa 7f 3f 62 f2 7f 3f 60 15 80 3f 45 36 80 3f
       0.9999094 0.9997922 1.0006523 1.0016562
000010 5e c6 7e 3f 87 06 80 3f c5 7f 7e 3f b0 4e 80 3f
       0.99521434 1.0001992 0.9941371 1.0024014
000020 69 03 80 3f 25 16 80 3f 39 d6 7f 3f 0b df 80 3f
       1.0001041 1.0006758 0.9993625 1.0068067
000030 69 f9 7f 3f fa f0 7f 3f d8 f3 7f 3f 6f e4 7f 3f
       0.99989945 0.99977076 0.9998145 0.99957937

backbone.1.bias f4 [16]
000000 a4 2b 87 39 da 9c 3b 3a e5 37 1e 3a 54 c0 e3 3a
       0.0002578172 0.00071568566 0.00060355506 0.0017376044
000010 e8 f2 f5 ba 79 b5 07 bb 1d 6b d5 ba 4b 82 03 3a
       -0.0018764408 -0.0020707531 -0.0016282533 0.00050166686
000020 70 ae ca 39 c6 ac 8c b9 88 95 52 ba 2b 59 df b7
       0.00038658408 -0.00026831607 -0.0008033146 -2.6625194e-05
000030 e8 bf 40 3a e6 e7 6e 39 28 43 3d bb 70 5b 41 b9
       0.0007352815 0.00022783838 -0.002887914 -0.00018439977

backbone.1.running_mean f4 [16]
000000 8f bc 25 3e 1b c4 08 bf a1 6f 35 3f f8 2d 00 3d
       0.1618521 -0.53424233 0.7087346 0.03129384
000010 9c 72 dd 3e df 06 a3 3e 09 c5 a3 be 88 9f 98 3e
       0.43251503 0.3184118 -0.31986263 0.29809213
000020 d1 97 de 3e 12 a5 47 bf 6d b4 b0 be 24 d8 93 3e
       0.43475202 -0.7798625 -0.34512654 0.2887584
000030 08 40 ee be eb e7 6f 3f 0a 4d eb 3b 92 a8 91 be
       -0.46533227 0.93713254 0.0071808146 -0.2844892

backbone.1.running_var f4 [16]
000000 9e 41 02 3c b3 10 6d 3c e9 31 30 3d 35 d6 25 3b
       0.007950215 0.014469313 0.043016348 0.002530468
000010 ec fa fe 3b a4 76 3e 3b 11 ec c3 3a 0f 6b f2 3b
       0.007781377 0.0029062415 0.0014947673 0.0073980163
000020 da b2 8c 3b 5d 27 da 3c f8 bf 9e 3a a2 67 02 3a
       0.0042937817 0.026630098 0.0012111655 0.0004974549
000030 07 4f 35 3d 91 15 79 3d bb 5a df 3a 5b 49 a3 3c
       0.04426482 0.060811583 0.001704059 0.01993244

backbone.4.weight f4 [32, 16, 3, 3]
000000 ec 7c 93 bd f2 fb 8a 3d 6f 07 98 3d f3 56 10 bd
       -0.07201561 0.06786336 0.07423293 -0.03523917
000010 70 64 68 bd f7 c0 86 bd c3 6f 72 3d d4 3f 6d 3c
       -0.05673641 -0.06579774 0.059188616 0.01448055
000020 a5 67 d7 bc 93 e5 df bc cf f5 6b 3d 2f 87 79 bd
       -0.026294539 -0.02733115 0.05760747 -0.060919937
000030 7e bd a1 bd 9b bc 7d bc e0 0b 8b 3d 3f a2 27 bd
       -0.07897471 -0.015486862 0.06789374 -0.040926214
000040 67 28 0b 3d ab 92 3d 3c 4c 71 53 3d 5f 45 4a bd
       0.033974078 0.011570613 0.05162172 -0.049382564
000050 a6 c3 0a bd 3e ce 10 3d 89 72 09 3d c9 d1 a7 3d
       -0.03387799 0.035352938 0.033556495 0.0819431
000060 df 72 21 3d 73 b4 51 bc e4 d9 b3 39 92 ce 31 3d
       0.03941619 -0.01279937 0.00034303882 0.04340989
000070 09 1f 06 3d 54 68 05 bd b8 73 3b bd f3 db eb 3b
       0.03274444 -0.0325702 -0.045764655 0.007197851
000080 c9 d6 d4 3c 81 96 85 bc 82 31 31 bd 10 38 8e 3d
       0.025981324 -0.016307117 -0.043260105 0.06944287
000090 e0 cc 13 bd 45 57 87 bd 59 b8 61 bd 36 bd 6c bd
       -0.036084056 -0.06608442 -0.05510745 -0.057797633
0000a0 c1 b8 32 bd f8 70 18 3c b1 b3 06 bd e4 98 64 bc
       -0.043633226 0.009304278 -0.03288621 -0.013952468
0000b0 19 c6 a4 bd 1d e9 8a bd 83 ca 95 bd 25 5f 84 bd
       -0.08045597 -0.06782744 -0.07314017 -0.0646346
0000c0 aa 32 96 3d 6c 06 68 bd 10 05 3c bd 83 ce 91 bd
       0.07333882 -0.05664675 -0.045903265 -0.07119467
0000d0 f3 e3 a1 bd 9f b5 07 3d 95 d3 5e 3c a9 ae 15 bc
       -0.07904806 0.03313219 0.01360025 -0.0091358805
0000e0 d8 91 9a 3d df e6 01 3d ee d6 3a 3d d8 9c 56 3c
       0.07547349 0.031714316 0.04561513 0.013098918
0000f0 74 a5 c9 b7 3f 98 2f 3c 38 8e 84 3d e9 4a 89 bd
       -2.4038112e-05 0.010717451 0.064724386 -0.06703741
000100 04 c9 be bc e9 38 12 bd e0 61 7a 3d 70 90 44 bc
       -0.023289211 -0.035698805 0.061128497 -0.011997327
000110 40 66 82 3d 67 95 85 3a e7 56 51 3d 64 f1 a3 3d
       0.06367159 0.001019162 0.051108267 0.08005026
000120 d9 f6 91 bd cc 98 7b 3d a3 21 fe 3b 09 ba dc 3b
       -0.071271606 0.061425015 0.0077554747 0.0067360443
000130 a5 4b 1f 3d a7 c5 34 3d aa fe 25 bd d9 d0 94 bb
       0.0388905 0.04413381 -0.04052607 -0.004541498
000140 a5 0a e4 bc 76 bd 59 3d 20 85 90 bd 19 34 37 bd
       -0.027837107 0.0531592 -0.070566416 -0.04472742
000150 35 4e 4a 3d dd 9a 65 bd 5a 36 ef 3c e7 06 1d bc
       0.04939099 -0.056055892 0.029200722 -0.009584165
000160 59 ba 97 bd ec b5 87 bc 97 fb 74 ba 2a c6 38 bd
       -0.0740859 -0.01656624 -0.0009345351 -0.04511086
000170 d1 1b 20 bd e0 f1 17 3d 00 f2 20 bd e6 89 b8 3c
       -0.039089028 0.037095904 -0.03929329 0.022526693
000180 63 f7 4c bc 03 08 95 3d 39 80 ec bb 22 d2 10 3d
       -0.012510153 0.07276919 -0.007217434 0.03535665
000190 2d fa 5c bc 3f fe 5f 3d e4 e4 98 bd ee 6b ed bc
       -0.013487381 0.054685827 -0.074655324 -0.028982129
0001a0 00 5d 5c 3d dd 98 77 bd 97 8a 47 bd 06 a4 25 bd
       0.05379963 -0.060448516 -0.048716154 -0.040439628
0001b0 35 91 95 bd 4f 60 dc 3c 78 bb 60 3c fd 17 a6 bc
       -0.07303087 0.026901392 0.013716571 -0.02027511
0001c0 50 70 88 bd fb 6e 96 3d 2e bd 8a bd 21 36 95 bd
       -0.06662047 0.073453866 -0.067743644 -0.07285715
0001d0 6e 38 5c bd 69 bd 72 bc f1 a8 72 3d be da f2 3c
       -0.053764753 -0.014815667 0.059243146 0.02964532
0001e0 01 79 57 3d 8a 93 ac bc fd fc 4d bd 9d e9 84 3d
       0.052605633 -0.021066446 -0.050290097 0.06489871
0001f0 43 5b 9e 3b 6c a8 bb 3c 34 1b 93 bd 91 c5 9b 3d
       0.0048326566 0.022907458 -0.07182923 0.07606042
000200 07 b4 eb 3c 87 8e a5 bd 17 15 81 bd 1c 7f 31 3b
       0.028772367 -0.080838256 -0.06302851 0.002708382
000210 5d ab 87 bd 18 c6 ce bc dc 65 19 3d 2c b7 9c bd
       -0.06624482 -0.025240943 0.037450656 -0.07652125
000220 19 b9 22 3b 32 93 82 3d 2a 0c a1 3d 2a 9c e3 bc
       0.0024829565 0.063757315 0.07863648 -0.027784426
000230 57 28 43 bd 7b 08 2f 3d 2d 0f 72 bc b5 9b 2a bc
       -0.047645893 0.042732697 -0.014774126 -0.0104131
000240 7c 23 b0 3c b1 13 72 3d a5 9c 52 3b af e2 3b 3d
       0.021501295 0.05910081 0.0032136824 0.04587048
000250 27 ba 3f bd 34 41 04 bd d2 ce 86 3d d8 f9 93 bc
       -0.046808388 -0.032288745 0.065824166 -0.01806347
000260 d7 5a 90 3d 6b 4b 94 bd 1d c6 04 3d d1 79 94 3d
       0.07048576 -0.07240947 0.032415498 0.07249797
000270 43 66 ea ba 02 b8 57 3d f1 e1 8f bd 8c 6d 56 3d
       -0.001788326 0.052665718 -0.07025517 0.052350566
000280 df 5a 0d 3d 52 0a d8 bc d2 f8 12 3d 62 1d 9d bc
       0.03451049 -0.026372109 0.035881825 -0.01917905
000290 b7 3f f3 3b 32 f4 10 bd 9f 43 24 bd b7 5f 64 3d
       0.007423367 -0.035389133 -0.04010355 0.055755343
0002a0 ea 43 a7 bc 2d 74 87 bd 69 63 15 bd 04 ec 20 3d
       -0.020418126 -0.06613956 -0.036471758 0.039287582
0002b0 8f 57 bb bc de d1 0f bc bf cc 64 bd ed c0 02 bd
       -0.0228689 -0.008778064 -0.055859324 -0.03192227
0002c0 6a 87 9b bd 62 03 02 3d bd c1 ed 3c 29 8f 59 bd
       -0.075941876 0.031741507 0.029023046 -0.053115044
0002d0 6d 6d ff 3a 14 01 8e 3b 3d ce 24 3d 21 03 2f 3d
       0.0019487567 0.0043336246 0.040235747 0.042727593
0002e0 87 59 f2 3c de 86 d5 39 6b c4 b4 3c 4d a2 8d bd
       0.029583706 0.0004072701 0.022066316 -0.06915722
0002f0 d4 da 94 bd 51 03 24 bd 91 0a 9c bd 50 0c 9d bd
       -0.07268301 -0.040042225 -0.07619203 -0.07668364
000300 cd c5 54 bd 6b 47 9f bd b2 3d a1 3c 70 b6 bd bc
       -0.05194645 -0.07777294 0.019682739 -0.023158282
000310 fb f9 e7 bc 11 b5 fa bc c7 31 9c 3c 80 63 94 3d
       -0.028317442 -0.030603917 0.019066704 0.072455406
000320 77 a0 fb 3c 52 eb a5 3d 78 0e 30 3d 72 29 8b 3d
       0.030716164 0.081015244 0.04298255 0.067950144
000330 a7 01 fd bc ef 7d 99 bd eb 2c e5 3b 31 4f d0 3c
       -0.030884577 -0.07494723 0.00699388 0.025428386
000340 0c 8e c6 3b e8 1f 07 bd b5 c5 a2 bd d8 9c 2c bd
       0.006059414 -0.032989413 -0.07947866 -0.042141765
000350 b8 81 a6 bc c7 b2 64 3d 9e e8 a1 3c a3 7a 18 3d
       -0.020325527 0.055834558 0.01976424 0.03722633
000360 e6 5d 06 ba 02 8b 63 3d 85 1e 38 3c f0 f1 57 3d
       -0.00051256863 0.05555249 0.011237745 0.052720964
000370 e2 c6 a7 bc fe 1d a7 3d 1f 39 68 bd 9f 28 5e bd
       -0.020480577 0.081600174 -0.0566951 -0.054237958
000380 30 9a 61 bd 13 3e aa bd b7 00 73 bc 17 36 ee bc
       -0.055078685 -0.08312621 -0.014831713 -0.029078526
000390 86 9f 87 3d f4 3c 48 bc be 04 35 3d 63 72 cc 3c
       0.066222236 -0.012221564 0.044193976 0.024956888
0003a0 09 1c 6a bd 67 a6 64 3d 69 8f 1a 3c da 06 09 bd
       -0.057155643 0.055822756 0.009433606 -0.0334538
0003b0 9b 70 0c 3c 96 9b a2 3c de e0 47 3d 09 0e 1e 3d
       0.008571769 0.01984958 0.048798434 0.038587604
0003c0 1f 3f 90 3d 47 a2 72 3d 4f 86 05 bd e5 98 8e bd
       0.070432894 0.05923679 -0.03259879 -0.06962756
0003d0 60 da a2 bc 14 d6 76 3c 29 8f 79 3d cf 69 a1 3c
       -0.01987952 0.015065689 0.060927544 0.019703774
0003e0 3f dc ac 3b 24 e2 a4 bc f8 68 92 3d 7f 51 64 3b
       0.005275279 -0.020127364 0.071489275 0.0034838615
0003f0 11 60 8f 3d ab 3e 14 bd ff ef a7 3d e1 bd 42 bd
       0.07000745 -0.036192577 0.082000725 -0.047544364

backbone.4.bias f4 [32]
000000 00 67 ff 3c a6 7c 22 3d 04 d5 90 3d 4d 98 56 bd
       0.031177044 0.039669655 0.070718795 -0.05239134
000010 cf 52 fc 3c 5e 0d 8d bd 2b 4e 27 bd b8 e8 15 bd
       0.030801205 -0.06887315 -0.04084603 -0.03659889
000020 32 22 5a 3d cc 0a 2b 3d 5e aa 61 3d 65 cd 2f bc
       0.053255267 0.041758344 0.055094115 -0.010730122
000030 e6 de 81 3d 14 e8 f3 3c 23 91 57 3d 4b c5 4e bd
       0.06341343 0.02977375 0.052628648 -0.050481122
000040 d1 94 82 3d 45 a2 1f 3d 96 86 1a bd 12 18 6a 3c
       0.06376041 0.03897311 -0.037726007 0.014287965
000050 fa df a4 bd a5 6f 24 bd 13 ad 8d bd fa 6d 86 3d
       -0.08050533 -0.040145535 -0.06917777 0.06563945
000060 7e 85 87 3c 2b c3 c7 3c d0 c6 6d 3d 18 ce 65 bc
       0.016543146 0.024385056 0.05805093 -0.014026187
000070 18 e9 7d 3d c0 a9 83 3d 26 c7 06 bd 0b 60 93 3c
       0.061989874 0.064288616 -0.032904766 0.017990133

backbone.5.weight f4 [32]
000000 12 dd 7f 3f d5 c7 7f 3f 16 db 7f 3f 8e 0c 80 3f
       0.999467 0.99914294 0.99943674 1.0003831
000010 2d 84 7f 3f c2 27 80 3f ef 03 80 3f 39 f1 7f 3f
       0.9981106 1.0012133 1.00012 0.9997745
000020 5c 16 80 3f 19 18 80 3f 40 bf 7f 3f 97 14 80 3f
       1.0006824 1.0007354 0.999012 1.0006284
000030 9c 2a 80 3f 5c 66 80 3f 6b 0b 80 3f 4e ea 7f 3f
       1.0013003 1.0031238 1.0003484 0.99966896
000040 b5 da 7f 3f 12 08 80 3f 0b 15 80 3f 90 64 7f 3f
       0.99943095 1.0002463 1.0006422 0.9976282
000050 8f 1c 80 3f dd 3d 80 3f 1b 40 80 3f e1 e6 7f 3f
       1.0008715 1.0018879 1.0019563 0.9996167
000060 d9 03 80 3f d4 20 80 3f ef 77 7f 3f 8e d4 7f 3f
       1.0001174 1.0010018 0.9979238 0.9993371
000070 df 09 80 3f f5 8d 7f 3f 54 46 7f 3f ce 0e 80 3f
       1.0003012 0.99825984 0.9971669 1.0004518

backbone.5.bias f4 [32]
000000 90 b0 87 b9 40 77 cb ba b5 cd 94 ba 48 a6 b5 39
       -0.00025880756 -0.001552321 -0.0011352809 0.000346469
000010 e1 0d e4 b9 3c 85 01 b8 ce c5 16 3a a9 9c 93 3a
       -0.0004349789 -3.088008e-05 0.0005751521 0.0011261898
000020 83 c2 84 3a e7 08 5f 39 54 00 6b ba e9 d5 be b9
       0.001012877 0.00021270254 -0.00089645875 -0.00036399
000030 f2 3c a7 38 12 e9 28 ba ff 03 0b 3a 1c 9c f7 b9
       7.9745325e-05 -0.00064434216 0.00053030247 -0.00047227822
000040 0a e2 f9 ba 44 c9 66 38 29 c5 b2 b9 f5 d8 1c ba
       -0.0019064557 5.5023716e-05 -0.000340977 -0.0005983257
000050 08 d1 bf 39 eb a3 25 ba 77 36 04 ba 30 fe 08 ba
       0.000365861 -0.0006318676 -0.0005043516 -0.0005225865
000060 6a 69 a0 3a 1a cd 2b 39 7d 85 ad ba 8a 33 11 38
       0.0012238447 0.00016384237 -0.0013238635 3.4618693e-05
000070 c5 12 0b ba 22 ce f0 39 6c 99 d6 39 0e 51 9a ba
       -0.0005305226 0.00045929948 0.0004093157 -0.0011773424

backbone.5.running_mean f4 [32]
000000 4a 26 cf be 3a df c5 3e 95 e0 8b be d1 cf e6 be
       -0.404589 0.3864687 -0.2731978 -0.45080426
000010 4c 9d ae bd 27 4a 37 3e d7 a2 e8 3d c4 f5 2b be
       -0.08526096 0.1789938 0.11359184 -0.16792971
000020 d4 d2 f9 ba d0 76 9b bd ac 9e d7 bd 57 f3 97 3d
       -0.0019060024 -0.07591021 -0.10528311 0.0741946
000030 80 35 f9 3d e1 a0 f2 3e 71 22 de bd 08 25 d1 3d
       0.121684074 0.47388366 -0.10846413 0.10212141
000040 fc a0 1c 3f 66 33 aa 3e bf 1e 17 bf 88 a9 24 be
       0.6118314 0.3324234 -0.5903129 -0.16080296
000050 bd 0e cc bd 58 da 20 3e 70 fd 5e 3e 09 cf 8c 3e
       -0.099637486 0.15708292 0.21776366 0.27501705
000060 e6 5c 03 be 39 03 92 3d 9c bd 99 3e 5f ce 1b be
       -0.12828407 0.07129521 0.30027473 -0.15215443
000070 82 41 d6 be e8 52 c0 be 16 b6 d3 bd d8 38 b4 3e
       -0.41846853 -0.37563252 -0.103374645 0.35199618

backbone.5.running_var f4 [32]
000000 9c 18 8e 3e 6c 4e 8e 3e 06 1a 97 3e 5b e4 a7 3e
       0.2775315 0.27794206 0.29512042 0.3279141
000010 58 df 28 3e b4 22 70 3e 04 95 3e 3e 0d 36 d3 3d
       0.16491449 0.23450738 0.18611532 0.10313044
000020 ae 8b 83 3e 78 ad a8 3d 32 11 0b 3f 53 22 05 3e
       0.25692505 0.082362115 0.5432311 0.13001375
000030 5a ca da 3d f1 94 22 3e 50 f2 c8 3e cf fe 54 3e
       0.10683127 0.15877129 0.3924737 0.20800327
000040 41 5c b2 3e 6e 86 54 3e ce 5c 84 3e 8f a9 5c 3e
       0.3483601 0.20754406 0.25852054 0.21549056
000050 ea 07 29 3e ad 42 6f 3d 9b 95 9b 3e f7 c4 81 3e
       0.16506925 0.058413196 0.30387577 0.25345585
000060 34 6e fe 3d 6a 81 f2 3d ae a3 b1 3e 4a f4 e6 3d
       0.12423363 0.1184109 0.3469519 0.11277063
000070 4d cf 46 3e c6 1a 51 3e fb 15 1c 3e c9 cd 09 3e
       0.19415016 0.2042037 0.1524276 0.13457407

backbone.8.weight f4 [64, 32, 3, 3]
000000 5e 5a a5 bb 76 e1 22 bd 66 c2 b5 bb 5c 5f 38 3d
       -0.005046173 -0.039765798 -0.0055468557 0.045012817
000010 aa 04 8e bb 6b 69 08 bd ee 3f ba 3c e4 34 54 bd
       -0.004334052 -0.03330366 0.022735562 -0.051808253
000020 7d 5c 60 3c db 1c 07 bd 17 bd fa 3c bb 88 1b bd
       0.013693926 -0.032986503 0.030607743 -0.037972193
000030 93 19 17 3c ed c3 23 bc 6c 18 18 bd 22 fe 98 3c
       0.009222406 -0.009995443 -0.037132666 0.018675867
000040 09 b4 32 3d 6f 4d e6 3b fc 2f 04 3d c9 1a 22 bd
       0.043628726 0.007028274 0.032272324 -0.039576326
000050 b8 52 31 bd 2e 6e 46 3c 54 58 f1 3b c2 bc bd bc
       -0.043291777 0.01211123 0.007365266 -0.023161296
000060 ad d8 2c bb 54 38 97 3c 97 b8 de bc eb 87 20 bd
       -0.0026374266 0.018459477 -0.027187629 -0.03919212
000070 fb 03 f8 3c f2 ce 19 bd 6c b5 84 3c e4 89 13 3c
       0.030275336 -0.037550874 0.01619979 0.009005044
000080 20 60 05 bd da a4 51 bd 13 70 63 3d c7 4e 1c 3d
       -0.032562375 -0.051182605 0.055526804 0.038161065
000090 fb 3f 3d 3c 12 90 23 3d 4f 01 9c bc ff e7 24 bd
       0.011550899 0.039932318 -0.019043593 -0.04026031
0000a0 c3 6d 95 bb f0 0e a2 bc 1d b7 68 bd ce 06 71 3d
       -0.0045602038 -0.019782513 -0.056815255 0.05884438
0000b0 e8 91 58 bd e5 90 9b 3c f8 09 d5 3b 02 3e 3b 3d
       -0.052873522 0.01898999 0.0065014325 0.045713432
0000c0 b3 4c 6d bd c3 e3 b1 bc a3 3c 4d bd aa 5f ab 3c
       -0.057934474 -0.02171505 -0.050106656 0.02091964
0000d0 bb 43 b4 bc 28 45 05 bd 67 9d 85 ba e9 b6 82 3c
       -0.022004953 -0.032536656 -0.0010194004 0.015956359
0000e0 2e ff 2c b9 5f 75 36 bc 52 aa 4b bb 7d c0 a5 bc
       -0.0001649826 -0.011136382 -0.003107686 -0.020233387
0000f0 47 29 c2 bb 4a 33 41 bd 27 da ff 3c de 10 24 bd
       -0.005925331 -0.047168054 0.031231953 -0.04005515
000100 ae 4b 32 3d 32 80 31 bd 10 a3 1c 3c 11 9f 2b bd
       0.043529205 -0.043335147 0.0095603615 -0.041899744
000110 f1 c8 0b bd 14 74 84 3c a2 60 97 3c 90 b0 13 bd
       -0.03412718 0.016168632 0.018478695 -0.036057055
000120 02 91 26 3c a2 90 de 3c a2 39 57 3d ca dc 27 bd
       0.0101664085 0.027168576 0.052545197 -0.040982045
000130 af a3 ac 3c ca e8 c5 3c 29 45 62 3d 51 2d 5c bd
       0.021074144 0.024158854 0.055241738 -0.053754155
000140 d1 f7 b6 3c 85 6c 2c bd c8 69 1e bc d1 e7 83 3b
       0.022334965 -0.04209568 -0.009668775 0.0040254374
000150 4c 21 1f bd 5c 76 01 3d 9a 24 b4 bc 6b 18 d7 bc
       -0.038850114 0.031607017 -0.02199011 -0.02625676
000160 c1 de 4e 3d 3f b4 e8 3c 28 a9 d7 3c f3 f8 86 b9
       0.050505403 0.02840626 0.026325777 -0.00025743953
000170 51 a1 42 3d 5b a0 1f 3d 94 25 ee 3c 3f a1 04 bc
       0.047517125 0.038971286 0.029070653 -0.008095085
000180 6f 3f d8 b9 10 0b d1 3c a3 df 8a 3a cd 2b e3 3c
       -0.00041245992 0.02551797 0.0010595213 0.027730847
000190 6f e5 84 3c 8a 18 8d bc 8a a5 a9 bc e6 6a 03 bd
       0.016222684 -0.017223615 -0.020708818 -0.03208437
0001a0 08 a5 dc bc 5c 0a f2 3c 6a c6 61 3c f1 bb 91 3a
       -0.026934162 0.029545955 0.013780216 0.0011118633
0001b0 0d 04 5d bd 6a 69 55 3c 51 63 6f bd 8b a4 53 bd
       -0.05395894 0.013025621 -0.058444325 -0.051670592
0001c0 8b 39 56 3d 8d 7d 29 bd ed fd 4d 3c 93 45 44 3d
       0.05230097 -0.0413795 0.012572748 0.047917914
0001d0 b7 c2 46 3d fc 88 14 3d 4a 70 83 bb 8e 7d ca 3c
       0.04852554 0.03626345 -0.0040111886 0.024718072
0001e0 bf 75 3e 3d c7 c3 1c bd a8 06 1a 3d 2c 70 20 3b
       0.04649901 -0.038272645 0.037604004 0.0024480922
0001f0 31 81 dc bc a7 dc 31 3c 5b de 6d 3c 4c a2 db 3c
       -0.026917072 0.01085583 0.014518346 0.026810788
000200 c1 eb 18 bd 42 9b 2b 3d 6c a1 5a bc 1a 61 49 bd
       -0.037334207 0.041896112 -0.01334415 -0.04916487
000210 18 d7 5d bd f1 13 33 bc cf 82 08 3d d8 b9 2c 3d
       -0.054160208 -0.010930047 0.033327874 0.042169422
000220 99 79 8f bc 08 80 62 bd 0e 74 4f bd 48 ca 2b 3c
       -0.017514037 -0.05529788 -0.050647788 0.010485239
000230 c4 1c 50 bd 3f 23 50 3d 85 d3 2e 3d b0 10 20 3c
       -0.050808683 0.050814863 0.04268219 0.009769604
000240 73 41 b0 3c 3a 0e 51 3d e9 85 55 3d ae 10 9c bc
       0.021515584 0.051038958 0.05212966 -0.019050922
000250 e2 dd 51 bc da 8c 13 3d 97 d7 13 bc 5f 1b 93 bc
       -0.012809249 0.036023 -0.009023569 -0.017957387
000260 b1 05 e3 bb 8b 39 f7 3c 50 90 c9 bc 33 6d 4f bb
       -0.0069281687 0.030178806 -0.024604946 -0.0031650781
000270 e4 87 8a 3c f9 31 2f 3d 74 09 79 3b c2 c0 05 3d
       0.0169105 0.042772267 0.003800002 0.03265453
000280 fa af 30 3c fb f9 30 3d f1 5a 61 bd 01 6c 2e 3b
       0.010784144 0.04320715 -0.05501837 0.0026614668
000290 29 95 47 3d 12 86 5c 3c 0e 35 3d bd 82 7d 47 bd
       0.048726235 0.013459699 -0.046193175 -0.048703678
0002a0 0b b7 3f 3c 05 23 dc 39 f2 35 00 bb 16 0f 6d 3c
       0.011701356 0.00041987762 -0.0019563404 0.014468929
0002b0 a0 60 c1 3c a8 14 35 bc 49 b9 f2 3c 15 40 bf bc
       0.023605645 -0.011052288 0.029629366 -0.023345986
0002c0 0d c1 9c bc d8 a6 3d bd eb e5 68 bc 46 73 06 3d
       -0.019135023 -0.046301693 -0.014214973 0.032824777
0002d0 ca aa 5a bd d6 17 65 bd f3 ea 19 3d 4d 60 61 bd
       -0.053385533 -0.055930935 0.03757758 -0.05502348
0002e0 10 ae ec bc 54 06 0e bc a4 13 42 bb 35 13 92 bb
       -0.028891593 -0.008668501 -0.0029613758 -0.004457856
0002f0 8c 22 45 3d 17 2e 58 bd fb 7a 4a bd 0d 40 5e bd
       0.04812865 -0.05277833 -0.04943369 -0.054260302
000300 96 0c 71 bd 9e 9e 58 bd a1 70 c6 bc c2 ff 36 bd
       -0.058849894 -0.052885644 -0.024223628 -0.044677503
000310 0b ce 03 bd 4c c2 ae ba c2 dc 8b 3b 87 48 11 bd
       -0.03217892 -0.0013333051 0.0042682597 -0.035469558
000320 0a 21 ef bc fd a5 47 3c 3c ee cf b8 5d f2 31 bd
       -0.029190559 0.012185571 -9.914904e-05 -0.043444026
000330 e1 4c 35 3d 56 f7 03 bd c9 49 6a 3d 0a da da bc
       0.04426277 -0.0322183 0.057199273 -0.026715297
000340 c0 bd 25 bd 91 09 1e 3d 9d 52 d0 bc 78 3b 73 bd
       -0.040464163 0.038583342 -0.025430018 -0.059382886
000350 af ac 28 bc 4b 32 f3 bc d0 09 b1 bc 4f 13 6d 3d
       -0.010295077 -0.029687067 -0.021611124 0.057879742
000360 03 cb 64 3b 57 c2 b5 3c c4 d7 70 bd 49 95 64 bb
       0.0034911043 0.022187395 -0.05879952 -0.003487902
000370 b8 c0 c7 bc 92 97 e0 bc e0 ae fe bb ac be 23 bd
       -0.024383888 -0.027416024 -0.0077723116 -0.03997676
000380 c3 87 ec 3b 28 41 0e bd 5e 7a 4b bd a0 bb 3f 3d
       0.0072183325 -0.034730107 -0.049677245 0.046809793
000390 54 ca c6 3c d0 41 f6 bb 43 c7 04 3c b5 67 da bc
       0.0242664 -0.0075151697 0.008104148 -0.02666078
0003a0 d4 09 06 3c db 1e b1 ba f9 bd 6a bd dd f7 27 bd
       0.008181054 -0.0013513224 -0.05731008 -0.041007865
0003b0 0d 49 5d bd d4 0a 9b bb 6b 49 42 bd c7 c1 e5 bb
       -0.054024745 -0.0047315154 -0.047433298 -0.0070116255
0003c0 a3 87 24 3d 0c 7b 0d bd 97 6b 2e 3d 6c 4a 44 bd
       0.040168416 -0.034541175 0.042583074 -0.047922537
0003d0 64 a8 9f 3c 27 15 90 bc 77 4c e2 bc bd 25 54 3d
       0.019489475 -0.017588211 -0.027624352 0.051793803
0003e0 b8 e0 2d 3d 6a 9b 34 3d 8d a5 0a 3d 8b 2d d4 bc
       0.042450637 0.044093527 0.033849288 -0.025900623
0003f0 2f ea 4b bd 45 5b f3 bb 5d d6 3e bd 5b f5 38 bd
       -0.04978388 -0.0074266517 -0.04659115 -0.045155864

backbone.8.bias f4 [64]
000000 ab 5d e2 bc ad 80 f2 3b 9e c4 02 3c f4 87 c9 3c
       -0.027632555 0.0074005933 0.0079814475 0.02460096
000010 3b ca 31 bd 38 8d 9a ba fe 55 bf 3a db 3d 50 3d
       -0.043405753 -0.0011791354 0.0014597771 0.05084024
000020 33 48 2b bd a4 b7 2e bd 15 d9 07 bd 9d 80 f1 3c
       -0.0418169 -0.042655602 -0.03316601 0.029480273
000030 a3 9a df 3c 86 0a 6b bd 86 29 1a bd 9b a8 3a bd
       0.027295416 -0.057383083 -0.037637256 -0.04557095
000040 ac e9 14 bd 5a ce 88 bb ef a1 11 bd a6 f2 a4 bb
       -0.03635566 -0.0041749896 -0.035554823 -0.0050338088
000050 0a 9c 1b 3b 68 91 9d bc dd 33 2e bd cb a3 1a bd
       0.002374413 -0.019234374 -0.04252993 -0.03775386
000060 78 20 1c bd af a2 60 bd 84 c1 e0 bc c1 fa 5c bc
       -0.038116902 -0.054842647 -0.027436025 -0.013487519
000070 ca 49 46 3d 13 46 1e bc fb e9 df 3c 6c 21 a5 3c
       0.048410214 -0.009660262 0.02733325 0.020157538
000080 2d 77 50 3d 2b 78 6a bd 79 c6 2d bd 9b e4 52 3c
       0.050894905 -0.057243507 -0.042425606 0.012871887
000090 6e 5a 3c 3d cd 7f 77 3c 87 da 7c bc 97 7c 31 bd
       0.045984678 0.015106154 -0.01543296 -0.04333171
0000a0 48 06 3b 3d e3 c1 5b bc 7a a7 e4 3c fb 63 dd bc
       0.045660287 -0.013412925 0.02791189 -0.027025213
0000b0 09 65 23 bd 08 29 c4 bc 54 01 7b 3c f1 4a f4 3c
       -0.039891277 -0.023945346 0.015320141 0.029820891
0000c0 8a bd 65 bd fa 33 5a bd 81 32 2a bc 44 92 ad bc
       -0.05608896 -0.053272225 -0.010388018 -0.021187909
0000d0 2f 67 e0 bc b2 11 94 bc 48 d8 2b 3d dc fa e4 3b
       -0.027392952 -0.018074844 0.04195431 0.0069879126
0000e0 17 4c bd bb 78 1d a9 bc e1 7d 65 bc 88 5c 4b bc
       -0.005776893 -0.020643935 -0.014007063 -0.012412198
0000f0 6f bb f0 3c 02 c3 54 3d f6 47 26 bd 43 de a4 3b
       0.02938625 0.051943786 -0.04059597 0.0050313785

backbone.9.weight f4 [64]
000000 fe 35 80 3f 6e 6b 80 3f 61 2f 80 3f 66 6a 80 3f
       1.0016477 1.0032785 1.0014459 1.003247
000010 82 93 80 3f 2c 70 80 3f 8b 6c 80 3f bd 64 80 3f
       1.0045016 1.0034232 1.0033125 1.0030743
000020 17 4e 80 3f e9 31 80 3f e8 35 80 3f 22 a5 7f 3f
       1.0023831 1.0015231 1.0016451 0.9986135
000030 e7 b7 7f 3f c8 e9 7f 3f f9 65 80 3f ad 27 80 3f
       0.9988999 0.99966097 1.003112 1.0012108
000040 79 28 80 3f 0a 0c 80 3f b8 10 80 3f 5b 3c 80 3f
       1.0012351 1.0003674 1.0005102 1.0018419
000050 a0 07 80 3f 67 01 80 3f de d9 7f 3f ed 6d 7f 3f
       1.0002327 1.0000428 0.99941814 0.9977711
000060 44 21 80 3f 15 06 80 3f c4 06 80 3f 91 43 80 3f
       1.0010152 1.0001856 1.0002065 1.002062
000070 39 27 80 3f a8 ba 7f 3f 13 c5 7f 3f b0 cf 7f 3f
       1.001197 0.9989419 0.99910086 0.9992628
000080 78 bb 7f 3f 42 05 80 3f ad 19 80 3f bc f3 7f 3f
       0.9989543 1.0001605 1.0007836 0.99981284
000090 f2 f9 7f 3f 5f 59 80 3f 4f 15 80 3f 10 43 80 3f
       0.9999076 1.0027274 1.0006503 1.0020466
0000a0 89 16 80 3f f2 20 80 3f bc 7a 80 3f 6d 2f 80 3f
       1.0006877 1.0010054 1.0037456 1.0014473
0000b0 7b 16 80 3f 86 dc 7f 3f 98 be 7f 3f 74 0c 80 3f
       1.000686 0.9994587 0.999002 1.00038
0000c0 f0 6b 7f 3f fc 0f 80 3f d9 5d 80 3f 13 6d 80 3f
       0.99774075 1.0004878 1.002864 1.0033287
0000d0 bc 53 80 3f 6d 14 80 3f 96 2b 80 3f 03 40 80 3f
       1.0025554 1.0006233 1.0013301 1.0019535
0000e0 31 6b 7f 3f 1c 8b 80 3f 21 3a 80 3f 1f 32 80 3f
       0.99772936 1.0042453 1.001774 1.0015296
0000f0 97 0d 80 3f a9 fa 7f 3f 0e 59 80 3f c2 11 80 3f
       1.0004147 0.9999185 1.0027177 1.0005419

backbone.9.bias f4 [64]
000000 f1 f5 19 ba ab 4b fe ba bd 81 9a 3a 2d 96 d2 ba
       -0.0005873135 -0.0019401213 0.0011787933 -0.0016066484
000010 2b 1b 1a ba b4 83 97 38 c0 33 79 3a bd 72 78 3a
       -0.0005878682 7.224773e-05 0.00095063075 0.00094775466
000020 1e 62 08 3a e3 a4 c8 ba 31 a2 03 3a a9 97 9b ba
       0.0005202609 -0.0015307929 0.0005021422 -0.001187076
000030 fc ad 80 ba 19 ab 3a ba 1b c4 8d ba 35 9b 9a 3a
       -0.0009817476 -0.00071208325 -0.001081589 0.0011795523
000040 d5 ce 2b 3a c0 d9 77 ba 8e 57 53 38 43 c2 42 3a
       0.00065539527 -0.00094547495 5.0387862e-05 0.000742946
000050 71 87 a4 ba 0e b1 2e b9 8c 26 d2 ba 10 36 5d ba
       -0.0012552572 -0.00016659891 -0.0016033216 -0.0008438537
000060 7a c0 e8 b9 4f 78 87 b9 14 bf 95 39 fb 68 ea 39
       -0.00044393894 -0.00025838843 0.0002856186 0.00044710175
000070 ea 8f a2 39 10 5b 9e ba 0a 8e 2f ba dc 40 b6 ba
       0.00031006272 -0.0012081582 -0.00066968857 -0.0013904828
000080 cd 94 e8 ba 71 49 cc b9 27 29 0f b5 30 d5 ae b7
       -0.0017744541 -0.0003896463 -5.3331536e-07 -2.084169e-05
000090 8b aa e0 b9 8f c3 a5 b9 7c d2 54 39 b6 17 86 3a
       -0.00042851674 -0.00031616955 0.00020296307 0.0010230455
0000a0 ef 18 bd b8 7e aa e6 b9 28 98 d5 39 6a b9 dd ba
       -9.0168665e-05 -0.00043996045 0.0004073989 -0.001691622
0000b0 42 97 2a ba b9 a8 c3 ba 0b 41 19 ba 40 d9 74 ba
       -0.00065075245 -0.0014927603 -0.0005846179 -0.0009340234
0000c0 3e c0 8a ba 67 f8 90 36 ec 27 a1 ba ba 21 5a ba
       -0.0010585857 4.3204523e-06 -0.0012295223 -0.00083210657
0000d0 17 63 40 ba ab e8 9e b9 cb ea a9 ba 3a 5d 2b 38
       -0.0007338984 -0.0003030946 -0.001296365 4.08564e-05
0000e0 d5 52 d8 ba 94 31 13 bb b3 45 aa b9 79 1d b7 ba
       -0.0016504178 -0.002245997 -0.00032476857 -0.0013970576
0000f0 2f 0e d5 ba 23 d5 15 39 9c e0 85 ba 1d 9e 7b 38
       -0.0016254837 0.00014289147 -0.0010214034 5.9990318e-05

backbone.9.running_mean f4 [64]
000000 fe 43 83 bf 18 ce cc 3f 1a 9a 8b bf a0 15 e8 3e
       -1.0255125 1.6000395 -1.0906403 0.45329
000010 88 6f 1a 3e 90 55 6b 3f e3 47 45 bf bb 51 fe 3e
       0.15081608 0.91927433 -0.77062815 0.4967173
000020 b6 72 18 3f 4c 36 20 3f 1e 54 7f bf 9b 4a bb 3e
       0.59550035 0.6258285 -0.9973773 0.36580357
000030 9b 71 eb bf c0 b2 4a bf 58 1f 70 3f e7 eb 94 be
       -1.8394045 -0.79179 0.93797827 -0.2908623
000040 dd 5a cc 3e a7 77 57 3f 92 0d 90 3f 22 90 ad bf
       0.39913073 0.8416695 1.1254141 -1.3559611
000050 ff 35 39 3f 06 1c 36 bf 63 2e 42 be 5c 2d 3d be
       0.72348017 -0.7113651 -0.18963008 -0.18474334
000060 54 95 7c be c6 36 2d bf 07 86 22 bf 64 61 82 bf
       -0.24666339 -0.676617 -0.6348576 -1.0185971
000070 7b 11 9e be 04 02 9b be 17 ae 27 3e a5 bc 1d 3f
       -0.30872712 -0.30274975 0.16375004 0.61615974
000080 e8 4a c4 be 05 fc 87 bf c2 a9 2c bf 52 ba 29 bf
       -0.383384 -1.0623785 -0.6744653 -0.6629993
000090 45 b0 48 bf e7 62 2b 3f 45 c5 9c bf 79 7c 90 be
       -0.78393966 0.6694779 -1.2247702 -0.28219965
0000a0 3b cf 92 bd c8 5d 19 bf 3e 8c 68 bf f0 3a 05 3f
       -0.07168432 -0.59908724 -0.9083899 0.52043056
0000b0 f8 32 e9 3e 4b 4b 28 3f 54 66 cd be 9c ed a9 3d
       0.455467 0.6573989 -0.40117133 0.082972735
0000c0 1a fb 8c 3e c5 3d 2c bf f4 1f 70 3f 48 da ac be
       0.27535325 -0.6728175 0.93798757 -0.33760285
0000d0 04 91 7b 3f 79 c6 c2 be 97 fc 3a 3e 85 14 8c bc
       0.9826815 -0.38042048 0.18260418 -0.017099628
0000e0 bb e4 1f 3d 01 98 1e 3f fc d4 ff be 82 dd f3 3d
       0.039036494 0.6195069 -0.49967182 0.11907484
0000f0 15 ea 45 3e 57 22 67 bf f7 9c 86 3f 9e 6f 7f bf
       0.19327576 -0.90286773 1.0516652 -0.9977969

backbone.9.running_var f4 [64]
000000 0d 99 1a 3f c0 ae 3a 3f f6 a1 e0 3e 30 f2 97 3e
       0.60389787 0.729229 0.43873566 0.29676962
000010 dd 5e d1 3e 0e ba 25 3f f3 f3 9b 3e cb 74 cf 3e
       0.40892687 0.6473702 0.30459556 0.40518793
000020 de 72 94 3e 9a a2 10 3f c4 7c e0 3e fc 96 b2 3e
       0.28993887 0.5649811 0.4384519 0.34880817
000030 60 06 96 3f e4 ba e8 3e 70 7b a8 3e b1 19 f4 3e
       1.1720695 0.45455086 0.32906675 0.4767585
000040 3e 14 c1 3e 2c 1f c3 3e 4b 55 25 3f 76 74 4b 3f
       0.37710756 0.3810972 0.6458327 0.7947458
000050 32 e8 12 3f 54 75 24 3f ce a8 65 3e e0 82 ae 3e
       0.5738555 0.6424153 0.22427675 0.34084225
000060 60 86 b1 3e f0 e5 91 3e 74 9b a5 3e a2 88 c9 3e
       0.34672832 0.2849574 0.32345164 0.39362055
000070 74 13 c7 3e c8 d6 97 3e 5b 82 c0 3e d7 b6 58 3e
       0.3888203 0.29656053 0.37599453 0.21163498
000080 fa 41 99 3e bd cc b5 3e fb b4 d6 3e fb b4 e5 3e
       0.2993315 0.35507765 0.41934952 0.4486464
000090 6b 1d e0 3e 86 34 0a 3f a7 35 0c 3f 99 46 99 3e
       0.43772444 0.53986394 0.54769367 0.29936674
0000a0 77 22 af 3e 78 80 b5 3e 65 9a e0 3e ec f1 c3 3e
       0.34205982 0.35449576 0.43867794 0.3827051
0000b0 2f 0e 60 3e 82 5a ea 3e 43 5a 99 3e 59 5b 8b 3e
       0.2188041 0.45772177 0.29951677 0.2721813
0000c0 48 e3 5f 3e fe 01 f4 3e c1 89 e4 3e 22 01 4f 3e
       0.21864045 0.4765777 0.44636348 0.20215276
0000d0 9d f1 24 3f 7e a9 b0 3e 8a e6 97 3e f7 21 50 3e
       0.6443117 0.34504312 0.29668075 0.20325457
0000e0 36 65 8c 3e aa 7d ab 3e a0 af 98 3e ca 45 9f 3e
       0.27420968 0.33494312 0.2982149 0.31107932
0000f0 88 18 78 3e 2d 80 f2 3e f4 dc bf 3e 3f a7 b4 3e
       0.24228108 0.47363415 0.3747326 0.3528385

classifier.1.weight f4 [128, 576]
000000 1d d4 24 bd b7 40 7f 3c ae 7f c2 3c a9 ae 89 3c
       -0.04024135 0.015579394 0.023742523 0.016806917
000010 23 69 8c 3b 70 9f 1d 3d d9 c2 00 bc 9b 34 78 3c
       0.004284994 0.03848213 -0.007858955 0.015149261
000020 44 25 40 bb 46 40 b6 3b f2 29 40 3b 2b 2c e7 bc
       -0.0029319087 0.005561861 0.0029321876 -0.028219303
000030 9c 30 97 bc b6 a3 d3 bc da 41 cb bb 6d 11 49 3b
       -0.018455796 -0.0258349 -0.0062029185 0.0030680553
000040 8a 4c bd 3c f3 4e b9 3c 72 d8 26 bd 39 05 10 bd
       0.023107786 0.022620654 -0.040733762 -0.03516123
000050 80 ae 33 bd 4d 2c c8 bc 00 1b 29 bd c7 00 48 3b
       -0.043867588 -0.024435187 -0.041285515 0.0030518041
000060 ec 49 de ba 27 3a fd 3c b7 33 ea bc 6b 14 9b 3c
       -0.0016959286 0.030911518 -0.028589113 0.018930634
000070 c3 93 ba bc d3 12 9e bc 06 37 89 3c 8c d8 3e 3c
       -0.022775536 -0.019296085 0.01674987 0.0116483085
000080 0a 7a fe 3b 34 ac 0f bd 3a 7e 05 bc cf 9c 1d 3d
       0.007766013 -0.035076335 -0.008147771 0.038479622
000090 a0 93 1b bd b9 1c 6d bc a7 fe 26 bc e7 64 19 3d
       -0.037982583 -0.01447218 -0.01019255 0.037449744
0000a0 f8 bb 23 bc 6d ab 2d bd 1a f5 9d bc db 52 07 3d
       -0.009993546 -0.042399812 -0.019281913 0.033038
0000b0 3f f0 6c bc 0c f0 8e bc b8 60 ae 3c 37 ad bb 3b
       -0.014461576 -0.017448448 0.021286353 0.005727436
0000c0 86 7d 0e 3d ff 16 88 3c 07 19 e3 3c ab 8e 41 3c
       0.034787677 0.016612528 0.027721895 0.0118138
0000d0 05 05 bd bb 47 e3 d0 3b 6c 80 1c 3d 39 a9 ab 3c
       -0.0057684206 0.00637475 0.03820841 0.020954715
0000e0 13 ad 56 3c 95 11 13 bd 17 b2 2e bc 6e df 29 bd
       0.013102788 -0.03590544 -0.010662577 -0.041472845
0000f0 be 19 c1 3b cb 66 46 3c 15 5d 91 39 cf 77 b3 3c
       0.0058929613 0.012109469 0.00027725907 0.021907715
000100 cb 34 f9 3c 41 a6 86 3c 44 2f e2 3c a7 ea 3f 3c
       0.030420681 0.016436698 0.027610429 0.01171366
000110 a4 f1 bc 3c 95 7b 19 bb 2c 12 c2 3c f2 40 22 bc
       0.023064442 -0.0023419608 0.023690306 -0.0099031795
000120 c1 17 0d bd e5 d9 26 3c 7e 32 0d 3b cd df 7c 3c
       -0.03444648 0.010183786 0.0021544988 0.015434218
000130 55 53 02 bd 20 62 19 3d d1 bd 05 bd 49 2c 0b bd
       -0.031817753 0.037447095 -0.032651726 -0.03397778
000140 f7 62 1d bc bf e4 83 bc 7d c1 23 bb 0b ef db 3c
       -0.009606115 -0.016100286 -0.0024987154 0.026847383
000150 cd e5 db bc 56 22 e5 3c 59 a5 d5 bc a0 61 64 bc
       -0.026842976 0.027970474 -0.02607982 -0.013939291
000160 2d bb 65 3c 1c 67 3f 3c a8 c9 6e 3c 82 79 b8 3c
       0.014021677 0.011682298 0.014574446 0.022518877
000170 50 fd 15 3d f9 79 13 bc 81 98 fa bc 2f 83 0a bd
       0.03661853 -0.0090012485 -0.030590298 -0.033816513
000180 81 b9 13 bc 24 0d 1e bd e6 d5 4a bc 65 db 42 3b
       -0.009016396 -0.03858675 -0.012380099 0.002973282
000190 38 a0 c8 bc 0a db 16 3d 33 3e d0 3c af 8b 08 bd
       -0.02449046 0.036829986 0.025420284 -0.033336338
0001a0 76 d5 71 bc 16 90 3b bc 6b 65 ae 3c 0a 85 8e bc
       -0.014760366 -0.011447927 0.021288594 -0.017397422
0001b0 24 b1 2f bc 92 73 b9 bc 8c 5c 05 bd da 3f 8e bc
       -0.010723386 -0.022638116 -0.032558963 -0.017364431
0001c0 b3 fd 18 3d d9 52 4a bc 59 55 27 bc 05 2b 20 3b
       0.03735132 -0.012348854 -0.01021322 0.0024439704
0001d0 fa ed cd 3c bf 60 0a bd 55 00 6a bc 43 4c d8 bc
       0.02513789 -0.03378367 -0.014282306 -0.026403552
0001e0 15 6f a2 bc 1d 72 6a 3c 0c d2 60 bb 00 0f be 3c
       -0.019828359 0.014309433 -0.0034304885 0.023200512
0001f0 35 6e db bc ec 63 21 bd 2e 9e 24 bd 39 18 6c bc
       -0.02678595 -0.039401934 -0.040189914 -0.014410072
000200 77 7c ef bc 7f 1b 15 bd d0 24 22 ba 08 0f 06 bd
       -0.029234154 -0.036403175 -0.0006185295 -0.03272918
000210 ae f9 fc 3c 99 ef 1c bc cd a5 7d bc 96 ff f6 3c
       0.030880775 -0.009578609 -0.0154814245 0.03015117
000220 a9 88 88 bc 44 b9 f4 bc 7a 3e eb bc 9e e2 a1 b9
       -0.016666727 -0.029873498 -0.028716315 -0.00030877156
000230 21 9a f9 bb ac 6a 9e 3c b4 3a b4 ba 16 cb 3a bd
       -0.0076172506 0.019337974 -0.0013750405 -0.045603834
000240 dc 10 0a ba 51 ca 23 3d e5 87 9c bb c0 47 31 39
       -0.00052667945 0.039987866 -0.004776942 0.00016906764
000250 e0 12 a4 3c 49 ab d1 3c f1 e8 a6 bc 99 45 b1 3a
       0.020028532 0.02559437 -0.020374747 0.001352477
000260 6e 37 0d 3d 00 ca fa 3c 4b e9 05 3d 27 46 8c bb
       0.03447669 0.0306139 0.03269319 -0.0042808237
000270 61 71 a5 3c 00 a4 35 bc 21 a4 4a bc 83 e9 05 3d
       0.020195665 -0.011086464 -0.012368233 0.032693397
000280 08 37 b1 3b 6c 08 0f 3d 1e e2 f1 bc 08 67 19 bd
       0.0054081716 0.03492014 -0.029526766 -0.037451774
000290 35 1c 4d 3c 43 34 fb bb 86 a6 12 3d 7c 77 05 3d
       0.012518932 -0.007666142 0.03580334 0.032584652
0002a0 e6 64 e6 bc d4 ce c0 3c 3a cb 8e 3c 42 dd df 3c
       -0.028124284 0.023536123 0.01743089 0.027327184
0002b0 c0 7e 8e 3c 96 66 25 3c 9b e1 90 3a 88 77 8f 3c
       0.017394423 0.010095259 0.0011053564 0.017513052
0002c0 60 ac be bc 6a 72 dc bc ef 4e 3e 3c 20 b5 2d bd
       -0.023275554 -0.026910026 0.011615499 -0.042409062
0002d0 72 d6 58 bc 34 0c eb 3c be 44 fc 3c 5b 94 8b bc
       -0.0132347215 0.028692342 0.030794498 -0.017038515
0002e0 de 4c 22 3d bc b7 91 bc 54 ee 6a 3c 1d 8e 11 3d
       0.039624088 -0.017787807 0.014339048 0.03553592
0002f0 de aa 07 bd 16 65 fb bc 9a 52 25 3c bc de 1e 3d
       -0.033121936 -0.03068785 0.0100904945 0.038786635
000300 d5 c5 e9 bc 0b a0 76 bc 30 31 21 bd 7e 30 9d 3c
       -0.028536716 -0.015052806 -0.03935355 0.019188162
000310 e5 4a 8a bc 8b fa 4a bc 7f 1d 03 3d 02 7f 85 3c
       -0.016881416 -0.012388836 0.03201055 0.016295914
000320 bd 76 78 bc 80 46 a0 bb 94 f2 02 bc 7d bf e8 bc
       -0.015165028 -0.0048912168 -0.007992405 -0.028411621
000330 67 9a c2 3c 1c 67 0c bd 91 a8 b8 3c 1d 4f 7a 3c
       0.023755265 -0.03427802 0.022541316 0.015277651
000340 4d bf 1c 3c 74 51 0b bd 61 bd b1 bc 9d 5f 8d 3c
       0.009567094 -0.034013227 -0.021696748 0.017257506
000350 eb 7d cc 3c 5b ff 6c 3c 27 68 f4 bc 43 9f e0 bc
       0.024962386 0.014465178 -0.02983482 -0.027419692
000360 32 a1 69 3c 51 26 00 bb 40 74 43 3c 32 a9 00 3d
       0.014259623 -0.0019554088 0.011929572 0.031411357
000370 f7 a6 d2 3c 58 95 0c 3d 23 58 9f bc 97 90 0e bd
       0.02571438 0.034322113 -0.019451207 -0.03480586
000380 5e e0 08 3d e2 68 ad 3c 37 1e 15 bd 85 1b 0d 3c
       0.0334171 0.021168176 -0.03640577 0.008612518
000390 8a db e0 3c b5 27 24 bc 2c d6 1e bb 91 f6 c0 3b
       0.027448434 -0.0100192325 -0.0024236543 0.005888768
0003a0 f5 db 1e bc 1e be 96 3c 30 9d b7 bc 17 e6 eb bc
       -0.0096959965 0.018401202 -0.02241382 -0.028796239
0003b0 63 19 9f 3b 9a e0 dc bc 9d 65 b8 bc 12 60 92 3c
       0.0048553213 -0.026962567 -0.02250939 0.017868076
0003c0 47 28 46 3c 6c fe 0c bd 1b e8 c4 ba 65 1b 26 bd
       0.012094564 -0.034422323 -0.0015022786 -0.04055347
0003d0 46 f1 a4 3c f3 30 8c 3c 71 69 87 3c da 45 c7 bc
       0.02013458 0.017113185 0.01652977 -0.0243253
0003e0 3a fa dd 3a 07 ce 9f bc 49 7d ac bb 29 b5 ab bc
       0.0016935535 -0.019507421 -0.0052639586 -0.020960407
0003f0 fc a5 15 3d 6b fa bd 3c 39 3b 27 3c 51 e7 af 3c
       0.03653525 0.023190698 0.010206991 0.021472605

classifier.1.bias f4 [128]
000000 d4 3e a2 bc 8d a0 ed 3c 7c 83 13 bd f8 53 92 3c
       -0.01980535 0.02900722 -0.036014065 0.017862305
000010 96 e9 9f 3c e2 3a 1d 3d e4 f2 b4 bc fb 5d 78 3c
       0.019520562 0.038386233 -0.022088476 0.015159125
000020 32 71 0b 3d cf b4 5f 3c 26 9f 87 3c cf cd 22 bd
       0.0340435 0.013653948 0.01655538 -0.039747056
000030 be 75 0d bd bd 9e 6b 3b 63 99 ac bc ac c5 76 3c
       -0.034536116 0.003595277 -0.021069234 0.015061777
000040 17 cd 23 bc 86 77 a7 3c 14 bc 2b bd b9 f6 13 3d
       -0.009997628 0.020442735 -0.041927412 0.036123965
000050 34 b7 6f 3a ea a6 ca 3a 4b 49 4c bc df c2 e4 bb
       0.0009144426 0.0015461121 -0.012468646 -0.0069812383
000060 67 3d 7e bc 96 3b 46 3c 09 65 d5 3c 5c 13 13 bb
       -0.015517569 0.012099167 0.026049154 -0.002244196
000070 87 7d e0 bc b8 13 fd 3c 49 3f 50 3c 94 0d 01 bd
       -0.027403606 0.030893192 0.012710401 -0.03150709
000080 69 52 f3 3c aa b3 fc bc 2d cd 6e bc 86 49 ea 3c
       0.029702382 -0.03084739 -0.014575285 0.028599512
000090 e9 13 15 3c e6 07 92 3c 0a 26 c8 3c 81 29 ee bc
       0.009098985 0.017826032 0.024432201 -0.029072525
0000a0 e7 2a 30 3c 6f eb e5 3b b8 0a de bc 2d fb 26 3d
       0.010752416 0.0070165913 -0.02710472 0.040766884
0000b0 3f 29 fa bc 80 fb 09 bd 88 3b e3 3c f7 1d 29 3c
       -0.030537246 -0.033687115 0.027738348 0.010322086
0000c0 e4 43 2b 3d 44 5e 08 3d 29 f1 08 bc 76 6c 4d 3c
       0.041812792 0.033293024 -0.008358278 0.012538066
0000d0 cc 34 28 3d 5d 05 3b 3c 3e ce f2 bc c7 27 df bc
       0.041065976 0.011414853 -0.02963936 -0.027240647
0000e0 6e f1 a7 3c 88 b1 ce 3c 08 2e 23 bd 2c 32 ba 3c
       0.020500865 0.025231138 -0.03983882 0.022729002
0000f0 4c 97 97 3c 78 cd d8 ba eb 05 00 bd 3f 6e 1b bd
       0.018504761 -0.0016540727 -0.031255644 -0.037946936
000100 65 75 ec bc 50 21 a9 3b 35 cd c3 bc 0c d1 b9 3c
       -0.028864572 0.005161442 -0.023901561 0.02268269
000110 1b 74 50 3c 4c 9b 0f 3b f8 e6 ab 3c 22 16 09 bd
       0.012722994 0.0021912633 0.020984158 -0.033468373
000120 b8 5f 0e bc c3 4a 06 3d b0 b8 d3 bc 27 bf 26 3c
       -0.008689813 0.032786142 -0.025844902 0.01017741
000130 96 08 f4 bb 2d 5e df bc 6e e7 b7 bc 8b 43 ef 3b
       -0.0074473126 -0.027266586 -0.022449221 0.007301753
000140 35 61 2d 3b 91 62 95 bc 4e ba 84 3c ad c1 fa bc
       0.0026455645 -0.018235477 0.016202118 -0.03060993
000150 de ff 9e 3c cf de 17 3d 2d 12 ba bc 7a 08 29 3d
       0.019409116 0.03707772 -0.022713745 0.04126785
000160 ce fc 19 bd 37 2c 6c 3c 2c df 8a 3b 5a 94 28 bc
       -0.03759461 0.0144148385 0.00423803 -0.010289276
000170 2b 2f 7a 3c 0f 41 96 bc 02 e5 e6 3c fb ba 85 b8
       0.015270035 -0.01834157 0.028185371 -6.376762e-05
000180 d2 d2 26 3d a1 ee f9 bc fc d1 0a 3c 43 27 a6 3c
       0.040728398 -0.030509295 0.008472916 0.020282393
000190 97 86 83 3c 62 90 2f 3c 82 51 5a 3c fa 12 ee 3c
       0.016055388 0.010715576 0.013325097 0.029061783
0001a0 9a 68 d5 3c 94 a7 a0 bc 67 49 8b bc e3 da c9 3c
       0.026050854 -0.019611157 -0.017002774 0.024640506
0001b0 a8 74 01 3d 19 f9 c3 3b 1d e1 11 bc ed d3 99 3c
       0.031605393 0.0059806225 -0.008903769 0.018777812
0001c0 b6 9f 87 3b 8b fd 8a bb 62 b4 f7 3c 95 c7 07 3d
       0.004138912 -0.0042416505 0.03023738 0.03314932
0001d0 96 82 f3 bc c7 41 1a 3d f6 24 e3 bc 78 22 cb bc
       -0.029725354 0.037660386 -0.027727585 -0.02479671
0001e0 7f f6 bf 3c ea c0 95 bb ab ad 26 3b 32 fc 8f bc
       0.023432968 -0.0045701163 0.0025433104 -0.01757631
0001f0 21 34 22 3c 7f 99 c5 bb fa 3f 03 3d d7 13 c6 3c
       0.009900124 -0.006030261 0.032043435 0.024179382
