models/epoch=2-step=75-v1.ckpt (torch, 800661 bytes, 38 tensors)

backbone.0.weight f4 [16, 1, 3, 3]
00000000: 3417 8d3d 25ec f7bd 5586 41be a6b4 42bd
00000010: 1443 eb3d b5ba d9bd 5cd9 9d3e 3df1 593d
00000020: f1fd 203e 73f1 f13d 36b3 9a3e daff a43e
00000030: eb13 57be 204a 29be 2222 923e d26b 9abe
00000040: 441b 9e3e 72da 143e 9593 833e 1eaf 9d3e
00000050: 883c 863e d405 16bd 2af6 d5bd d9e3 2d3d
00000060: 7703 f23d b442 143e 7308 fcbc 502b 5dbd
00000070: 689a 863e 9768 b83d cab5 593e 64eb ae3d
00000080: d956 753e 26f4 93be f716 933e 519e 593e
00000090: a3c4 42be acd9 39bd ef7f cfbd 0008 973e
000000a0: 8d86 93bd 7ca4 07bc 8815 ad3d a39e 2abe
000000b0: 1787 53bd eff9 2abd a5d2 5fbe 0697 8b3e
000000c0: 7be4 b2be 4225 08be 50ba 2ebe 8029 9b3e
000000d0: 9c6b 7b3e 1828 073e e69c 9abe db22 12be
000000e0: 46b5 2b3e e4b3 923c 3c3a a13e 645b 57be
000000f0: 8bb8 903e 72d0 35bd eb9f 9abe 110f 5ebe
00000100: 0eb4 803e 7687 253d 9c81 13be da87 b1be
00000110: bad4 0f3e c911 34be b67a 5abc 8f29 5abe
00000120: d196 2dbd 261f c2bd 411c 21be 6a78 853d
00000130: 27fe 36be c183 3dbe 2ffb 7f3b 8382 16be
00000140: 37e0 5cbe c32b ad3d 4ae3 4fbe a0c7 013e
00000150: eea2 63be 2b17 79be b3f6 a63e 5d76 d73e
00000160: 7a5e a1be 5d59 4e3a 8ac5 ecbc 0d63 813e
00000170: f79a 8a3e aec7 9bbe 4159 1c3e 065e b4bc
00000180: b999 493c ace2 993e f698 64be 028a 7a3e
00000190: 6ebe 2ebe 3bc9 a73e b6ab 9a3d c73a 963e
000001a0: 3375 483d 61a5 25be bbbb a3be 9d86 6d3d
000001b0: 71e1 69be c881 0fbd d1ad 8dbe 3e78 80be
000001c0: 583f 323e 275a 6dbd 2c7e a13e d824 51be
000001d0: 4eaf 413e 20ff 0ebe b7e5 6dbe 5182 9fbe
000001e0: 2c38 9e3e 9772 8fbe 68f9 92be 5009 59be
000001f0: 899c 44be 843d 353e 256b 983e 2291 84be
00000200: 403c 23be 4693 d63d f2fa 2b3d 1465 e2bd
00000210: c269 14be d250 59be 8d82 41be 1be8 a03d
00000220: 88a2 7b3d d93f 77be d0a6 77be 777c 70be
00000230: 87a2 fa3d 54da 213e 2615 6cbe f208 57bb
0.06889191 -0.12105588 -0.188989 -0.04753556 0.114874035 -0.10631315 0.30829895 0.05320858
0.15721871 0.11813631 0.30214852 0.3222645 -0.21003692 -0.16532183 0.28541666 -0.30160385
0.30880177 0.14536455 0.25698534 0.30797666 0.26218057 -0.036626652 -0.10447343 0.04245362
0.11817067 0.1447857 -0.030765748 -0.053996384 0.26289678 0.09004324 0.21260753 0.08540991
0.23958911 -0.28897208 0.28728458 0.21251799 -0.19020323 -0.045373604 -0.10131823 0.2949829
-0.07203398 -0.008278962 0.084513724 -0.16662078 -0.051642504 -0.04174226 -0.21857698 0.2726366
-0.34939942 -0.13295463 -0.1706326 0.303051 0.24552768 0.13198888 -0.3019783 -0.14271109
0.16768369 0.017908044 0.31489742 -0.21030957 0.28265795 -0.044388242 -0.30200133 -0.21685435
0.2513737 0.04041239 -0.14404911 -0.3467396 0.14045992 -0.1758491 -0.013334921 -0.21304916
-0.042380158 -0.09478597 -0.15733434 0.06517108 -0.17870389 -0.18507291 0.003905963 -0.14698224
-0.21569906 0.084556125 -0.20301548 0.12673807 -0.22230121 -0.24325244 0.32610092 0.42082492
-0.31517392 0.00078715925 -0.028902788 0.25270882 0.27071354 -0.3042578 0.15268423 -0.02201749
0.012304717 0.3005575 -0.22323975 0.24466708 -0.1706483 0.32770714 0.075522825 0.2934172
0.048939895 -0.16176368 -0.31979164 0.057989705 -0.22839905 -0.03503588 -0.27671674 -0.25091738
0.17406976 -0.057947304 0.31541574 -0.20424211 0.1891453 -0.1396451 -0.2323216 -0.3115411
0.3090223 -0.28017113 -0.28705907 -0.21194959 -0.19200338 0.17699248 0.29769245 -0.25891978
-0.15940952 0.10477309 0.041987367 -0.11054435 -0.14493468 -0.21222237 -0.18897457 0.078567706
0.0614343 -0.2414545 -0.24184728 -0.2348498 0.12238031 0.15805942 -0.23054942 -0.0032811728

backbone.0.bias f4 [16]
00000000: 84d3 37be 140e 9cbd 4b9d 6d3e 24aa 19bd
00000010: 665e fbbc 1a3c a83e a46a dbbd aaa2 393d
00000020: 186f 6bbd 5f01 f43d b66f 76be 2cf1 80be
00000030: aff0 63be 6da6 2a3e ce69 4ebd 9492 dabd
-0.1795178 -0.07619873 0.23204534 -0.037515774 -0.030684661 0.32858354 -0.107136995 0.045321144
-0.057478994 0.11914324 -0.24066052 -0.25184 -0.22259782 0.16665049 -0.050393872 -0.10672489

backbone.1.weight f4 [16]
00000000: fed1 813f 80f1 803f b240 7f3f 2e8a 803f
00000010: dfb3 7b3f ca8c 853f aaf1 7e3f 9206 7d3f
00000020: ac24 7d3f 931a 7e3f 0c93 803f fd57 803f
00000030: 19f0 7f3f 7a08 7c3f 0e98 803f 9f09 7d3f
1.014221 1.00737 0.9970809 1.0042169 0.98321337 1.043359 0.995875 0.9883815
0.9888408 0.992593 1.0044875 1.0026852 0.99975735 0.98450434 1.0046403 0.98842806

backbone.1.bias f4 [16]
00000000: b6f6 153b 033f b03b d043 74bb e3e3 a83b
00000010: 40b0 38bc 50df eabb 1582 bdbb 1a0a abbb
00000020: 20cf 30bc ab01 19bc 5237 d93b f5f7 a6b9
00000030: 8da1 0bb7 5064 25bc 733d 65bb 60fb 34bc
0.0022882647 0.0053786053 -0.0037271865 0.0051541193 -0.01127249 -0.007167734 -0.0057833293 -0.00521971
-0.01079157 -0.009338777 0.006628909 -0.0003184673 -8.32266e-06 -0.010094717 -0.0034979254 -0.011046261

backbone.1.running_mean f4 [16]
00000000: a2ba 203c a670 153f c6ff 7d3f 5bba 4a3f
00000010: 77a9 76be 8877 cd3e 94d8 84be 2536 f8be
00000020: 7cb8 4fbf 968a 923d bee0 e33d f41a 9c3d
00000030: 2c7b 07bf f01a 42bf f6ea 0cbf e234 06bf
0.009810122 0.5837501 0.99218404 0.79190606 -0.24088083 0.40130258 -0.25946486 -0.4847881
-0.81140876 0.071553394 0.111268505 0.076223284 -0.5292232 -0.75822353 -0.5504602 -0.5242444

backbone.1.running_var f4 [16]
00000000: c9b3 cf3b fa0e 6a3d 3ecd 933d e8bd b23d
00000010: f361 cd3b 21f2 3b3b ea25 8e3b 10d0 143d
00000020: 0783 923d 9c02 ee3a 059f 893c c1d9 7a3c
00000030: 6dc3 593c 7a87 dc3d dc92 053d e263 b83c
0.0063385707 0.05714319 0.07216881 0.08727628 0.00626778 0.0028678256 0.004338016 0.036331236
0.07153898 0.0018158737 0.01679946 0.015310706 0.013291222 0.107680276 0.03261076 0.022508565

backbone.4.weight f4 [32, 16, 3, 3]
00000000: 2f12 2a3d ba8a adbb d124 dcb7 3777 a63c
00000010: 75d2 23bc b171 943d b561 8c3d 4404 993d
00000020: 451c 24b9 9c55 563d 9c0e 55bd cc67 893d
00000030: dee0 4ebb 7bd7 30bd 0dc7 543c 8a89 543d
00000040: 660d 05bd 0775 8f3d bcc6 113c 123c 97bd
00000050: 9f52 8dbd 6a2e 54bd 0016 883d 4089 84bd
00000060: 4963 38bd 31b4 5bbc f37b af3d f202 a33d
00000070: 945f 593d 35ba 7b3d 1d6a 253c b47e 91bd
00000080: 8c4c 26bd 7c7d 313d 29ca 93bd 1206 19bc
00000090: 8deb 343b d341 98bc 9b13 383c 276f febb
000000a0: 1707 413d 98e4 fe39 99da a8bd dec6 cebb
000000b0: b9c5 c43c 9db6 37bd a365 103d a448 d63d
000000c0: 4eaf ebbc 314a 85bd 2f6d ea3d 76da 7ebd
000000d0: 9b38 eabc cba9 fbbc 1fae 323d b369 553d
000000e0: 6441 743d e1bc be3c 3179 f33b 8bed 28bc
000000f0: 2fa5 9dbc eaa3 a4bd fb6b 17bd 7b68 ea3c
00000100: a0d1 c4bb a22e 67bd a49a 5e3d 18a0 eb3c
00000110: 8cf4 98bb 7dc6 1b3d cf44 a83d e907 18bd
00000120: 2bb3 1cba 9c86 633c 68ba 573d 7024 95bd
00000130: 6981 773d 3113 7cbd e79a 84bd a844 41bd
00000140: ddcd 7fbd 1ff1 a6bc 2148 86bd 2cb3 dd3d
00000150: 200e 95bd 9293 bd3d 40b5 dc3d 8c2b 8cbd
00000160: 7566 e53c e974 863d c38c 273b e978 d9bc
00000170: 4ab7 4dbc 2730 04bd 1ceb a5bc f908 babc
00000180: cb6b f03b 5147 93bd 44ac 72bd f112 c5bc
00000190: d64f a63d 1ed7 5b3c c3b9 0f3d 25d4 72bd
000001a0: 5e9f a1bc eccc 8a3d 334c 4e3d 9b2b a33c
000001b0: 348b 71ba e98a 0ebd 56a8 b03c 0d8b 47bc
000001c0: da1d 39bd 54db 82bd 0eae 74bd 1705 b83c
000001d0: aa74 dabc 62a5 4c3d f1d0 3f3d a46a aa3c
000001e0: 774e a13d 9548 9bbc 353e b9bd 3e7d 8abd
000001f0: 24ec 07bd b249 49bd 004e 0fbd b738 c33c
00000200: df79 303d e0d1 9dbd d917 843c 16cd 8cbd
00000210: b841 af3d 52a3 c4bc 278e bdbc ba9f 0fbc
00000220: e7d8 373d 06bc 9e3c 5dc3 a4bc bf4a e33c
00000230: 5fb1 c2bb 4882 8d3d 7f65 aebd 537a 85bd
00000240: 9c0d 1e3d fb66 ba3d add7 4b3d 2640 093c
00000250: 256c 4fbc faf7 16bd 9bfb 8c3d ef0c 08bd
00000260: b0fc 753d 8880 a33d 38a7 673d 71ed 25bd
00000270: dbd3 073d 4720 75bd 1beb 91bd 178d e43c
00000280: 9879 34bd c742 6dbc 7bfa 23bd f4d2 543c
00000290: 5235 043d 2bb0 143c 955a abbc 8080 a33d
000002a0: 2bca 23bd f5a3 71bd f56a 133d af7e 83bc
000002b0: 63f1 cb39 aa7d c1bc a8bf a43d f744 c93c
000002c0: 442b 1fbd 3493 20bb 457c 7e3d 828d 973d
000002d0: 3ca1 fa3b 68e5 923d 4f91 70bd c091 29bc
000002e0: bf2d f6bc 461d 74bd bc26 e1bb 6954 4fba
000002f0: 1861 adbd f1a5 f3bc c1ec 283b d6bb 1bbd
00000300: e502 5e3d 6f44 903d 174c e03b 3ca7 2ebd
00000310: 9398 163d 36b6 03bc ea29 69bd 2948 f1bc
00000320: 3a80 a4bc 86ed 013d 2dae 87bd f328 903c
00000330: 24b1 343b 4561 4d3d 04d3 79bd d528 363c
00000340: 4ca6 56bd d306 77bd 0a38 2fbd ff59 43bb
00000350: d965 a9bd 407d 88bd efd6 4cbd f32f 953d
00000360: 8b31 653d 08c5 9b3d be20 90bd 93f5 883d
00000370: 773d 94bd 502f e8bc 79f7 793b f5b1 843d
00000380: 620d 7dbd 5e8d c8ba 7051 863d 4607 d3bc
00000390: 111b a3bc 2de3 dfbc 27e2 acbc 60b3 26bc
000003a0: 6ade acbd 9e5a e6bc 0d64 89bb 01d4 a03d
000003b0: 9ef3 eabc a3de 473b 34c6 8f3d 97b5 7f3d
000003c0: 6163 98bd 0e83 39bd 73cb 3cbd b124 4b3a
000003d0: a460 91bd 71f4 caba 7d73 70bd 4496 c1bc
000003e0: 7579 71bc e943 21bd f456 92bd 8dfe 4b3d
000003f0: 904c e2bc e95a 68bd 627a d6bc 2fc2 f53c
0.041521247 -0.0052960785 -2.6243188e-05 0.020320518 -0.009998907 0.072482474 0.06854574 0.07471517
-0.0001565079 0.052327737 -0.052015886 0.06709251 -0.0031567137 -0.04317425 0.0129869105 0.05188898
-0.03248348 0.07004743 0.00889748 -0.073845044 -0.06900524 -0.051802076 0.06644821 -0.06471491
-0.04501656 -0.01340966 0.08568563 0.07959546 0.053069666 0.061456878 0.0100961 -0.07104245
-0.040600345 0.04333256 -0.07216293 -0.009339826 0.002760622 -0.018586075 0.011235143 -0.0077647152
0.047125902 0.0004861697 -0.08244819 -0.006310328 0.024020063 -0.044851888 0.03525318 0.10463074
-0.028770115 -0.065082915 0.11446606 -0.06222006 -0.028591445 -0.030720612 0.043623086 0.052102756
0.059632674 0.023283424 0.0074302186 -0.010310541 -0.019243805 -0.080390766 -0.036968213 0.028614273
-0.0060064346 -0.056440957 0.054346696 0.028762862 -0.004667824 0.03803109 0.08216249 -0.03711692
-0.0005977626 0.013887074 0.052668005 -0.072823405 0.06042615 -0.06154174 -0.06474858 -0.047184616
-0.062452186 -0.020378647 -0.06556726 0.1082519 -0.07278085 0.092566624 0.10776758 -0.068442434
0.028002957 0.065652676 0.0025566078 -0.026546912 -0.012555907 -0.032272484 -0.02025371 -0.022709357
0.0073370687 -0.07191337 -0.059246317 -0.024056884 0.08120696 0.013417987 0.035089266 -0.059284348
-0.019729313 0.06777367 0.050365638 0.019918254 -0.00092141633 -0.034800444 0.021564644 -0.012179148
-0.045194484 -0.0638949 -0.059736304 0.022463365 -0.026666958 0.04996241 0.04683012 0.020802803
0.07876294 -0.018955508 -0.09045068 -0.06762169 -0.033184186 -0.049142547 -0.034986496 0.023830755
0.043084975 -0.07706046 0.016124653 -0.068750545 0.08557457 -0.024003658 -0.023139073 -0.008766109
0.04488459 0.019376766 -0.020112688 0.027745603 -0.0059415544 0.06909615 -0.085154526 -0.06517472
0.038587198 0.09101673 0.04976623 0.008377111 -0.012660061 -0.036857583 0.068839274 -0.03321546
0.060055435 0.079835 0.056555957 -0.040509645 0.033161025 -0.059845235 -0.07124921 0.027899308
-0.044061273 -0.014481253 -0.0400338 0.012989748 0.032277413 0.009075205 -0.020917216 0.07983494
-0.039987724 -0.058994252 0.035990674 -0.016051618 0.00038899024 -0.023619492 0.08044368 0.024569018
-0.03885962 -0.0024501802 0.06213023 0.07400037 0.007648615 0.07172662 -0.058732327 -0.010349691
-0.03005111 -0.05959823 -0.0068710726 -0.00079090014 -0.08465785 -0.029742213 0.0025775882 -0.03802093
0.05420198 0.07044303 0.006845008 -0.042639956 0.0367666 -0.008039048 -0.056924738 -0.029453354
-0.020080674 0.03172066 -0.06625018 0.017597651 0.0027571404 0.05014159 -0.060992256 0.011118134
-0.052404687 -0.060309242 -0.042778052 -0.002980828 -0.08271379 -0.066645145 -0.050009664 0.07284536
0.05595545 0.0760594 -0.07037495 0.066874646 -0.07238286 -0.028342873 0.003814189 0.06479255
-0.06178034 -0.001530092 0.06558502 -0.025760304 -0.019910367 -0.027330006 -0.021103932 -0.010174602
-0.084408596 -0.028119382 -0.004192835 0.078529365 -0.028680619 0.0030497692 0.07020226 0.062429037
-0.0744083 -0.045291 -0.04609246 0.0007749303 -0.07098511 -0.0015484226 -0.05870389 -0.023631223
-0.01473843 -0.039371405 -0.07145491 0.049803305 -0.027624398 -0.056727324 -0.026181404 0.02999982

backbone.4.bias f4 [32]
00000000: 0fd0 b73c 8246 943d 2725 413d e9b9 09bd
00000010: 0665 b13c 47b2 913d ec1b 773d 6f7b 0cbc
00000020: 5abe 91bd 1d6f c23c 795d 9abc 7768 91bd
00000030: 42e5 48bd 92a5 27bc 9122 d43c ad81 99bd
00000040: 860e 303c e3f5 6c3d 5621 793d 8b25 aa3d
00000050: 3a7d f63c 9dc1 e83b 3003 2cbd 6b37 9cbd
00000060: 3037 763d 2abe 983c edd7 7bbd 3942 823d
00000070: 950e 94bc 2d49 5c3c ab80 2d3d 0e3e d1bc
0.022438077 0.07240011 0.04715457 -0.033624563 0.021654617 0.07114082 0.060329363 -0.008574351
-0.07116385 0.023734624 -0.0188434 -0.07100003 -0.049046762 -0.010232346 0.025895389 -0.07495437
0.01074565 0.057851683 0.060822807 0.08307942 0.03008901 0.0071031586 -0.041995227 -0.07627758
0.060111225 0.018645365 -0.06148522 0.06360287 -0.01807336 0.013445181 0.042359035 -0.025542285

backbone.5.weight f4 [32]
00000000: 1b9f 803f 0e3d 7e3f c27e 7e3f 01b9 7f3f
00000010: e06b 803f f60b 803f 2a6a 803f 974e 833f
00000020: c12f 7e3f 5e58 803f b235 803f 3dd7 7e3f
00000030: d691 7f3f 96e2 7d3f 2129 843f bf09 803f
00000040: d117 803f e43b 7e3f 816b 7f3f e91a 7c3f
00000050: 2c2e 7f3f a039 803f 016c 803f 4428 803f
00000060: a26e 7e3f 5372 7f3f 170e 7e3f 71f7 7e3f
00000070: da49 7e3f 1ab7 7f3f b55e 803f cbb7 803f
1.0048555 0.9931191 0.9941217 0.9989167 1.0032921 1.000365 1.0032399 1.0258359
0.99291617 1.0026968 1.0016387 0.9954718 0.99831903 0.9917387 1.0325052 1.0002974
1.0007268 0.99310136 0.9977341 0.9847856 0.9967983 1.0017586 1.003296 1.0012288
0.9938756 0.9978382 0.9924025 0.99596316 0.9933144 0.99888766 1.0028902 1.0056089

backbone.5.bias f4 [32]
00000000: a7a5 e03a 05ba 95bb 4fec 78ba a1a8 83bb
00000010: 5792 8e3b f439 85ba 7001 7ebb 4c2c 06b8
00000020: 3f79 23bc 5bc3 9d39 41af 69bb f05b 23bb
00000030: 8b3f 1d3b fe48 edbb 8947 2bba 83b4 53bb
00000040: efb7 9eb8 ee16 553a f983 a1ba 185d 40bc
00000050: 38c5 ebb9 1b19 bcba ecf7 c5bb 8258 673b
00000060: f43b a1bb c035 19ba f09c a9bb f100 50bb
00000070: c9e2 53bb 36c5 e0b8 6cb9 d0b9 f5ad 2ebb
0.0017139212 -0.0045692944 -0.0009495662 -0.004017905 0.004350941 -0.0010164366 -0.003875818 -3.1989344e-05
-0.009977638 0.00030090925 -0.0035657438 -0.0024926625 0.0023994173 -0.0072413674 -0.0006533792 -0.0032303638
-7.5682874e-05 0.0008128722 -0.0012322656 -0.011740945 -0.00044969632 -0.0014350744 -0.0060415175 0.0035300558
-0.004920477 -0.0005844496 -0.005176179 -0.0031738842 -0.003233122 -0.00010717886 -0.00039811002 -0.002665398

backbone.5.running_mean f4 [32]
00000000: 23ba f2bc fca1 a3be 74a4 273f c9d6 57bf
00000010: 732b 05bf 9cb1 8e3e 610d 4c3f 9164 f33e
00000020: 9f00 a53d 4c8c c73e c3ef 0c3e 8123 ec3e
00000030: 044e 10be 6409 4b3f 9fd1 a53e c8de 053e
00000040: e00a d63d 3912 483e e0b7 eebe 2bfa 343f
00000050: 2d92 c93e fb74 48bf 7217 d13d 06d0 15bd
00000060: eaa5 21bf 1cf7 c6be 16d8 c83e 299c c7be
00000070: 44e1 f6be 4e71 76bf d573 b6be 0e1b 3b3f
-0.029629773 -0.31959522 0.6548531 -0.8431211 -0.52019423 0.2786988 0.79707915 0.47537664
0.08056759 0.38974226 0.13763337 0.46120837 -0.1409226 0.79311204 0.3238649 0.13073266
0.10451293 0.19538201 -0.4662466 0.70694226 0.39369336 -0.783035 0.1020955 -0.03657534
-0.6314379 -0.38860404 0.3922736 -0.38986328 -0.4821874 -0.9626664 -0.35635248 0.7308816

backbone.5.running_var f4 [32]
00000000: bd2f 763e bce3 ba3e fe15 f23e 8e39 db3f
00000010: bfdb e03e c6a1 a13e 0d79 933e 476e 093e
00000020: e901 b63d b6fe 433e 97f2 0d3e 0861 963e
00000030: 0b91 873e daac 353f 8416 873e d294 533e
00000040: a492 ea3e 63cb e63d 6492 753e fb36 0b3e
00000050: 51fc 8b3e e0d1 e83e bc32 4b3e fec9 ef3e
00000060: 9d57 573f 6297 cb3e 9773 dc3e d32f fc3e
00000070: 5b8e 753e 1d48 fb3d 623c 163f 28ed 943e
0.24041648 0.36501873 0.47282404 1.7126939 0.43917653 0.31568736 0.28803292 0.13420974
0.08887083 0.19140133 0.13862072 0.29370904 0.26477847 0.70966876 0.26384366 0.20662239
0.45815003 0.11269262 0.23981625 0.13595192 0.2734094 0.45472622 0.19843572 0.46833795
0.8411806 0.39763933 0.43056938 0.49255237 0.23980086 0.12269614 0.58685887 0.29087186

backbone.8.weight f4 [64, 32, 3, 3]
00000000: ca45 cd3c 6b7b c53c ace7 2cbd feb9 4fbd
00000010: 8e57 153b 463f 0e3c 4d16 16bd 5152 8bbc
00000020: f4a4 693c 5861 60bd 4705 00bd 47b1 12bd
00000030: 0ac2 023c 2a5c 4d3b a3a0 fdbc c844 da3c
00000040: c6e1 1ebd 39c9 083c f62c 343d 5358 ae3c
00000050: afb4 5dbd 3e32 123d d24c 3abc 97c8 96bd
00000060: 94b5 823d bf6d d43c cc08 8dbd fdcf 37bc
00000070: 436e 213d aa31 d13c f997 c6bc 4dbd 11bd
00000080: e2ab 0dbd c88f 24ba cff7 593d 5981 79bd
00000090: 213f ee3c 88fb 2d3d c760 09bd eaea e2bc
000000a0: bed9 0d3d 7ab9 403d a77f b23b 778b 1a3d
000000b0: 2eff d53b 2881 063b 71d9 09bd 0831 0fbd
000000c0: bdbf 2bbc 87fa 1cbd dc61 8d3b cd9d d23b
000000d0: 5ff7 613c f7f8 413b 0a54 b83c 1fdf 143c
000000e0: 7fb4 85bc e7be 27bd 2755 f4bc 32fd 363c
000000f0: 1a4d 5fbc 80e5 13bd d1d3 7abd 773c cc3b
00000100: e7c7 873d 8066 eb3c 6937 283d d782 5bbd
00000110: 7a1e 8abd 601b ed3b c5a7 71bd f7a8 41bd
00000120: efba dcbc 5767 43bd 0604 51bd ba14 04bd
00000130: 47d5 45bb ef79 c23c 732c 13bd 8ce8 23bd
00000140: 7f76 c03c 37a2 4d3d 46cf bb3c 71c5 413d
00000150: 7bb5 71bd 4da4 19bd 11e9 2f3d ae04 ae3c
00000160: 8cb9 ecbc b884 aa3c db51 0ebd ecd5 1abd
00000170: e6a3 003d 3de5 02bd 52a1 b53c 65c3 0a3c
00000180: 9de9 833c 7b39 2ebd f94a d8bc 638f 523d
00000190: f0a4 a2bc 55cd f1ba 5bb8 dfbc 4f95 b83c
000001a0: 7fca 3f3d 4fc7 123d 022c 493b e903 e0bc
000001b0: e935 d53c 7dba 423d 59a7 0e3d ec7e b5bc
000001c0: 4761 f83b 3a6b 75bb 0baa 4f3d e3c2 bc3b
000001d0: e26d 30bd 5707 a4bc c46e dabb ab2a 3ebd
000001e0: 109e c73c ef47 9abc 73f9 cabc eb89 d0bb
000001f0: 02d5 2dbd 807d 043d 0937 d4bc 6f03 dbbc
00000200: e25e efbb 6483 0dbd 4032 74bd 36c6 353c
00000210: 7630 2b3d 912e 33bd 765e ed3c 3d21 5c3d
00000220: 73e9 2c3d 392e a1bc cc65 59bd 2c9d 3fbd
00000230: bd5a 4e3d 6b51 5c3c 71fb 403d a697 0fbc
00000240: 1e32 533d d4b9 52bc 528b 4cbc d73f 1f3d
00000250: 7fa8 6cbd 394b 8ebc 591b f9bc 5f09 803c
00000260: cb28 8f3a 558d 3e3d 651a 05bd 4cac 9039
00000270: e9af 63bd 3e66 7b3c 91bc e5bc f948 663d
00000280: 408b cfbc c1e0 78bd 9402 0a3c 078d 2cbd
00000290: 5708 183d c0aa a4bc 2057 c53c 7a51 083d
000002a0: c7b7 26bd 639a fdbc 9fdb 1abc 1f31 69bd
000002b0: 907a c13c 8810 32bd dba4 e33c 1a8b 02bd
000002c0: 985f e1bc 7634 92bc 7352 bfbc 26d9 b6bc
000002d0: 0459 353d b0bb 533d fbf1 80bd 926b 163c
000002e0: 66cd e6bc d8ac 183d 3053 1d3c 1277 8cbc
000002f0: 07e0 203d f08a 31bb 09d8 dcbc da32 61bd
00000300: 9f65 1ebb fb14 17bc 0fab 70bd c3c8 103d
00000310: 6544 38bd 2c4f 603d 0fdb a03c f4ff 333d
00000320: 6506 043c 5e3c 8c3c 069f ce3c 01da 09bd
00000330: b708 c2b9 0daa 9f3c 51eb 2dbd ee19 3b3c
00000340: 8234 573d 60a4 c4bb 605c 46bd 8deb a2bc
00000350: a9ac 16bd fed9 12bd 5a03 473d d6b6 2cbd
00000360: 7c9a 20bd ddb2 2c3a 397e 063d 43c2 20bd
00000370: 95c0 043d 82cd 163d 743c 1e3d f666 80bc
00000380: 4712 3abd e8b0 a0bb 5758 043d 8150 4bbd
00000390: 2e88 2f3c e6e5 643d a478 4c3d 38a1 333d
000003a0: 9048 fdbc 1fc9 9dbc c0b8 72bd d8d9 45bd
000003b0: 20f7 0d3d 4c15 763c b1ef 20bc c3a1 59bd
000003c0: 18ad 40bd 4c9d 4c3b 0713 11bc 82a4 16bd
000003d0: 4089 1bbd f749 693b 4d61 a43b f623 b53c
000003e0: 030a 1b3c 69e6 6f3c a189 43bd b348 11bd
000003f0: 3abf 02bd 05f2 e33b e1e9 633c b82d d73c
0.025057692 0.024106702 -0.042213127 -0.050714485 0.0022787782 0.008682078 -0.03664236 -0.017007025
0.014260519 -0.054780334 -0.031255033 -0.035813596 0.007980833 0.0031335452 -0.030960387 0.026644126
-0.038789533 0.0083487565 0.04398819 0.02128235 -0.05412739 0.035692446 -0.011370854 -0.07362478
0.063822895 0.025931237 -0.068864435 -0.011219022 0.039411794 0.025536377 -0.024242388 -0.035580922
-0.03458775 -0.00062775286 0.053214844 -0.06091437 0.029082837 0.042476207 -0.03353956 -0.027699906
0.034631483 0.047051884 0.0054473463 0.03773066 0.006530664 0.002052376 -0.033654634 -0.03495887
-0.010482726 -0.03832486 0.0043146443 0.0064275027 0.013791888 0.0029597858 0.02250101 0.009086399
-0.016321419 -0.040953543 -0.02982576 0.011168765 -0.013629222 -0.03610754 -0.06123716 0.006232794
0.06629925 0.0287354 0.04106847 -0.053591575 -0.06744094 0.0072359294 -0.058997888 -0.047280278
-0.026944606 -0.047705974 -0.051029228 -0.03224633 -0.0030186938 0.023739783 -0.035931062 -0.040016696
0.023494003 0.05020353 0.022925984 0.047307435 -0.059010964 -0.037510205 0.04294688 0.021242466
-0.02889707 0.020815238 -0.034746032 -0.037801668 0.031406306 -0.0319569 0.02217165 0.008469437
0.016102606 -0.042535286 -0.026402937 0.051406275 -0.019854039 -0.0018448035 -0.027309587 0.022532133
0.046823975 0.035834607 0.0030696397 -0.027345615 0.026026683 0.04754113 0.034827564 -0.022155248
0.0075799557 -0.0037447945 0.050699275 0.005760537 -0.043073542 -0.020023031 -0.0066660363 -0.04642741
0.024367362 -0.018833129 -0.02477715 -0.0063640974 -0.04243947 0.03234625 -0.025905149 -0.026735036
-0.007305012 -0.034549132 -0.059618235 0.01109462 0.041794263 -0.04374558 0.028975707 0.053742636
0.042214822 -0.019675361 -0.053075597 -0.04678075 0.050379504 0.013447146 0.047114793 -0.008764183
0.051561467 -0.012861688 -0.012484388 0.03887924 -0.057777878 -0.017369853 -0.030408548 0.015629468
0.0010922191 0.046521503 -0.032495875 0.00027594191 -0.055587683 0.015344201 -0.028044017 0.056221936
-0.025334954 -0.060761217 0.008423466 -0.04212668 0.03711733 -0.020100951 0.024089396 0.033280827
-0.040702607 -0.030957406 -0.009451776 -0.05693161 0.023618013 -0.043472797 0.02778857 -0.03187094
-0.027511403 -0.017847281 -0.023354745 -0.022320341 0.044274345 0.051692665 -0.06296154 0.00918092
-0.028174113 0.03727421 0.009602353 -0.01714662 0.03927615 -0.002709087 -0.026958482 -0.054980136
-0.0024169458 -0.009221311 -0.058756884 0.03534771 -0.0449871 0.054763004 0.019635705 0.043945268
0.008058165 0.017118629 0.025222313 -0.03365517 -0.00037009057 0.019490266 -0.042460743 0.011419756
0.05254031 -0.0060010403 -0.04842794 -0.01988771 -0.036785755 -0.035852425 0.04858718 -0.042166553
-0.039209828 0.0006587932 0.03283522 -0.039247762 0.032410223 0.03681708 0.03863187 -0.015674096
-0.045427587 -0.0049039014 0.03231081 -0.04963732 0.01071362 0.05588331 0.04991974 0.043854922
-0.03091839 -0.019260941 -0.059258223 -0.048303455 0.034659505 0.015019726 -0.009822772 -0.053132784
-0.047040075 0.0031221686 -0.008854634 -0.03677798 -0.03797269 0.0035597065 0.005016482 0.022111874
0.009462836 0.014642336 -0.047738675 -0.035469722 -0.03192065 0.006956341 0.013910742 0.026266918

backbone.8.bias f4 [64]
00000000: d57e 273d 90cd 24bd 55b6 16bb e41a 20bd
00000010: fa28 b83c f6b2 643d 1cd9 303d a48c fb3c
00000020: c428 a8bc 3c0a 913c dd48 0c3c 5e80 3ebd
00000030: bdf6 3d3c b0e0 68bd 189c d13c 304b 52bb
00000040: 7cf4 c4bc d32a 5bbd c3f8 2e3d b1c2 b6bc
00000050: d488 e0bc 8da8 10bd 881c 613d 64b9 25bd
00000060: 244b 6d3d 929e 25bd 5be6 55bd b9c6 1fbd
00000070: 8fc0 25bd 53ce 1b3d df3f dc3c 0a62 4abc
00000080: aa51 35bd 6766 a23b 2da0 393d 0323 02bd
00000090: f329 4dbd 59f4 043d fcf3 40bd a1c8 af3c
000000a0: f98f 14bd 10d3 3ebc 7bf2 ed3c 56fa f1bb
000000b0: 837a a93c e71c 513d 8212 003c 159e 4a3c
000000c0: dd51 c33b 09d3 693c c897 063c 9363 26bd
000000d0: 6451 fe3b 5dba 563d b4fe aa3a 279a a2bc
000000e0: 0c2f 2b3d 975d 17bd 801a 50bd 6aad 633d
000000f0: 5819 5a3d e4fe 63bd bd13 22bd 83f5 14bc
0.04089244 -0.040235102 -0.0022996862 -0.039088145 0.022480477 0.055834733 0.0431758 0.030706711
-0.020527251 0.017705075 0.008562294 -0.04650914 0.0115944715 -0.056854904 0.025587127 -0.0032088272
-0.02404236 -0.053507637 0.042717706 -0.022309633 -0.027408995 -0.035316993 0.05495885 -0.040460005
0.057932988 -0.040434428 -0.052221637 -0.039007876 -0.04046684 0.038038563 0.026885925 -0.012352476
-0.044267334 0.004956055 0.04531877 -0.03177167 -0.050088834 0.03245959 -0.04710768 0.021457972
-0.036270116 -0.011647001 0.029046288 -0.0073845787 0.020688301 0.051052954 0.007816913 0.012366791
0.0059606866 0.014271506 0.008214898 -0.040622305 0.0077611674 0.052423824 0.0013045878 -0.019848896
0.041792914 -0.03695449 -0.050806522 0.055585302 0.053246826 -0.055663005 -0.039569605 -0.009091738

backbone.9.weight f4 [64]
00000000: 47c7 7c3f d4ee 7e3f 9736 7e3f a7d7 7f3f
00000010: 3af0 7f3f 3f1f 7d3f 7dd1 7d3f 6eba 7d3f
00000020: 7c04 7d3f b403 813f 7ebb 7e3f 540f 803f
00000030: 5480 803f d1db 7c3f 7c0b 803f 122d 803f
00000040: eca8 7f3f d03c 803f ad74 7f3f 3ca8 7f3f
00000050: 2b89 7f3f 55c1 7e3f 4d3f 803f 212b 803f
00000060: 172e 803f dec9 7e3f 44a9 7d3f 4b07 803f
00000070: fe45 7e3f 8d56 7f3f 6463 803f c910 7e3f
00000080: 3c47 7c3f a8e2 7d3f 2d10 7f3f 10d5 7e3f
00000090: 15ad 7e3f d1ed 7b3f c843 7d3f 5328 803f
000000a0: c1f3 7c3f ed84 7b3f d9fb 7e3f 81e5 7e3f
000000b0: e41c 7f3f 6151 7c3f f929 7f3f 0dc0 803f
000000c0: 1652 7f3f 4ec4 7d3f dbfc 7e3f 01fb 7f3f
000000d0: 8eb5 7e3f abdc 7e3f 19bf 7e3f 234d 7e3f
000000e0: 56d5 7f3f 2e01 803f dec0 803f 7018 803f
000000f0: 826b 7f3f 9b83 7f3f 59a3 803f dcd8 7c3f
0.98741573 0.9958317 0.9930205 0.99938434 0.9997593 0.988758 0.9914778 0.99112594
0.9883497 1.0079255 0.9950484 1.0004678 1.0039163 0.98772913 1.0003505 1.0013754
0.9986713 1.0018559 0.9978741 0.9986608 0.99818677 0.9951375 1.0019318 1.0013162
1.0014066 0.99526775 0.99086404 1.0002226 0.9932555 0.9974144 1.0030332 0.9924436
0.98546195 0.99173975 0.9963406 0.9954386 0.9948285 0.98409754 0.9893155 1.0012306
0.9880944 0.98249704 0.9960304 0.99568945 0.9965346 0.98561674 0.9967342 1.0058609
0.9973463 0.9912766 0.99604577 0.99992377 0.9949578 0.9955546 0.9951034 0.9933645
0.999349 1.000036 1.0058858 1.0007458 0.9977342 0.9981019 1.004985 0.987684

backbone.9.bias f4 [64]
00000000: 2a0a 1bbc f8a6 c9bb 2791 1ebc f826 16bb
00000010: f38c 81bb c970 2dbc fcbe 21bc fa9f e1bb
00000020: c7dc 19bc d647 1fbc d5b7 0fbc 9a4b d5ba
00000030: f901 d6bb b3d3 28bc 402b 90bb 6653 f7bb
00000040: bccd 0bbc 226a 19bc 5cde d4bb 5530 2dbc
00000050: 5d56 7dbb 3feb 12bc dc43 3ebc 7205 38bc
00000060: 55c8 50bb 12e7 47bc 0162 d0bb 3c5f 22bc
00000070: b6c9 4ebb 60ad 0fbc af92 e1bb 8841 dcbb
00000080: 16d5 5cbc 4e02 01bc c18a 5bbc 922f e9bb
00000090: 5bae 25bc f152 47bc 5fc4 4fbc b069 8ebb
000000a0: 55ca c4bb f9e9 46bc 8afc 3ebb 6c0c dcbb
000000b0: 96a8 d9bb 6f57 73bc 387c aabb 2118 86bb
000000c0: 6085 f9bb 1968 dbbb f0f6 22bc 0e83 1bbb
000000d0: f8dc c0bb 7629 a2bb 8d1d 81bc 522c 3dbc
000000e0: 7049 02bc f39b 9bba 8ec6 18bc a1c0 3ebc
000000f0: 7eaf dabb d782 f0bb 2221 63bc ec6d 85bc
-0.0094628725 -0.0061539374 -0.009678162 -0.002291141 -0.00395357 -0.010585972 -0.009872194 -0.006885526
-0.009391016 -0.009721717 -0.008771856 -0.0016273141 -0.006530997 -0.010304379 -0.004399687 -0.0075477837
-0.008532938 -0.009363683 -0.006496234 -0.010570605 -0.0038656213 -0.00896722 -0.011612859 -0.011231767
-0.0031857688 -0.012201088 -0.006359339 -0.009910401 -0.0031553335 -0.008769363 -0.006883941 -0.006721679
-0.013478538 -0.007874085 -0.013399781 -0.0071162665 -0.01011237 -0.012165771 -0.012681096 -0.004346095
-0.006005565 -0.012140744 -0.0029142224 -0.006715348 -0.0066424115 -0.014852389 -0.0052027963 -0.004092232
-0.0076147765 -0.006695759 -0.00994657 -0.0023729238 -0.0058857165 -0.00494879 -0.015761161 -0.011546211
-0.007952079 -0.0011872038 -0.009324683 -0.011642606 -0.0066737523 -0.007339816 -0.01386288 -0.016287766

backbone.9.running_mean f4 [64]
00000000: 18bb 9abf ccef 8ebf 00cf 09bf 5b8a ffbe
00000010: d628 413e a3f9 63bf 6b7a 87bf 97c5 c2bf
00000020: b55f 3bbf 96e2 c13f c1d3 9e3d f05e e7bf
00000030: bf0b 133f 1a5d 6bbf fba7 18bf 59f7 c03f
00000040: 0796 393f 657d b33f fe69 803f 83e0 893f
00000050: 30af 88bf 3090 b3be 7451 893f 0370 a53f
00000060: a307 b8be d076 d43f 0a6e bf3f 6c2b 223e
00000070: 6a15 bdbf 578d 823d 561f 01bf 4a05 8fbe
00000080: 6385 9ebd 5655 9c3d 632a 793f 8221 dbbf
00000090: 80bf f1be 3957 c7be 927c d63f 57fe b0bf
000000a0: 07b5 813f ca61 703f baf6 4cbf 1f21 bf3f
000000b0: bfe8 81bf a375 b13f 30cf a0bf 8f3e 88bf
000000c0: f92f 153f fef6 93bf fcab ecbe b78d 6c3d
000000d0: 1380 d1bf 24f8 1bbf 8379 793f c78c aa3f
000000e0: f07f 983f 7355 cebf f7f4 a83e 060a 283f
000000f0: dc47 e03e 0b61 abbe 0487 d13f a69d ac3f
-1.2088346 -1.116693 -0.5383148 -0.49910244 0.18863234 -0.8905279 -1.0584234 -1.521655
-0.7319291 1.5147274 0.077552326 -1.8075848 0.574398 -0.91938937 -0.5963132 1.5075485
0.7249455 1.4022642 1.0032346 1.077164 -1.0678463 -0.35070944 1.0727983 1.2924808
-0.35943326 1.6598759 1.4955456 0.15836877 -1.477216 0.06374615 -0.5043844 -0.27933723
-0.07740285 0.07633464 0.973303 -1.7119601 -0.47216415 -0.38933733 1.6756766 -1.3827618
1.013337 0.93899214 -0.80063975 1.4931983 -1.0149153 1.3864025 -1.2563229 -1.0644091
0.58276325 -1.1559751 -0.46224964 0.057752337 -1.636721 -0.6092551 0.9745104 1.3324212
1.1914043 -1.6119827 0.32999393 0.65640295 0.43804824 -0.33472475 1.6369328 1.348561

backbone.9.running_var f4 [64]
00000000: 6955 443f 7975 fc3e 4bba bc3e 6571 1d3f
00000010: 3144 ee3e 3b84 2c3f 8c35 253f d0f7 5d3f
00000020: e78a b73e 96f7 393f 8782 af3e 3489 583f
00000030: 1190 dd3e 3b87 df3e 1bed ab3e 975d 8c3f
00000040: 9d8a 363f c4b3 183f a35f 363f b2c7 293f
00000050: 0859 e53e 4186 053f b843 eb3e b8b5 513f
00000060: 21fc 9f3e e258 413f 479a 633f f43d ee3e
00000070: 93f6 213f f137 9b3e ad1e 053f b165 a43e
00000080: 5cea fd3e 4a94 173f 373b d13e 8758 983f
00000090: 444a 173f 2137 ec3e e71a 7d3f 44a2 0e3f
000000a0: 49b8 203f 6638 753f cd58 dc3e e38a 563f
000000b0: 1632 013f 789c 123f 397f 533f 431d 0d3f
000000c0: 6a93 da3e 0d82 613f ea0f c03e b3a0 273f
000000d0: e50e 823f 2148 f13e 9690 323f 8e72 003f
000000e0: 42a2 683f be2d 433f d354 083f f3a8 ce3e
000000f0: 1401 983e 3f78 f53e 5095 063f dc23 df3e
0.76692826 0.49308375 0.3686088 0.6150115 0.465364 0.6738927 0.6453483 0.86706257
0.35848162 0.7264341 0.34279272 0.84584355 0.43273976 0.4365786 0.33579335 1.0966061
0.7130526 0.596493 0.7123968 0.66320336 0.44794488 0.5215798 0.45950103 0.81917906
0.31247047 0.7552625 0.88907284 0.4653164 0.6326687 0.30316117 0.5199993 0.32108834
0.49592865 0.59210646 0.4086549 1.1902016 0.59097695 0.4613581 0.98869175 0.5571635
0.62781197 0.9578918 0.430365 0.83805674 0.5046705 0.5727 0.82616 0.55122775
0.42690593 0.88089067 0.3751214 0.6547958 1.0160795 0.47125342 0.6975187 0.50174797
0.90872586 0.7624167 0.5325443 0.40363273 0.29688323 0.47943303 0.5257158 0.43582046

classifier.1.weight f4 [128, 576]
00000000: 5843 1ebd 64f3 c3bc 262c 4cbc 7eae fa3b
00000010: 6043 133d eacf a8bc db10 db3c 9aba babc
00000020: 2969 203d 712d f5ba 9ec6 70bc 8012 36bc
00000030: 9f15 c63c 9061 a8bb 1971 e4bc 9cd8 e5bb
00000040: 9667 953c 55eb 053c 97c5 d83c ab01 5dbc
00000050: 9c4e 01bd 0610 bebb 30d9 973c 73a6 e2bb
00000060: 96c1 47bd 84af 57bc db0e 23bd 2075 86ba
00000070: 5f6a e6bc 02de c73b 71af 84bb edba 2bbc
00000080: 487d a43c 6e34 d7bc 6e4f bdbb f6ed 973c
00000090: fcf9 5bbc e5da 563c 3842 95b9 8db7 c33c
000000a0: 28d2 4ebd 39ec 73bb 65e0 33bc f2a3 71bc
000000b0: 5164 853c 6ed4 5a3b 04dc b23c 0325 9d3c
000000c0: 9251 38bd 3ec2 043d f1a4 16bb a102 f33b
000000d0: 88b5 19bc 1341 e3bc 2ffa 84bc 415f 3f37
000000e0: 6cae 0ebc 029c d93c 7b82 da3c 6a7a 303d
000000f0: 677b ff3c b94d 26bd f494 713c 8bb9 13bd
00000100: a370 adbc eec1 a5bc 8a40 0f3d 6703 0a3d
00000110: 2aac 1cbd 29e8 aa3c a86a 863c 3448 f9bc
00000120: 80e7 023d 0b00 1f3d 89ca 303d f173 443c
00000130: 16f7 ff3c 513f 7f3b 15a1 1b3d 64a6 903c
00000140: f411 fa3a 893f d53c 30e6 173c c0d4 3e3c
00000150: 4340 2dbd 5c4b 663c f1d7 0ebd c80f 9ebb
00000160: 440b 3c3a 0f03 3fbd 7192 af3c 75c0 db3c
00000170: 0e44 243d b0fe 4d3d d2a7 1abd 76b1 693c
00000180: 8a70 473c f2f1 173c 26b6 3a3c 4ab1 073d
00000190: 8754 d7bc 84dd f63c f994 fc3b 153b 7f3c
000001a0: c63c 203d a743 85bc bc8a 57bc 23ef 123d
000001b0: 31a6 e4bc ac6b 913c 7f90 143d c84e b03c
000001c0: 1937 323d afbf d4bc d53b 033d 37c7 aa3b
000001d0: 2fb8 11bc c99d b93b 5f6b 82bc 6a95 e13c
000001e0: e63a 1b3b ae7f 36bc d22c dfbc 566b 45bc
000001f0: 56a3 55bb de31 1e3d 6024 0f3b 67dc 45bb
00000200: 35ab f4bb d974 0fbc c6e2 ebbc 3227 fa3b
00000210: 00e0 f73c b363 d0bc 1a13 523c a681 9b3c
00000220: f877 9e3c c0c8 143d e47c 163d 0334 35bd
00000230: 8fcd 1f3d 0a1b d9bc 4693 d5bc 7f51 623b
00000240: 5875 e5bc f60b b2bc 5c3b faba 8478 b23c
00000250: df52 ccbc 5cef 8d3c 7798 45bd f1c4 82bc
00000260: bf91 eb3c e9c8 52bb 09a7 333b d21e 06bd
00000270: 862c e93c 239d c53c e20c 12bd 183f 82bc
00000280: 7e0d 12bd 5664 9e3c 8d22 cabb ccfb a63c
00000290: dde6 103c 0f3f c63c 5169 f2bc 9721 d73c
000002a0: ac86 cc3b 3c97 4a3c 7bbd d0bc ba1a 3c3d
000002b0: dddf 96bc 92dd 3a3d 4fa6 b33c 901e 3d3c
000002c0: 087e c2ba a9ed 073d ffd8 89bb d180 893a
000002d0: c0ae 9abc 7c7d 08bc e36a 1cbd 3530 3cbc
000002e0: 2b82 133d c27c 283d aa9f 8a3c 9dc6 333d
000002f0: ed43 3c3c bd2c c23b 2d8f 193d 26ec 11bc
00000300: afcb 143b d30f 11bc 065d 14bd 47d1 16bb
00000310: 8fbe d13c 77e5 11bd 32d6 bcbb 7b21 9ebc
00000320: 96f7 a2ba 17d5 e93c 1795 1cbd 09fd c3bc
00000330: 5123 10bd fd15 ff3c 13ca 033d 449e 18bd
00000340: 95d7 19bd 0d15 e83c e4f3 ffbc ff29 5dbb
00000350: 0311 47bc 87e2 19bd 73ba 8e3c f4e7 56bc
00000360: ea23 133d 9efd 053d 68fb 7939 c4de b23c
00000370: 7b80 7cbc 9896 e3bc 6301 54bd 89ed 973b
00000380: 262f afbc f8d9 e9bb 35e0 1e3c 6bdb 673c
00000390: d84f 21bd 912a 01bd 6814 173d 5361 a9bc
000003a0: 37ee 6a3c f8d7 89bb 76a7 0e3d f3ee 083d
000003b0: 41a9 cebc 4106 f0bc 6ed2 42bd eefb 8dbc
000003c0: 5620 84bc 1389 f33c 86e5 bf3b 5887 4fbc
000003d0: 01d0 2dbc ccfa 9a3c 80e5 a73c 81c8 86bc
000003e0: 2b34 403d df60 97bc 63a6 563c 7c64 0abc
000003f0: cd1a 03bd 1061 df3c 2fb1 37bc b142 0fbc
-0.038638443 -0.023919769 -0.012461698 0.0076501956 0.035952926 -0.020606954 0.026741436 -0.022794057
0.03916279 -0.0018705559 -0.0146957915 -0.011112809 0.024180232 -0.0051385835 -0.02788596 -0.0070143472
0.01823787 0.008173783 0.026461406 -0.013489167 -0.03156911 -0.00580025 0.01853618 -0.006916815
-0.048768602 -0.013164405 -0.03980909 -0.0010258295 -0.028126894 0.0060994634 -0.0040492346 -0.010481578
0.02007927 -0.026270118 -0.005777291 0.018546086 -0.0134263 0.013113712 -0.0002846883 0.023891235
-0.05049339 -0.0037219657 -0.010978793 -0.01474856 0.016283186 0.0033390778 0.021833427 0.019182688
-0.044999667 0.032411806 -0.0022986496 0.007416085 -0.009381659 -0.02774099 -0.016232578 1.1406665e-05
-0.008708578 0.026563648 0.026673546 0.043085493 0.031186773 -0.040601466 0.014744986 -0.03606562
-0.021171873 -0.020234074 0.03497366 0.03369465 -0.038250126 0.020862656 0.01640828 -0.030429937
0.031959057 0.0388184 0.043161903 0.011990533 0.03124575 0.0038947652 0.037995417 0.017657466
0.0019078837 0.026031272 0.00927119 0.011647403 -0.042297613 0.014056053 -0.034873907 -0.0048236586
0.00071733096 -0.046633776 0.021432133 0.02682517 0.040103965 0.050291717 -0.037757702 0.014263501
0.0121728275 0.009273993 0.011395967 0.03312806 -0.026285423 0.030134924 0.0077081886 0.015578051
0.039120458 -0.01626761 -0.013155635 0.03587259 -0.027911277 0.017751537 0.036270615 0.02152194
0.043509576 -0.025970308 0.032039482 0.0052117365 -0.00889401 0.0056645614 -0.01592034 0.027537066
0.002368623 -0.01113884 -0.027243052 -0.012049517 -0.0032598577 0.038621776 0.002184175 -0.0030191184
-0.0074666985 -0.008755886 -0.028794657 0.007634067 0.030258179 -0.025438165 0.012821937 0.01898272
0.019344315 0.036324263 0.0367402 -0.044239055 0.039014395 -0.026502151 -0.026071202 0.0034533439
-0.028010055 -0.021734219 -0.0019091177 0.021785982 -0.02494186 0.01732605 -0.048241105 -0.01596305
0.02875602 -0.0032163209 0.0027412793 -0.032744236 0.028463613 0.02412278 -0.035656817 -0.015899226
-0.0356574 0.019334953 -0.0061686696 0.020383738 0.008844105 0.02419999 -0.029591234 0.026261134
0.00624164 0.012365159 -0.025480976 0.045923926 -0.018417293 0.045621462 0.021929888 0.011542931
-0.0014838586 0.033185635 -0.004206776 0.0010490661 -0.018882155 -0.008330699 -0.038187873 -0.011486103
0.03601281 0.041134603 0.016921837 0.043890584 0.011490804 0.0059257434 0.03749006 -0.0089064
0.0022704413 -0.00885387 -0.036221527 -0.0023012923 0.02560356 -0.035619225 -0.0057628388 -0.019303074
-0.0012433405 0.028543992 -0.03822812 -0.023924368 -0.03518993 0.031138415 0.032175135 -0.03726031
-0.03755911 0.02833035 -0.031244226 -0.0033746955 -0.012150052 -0.03756955 0.01742289 -0.013116825
0.035922922 0.03271257 0.00023840147 0.021834739 -0.0154114915 -0.02778177 -0.051759135 0.0046364707
-0.021384787 -0.0071365796 0.00969701 0.014151434 -0.039382786 -0.031534735 0.036884695 -0.02067629
0.014339021 -0.0042066537 0.034827672 0.033431005 -0.02522719 -0.029299857 -0.047563963 -0.017332043
-0.0161287 0.029728448 0.0058562187 -0.012666546 -0.010608674 0.018918417 0.020495176 -0.01645303
0.04692475 -0.018478809 0.013101193 -0.008446809 -0.03200798 0.027267963 -0.011211677 -0.008743928

classifier.1.bias f4 [128]
00000000: 80cf 203b 558b 78bc f0d7 10bd 439b e5bc
00000010: 9a8b 98bc d583 10bd 4b34 f43c 92f1 8138
00000020: a477 1fbb 6bfd 01ba 6a56 de3b 4db8 653c
00000030: 6b96 ccbc 5696 cd3c 42f6 023d c234 ccbc
00000040: 44e7 f7bc 9c34 383a 89e1 a5bb b64c 1e3d
00000050: 13a5 d7bc bf92 1fbd 175b 853c f607 24bd
00000060: 1391 7fbb 4fe8 8fbc e2c8 f5bc 03a4 96bc
00000070: fce5 4bbc efd0 183d adf8 c33c f688 583c
00000080: 622a 91bc 616c 0f3d 0291 0cbd 73cd eabc
00000090: dbc9 073d 3994 73bc 5227 8aba fb2f 8ebc
000000a0: 4713 13bc 40ea 063d 6e3a 113d 3309 7f3b
000000b0: 1e19 26ba 2eb1 e23c e08e e93c 2aa8 983b
000000c0: f318 e03a 7908 4bbb b237 87bc bc7f 323d
000000d0: 68f9 e63c b2fa 1ebd 69b8 79bc 516a 92bc
000000e0: 3578 bf3b 7fa1 cd3c fe41 adbc 221c a53c
000000f0: 5605 57bc ec3c f7bc 670f 133d 4cc3 ddba
00000100: e43b 14bc c1f8 05bd 7c38 03bd 362b 263c
00000110: 0e47 2d3c c5d7 283d 5259 dcbc b121 063d
00000120: d930 083d f810 983c b74d d63c 42ba dd3c
00000130: 933e 4a3c cfdf 11bd 4fe1 08bd 86c1 1a3d
00000140: eddf 91bc ae69 373d 4d08 1e3d ba5d bc3c
00000150: 9abe ffbc fa38 28bd ab7a a8bc 1556 4abc
00000160: 0935 f83b 8362 d4bc 9152 6a3b 7595 eb3c
00000170: 7a0f 0f3d c3cc b73c bb07 8fbc 2807 193d
00000180: 8fe1 13bd 0ce7 e6bc 962f 963c b4bf 963b
00000190: 81eb 5c3a bc14 523c 5359 16bc 5553 223c
000001a0: 2aad 3dbc 121d ca3b dff6 27bd ab60 80bc
000001b0: 0a69 883c d5b4 123d 6b01 d9bb 42ed 33bc
000001c0: ff70 2dbd 9d83 fd3b c0fd 093d a3f9 a1bc
000001d0: ee4f 26bd 0df0 07bd 7ac0 96bb d501 8fbc
000001e0: 49b6 9f3c 7cfa 803c a433 a33c c5be 453c
000001f0: a454 c5bc 288e 373c f382 0cbc 41d9 423c
0.0024537742 -0.015169938 -0.035362184 -0.028028136 -0.018621255 -0.035281975 0.029810091 6.196195e-05
-0.0024332786 -0.00049587217 0.0067852037 0.0140209915 -0.024974069 0.0250961 0.03197313 -0.0249275
-0.030261643 0.00070268824 -0.0050622863 0.038647376 -0.02632383 -0.038958307 0.016278787 -0.040046655
-0.0038996383 -0.017566828 -0.030003015 -0.018388754 -0.012444969 0.03730863 0.023922289 0.013216248
-0.017720405 0.035015468 -0.034317978 -0.028662419 0.03315149 -0.014866882 -0.0010540283 -0.017356863
-0.008976764 0.032938242 0.035456114 0.0038915395 -0.000633614 0.027672376 0.02851051 0.0046587186
0.0017097279 -0.0030980392 -0.01650605 0.04357885 0.028195098 -0.0388133 -0.015241721 -0.017872961
0.005843187 0.025101421 -0.021149632 0.020155016 -0.013123831 -0.030180417 0.03590336 -0.0016919165
-0.009047482 -0.032707933 -0.03203629 0.010142138 0.010576023 0.0412214 -0.02689806 0.032746974
0.03324971 0.018562779 0.026160104 0.027066354 0.01234402 -0.03561383 -0.033417996 0.037782215
-0.017806971 0.04477852 0.038582135 0.022993911 -0.031218816 -0.041069962 -0.020566305 -0.012349625
0.0075746817 -0.02592588 0.003575478 0.02875779 0.03492687 0.022436505 -0.01745974 0.03736034
-0.03610378 -0.028186344 0.018333238 0.0046004895 0.0008427427 0.012822326 -0.00917657 0.009907563
-0.01157693 0.006168016 -0.04100692 -0.015671095 0.016651649 0.035816986 -0.0066224835 -0.01098186
-0.04234409 0.007736637 0.03368926 -0.019772356 -0.04060357 -0.033187915 -0.0046005817 -0.017456928
0.0194961 0.01574444 0.019922085 0.012069409 -0.024088211 0.011203326 -0.008576143 0.011892618

classifier.3.weight f4 [5, 128]
00000000: 1312 1abd 4446 05bd 5b5b 163d 558b 183d
00000010: 6d69 333d e31f 39bd d31c c23d 41ad 583d
00000020: 2fa4 44bd d8a1 5bbc c975 8c3d da7d 38bb
00000030: 042a d83b 5dff c03d 0ba4 1d3d 451d 5fbc
00000040: ff4e 9c3d 5859 33bd d272 ab3d 7a19 c8bc
00000050: 494f 2cbd 8354 243d 071a 293c 7807 ac3d
00000060: f602 ccbb c0e6 ae3d 9f80 053d 0da5 0c3c
00000070: b732 da3c 1526 85bc ec5e d03d e94e 383c
00000080: f9a1 f73b 4c6b 4fbd b25e 20bd efd8 623d
00000090: 39d0 d53c f1d6 23bd 8f7b b73d 9a3d cdba
000000a0: 4747 493d f35e 543d 2b8e 7f3d 85aa 43bd
000000b0: a57a ccbc 2e36 c038 32c8 b0bb 8065 8bbd
000000c0: ac6d 923d 1c0f 283c d372 0e3d 672c e63a
000000d0: 29cd 0cbd 20e1 da3c 22f7 09ba eb1a ecbd
000000e0: 7615 193d b938 5e3d 0215 9b3d da14 aabd
000000f0: 5445 35bd 7155 6cbc 9eb6 a6bd a67c 7dbd
00000100: 654e 893c 0dd9 d13d 05db 14bd 5248 393c
00000110: 10fc 89bd 729c 84bc 1fb9 783d 532b 523d
00000120: 0172 9abd 490b 96bd 55cc db3d 97a3 af3d
00000130: f7d6 cdbb f996 d7bd 08f6 9dbc 1d8e 943c
00000140: 2c03 abbd 0694 07bd 3c3a a1bd 1d22 833d
00000150: c257 80bd e53f 773c 7546 b33d 3bed fb3c
00000160: 9809 a9bb a70b d3bd 434b a13d 2a7b d5bb
00000170: fed7 753d 7c78 7a3c fe42 36bd eb61 a93d
00000180: 06ea 6f3d eb01 b9bd 5b8a 7dbd 7ac5 273d
00000190: 0218 29bd ccd1 363c 556c c83d e13f 493d
000001a0: 3bcd 103c c89b e13c 0f1e 2ebd e942 7fbd
000001b0: 2c04 a33d c2e5 52bb f229 79bd 19e3 0dbd
000001c0: 2ce8 84bd daa4 f43c 08db 963d 1496 d43b
000001d0: 8495 e0bd 79ec 343d 056e aebd fcd0 ae3a
000001e0: f116 bcbd 68be 05bd 5387 95bd f21d 783d
000001f0: 2d46 a3bd 0112 183d a25d 01bd b3b5 cd3c
00000200: 6eb1 743d 9a43 7dbd 2586 d93b 2ca4 673d
00000210: 509e 5fbc c005 863b 60b2 0abd 5814 1ebd
00000220: baf6 a4bc ca23 c6bc c421 c1bc 7a4d 64bd
00000230: a94b 7f3c 6545 39bd 0715 82bd e0a0 74bd
00000240: 7ceb d3bc e172 14bd ddb9 5e3d d92a 6c3d
00000250: 17cf 29bc ceb5 53bc 9c7f 823d eea4 d6bc
00000260: cf65 67bc 9105 083d 6918 c2bd 1517 d2bc
00000270: 8fc8 e0bc 77ec 1fbd 5c34 ec3c 606c 13bd
00000280: 3b64 603b 07bf 08bd 6149 46bd 5557 e1bc
00000290: 3e76 90bc 7334 92bc 916d c3bd 51ce d2bc
000002a0: 800c 903c 1ad2 50bc e9ad 98bd 6710 a3bd
000002b0: d9e4 16bd 30db a8bd 488b 713d 5a28 cb3c
000002c0: 33bc 99bd d734 c33d beb9 e83c 500b 88bb
000002d0: 757a 5d3d 3882 b5bd 28a0 b63d c318 4cbb
000002e0: ac01 22bd 05c7 89bc d50d 1abd 0d6b b63c
000002f0: be32 2e3d 4844 5abd 590a 48bc c151 f33c
00000300: 338e e4ba f949 5a3d d48a 25bc 6781 ce3d
00000310: d485 d53d 054a 1d3d 9ebd 9bbc 31a6 b3bd
00000320: e590 c23c 40b8 2bbd 2c5a db3d 8f39 253d
00000330: a1b1 8f3d 7dee a13c 5055 e03c 7c85 fbbc
00000340: f217 d1bd 0f60 7a3d 90ac 0e3d 5b55 dc3d
00000350: eef0 1abd 4c59 9bbc dca1 5f3c 47ec 0b3d
00000360: 2a9e 3e3d d0ff d2bd 7734 8e3d c71d 073c
00000370: acb1 b2bc 5f7c f73c b6bb 8bbd c0fc 0b3d
00000380: a14e 5abb 6a39 b33c 1981 aebc 0739 41bb
00000390: 6ebe 6cbd d9d6 3cbd 6036 633d af96 163d
000003a0: b2f2 8a3d 2bd8 c8bd 8564 10bc 7cf5 373d
000003b0: 52bd 27bc d85e 11bd 1591 7eba 6dd7 203d
000003c0: 565e abbd 6943 ddbb 2658 a03d 22a0 2cbd
000003d0: c53d c3bc 9927 e9bd 8b61 38bd dad8 c239
000003e0: d81b fe3b 5af7 19bc 2d18 80bd bd7d 0d3d
000003f0: 3286 41bc a0cc 10bc 89ab 2e3d 8b54 b13d
-0.037614893 -0.032537714 0.036708217 0.037242252 0.043801714 -0.045196425 0.09478154 0.052899603
-0.04800814 -0.013405286 0.06858403 -0.0028151185 0.0065968055 0.09423707 0.03848652 -0.013617818
0.07632255 -0.043786377 0.083715096 -0.02442621 -0.0420678 0.04011966 0.010321147 0.08399862
-0.006225939 0.08540106 0.032593366 0.008584273 0.02663551 -0.01625351 0.10174355 0.011249282
0.0075571504 -0.050639436 -0.03915281 0.055382665 0.026100265 -0.039999906 0.08959114 -0.0015658617
0.04914024 0.051848363 0.06239144 -0.047770042 -0.024960825 9.165365e-05 -0.005394959 -0.06806469
0.071498245 0.010257509 0.034777474 0.001756084 -0.034375343 0.026718676 -0.0005262961 -0.11528572
0.037373982 0.054253314 0.07572366 -0.08304758 -0.04425557 -0.014424668 -0.081403 -0.061886452
0.016761014 0.10246477 -0.036341686 0.011308746 -0.0673753 -0.01618788 0.06072342 0.05131085
-0.07541276 -0.07326371 0.107323326 0.08576124 -0.0062817293 -0.105268426 -0.019282356 0.018134171
-0.08350214 -0.03310015 -0.078724355 0.06402991 -0.062667385 0.015090917 0.08753673 0.030752769
-0.0051586144 -0.10304957 0.07875683 -0.0065149264 0.06002044 0.015287515 -0.044497482 0.082706295
0.05857279 -0.09033569 -0.061899524 0.040959813 -0.04128266 0.011158418 0.09786288 0.049133185
0.008837993 0.027540103 -0.042509135 -0.06231967 0.0795978 -0.0032180403 -0.060831018 -0.034640405
-0.06489596 0.029863764 0.07365996 0.0064876173 -0.10966018 0.04417083 -0.08517078 0.0013337429
-0.09184063 -0.03265229 -0.07301202 0.060575433 -0.07972369 0.037126545 -0.031583436 0.025111055
0.059739523 -0.061832048 0.0066383057 0.05655305 -0.0136485845 0.004090041 -0.033861518 -0.03859362
-0.02013718 -0.024186987 -0.023575671 -0.05573795 0.015582004 -0.045232195 -0.06351667 -0.059723735
-0.025869124 -0.03624237 0.05437647 0.05765805 -0.0103643155 -0.012921764 0.06371996 -0.026201691
-0.014123394 0.033208434 -0.09477312 -0.025645772 -0.027439384 -0.03904387 0.02883356 -0.035992026
0.003423943 -0.033385303 -0.048409823 -0.027507463 -0.017634507 -0.017847275 -0.095423825 -0.025733145
0.017584085 -0.012745405 -0.07455046 -0.07962113 -0.03683934 -0.08244932 0.05897072 0.024799515
-0.07506599 0.09531563 0.028408881 -0.004151739 0.054071862 -0.08862728 0.08917266 -0.0031142689
-0.039552376 -0.016818533 -0.037610848 0.022267843 0.04252886 -0.053287774 -0.012209498 0.02970207
-0.0017437398 0.053293202 -0.0101039 0.10083275 0.10425916 0.03840067 -0.019011315 -0.08771933
0.023750732 -0.04192376 0.10710558 0.040338095 0.07016302 0.01976704 0.02738443 -0.030703299
-0.10209645 0.061126765 0.034832537 0.10758468 -0.037827425 -0.018963479 0.01364943 0.03416088
0.046537556 -0.103026986 0.069436006 0.008246846 -0.021813236 0.030210672 -0.068229124 0.034176588
-0.0033311027 0.021877963 -0.021301793 -0.0029483454 -0.057798795 -0.046103332 0.055471778 0.036764797
0.06784572 -0.09806856 -0.008813028 0.044911847 -0.010238009 -0.03549084 -0.000971095 0.039267946
-0.083676025 -0.0067524207 0.07829313 -0.042144902 -0.023833165 -0.11384506 -0.0450149 0.0003716413
0.007754784 -0.009397352 -0.06254611 0.03454374 -0.01181178 -0.008837849 0.042644057 0.086587034

classifier.3.bias f4 [5]
00000000: d9ed 6a3d ec12 803d 98b2 953d 03dd 563d
00000010: 6cdb c53c
0.057355735 0.06253609 0.07309455 0.052456867 0.02415248

momentum_buffer f4 [16, 1, 3, 3]
00000000: 2f2d 083e e2f1 8e3c 20f6 acba ed06 c83d
00000010: ba24 913c 1ad4 b43d 5256 49be 3546 2dbd
00000020: 9c2c 5c3e 1f9c 1e3e fe25 943d db3f f53c
00000030: 8474 2a3e 6e48 943d fa49 423d 75d5 293e
00000040: 66f3 923d fd8d 7c3d 8629 f93b 64aa fb3b
00000050: 9642 d63b ba32 55bc cc88 6eba 3689 7eba
00000060: a28d 10bd ae82 a7bc 99fc 5fbc e52f b53b
00000070: 6e4f 29bb 50d8 033c 38ca a93b a8ff 1b3b
00000080: 1a68 063c 8ce4 cd3b b195 02bb 1e60 58bb
00000090: 289e 3dbe 1e6d 87bd 1edc e4bc de92 ebbb
000000a0: 787d 053e a03a c63d 6ac5 a23c 342c 243e
000000b0: 8803 533e a0a2 ba3e ae36 a33e 9434 9a3e
000000c0: 5d5b 1f3f 5275 923e d32a 973e c237 f93e
000000d0: fd7f 503e 1464 693e 54d9 28be b79f a5be
000000e0: 8251 a3be 1715 17bd 1065 17be 1cc3 04be
000000f0: 8b6c 963d c15a 9a3d c87a 593e 9273 813d
00000100: 8045 983d f2c7 5a3d 99de 833c a024 183d
00000110: 1ff6 573d fca9 ddbc 2f28 3cbb 0d00 b93c
00000120: 826d 103d 9ecf d83c daef bc3c babc c73c
00000130: 6476 b53b bbdf 7bbb 32b0 1b3c 98f3 65bc
00000140: a88b 9bbc 17b3 75bf 1b11 51bf a71a b4bf
00000150: 1664 8bbf a498 69bf d886 adbf 6aed 76bf
00000160: c140 4bbf da3d b2bf d4ac f13d dfeb 803d
00000170: 253d 893d 4270 e33d c7ab 453d cb02 e03d
00000180: 964c eb3d 56ac a13d 6479 0a3e ddc7 4a3d
00000190: 1e3a 1f3d c413 193c ece3 883d b851 ff3c
000001a0: 12c6 b43c aa70 a83d bcc5 783d deab 233d
000001b0: a69b 95bc 60bd 343a c03e 58ba a6bc 3fbd
000001c0: 2a5b 76bd 4948 c7bd d0a3 c6bc bf94 b0bd
000001d0: 22dd f7bd 4d09 4fbb 342d 83bb e038 b3b9
000001e0: 54e6 6b3b a457 ee3a 467e 05bc 6ef5 743c
000001f0: 9d4e a13c 40b4 5d3c b031 bb3a 9466 803c
00000200: 2c76 87bc ad00 643d 40cd 853d f476 1b3c
00000210: 944a f83b 295a b13c c2e7 de3b a750 833d
00000220: a2a1 5e3d 9a24 023d aa22 813c c8e1 6e3c
00000230: 4046 81ba 210c ad3c 92bd 42bc 32f6 14bd
0.13298486 0.017449323 -0.001319591 0.09766946 0.017717708 0.08829518 -0.19661835 -0.042303283
0.21501392 0.15489243 0.07233809 0.029937675 0.1664601 0.07240377 0.04743383 0.16585334
0.07175331 0.061658848 0.007603827 0.0076802243 0.0065386994 -0.013012582 -0.0009099364 -0.0009709777
-0.03529132 -0.020448055 -0.013671064 0.005529391 -0.0025834697 0.008047178 0.005181577 0.0023803506
0.008203531 0.0062833484 -0.0019925649 -0.0033016275 -0.18517363 -0.06612609 -0.027936991 -0.007189139
0.13036144 0.096791506 0.019869525 0.16032487 0.20606816 0.36452198 0.31877655 0.3011824
0.62248784 0.28605133 0.2952486 0.48675352 0.20361324 0.22792083 -0.16489154 -0.32348415
-0.31898123 -0.036885347 -0.14784646 -0.12965053 0.07344922 0.07536841 0.21238244 0.063208714
0.07435131 0.05341334 0.016097354 0.037144303 0.052724954 -0.027058594 -0.0028710475 0.022583032
0.035260685 0.026466187 0.023063589 0.024381984 0.005537795 -0.0038432914 0.009502457 -0.014035128
-0.018987492 -0.95976394 -0.81666726 -1.4070634 -1.0889919 -0.91248536 -1.3556776 -0.96456015
-0.7939568 -1.3925126 0.118005425 0.06294989 0.067011155 0.11105396 0.048259523 0.10938033
0.11489217 0.078941986 0.1352287 0.04950701 0.038873784 0.009343091 0.06684098 0.031166896
0.022067104 0.08224614 0.06073545 0.039958827 -0.018262696 0.0006894674 -0.00082490966 -0.04681077
-0.060145535 -0.09730584 -0.024248034 -0.08622121 -0.121027246 -0.0031591237 -0.0040031914 -0.00034183916
0.003599544 0.0018184078 -0.008147782 0.014951093 0.019690806 0.0135317445 0.0014281776 0.015673913
-0.01653584 0.055664707 0.06533289 0.00948881 0.00757725 0.021649437 0.00680253 0.064118676
0.054353364 0.031773187 0.0157636 0.014580198 -0.0009862855 0.021123948 -0.011886017 -0.036367603

momentum_buffer f4 [16]
00000000: 6bb1 bc39 58c4 1fb9 72e3 38b8 e132 5837
00000010: 24af 98b9 e22a 33ba 1ca7 6139 08bd 1838
00000020: 14bb 6eb8 cc0c e539 20d0 f2b7 bee0 95b9
00000030: 8a40 343a fea0 0c38 4711 9538 c8d5 7db7
0.0003599034 -0.00015236565 -4.4080844e-05 1.2886449e-05 -0.0002912219 -0.0006834698 0.00021519925 3.6415673e-05
-5.6917852e-05 0.00043687818 -2.8945564e-05 -0.0002858694 0.0006876072 3.3528537e-05 7.108092e-05 -1.512975e-05

momentum_buffer f4 [16]
00000000: 9a1b a73b 9ea8 13bd 6d2b eebc aefa 31bd
00000010: ee97 353d 2055 d0bd 231b cc3d f1ac 38bd
00000020: b91a f13d 806f 93ba 6a20 25bd b170 02bd
00000030: 5ec0 c83c 64ee 1d3d 3441 9abb 4474 263c
0.005099726 -0.036049478 -0.029073441 -0.043451957 0.044334345 -0.10172486 0.099661134 -0.045086805
0.11772675 -0.001124844 -0.040314116 -0.031845752 0.02450579 0.038557425 -0.00470748 0.010159556
