models/epoch=4-step=125-v3.ckpt (torch, 800661 bytes, 38 tensors)

backbone.0.weight f4 [16, 1, 3, 3]
0.17437527 0.25132847 0.3023081 0.522388 0.64843005 0.56169945 0.5518431 0.47334772
0.5651266 -0.3815642 -0.37198114 -0.19827653 -0.17003702 -0.39043018 0.005242452 -0.43090624
-0.22848873 -0.28005195 -0.43163252 -0.25892597 -0.1701542 -0.17780493 -0.14040506 -0.11298485
-0.4541337 0.09190999 -0.31111607 0.59279287 2.3084912 2.552561 0.31321743 2.3842938
2.4281263 0.12137864 1.8646774 1.4319377 -0.3323763 -0.5231289 -0.45973366 -0.687807
-0.2506161 -0.35256872 -0.65731156 -0.14576583 -0.18294472 -0.40633678 -0.21047191 -0.24915901
-0.092503555 -0.30727008 -0.05447406 0.030397203 -0.28338376 -0.48684168 0.49959433 0.08418086
0.17120849 0.34079486 0.36984077 0.030222923 -0.07365948 0.24752997 0.019134788 0.067027725
0.42417318 0.42910644 0.11894224 0.65370166 0.056104735 0.40750006 0.23556246 0.3280626
0.38559285 0.43664303 0.42879555 0.48766777 0.40145576 0.40635964 0.11193964 0.6710762
0.06573993 -2.487419 -0.89770216 -0.505536 -1.5860896 -0.569528 -0.9815778 -0.54790777
-0.42926556 -0.5366355 -0.4017621 0.07975011 -0.49617526 -0.19451696 -0.23984922 -0.2230508
-0.47003227 -0.21746685 -0.022032745 0.4047025 0.37888357 -0.022562461 0.3261918 0.39757043
0.24794279 0.06817766 0.15088995 0.085033484 0.43405285 0.30854592 -0.1908794 0.19093084
0.40255606 0.124530785 0.122608736 0.035623282 0.08367688 -0.45034435 1.8919108 3.8116076
-0.30347514 2.1501622 2.4536815 1.3509914 1.6842105 1.7233113 0.57113975 0.7518391
0.6585255 0.3451788 0.27099928 0.19569723 0.30399412 0.60836446 0.6414699 -0.18283617
-0.0015097186 -0.24472266 0.04941963 -0.17065623 -0.3971592 -0.24090086 -0.07672411 -0.5884703
00000000: 6e8f 323e 20ae 803e 21c8 9a3e 38bb 053f
00000010: 83ff 253f 89cb 0f3f 9745 0d3f a25a f23e
00000020: 23ac 103f 625c c3be 5074 bebe 0109 4bbe
00000030: 2f1e 2ebe 77e6 c7be e0c8 ab3b be9f dcbe
00000040: f3f8 69be f862 8fbe f0fe dcbe f291 84be
00000050: e73c 2ebe 7f12 36be 58c6 0fbe 9a64 e7bd
00000060: 3684 e8be 4e3b bc3d 9b4a 9fbe 46c1 173f
00000070: 52be 1340 295d 2340 095e a03e 4598 1840
00000080: 6c66 1b40 5d95 f83d c0ad ee3f bc49 b73f
00000090: 3a2d aabe c7eb 05bf 3662 ebbe 1f14 30bf
000000a0: c150 80be e383 b4be 9245 28bf a343 15be
000000b0: dc55 3bbe 600b d0be f385 57be 8a23 7fbe
000000c0: 8172 bdbd 8152 9dbe 3120 5fbd 8e03 f93c
000000d0: ad17 91be 5043 f9be d4ca ff3e 0467 ac3d
000000e0: 4751 2f3e aa7c ae3e c55b bd3e 1096 f73c
000000f0: c8da 96bd 7f78 7d3e 8fc0 9c3c d545 893d
00000100: 3a2d d93e d7b3 db3e fd97 f33d fe58 273f
00000110: 14ce 653d d9a3 d03e 4937 713e d2f7 a73e
00000120: 6d6c c53e ad8f df3e 178b db3e 97af f93e
00000130: 9c8b cd3e 5f0e d03e 9c40 e53d a6cb 2b3f
00000140: a8a2 863d df31 1fc0 cfcf 65bf cf6a 01bf
00000150: fc04 cbbf 96cc 11bf af48 7bbf af43 0cbf
00000160: b2c8 dbbe f260 09bf c3b3 cdbe 0754 a33d
00000170: af0a febe 742f 47be 099b 75be 6e67 64be
00000180: 12a8 f0be a1af 5ebe 047e b4bc 2b35 cf3e
00000190: 07fd c13e e9d4 b8bc 9d02 a73e 5a8e cb3e
000001a0: b7e4 7d3e bba0 8b3d e582 1a3e 0926 ae3d
000001b0: 2d3c de3e bbf9 9d3e e475 43be 6083 433e
000001c0: d41b ce3e ff09 ff3d 4a1a fb3d b8e9 113d
000001d0: c95e ab3d 8993 e6be 222a f23f 61f1 7340
000001e0: 1861 9bbe 429c 0940 1e09 1d40 49ed ac3f
000001f0: 3694 d73f 7795 dc3f 3736 123f 8778 403f
00000200: 2195 283f 47bb b03e 6bc0 8a3e db64 483e
00000210: 1ea5 9b3e c6bd 1b3f 5f37 243f 6839 3bbe
00000220: c0e1 c5ba 9498 7abe 3d6c 4a3d 82c0 2ebe
00000230: 7358 cbbe b7ae 76be 8821 9dbd fda5 16bf

backbone.0.bias f4 [16]
0.29676962 0.12604716 0.06847124 -0.052949585 -0.062315445 0.12552172 0.053894695 0.079985484
0.05660096 -0.1718997 -0.18778032 -0.075516604 -0.15257438 -0.13189481 -0.29640377 0.029282779
00000000: 30f2 973e 8212 013e a63a 8c3d aae1 58bd
00000010: 7b3e 7fbd c488 003e afc0 5c3d 6ecf a33d
00000020: 69d6 673d 7a06 30be 7c49 40be 73a8 9abd
00000030: 753c 1cbe 6f0f 07be 3cc2 97be 70e2 ef3c

backbone.1.weight f4 [16]
1.1077356 1.3566322 1.3954607 0.2744402 1.615649 0.9302988 1.38621 1.1061773
1.1644567 1.262656 1.506993 1.3287278 1.2417792 3.7179682 1.3291271 1.3711845
00000000: 48ca 8d3f 20a6 ad3f 759e b23f 6d83 8c3e
00000010: 96cd ce3f 1028 6e3f 546f b13f 3897 8d3f
00000020: eb0c 953f b69e a13f 26e5 c03f c113 aa3f
00000030: 9ff2 9e3f 31f3 6d40 d620 aa3f f982 af3f

backbone.1.bias f4 [16]
0.73060626 0.09563339 0.010844972 -1.0412219 0.22154348 -0.16282025 1.133679 0.633471
0.73760015 0.3417859 0.14602648 0.79749215 0.67478174 1.3742218 1.3646272 0.19303934
00000000: 0309 3b3f 70db c33d 1caf 313c c246 85bf
00000010: 4bdc 623e 5aba 26be 651c 913f 282b 223f
00000020: 5dd3 3c3f 90fe ae3e f787 153e 7228 4c3f
00000030: 7fbe 2c3f 80e6 af3f 1bac ae3f 1bac 453e

backbone.1.running_mean f4 [16]
3.5130067 -1.8162535 -1.4916977 11.059884 -2.914466 -1.5089681 1.395019 2.2396927
2.7522767 -6.939887 -1.9228307 1.5420846 1.047454 11.2294655 3.1549637 -1.4414188
00000000: 1ad5 6040 ff7a e8bf f3ef bebf 49f5 3041
00000010: 9c86 3ac0 de25 c1bf fc8f b23f 2057 0f40
00000020: 4d25 3040 8e13 dec0 511f f6bf 0763 c53f
00000030: f912 863f e4ab 3341 edea 4940 6980 b8bf

backbone.1.running_var f4 [16]
1.2851644 0.46729216 0.30028176 15.403272 1.0074278 0.33102953 0.2248955 0.57922053
0.90293276 5.69214 0.37175456 0.32686722 0.18088692 16.09394 1.4723752 0.26841778
00000000: 4480 a43f eb40 ef3e 88be 993e cd73 7641
00000010: 65f3 803f b47c a93e 024b 663e cc47 143f
00000020: 9a26 673f 0326 b640 9d56 be3e 245b a73e
00000030: 6c3a 393e 64c0 8041 ca76 bc3f 0e6e 893e

backbone.4.weight f4 [32, 16, 3, 3]
0.11213732 0.105900764 0.25325078 0.04081481 0.18281008 0.18244128 0.03728206 -0.0352524
0.09374055 -0.30088416 -0.21452221 -0.15843661 -0.1002235 -0.078998685 -0.18641087 -0.05008496
0.030473493 -0.045772634 -0.26857647 -0.30649993 -0.322535 -0.28956535 -0.25483423 -0.13552657
0.027797816 -0.073313005 -0.12619717 -0.14987417 -0.14406992 -0.071585715 -0.08144907 -0.04564354
-0.10251658 -0.15645444 -0.058209002 -0.09799972 -0.30039674 -0.28685036 -0.21495192 -0.25781
-0.18185693 -0.17372963 -0.02909696 -0.14045413 -0.23108727 -0.26338196 -0.119354434 -0.17784432
-0.17998876 -0.11356114 -0.054840647 -0.06559958 -0.045255095 0.018667981 0.15876399 0.12657373
0.20062497 0.22708715 0.22873244 0.2113483 0.11962283 0.0975041 0.10406929 0.09271688
0.19259198 0.1657198 0.19731684 0.18268616 0.14672552 0.09411957 0.10311888 0.08568457
0.20684728 0.12270509 0.17485532 0.17355497 0.07921419 0.09487539 0.094670326 0.07776807
0.048477445 0.2991079 0.26705882 0.17258804 0.056096204 0.19435145 0.12867054 -0.23571113
-0.23985201 -0.02551169 -0.26491812 -0.26585734 -0.24696887 -0.26148155 -0.20434424 -0.20281774
-0.05349508 -0.002285639 -0.20752634 0.10074783 0.09997123 0.19345878 0.22210865 0.15321295
0.18143207 0.0705276 0.06922808 0.10732505 0.20880255 0.20310909 0.12807843 0.15724851
0.06821303 0.14683932 0.18634275 -0.017616995 0.1560481 0.27562058 0.31032762 0.4248521
0.27893886 0.2688264 0.5348001 0.1905078 0.16753767 0.3533533 0.21510896 0.089431584
0.18312562 0.23113792 0.19093123 0.24499482 0.060953524 0.07027466 0.16868283 -0.34018248
-0.18258832 -0.1807156 -0.19974777 -0.12734285 -0.25422207 -0.00052815455 -0.2414899 -0.2188308
-0.093884535 0.034588907 -0.034202557 -0.0034944282 0.05329376 0.011762908 -0.16171296 -0.12731516
-0.076071694 0.13975656 0.18372788 0.13566233 0.06319759 -0.0033096129 0.080949865 0.06587929
0.15711012 0.016335499 0.13640119 0.21318975 0.16361088 0.13087884 0.013524413 0.08870086
0.08430333 0.021517484 0.113975555 0.08436534 0.14948785 0.12496892 0.1478459 0.02225434
0.12902789 0.16123232 0.15578628 0.062601104 0.08406686 0.1491285 0.056803223 0.12272636
0.050028548 -0.045856044 -0.052650202 0.040554997 0.13209805 0.17840555 0.0489637 0.12935692
0.13689797 0.10047129 0.11285294 0.025372984 0.12558386 0.10748719 -0.084571 0.00041009262
0.0094807865 -0.11944985 -0.05631212 -0.011034231 0.032558225 -0.067530006 -0.12024257 -0.11254851
0.04189254 -0.09461903 -0.07161693 -0.05142207 -0.047678784 -0.13485885 0.0025434478 -0.077917755
-0.010203906 -0.022516694 0.041942954 -0.041719344 -0.13449109 -0.059827354 0.011702095 -0.109824836
0.019010475 -0.14534828 0.011437287 -0.027491737 -0.06826706 -0.07116277 -0.15205388 -0.060996685
-0.074674584 -0.11003905 0.1859325 0.15324754 -0.009509621 0.111754425 0.012406066 0.11735573
0.12758347 0.17014696 0.05053919 -0.02180716 0.01599649 -0.022559892 -0.1208719 -0.04396179
-0.048150495 -0.14509791 -0.09414256 -0.1095787 0.010664321 -0.050516386 -0.088764966 -0.03151373
00000000: 40a8 e53d 80e2 d83d 16aa 813e 6e2d 273d
00000010: 9132 3b3e e3d1 3a3e 13b5 183d d264 10bd
00000020: 0cfb bf3d 7d0d 9abe b6ab 5bbe 353d 22be
00000030: fa41 cdbd 10ca a1bd 7ee2 3ebe e325 4dbd
00000040: 8ca3 f93c 167c 3bbd db82 89be 8fed 9cbe
00000050: 4f23 a5be e941 94be a279 82be 7ac7 0abe
00000060: 3fb8 e33c 2125 96bd d539 01be 9d78 19be
00000070: 1187 13be 889b 92bd c5ce a6bd b8f4 3abd
00000080: 36f4 d1bd 9835 20be 906c 6ebd 14b4 c8bd
00000090: 9acd 99be 0dde 92be 5b1c 5cbe acff 83be
000000a0: b438 3abe 2ee6 31be bf5c eebc 35d3 0fbe
000000b0: 24a2 6cbe 00da 86be 1970 f4bd d21c 36be
000000c0: f94e 38be be92 e8bd 96a0 60bd 1359 86bd
000000d0: 685d 39bd 98ed 983c 0793 223e 8b9c 013e
000000e0: a270 4d3e 8989 683e d638 6a3e b06b 583e
000000f0: d0fc f43d 3bb0 c73d 4822 d53d 59e2 bd3d
00000100: d536 453e 74b2 293e 6d0d 4a3e 1512 3b3e
00000110: 373f 163e c3c1 c03d fe2f d33d 647b af3d
00000120: c6cf 533e ce4c fb3d 460d 333e 65b8 313e
00000130: 0d3b a23d 074e c23d 84e2 c13d de44 9f3d
00000140: 4990 463d ac24 993e efbb 883e ebba 303e
00000150: 22c5 653d 1104 473e 36c2 033e 425e 71be
00000160: c49b 75be e4fd d0bc 59a3 87be 741e 88be
00000170: 68e5 7cbe e9e0 85be 9e3f 51be 74af 4fbe
00000180: a81d 5bbd a9ca 15bb c981 54be e154 ce3d
00000190: b7bd cc3d 0f1a 463e 7370 633e dbe3 1c3e
000001a0: 54c9 393e c670 903d 74c7 8d3d 3ccd db3d
000001b0: 56d0 553e d4fb 4f3e fe26 033e c105 213e
000001c0: 46b3 8b3d 0c5d 163e a2d0 3e3e 8451 90bc
000001d0: 13cb 1f3e 241e 8d3e 43e3 9e3e 3786 d93e
000001e0: 13d1 8e3e 9da3 893e a9e8 083f 7a14 433e
000001f0: ff8e 2b3e b9ea b43e 8645 5c3e e827 b73d
00000200: 4885 3b3e 6baf 6c3e 7a83 433e ecdf 7a3e
00000210: 67aa 793d 29ec 8f3d 31bb 2c3e 662c aebe
00000220: 6ff8 3abe 830d 39be ae8a 4cbe 2a66 02be
00000230: 6529 82be da73 0aba 2149 77be 2e15 60be
00000240: 8946 c0bd 19ad 0d3d fb17 0cbd c702 65bb
00000250: 8f4a 5a3d 36b9 403c 1598 25be e85e 02be
00000260: 7acb 9bbd 581c 0f3e 2923 3c3e 11eb 0a3e
00000270: bd6d 813d 17e6 58bb 0bc9 a53d b9eb 863d
00000280: 7ae1 203e 06d2 853c c1ac 0b3e 6a4e 5a3e
00000290: 9c89 273e 1a05 063e 8095 5d3c cca8 b53d
000002a0: 39a7 ac3d 6f45 b03c 046c e93d bcc7 ac3d
000002b0: 5813 193e b5ef ff3d ea64 173e bc4e b63c
000002c0: e31f 043e 161a 253e 7086 1f3e 0235 803d
000002d0: 3f2b ac3d 24b5 183e 7faa 683d f557 fb3d
000002e0: bcea 4c3d 8cd3 3bbd bda7 57bd ff1c 263d
000002f0: b644 073e f2af 363e 298e 483d 2476 043e
00000300: fb2e 0c3e e4c3 cd3d 711f e73d 01db cf3c
00000310: 0e99 003e 3e22 dc3d 8f33 adbd b301 d739
00000320: 4d55 1b3c 1fa2 f4bd 8aa7 66bd ebc8 34bc
00000330: c65b 053d 2c4d 8abd bd41 f6bd d57f e6bd
00000340: 8397 2b3d 9fc7 c1bd e6ab 92bd f39f 52bd
00000350: d44a 43bd 7018 0abe f9af 263b 5893 9fbd
00000360: 492e 27bc ee74 b8bc 60cc 2b3d e7e1 2abd
00000370: 08b8 09be 870d 75bd 25ba 3f3c d8eb e0bd
00000380: dbbb 9b3c 2ed6 14be 7563 3b3c 5a36 e1bc
00000390: 9acf 8bbd c9bd 91bd 03b4 1bbe a9d7 79bd
000003a0: fdee 98bd 275c e1bd 1765 3e3e ecec 1c3e
000003b0: 3ece 1bbc 81df e43d d042 4b3c 3358 f03d
000003c0: 3ea5 023e 013b 2e3e 2f02 4f3d eea4 b2bc
000003d0: 120b 833c 86cf b8bc b08b f7bd 4711 34bd
000003e0: 7439 45bd 8c94 14be d1cd c0bd cc6a e0bd
000003f0: 67b9 2e3c 45ea 4ebd 68ca b5bd 8a14 01bd

backbone.4.bias f4 [32]
-0.04660134 0.04919011 0.06870535 0.056032922 0.026573185 -0.009281049 0.07942888 0.0595929
-0.06864292 -0.0015499471 -0.0026470565 -0.032112133 -0.0740711 -0.08094932 0.040252525 -0.026331201
0.06942495 0.0246139 0.0524233 0.08201571 0.03455682 -0.049243957 -0.041284453 0.05672015
-0.0035320818 0.080184765 0.08088043 0.07213906 0.008526146 0.056306563 0.06617815 0.03954886
00000000: 0ce1 3ebd 927b 493d 64b5 8c3d c782 653d
00000010: 02b0 d93c 8a0f 18bc 9cab a23d af17 743d
00000020: a994 8cbd 9827 cbba 3d7a 2dbb 0388 03bd
00000030: 97b2 97bd c2c8 a5bd d5df 243d 88b4 d7bc
00000040: ab2e 8e3d 17a3 c93c d0b9 563d daf7 a73d
00000050: 748b 0d3d 08b4 49bd e319 29bd 6353 683d
00000060: 807a 67bb e937 a43d a4a4 a53d a5bd 933d
00000070: 40b1 0b3c b6a1 663d 6988 873d fcfd 213d

backbone.5.weight f4 [32]
2.0281568 2.1366057 3.3588343 -3.0053852 1.3939213 1.4333789 2.9115527 2.7034576
-1.7365074 3.3114653 0.28607908 7.0643377 3.414915 0.8267459 -0.74267447 1.3146487
4.5356874 3.5426157 3.4239025 1.8171878 -0.11245507 3.3526814 3.3651044 4.2125497
4.2990165 4.6932106 -0.0065226657 1.7366738 1.7271996 3.1701474 2.6974137 3.9296956
00000000: 52cd 0140 26be 0840 24f7 5640 3b58 40c0
00000010: 036c b23f f678 b73f e156 3a40 7305 2d40
00000020: e045 debf 0cef 5340 f578 923e 0e0f e240
00000030: f88d 5a40 9fa5 533f ea1f 3ebf 6946 a83f
00000040: 5a24 9140 37ba 6240 3821 5b40 9c99 e83f
00000050: d84e e6bd 5592 5640 df5d 5740 35cd 8640
00000060: 8b91 8940 c82e 9640 16bc d5bb 544b de3f
00000070: e014 dd3f b2e3 4a40 6da2 2c40 2280 7b40

backbone.5.bias f4 [32]
0.94098973 0.6531524 1.223698 -11.409085 -0.3614729 0.50623107 1.1752483 1.0712404
-3.3680987 1.486845 0.1335745 5.326472 1.278196 0.35153243 -1.5248479 0.25686428
2.1409297 1.5134549 1.6877172 0.83856326 -2.548735 1.5967094 1.4052639 2.1349022
2.0892293 2.1499379 -1.6135162 0.86621016 1.1390134 1.7589908 1.0219028 1.8364564
00000000: b4e4 703f ff34 273f 23a2 9c3f 9d8b 36c1
00000010: fa12 b9be 5c98 013f 896e 963f 681e 893f
00000020: ee8e 57c0 f050 be3f c1c7 083e 7572 aa40
00000030: ed9b a33f 0ffc b33e 372e c3bf b783 833e
00000040: fe04 0940 e4b8 c13f 1e07 d83f 15ac 563f
00000050: 791e 23c0 f960 cc3f b0df b33f 3da2 0840
00000060: efb5 0540 9598 0940 b387 cebf f3bf 5d3f
00000070: 31cb 913f 9c26 e13f b6cd 823f 0111 eb3f

backbone.5.running_mean f4 [32]
10.218599 -1.7887822 -7.727854 10.621079 -32.906147 -10.676879 0.4226238 -5.6915827
-30.399456 -2.8162308 3.496346 11.422386 -6.9129877 22.929586 -6.891576 3.9836884
-3.27956 -6.671563 -2.46956 18.364044 3.062305 -6.0288897 -10.473526 -7.049623
-9.520215 -11.369646 2.5382535 13.102568 -2.5550756 -1.5550721 -3.2348912 -6.9226727
00000000: 627f 2341 d1f6 e4bf 944a f7c0 f1ef 2941
00000010: e59f 03c2 7fd4 2ac1 2662 d83e 7221 b6c0
00000020: 1632 f3c1 203d 34c0 22c4 5f40 18c2 3641
00000030: 3237 ddc0 cb6f b741 ca87 dcc0 c0f4 7e40
00000040: 50e4 51c0 727d d5c0 450d 1ec0 90e9 9241
00000050: cefc 4340 aaec c0c0 9093 27c1 8396 e1c0
00000060: cd52 18c1 12ea 35c1 bf72 2240 1ea4 5141
00000070: 5c86 23c0 9a0c c7bf 7508 4fc0 8986 ddc0

backbone.5.running_var f4 [32]
410.6343 57.303276 70.63292 12785.928 1931.5529 113.048645 146.82198 94.820244
1572.173 91.72775 2218.957 2606.4768 91.83303 3704.2517 192.72026 878.23303
202.08417 72.400955 112.2399 1050.9613 215.7979 81.81713 116.41359 62.42912
103.232925 117.90876 412.288 627.49664 240.54973 66.456795 81.7419 92.068184
00000000: 3151 cd43 8e36 6542 0e44 8d42 b6c7 4746
00000010: b171 f144 e818 e242 6dd2 1243 f7a3 bd42
00000020: 8985 c444 9c74 b742 50af 0a45 a1e7 2245
00000030: 83aa b742 0784 6745 63b8 4043 ea8e 5b44
00000040: 8c15 4a43 4acd 9042 d47a e042 c35e 8344
00000050: 43cc 5743 5fa2 a342 c2d3 e842 6bb7 7942
00000060: 4277 ce42 49d1 eb42 dd24 ce43 c9df 1c44
00000070: bb8c 7043 e1e9 8442 da7b a342 e922 b842

backbone.8.weight f4 [64, 32, 3, 3]
-0.017293584 0.031805374 0.06754477 -0.028752888 0.0574462 0.010403262 0.032674093 0.051902425
0.041583735 -0.015188114 -0.05567373 -0.09751335 -0.08364032 -0.100135066 -0.21662013 -0.11166138
-0.2681064 -0.16010743 -0.029518573 -0.016164117 -0.12806287 -0.015131209 -0.14003009 -0.12256429
-0.0501854 -0.18813537 -0.1171092 0.26412243 0.34453017 0.20873712 0.3018357 0.26238444
0.19489071 0.17936106 0.05421923 -0.075343505 0.017681295 0.072654165 0.10416838 -0.042782273
0.039000742 0.028458469 0.06692029 0.03435222 0.09732924 -0.029111754 -0.059376206 0.040433742
-0.07404981 -0.06437347 0.061359335 0.043216355 -0.16705978 -0.12068587 -0.1348846 -0.12320759
-0.04170682 -0.145176 -0.24759968 -0.2668132 -0.14600785 -0.27299425 -0.24092516 0.013862925
-0.1166974 -0.14402129 -0.047556706 -0.10671416 -0.2273662 -0.042841364 -0.103936285 -0.1613841
-0.0536504 -0.06932374 -0.13244458 -0.03278829 -0.09456348 -0.13069135 0.048670102 -0.089060836
-0.2021952 0.030426376 -0.07549744 -0.16490878 -0.019209648 -0.18202874 -0.24054518 -0.01555657
-0.16192129 -0.16042902 0.09215101 0.07972127 0.1291387 0.023952909 0.06590567 0.052051585
0.039490074 -0.023013677 0.09264253 0.50313276 0.45310837 0.34641504 0.39693585 0.30480233
0.1747641 0.32246825 0.09669252 -0.003416777 -0.016361931 -0.01601004 -0.14312868 -0.026234105
-0.15576196 -0.20625186 -0.04263547 -0.22575 -0.17329668 0.03981439 0.07425874 0.067754015
-0.020241775 0.027600612 0.016859448 0.10253122 -0.0015728627 0.026259549 -0.11281025 -0.08651996
-0.06264901 -0.075315446 -0.1001412 -0.08951306 -0.1032236 -0.21706912 -0.24161807 -0.0078055738
-0.08754101 -0.007700718 -0.17030701 -0.22626904 -0.13698977 0.010021969 -0.25476658 -0.19682933
-0.021625603 -0.124661446 -0.039876085 -0.089055836 -0.13352922 -0.24148525 -0.062447507 -0.1744344
-0.106041215 -0.049767595 -0.1387734 -0.10199232 -0.13319519 -0.10182549 -0.12508066 -0.064837895
-0.13664356 -0.14531979 -0.01808239 -0.062637925 -0.035699844 -0.13367593 -0.14652915 -0.103460774
8.55036e-06 -0.2280564 -0.14194465 0.02354635 0.046195645 0.08015812 0.027996121 0.04752277
0.08035268 0.063124135 0.04148463 0.036014814 0.0418691 -0.0021131788 0.04959866 0.058861434
-0.02172209 -0.04424913 -0.00092551886 -0.11135152 -0.06881384 -0.055718973 -0.013959447 -0.13479401
-0.099516906 -0.23789234 -0.2623 -0.12051341 -0.21962902 -0.22562301 0.046128977 -0.044290043
-0.10540684 -0.048861288 -0.10619396 -0.20851873 -0.061194498 -0.196109 -0.20196712 0.0123901
-0.05772269 -0.0388971 -0.08793383 -0.21415098 -0.294572 -0.09573456 -0.25821418 -0.25584155
-0.051137406 -0.14282875 -0.031505466 -0.029992051 -0.13165922 -0.2050629 -0.11844575 -0.15220694
-0.17929369 0.00036161015 -0.107263744 -0.073494814 -0.1087571 -0.17987114 -0.17752104 -0.045220897
-0.18946858 -0.20123412 0.102275185 0.14868058 0.06791942 0.13864787 0.10308839 0.12207504
0.10060026 0.09748129 0.019199736 -0.021107078 0.023341428 0.114044845 -0.05051535 0.08606714
0.1334416 0.028923182 0.10147737 0.09095904 0.06317395 0.050323818 0.09036988 0.054391365
00000000: 46ab 8dbc 5a46 023d ea54 8a3d 2d8b ebbc
00000010: b54c 6b3d 7272 2a3c 45d5 053d a397 543d
00000020: b553 2a3d 91d7 78bc 230a 64bd 14b5 c7bd
00000030: 9e4b abbd 9d13 cdbd abd1 5dbe b9ae e4bd
00000040: 3e45 89be 34f3 23be efd0 f1bc 9c6a 84bc
00000050: ea22 03be e4e8 77bc 0c64 0fbe fd02 fbbd
00000060: 358f 4dbd 8fa6 40be f3d6 efbd 0e3b 873e
00000070: 4266 b03e 2fbf 553e 358a 9a3e 4157 863e
00000080: 6e91 473e 6daa 373e fc14 5e3d b24d 9abd
00000090: 5dd8 903c b5cb 943d 3b56 d53d 773c 2fbd
000000a0: 3ebf 1f3d bc21 e93c 810d 893d eab4 0c3d
000000b0: 8d54 c73d c67b eebc 7734 73bd da9d 253d
000000c0: 6da7 97bd 3dd6 83bd ed53 7b3d a203 313d
000000d0: b811 2bbe 272a f7bd 301f 0abe 4354 fcbd
000000e0: c5d4 2abd 04a9 14be c58a 7dbe bd9b 88be
000000f0: 1583 15be e7c5 8bbe 16b5 76be 5221 633c
00000100: 0cff eebd 517a 13be d2ca 42bd f48c dabd
00000110: afd2 68be 6d7a 2fbd 8cdc d4bd e041 25be
00000120: 86c0 5bbd 9bf9 8dbd 8d9f 07be 044d 06bd
00000130: 7faa c1bd f4d3 05be 4d5a 473d 8765 b6bd
00000140: 420c 4fbe bc40 f93c 679e 9abd d9dd 28be
00000150: 8d5d 9dbc be65 3abe 7a51 76be fce0 7ebc
00000160: b2ce 25be 8147 24be abb9 bc3d e844 a33d
00000170: ef3c 043e e438 c43c 8df9 863d 0b34 553d
00000180: 58c0 213d 2e87 bcbc 5ebb bd3d 4fcd 003f
00000190: d2fd e73e 505d b13e 2d3b cb3e 0d0f 9c3e
000001a0: 5cf5 323e 8f1a a53e ba06 c63d 01ec 5fbb
000001b0: 7509 86bc 7d27 83bc 5390 12be e8e8 d6bc
000001c0: 1080 1fbe b033 53be 88a2 2ebd 022b 67be
000001d0: af74 31be 6a14 233d f714 983d 9ec2 8a3d
000001e0: 14d2 a5bc ae1a e23c d31c 8a3c e3fb d13d
000001f0: 8428 ceba 441e d73c 0f09 e7bd 6031 b1bd
00000200: 204e 80bd fc3e 9abd d416 cdbd a052 b7bd
00000210: e566 d3bd 5e47 5ebe ba6a 77be e6c5 ffbb
00000220: b348 b3bd 4e56 fcbb f664 2ebe 12b3 67be
00000230: 0c47 0cbe 2f33 243c c470 82be a18d 49be
00000240: 2d28 b1bc 804e ffbd 1b55 23bd e862 b6bd
00000250: e2bb 08be e947 77be f5c8 7fbd ee9e 32be
00000260: 232c d9bd 1bd9 4bbd 9d1a 0ebe 59e1 d0bd
00000270: 5264 08be e289 d0bd 2515 00be bbc9 84bd
00000280: 4aec 0bbe b6ce 14be 8521 94bc 5048 80bd
00000290: 003a 12bd 58e2 08be bd0b 16be 3ee3 d3bd
000002a0: 8473 0f37 9e87 69be f059 11be 46e4 c03c
000002b0: a537 3d3d f129 a43d 1f58 e53c 3ca7 423d
000002c0: f28f a43d 3a47 813d caeb 293d 4584 133d
000002d0: ef7e 2b3d 427d 0abb f727 4b3d b018 713d
000002e0: 86f2 b1bc 933e 35bd 859e 72ba 440c e4bd
000002f0: 45ee 8cbd 9439 64bd 2ab6 64bc 7107 0abe
00000300: 85cf cbbd 0d9a 73be 304c 86be bccf f6bd
00000310: 6ee6 60be b809 67be bdf1 3c3d 7a69 35bd
00000320: 8bdf d7bd c622 48bd 387c d9bd ef85 55be
00000330: 15a7 7abd ccd0 48be 78d0 4ebe d9ff 4a3c
00000340: a16e 6cbd 9152 1fbd a716 b4bd 654a 5bbe
00000350: 24d2 96be 7b10 c4bd a634 84be aafd 82be
00000360: 7575 51bd b341 12be e00b 01bd e4b1 f5bc
00000370: add1 06be 02fc 51be af93 f2bd 23dc 1bbe
00000380: c498 37be 7e96 bd39 18ad dbbd 7384 96bd
00000390: 0bbc debd 2430 38be 13c8 35be 8c39 39bd
000003a0: 0d04 42be 5110 4ebe a775 d13d b93f 183e
000003b0: 5619 8b3d b5f9 0d3e 0120 d33d 7b02 fa3d
000003c0: 8207 ce3d 45a4 c73d c448 9d3c c0e8 acbc
000003d0: 8636 bf3c 5890 e93d 2fe9 4ebd f843 b03d
000003e0: eaa4 083e 4ff0 ec3c 5ed3 cf3d bc48 ba3d
000003f0: 5861 813d 5920 4e3d d813 b93d 7bc9 5e3d

backbone.8.bias f4 [64]
-0.055429865 -0.013005661 -0.0075750835 -0.052336957 0.0033081546 -0.048184056 0.03883846 0.049349304
-0.03949523 0.057642687 0.042972274 0.010730941 0.038388398 0.03427774 0.0088458285 -0.048625797
0.050560914 0.0523733 -0.03185973 0.003929752 -0.0446344 -0.0496503 0.054981202 0.005182619
0.0466109 -0.028776158 -0.030526834 -0.0050962246 0.058117688 0.020917093 -0.0019379953 0.019606227
-0.02757899 -0.0010137885 -0.027612265 -0.033176392 -0.046745 -0.006976523 -0.01307159 -0.03311867
0.026017023 -0.048371173 0.030679952 -0.004650262 0.030378522 0.023033258 -0.020255335 -0.032741833
-0.033720646 -0.028429104 -0.01131072 -0.04963513 0.01680466 -0.017026473 -0.034150712 0.0018529603
-0.005455444 -0.046040867 -0.02507429 -0.011554222 0.03371917 -0.0506683 0.046859886 -0.046753395
00000000: 6d0a 63bd b215 55bc 6838 f8bb 475f 56bd
00000010: a0cd 583b a55c 45bd 1415 1f3d 7f22 4a3d
00000020: c0c5 21bd bd1a 6c3d b203 303d d4d0 2f3c
00000030: 273d 1d3d d166 0c3d 18ee 103c d82b 47bd
00000040: f618 4f3d 6385 563d 597f 02bd 26c5 803b
00000050: 90d2 36bd 1d5e 4bbd f833 613d f6d2 a93b
00000060: 12eb 3e3d fabb ebbc 6913 fabc 3bfe a6bb
00000070: d00c 6e3d 535a ab3c 5504 feba 3d9d a03c
00000080: 56ed e1bc 19e1 84ba 1e33 e2bc f8e3 07bd
00000090: af77 3fbd 519b e4bb 392a 56bc 71a7 07bd
000000a0: a721 d53c da20 46bd 8654 fb3c 3a61 98bb
000000b0: 61dc f83c 3eb0 bc3c 84ee a5bc 4d1c 06bd
000000c0: a91e 0abd 27e4 e8bc 9950 39bc 354e 4bbd
000000d0: eda9 893c 1a7b 8bbc 9ee1 0bbd 08df f23a
000000e0: 95c3 b2bb 5995 3cbd 9968 cdbc eb4d 3dbc
000000f0: 1d1d 0a3d 9089 4fbd 27f0 3f3d 7d80 3fbd

backbone.9.weight f4 [64]
-1.6614738 2.023706 -0.7811561 1.1194037 1.7863286 1.7972695 0.0389483 -0.08409061
-0.7061661 -0.44033223 -1.233953 -1.0779704 0.30934882 2.5697079 3.3894837 -0.25933555
-1.7583319 2.260943 -0.80026007 -0.632803 -1.049409 0.8269254 -0.6803592 -1.3693992
-0.3086768 0.6197255 -0.76599514 1.3842125 -1.1110061 3.6524813 1.6712074 1.4918329
0.115884505 -0.16406484 -1.4931223 -1.2517203 -0.557815 -1.1719588 -0.93816364 -0.9880997
1.3862821 -0.93580437 2.1793427 -0.004101504 -1.060721 -0.17103706 3.4615576 -0.384528
0.029243855 0.15904763 -1.142435 -1.0034094 -0.36603478 3.2010543 -1.0276642 -1.4140801
1.2508333 -0.88817865 -1.2057058 1.778477 -1.2003795 -0.15952697 -9.154651 -0.24716698
00000000: 2cab d4bf 6684 0140 d9f9 47bf 9f48 8f3f
00000010: 6aa6 e43f ed0c e63f 4188 1f3d b337 acbd
00000020: 4dc7 34bf 3a73 e1be 2cf2 9dbf effa 89bf
00000030: f862 9e3e 1876 2440 4ded 5840 a1c7 84be
00000040: 0511 e1bf 4ab3 1040 d8dd 4cbf 61ff 21bf
00000050: 0953 86bf 62b1 533f 052c 2ebf 7948 afbf
00000060: e30a 9ebe 55a6 1e3f 4218 44bf e02d b13f
00000070: 7335 8ebf 41c2 6940 20ea d53f 61f4 be3f
00000080: db54 ed3d 9d00 28be a21e bfbf 5f38 a0bf
00000090: f7cc 0ebf bf02 96bf 7e2b 70bf 1af4 7cbf
000000a0: b171 b13f e090 6fbf 5a7a 0b40 e965 86bb
000000b0: b5c5 87bf 5724 2fbe 298a 5d40 dbe0 c4be
000000c0: cf90 ef3c 62dd 223e 4f3b 92bf b86f 80bf
000000d0: e968 bbbe 13de 4c40 808a 83bf 9400 b5bf
000000e0: 4e1b a03f ad5f 63bf 9154 9abf 22a5 e33f
000000f0: 09a6 99bf 0a5b 23be 7379 12c1 5719 7dbe

backbone.9.bias f4 [64]
-2.987365 -4.3341937 -2.190965 -4.471586 -4.46746 -5.540849 -2.1102073 -2.4775531
-2.1097767 -4.0850773 -2.6038568 -1.9592853 -3.3819897 -4.1380224 -7.452468 -2.3164942
-3.0875585 -5.8382034 -3.0574546 -2.2545393 -3.3404672 -4.8667293 -2.6006722 -3.9121077
-20.518587 -3.0385647 -3.0304797 -6.0539227 -2.796743 -7.734648 -4.593182 -5.46641
-3.3715978 -5.22872 -2.872718 -3.5057325 -2.5639985 -1.8735325 -2.0345223 -3.6510904
-4.2913675 -1.76444 -4.7611947 -3.544724 -2.4343457 -2.8972924 -7.6680856 -2.4733882
-3.995109 -2.117786 -3.3641582 -2.5229812 -3.0668788 -6.962882 -1.8968745 -2.0648758
-4.3276086 -2.4693432 -3.8544695 -3.169841 -2.2174664 -3.694166 -18.461737 -3.2265985
00000000: fd30 3fc0 b7b1 8ac0 c538 0cc0 3c17 8fc0
00000010: 6ff5 8ec0 a34e b1c0 a30d 07c0 3b90 1ec0
00000020: 9506 07c0 f4b8 82c0 97a5 26c0 dcc9 fabf
00000030: 8572 58c0 ae6a 84c0 9e7a eec0 7141 14c0
00000040: 8f9a 45c0 90d2 bac0 56ad 43c0 5f4a 10c0
00000050: 37ca 55c0 3fbc 9bc0 6a71 26c0 f95f 7ac0
00000060: 1126 a4c1 d877 42c0 61f3 41c0 bcb9 c1c0
00000070: d6fd 32c0 3d82 f7c0 59fb 92c0 d5ec aec0
00000080: 42c8 57c0 ad51 a7c0 9dda 37c0 ec5d 60c0
00000090: 8d18 24c0 eacf efbf 9d35 02c0 77ab 69c0
000000a0: e252 89c0 2bd9 e1bf b55b 98c0 c2dc 62c0
000000b0: 52cc 1bc0 3d6d 39c0 f560 f5c0 fe4b 1ec0
000000c0: deaf 7fc0 ce89 07c0 5e4e 57c0 8678 21c0
000000d0: be47 44c0 eecf dec0 c9cc f2bf ed26 04c0
000000e0: c57b 8ac0 b809 1ec0 a1af 76c0 adde 4ac0
000000f0: f8ea 0dc0 376d 6cc0 a3b1 93c1 9780 4ec0

backbone.9.running_mean f4 [64]
-44.70408 -408.03528 -2.7963989 -91.71573 -145.63577 -170.94292 49.504467 -2.1926517
44.40429 54.48744 -49.066288 -90.95716 93.5604 308.11154 128.62717 -0.038873017
-29.448599 -76.35334 40.822506 2.7574713 24.620844 -192.36456 21.53342 49.026226
1477.6841 83.29641 69.26313 -144.70642 -0.62128913 318.2373 -6.900019 -93.13347
-82.204666 -99.85462 -67.01294 57.9509 82.55403 -64.86002 79.348755 86.23892
-19.232058 54.777973 112.08382 61.45889 18.895767 -63.323997 -242.13464 40.59964
-149.1406 -52.7736 54.499744 -60.327007 58.615166 -176.43152 69.40223 -80.33815
-100.061775 65.44044 56.21868 204.54929 55.528233 79.528206 -217.14474 -34.007183
00000000: fad0 32c2 8404 ccc3 33f8 32c0 746e b7c2
00000010: c2a2 11c3 63f1 2ac3 9304 4642 6854 0cc0
00000020: fe9d 3142 23f3 5942 e143 44c2 11ea b5c2
00000030: ed1e bb42 470e 9a43 8ea0 0043 5039 1fbd
00000040: bb96 ebc1 e9b4 98c2 3f4a 2342 697a 3040
00000050: 7df7 c441 545d 40c3 7244 ac41 db1a 4442
00000060: e4b5 b844 c397 a642 b986 8a42 d8b4 10c3
00000070: ce0c 1fbf 601e 9f43 f5cc dcc0 5644 bac2
00000080: ca68 a4c2 91b5 c7c2 a006 86c2 b9cd 6742
00000090: aa1b a542 55b8 81c2 90b2 9e42 547a ac42
000000a0: 41db 99c1 a51c 5b42 ea2a e042 e7d5 7542
000000b0: 882a 9741 c64b 7dc2 7822 72c3 0866 2242
000000c0: fe23 15c3 2b18 53c2 bdff 5942 db4e 71c2
000000d0: ee75 6a42 786e 30c3 f1cd 8a42 22ad a0c2
000000e0: a11f c8c2 81e1 8242 eedf 6042 9e8c 4c43
000000f0: e91c 5e42 710e 9f42 0e25 59c3 5b07 08c2

backbone.9.running_var f4 [64]
1139.6617 90708.89 167.58902 4807.299 11497.386 15596.556 1176.6947 190.59796
1310.3871 1552.3451 1310.8849 4443.926 3601.2288 45783.99 8252.507 305.36765
811.2475 3204.6965 712.40967 778.426 350.09323 17018.867 345.7306 1359.3939
1.2526745e+06 3283.8281 2286.3933 11754.765 213.85182 51730.46 422.59958 5103.456
3905.0298 6521.1045 2119.9656 1912.9978 3263.9585 2356.7312 3155.3762 4072.421
818.8018 1590.2194 5918.4204 1630.1273 276.72125 2625.705 28326.568 978.26874
11688.757 2251.757 1364.0852 2527.0708 1656.339 15836.331 2285.1958 3538.0164
6335.2607 2202.4036 1552.3636 19869.598 1606.4884 2960.0889 28363.496 924.2476
00000000: 2d75 8e44 722a b147 ca96 2743 643a 9645
00000010: 8ba5 3346 39b2 7346 3b16 9344 1499 3e43
00000020: 63cc a344 0b0b c244 51dc a344 68df 8a45
00000030: a913 6145 fdd7 3247 07f2 0046 0faf 9843
00000040: d7cf 4a44 254b 4845 381a 3244 449b 4244
00000050: ef0b af43 bcf5 8446 84dd ac43 9bec a944
00000060: 14ea 9849 403d 4d45 4be6 0e45 0fab 3746
00000070: 11da 5543 7612 4a47 bf4c d343 a67b 9f45
00000080: 7a10 7445 d6c8 cb45 737f 0445 ee1f ef44
00000090: 56ff 4b45 b34b 1345 0536 4545 bc86 7e45
000000a0: 51b3 4c44 05c7 c644 5df3 b845 13c4 cb44
000000b0: 525c 8a43 481b 2445 234d dd46 3391 7444
000000c0: 07a3 3646 1dbc 0c45 ba82 aa44 22f1 1d45
000000d0: d90a cf44 5371 7746 22d3 0e45 4320 5d45
000000e0: 16fa c545 75a6 0945 a30b c244 323b 9b46
000000f0: a1cf c844 6c01 3945 fe96 dd46 d90f 6744

classifier.1.weight f4 [128, 576]
0.022745034 0.03063936 0.062470395 0.045907885 -0.011409499 -0.017828587 0.043465648 0.038328856
-0.0069917385 0.14750859 0.11054736 0.08571895 0.079009615 0.009293705 0.025437936 0.036865413
-0.038855616 -0.024116393 0.08375854 0.018414129 0.04144828 0.07108989 -0.018249227 0.016518684
-0.004903008 -0.028145693 -0.012747356 0.02682211 0.05276653 0.042612705 0.06593879 -0.005581849
0.057870172 0.012378302 0.0011245413 0.08770491 -0.034762926 0.014884276 0.008075663 -0.013857209
-0.01725081 -0.022376392 0.002914272 0.010356282 0.020996768 0.03850896 -0.041212473 0.0024189346
-0.028838463 -0.037889272 0.03721019 0.036129694 0.0055071525 -0.016548637 0.0123939095 0.04003147
-0.013988901 0.012760683 0.013523773 0.00633343 0.006856784 0.014422285 -0.008393234 0.038573407
0.026286826 -0.007058757 0.045782194 0.016044779 0.02218593 -0.001327637 0.0207273 -0.029211307
0.000632123 0.016007842 0.021956168 0.03747405 0.015048217 0.036876366 -0.01458594 -0.03229464
-0.022828627 -0.017365318 0.010614502 -8.1561935e-05 0.020463526 0.050888147 0.07033957 0.03983435
0.011970327 0.034386106 0.040852938 0.012754653 0.047572024 0.0017554716 0.026989195 -0.017503528
0.04262869 -0.0038913519 -0.017895678 0.034845214 0.034512144 -0.005758985 0.04509362 -0.002644687
-0.03871733 0.011208112 -0.023869546 0.026025247 0.03419183 0.015213741 -0.012483847 -0.0076285033
-0.009333829 0.031639855 -0.013318517 -0.014293046 0.09486174 0.06642314 -0.015286134 -0.011506391
-0.010579797 -0.04760393 0.036178667 -0.04813181 -0.04898024 0.011368443 -0.055890962 -0.040819056
-0.05414674 -0.046464402 -0.014276769 -0.0268614 -0.0009125084 -0.04755235 0.019608477 0.006602591
-0.012219664 0.017274845 0.02119047 0.017050486 0.012672607 0.024408823 -0.03146125 0.054496344
0.0568156 0.0075881337 0.02442312 0.04121312 0.02895116 0.02408764 0.01060102 -0.027124317
0.0376105 0.020066708 -0.015481725 0.02542432 0.07383635 -0.04112288 -0.021482121 0.029495185
-0.034882534 0.0009365801 0.04801501 0.032706372 0.06056003 -0.0046179346 0.0058434163 0.009410074
0.035028342 -0.024523266 -0.010586712 -0.011442462 -0.010992916 -0.0023327994 -0.06577254 0.017118335
-0.019939262 0.01307063 -0.033270285 0.09728798 0.03834417 0.03237892 0.052342977 0.010821627
-0.029661236 -0.0052262475 0.044946432 -0.049094003 -0.021336392 -0.07184688 -0.04987891 0.0035973366
-0.0023214195 -0.06356543 0.012239639 -0.045382954 0.0071096914 0.023291893 0.06744434 0.0010150967
0.017308317 0.012336332 -0.047200687 0.036858454 0.060274743 0.042112354 0.005247359 0.045826085
0.01101537 0.062884055 0.06674627 0.014627429 0.07361661 0.02312858 0.07537182 0.06970539
-0.021113468 -0.009246226 -0.03637949 -0.021114355 0.0054956083 -0.014598254 -0.018578935 -0.017773315
-0.014407297 0.032726165 -0.03397302 0.07219242 0.020970833 0.010184581 0.012451891 0.06483007
0.030590758 0.01098959 0.02205092 0.013934538 0.0032992805 -0.009915716 -0.027057912 0.03958787
0.018756483 0.030347755 0.072840795 -0.03687339 -0.0036989516 0.0077387746 0.010988578 -0.045702837
0.051542267 -0.010322646 0.027838424 0.08720638 -0.007862115 0.037418664 0.08023721 -0.009230314
00000000: cb53 ba3c 65ff fa3c f5e0 7f3d e809 3c3d
00000010: e8ee 3abc 420d 92bc 0909 323d b8fe 1c3d
00000020: f41a e5bb 7e0c 173e a766 e23d 6b8d af3d
00000030: cbcf a13d a044 183c 3863 d03c 3000 173d
00000040: 1127 1fbd be8f c5bc 9989 ab3d 3ad9 963c
00000050: acc5 293d 9497 913d 677f 95bc 3152 873c
00000060: 6aa9 a0bb cc91 e6bc 49da 50bc 0bba db3c
00000070: b821 583d a98a 2e3d eb0a 873d f1e7 b6bb
00000080: 4609 6d3d 5dce 4a3c 5865 933a a29e b33d
00000090: 9263 0ebd 2edd 733c c94f 043c 5909 63bc
000000a0: 9251 8dbc b24e b7bc 5ffd 3e3b 65ad 293c
000000b0: 6a01 ac3c 92bb 1d3d 69ce 28bd fd86 1e3b
000000c0: a43e ecbc c831 1bbd b669 183d bbfc 133d
000000d0: 5875 b43b 0291 87bc d30f 4b3c 0af8 233d
000000e0: b431 65bc 2f12 513c d192 5d3c a988 cf3b
000000f0: e0ae e03b 734b 6c3c c683 09bc 26ff 1d3d
00000100: 7857 d73c 254d e7bb 1c86 3b3d 5770 833c
00000110: 44bf b53c 1b04 aeba 4ccc a93c 8d4c efbc
00000120: 0eb5 253a e122 833c 6cdd b33c 647e 193d
00000130: cc8c 763c ac0b 173d def9 6ebc 6247 04bd
00000140: 1a03 bbbc b641 8ebc 73e8 2d3c 3b0c abb8
00000150: 20a3 a73c 1770 503d 310e 903d 5829 233d
00000160: 311f 443c 72d8 0c3d 6955 273d e4f8 503c
00000170: e2da 423d da17 e63a 7218 dd3c 8f63 8fbc
00000180: 6c9b 2e3d 0d06 7fbb f599 92bc dbb9 0e3d
00000190: 9b5c 0d3d deb5 bcbb 16b4 383d 7c52 2dbb
000001a0: 1096 1ebd 3ba2 373c 118a c3bc e632 d53c
000001b0: bb0c 0c3d 0e43 793c 0d89 4cbc 86f8 f9bb
000001c0: ebec 18bc cb98 013d e935 5abc 612d 6abc
000001d0: df46 c23d db08 883d b172 7abc 4d85 3cbc
000001e0: e356 2dbc 57fc 42bd 1530 143d dc25 45bd
000001f0: 819f 48bd b542 3a3c eced 64bd e231 27bd
00000200: f9c8 5dbd 7551 3ebd 1ce9 69bc 700c dcbc
00000210: 6735 6fba 41c6 42bd f5a1 a03c 8c5a d83b
00000220: fc34 48bc fa83 8d3c a397 ad3c 76ad 8b3c
00000230: c4a0 4f3c 03f5 c73c 83dd 00bd 8f37 5f3d
00000240: 79b7 683d e1a5 f83b ff12 c83c 17cf 283d
00000250: fc2a ed3c 7153 c53c e7af 2d3c d133 debc
00000260: 780d 1a3d f062 a43c 10a7 7dbc aa46 d03c
00000270: 8337 973d 7770 28bd 46fb afbc e39f f13c
00000280: fde0 0ebd d484 753a 63ab 443d 1ef7 053d
00000290: cb0d 783d 0b52 97bb 217a bf3b b62c 1a3c
000002a0: e179 0f3d 04e5 c8bc e373 2dbc 2a79 3bbc
000002b0: a21b 34bc e1e1 18bb c1b3 86bd c03b 8c3c
000002c0: aa57 a3bc 3226 563c 6c46 08bd ec3e c73d
000002d0: c70e 1d3d c29f 043d 9765 563d 324d 313c
000002e0: 1ffc f2bc f140 abbb c019 383d cb16 49bd
000002f0: a8c9 aebc 7524 93bd d44d 4cbd 4bc1 6b3b
00000300: f522 18bb 982e 82bd c488 483c 7ae3 39bd
00000310: 6af8 e83b a4ce be3c 4220 8a3d fe0c 853a
00000320: 2cca 8d3c 541e 4a3c 8255 41bd e4f8 163d
00000330: a6e2 763d 017e 2c3d 0af2 ab3b 22b4 3b3d
00000340: cf79 343c 5bc9 803d 45b2 883d e2a7 6f3c
00000350: 4ec4 963d 2678 bd3c 8a5c 9a3d b3c1 8e3d
00000360: 27f6 acbc 7c7d 17bc a902 15bd 03f8 acbc
00000370: 8114 b43b 842d 6fbc da32 98bc 5899 91bc
00000380: 950c 6cbc df0b 063d 4b27 0bbd 9fd9 933d
00000390: 06cb ab3c 3bdd 263c 0403 4c3c a1c5 843d
000003a0: 7899 fa3c ae0d 343c 22a4 b43c b04d 643c
000003b0: be38 583b 8775 22bc 8ea8 ddbc e426 223d
000003c0: 32a7 993c db9b f83c 8e2d 953d 8d08 17bd
000003d0: 1c6a 72bb 8c95 fd3b 7009 343c e632 3bbd
000003e0: fc1d 533d 5120 29bc 680d e43c 4299 b23d
000003f0: 1ad0 00bc 5044 193d 6853 a43d be3a 17bc

classifier.1.bias f4 [128]
-0.045322247 0.10424667 0.00041285003 -0.024630152 0.11532057 0.09424844 -0.031784795 0.08706608
0.19530377 -0.021253275 -0.1581572 0.023837844 -0.05088578 -0.06431383 0.019136745 -0.02716944
0.05334559 0.0023889246 0.0071701165 0.056513354 -0.086300194 -0.08581047 0.17628999 0.010731836
-0.083084665 -0.019307902 -0.063262984 -0.014910305 -0.033585 0.17793994 0.07244106 0.14225197
0.036208145 -0.061245184 -0.104292125 0.024289483 0.071296684 -0.18500191 0.12171814 -0.002580898
-0.031377826 0.18874334 -0.0075054346 -0.08775993 0.038539115 0.057271883 -0.12252567 -0.09740123
0.010095069 0.022078961 0.007835397 -0.026330883 0.15664762 -0.038056083 -0.055012923 0.06793563
0.05007311 -0.025568483 -0.12613362 0.045297176 -0.012072466 0.010334852 -0.109892115 0.033018634
-0.021526955 0.062127046 0.042871803 -0.11136511 0.012825853 0.06806248 0.028508084 -0.3161526
0.015556576 0.2842009 -0.116981514 -0.079428464 0.18322071 -0.019738505 0.09273001 -0.036766265
-0.08599901 -0.06390773 0.009475048 -0.07716303 -0.027419565 -0.16011491 -0.03718957 -0.04991825
0.039332416 -0.22691774 0.032519545 0.054369405 0.057481375 0.02045407 -0.022476332 0.16956511
-0.2145814 -0.2012047 -0.07426991 0.034067042 0.049873475 -0.14335836 -0.07254785 -0.018348321
0.008034736 -0.10238918 -0.013296508 -0.010563961 0.052928828 0.01558283 -0.12133809 -0.03238948
0.05656307 0.38429466 -0.027127342 0.0101242 0.055627175 -0.00044459716 -0.09110312 0.05484872
-0.017976493 0.011672403 -0.04397312 -0.057098325 0.04531059 -0.04077208 0.06918334 0.0049643675
00000000: d2a3 39bd 477f d53d cb73 d839 2cc5 c9bc
00000010: 312d ec3d 5305 c13d c630 02bd b34f b23d
00000020: b6fd 473e 591b aebc f6f3 21be 9547 c33c
00000030: 9c6d 50bd f8b6 83bd aac4 9c3c 7292 debc
00000040: e880 5a3d 818f 1c3b 4cf3 ea3b 8c7a 673d
00000050: 28be b0bd 66bd afbd 5d85 343e 95d4 2f3c
00000060: 4b28 aabd 9b2b 9ebc 0690 81bd 5a4a 74bc
00000070: 6d90 09bd e335 363e fa5b 943d 80aa 113e
00000080: fe4e 143d 3bdc 7abd 1c97 d5bd bdfa c63c
00000090: ff03 923d 2471 3dbe 5c47 f93d 4924 29bb
000000a0: 0986 00bd ef45 413e 26f0 f5bb 7abb b3bd
000000b0: 31db 1d3d ec95 6a3d bdee fabd 4c7a c7bd
000000c0: ca65 253c f0de b43c 0960 003c ddb3 d7bc
000000d0: 3c68 203e b2e0 1bbd 3b55 61bd d621 8b3d
000000e0: 7619 4d3d ff74 d1bc 2c29 01be 8889 393d
000000f0: 98cb 45bc 8353 293c 1e0f e1bd 8c3e 073d
00000100: 4c59 b0bc ee78 7e3d 589a 2f3d 6413 e4bd
00000110: 8723 523c 5764 8b3d c989 e93c c1de a1be
00000120: 02e1 7e3c c882 913e 0194 efbd 64ab a2bd
00000130: 369e 3b3e a5b2 a1bc 3be9 bd3d 3998 16bd
00000140: 4020 b0bd 0ee2 82bd 3b3d 1b3c a707 9ebd
00000150: ff9e e0bc 2af5 23be 1754 18bd 1477 4cbd
00000160: 071b 213d 205d 68be 3733 053d 74b2 5e3d
00000170: 9771 6b3d 4b8f a73c 4920 b8bc 7aa2 2d3e
00000180: 3abb 5bbe 9b08 4ebe d31a 98bd e289 0b3d
00000190: 2148 4c3d 89cc 12be f893 94bd 384f 96bc
000001a0: 20a4 033c 6bb1 d1bd 99d9 59bc 7714 2dbc
000001b0: e6cb 583d 204f 7f3c 1b80 f8bd d5aa 04bd
000001c0: adae 673d 45c2 c43e 293a debc f9df 253c
000001d0: 52d9 633d d218 e9b9 4694 babd 0da9 603d
000001e0: 7043 93bc 9b3d 3f3c 291d 34bd efdf 69bd
000001f0: 9997 393d a000 27bd ffaf 8d3d 22ac a23b

classifier.3.weight f4 [5, 128]
0.11478747 -0.31166708 -0.98612875 -0.16648391 -0.21248694 -0.23772699 0.33557573 0.44090384
0.35187754 0.0063282466 0.26004934 -0.2099602 -0.63240457 -0.5817817 -0.22433542 0.18819292
0.17047815 -0.03648025 0.2719428 -0.5340784 -0.14767164 -0.21202011 -0.26761568 -0.12603857
-0.40836304 -0.24754557 0.45512274 0.046314556 -0.020545557 0.2671138 -0.43691352 -0.29865244
0.022305401 -0.04179754 -0.07855198 -0.20653255 0.49299452 0.74126166 -0.14648154 0.12728445
0.087256685 0.31606075 0.053593013 -0.52551323 -0.048091378 0.28430647 0.36089164 0.14703465
-0.13063937 0.05745886 0.03225514 0.045292716 0.48654327 0.16582125 -0.28769752 0.12840019
0.034515496 -0.43925607 0.29304504 0.08884647 -0.18488714 -0.17454652 -0.40703836 -0.09756494
-0.2522604 0.403716 -0.59586626 -0.08599863 -0.42959931 0.24691209 0.008878481 -0.7291535
0.009131974 -0.8543025 -0.49058914 -0.03165865 0.97833854 -0.64604473 0.19451152 0.10795383
-0.30754334 -0.29676008 -0.11802605 0.20806414 0.09211461 0.29740638 0.06671672 -0.09281759
-0.17634796 0.50676745 -0.21368279 0.07029897 -0.27939406 0.22953437 0.001650123 0.14107901
-0.4479568 -0.39409664 0.38975415 -0.111569375 -0.27585265 -0.15629597 0.30633804 -0.048024315
0.20393677 -0.12236127 -0.14148833 -0.10576238 0.1638148 -0.07175016 -0.039479524 0.26363388
0.11424384 -0.8740648 -0.098080836 0.023577007 0.13782918 0.0014906243 0.093561105 -0.5325005
0.23331721 -0.075800985 0.118018664 -0.5121157 -0.06952541 0.29212943 0.043074477 -0.17004594
0.14447916 -0.045352027 0.16669191 0.07544382 -0.04409496 0.18730618 0.14954259 0.015976822
-0.059196983 0.054475285 -0.4601917 0.0792653 0.14830768 0.16692062 0.022873867 -0.057217598
-0.1435323 0.001372926 -0.085016325 0.076417334 0.028653018 0.1831357 -0.117873326 -0.17876945
-0.23119082 0.12710637 -0.032077517 0.0058564055 0.017189536 -0.3915911 0.5321248 0.0038768193
0.06401048 -0.20281026 0.16949165 0.2381251 -0.54365015 -0.20002113 -0.042722296 0.08832932
-0.10930758 -0.11752913 0.026767544 0.15742607 0.09383305 0.02610341 0.07455158 -0.21079089
-0.022913406 0.09029776 0.056497015 0.13081749 -0.073273286 0.12399713 0.023644524 0.13186792
0.027199773 0.073426045 0.078521796 0.14824122 0.11300418 0.19081569 0.13698664 0.2124582
0.02453993 -0.11349634 0.14279728 -0.10916825 0.25790986 0.0102913575 0.032792468 -0.2281033
0.06583536 -0.84925497 0.11314255 0.06307123 -0.28481522 -0.09816243 -0.05830664 -0.052884202
-0.593787 0.23030247 0.28706658 0.012198668 -0.12368256 0.030182838 0.001291191 0.049985953
0.10716299 -0.011900513 -0.007456192 -0.15061398 0.11343674 -0.17934534 0.050019935 -0.19031061
-0.09912133 0.005660302 -0.09178043 0.009113994 -0.112264656 0.111411706 0.12023108 -0.151091
-0.3138131 -0.07181727 0.1573455 0.117986105 -0.22091687 0.57437867 -0.0425755 0.018085323
0.07602275 0.43335372 -0.12208463 -0.029786559 -0.09681741 -0.0039530424 -0.2893274 0.05030371
0.22181195 -0.03463822 -0.18846203 0.017194027 0.17062625 -0.21862918 -0.066360526 0.18238905
00000000: b115 eb3d d492 9fbe ef72 7cbf c27a 2abe
00000010: 2d96 59be b46e 73be 95d0 ab3e 26be e13e
00000020: 4b29 b43e 2e5d cf3b 3025 853e cfff 56be
00000030: 44e5 21bf a5ef 14bf 2fb8 65be a5b5 403e
00000040: d391 2e3e 516c 15bd 163c 8b3e 5db9 08bf
00000050: 3c37 17be cd1b 59be ec04 89be 4110 01be
00000060: f614 d1be 967c 7dbe d905 e93e 55b4 3d3d
00000070: 284f a8bc 24c3 883e 21b3 dfbe f9e8 98be
00000080: d1b9 b63c e633 2bbd dcdf a0bd 457d 53be
00000090: c769 fc3e 53c3 3d3f 42ff 15be db56 023e
000000a0: a2b3 b23d b7d2 a13e 5984 5b3d 0988 06bf
000000b0: 77fb 44bd 9e90 913e cac6 b83e 4090 163e
000000c0: 54c6 05be fb59 6b3d f71d 043d db84 393d
000000d0: 331c f93e 0ccd 293e 174d 93be 577b 033e
000000e0: 1f60 0d3d 2ce6 e0be 000a 963e 23f5 b53d
000000f0: 0e53 3dbe 53bc 32be 5567 d0be 21d0 c7bd
00000100: 4628 81be ddb3 ce3e b18a 18bf 0d20 b0bd
00000110: 71f4 dbbe 86d6 7c3e 0c77 113c cea9 3abf
00000120: 469e 153c 92b3 5abf 802e fbbe 80ac 01bd
00000130: 6574 7a3f 3063 25bf 072e 473e e616 dd3d
00000140: 5276 9dbe f0f0 97be a4b7 f1bd c40e 553e
00000150: 96a6 bc3d a645 983e c7a2 883d 2617 bebd
00000160: 8f94 34be 83bb 013f a9cf 5abe e8f8 8f3d
00000170: bd0c 8fbe 0f0b 6b3e f148 d83a 0477 103e
00000180: 985a e5be 09c7 c9be db8d c73e 7c7e e4bd
00000190: 8f3c 8dbe 0d0c 20be 57d8 9c3e 25b5 44bd
000001a0: cdd4 503e 8c98 fabd 51e2 10be f299 d8bd
000001b0: 11bf 273e bff1 92bd 48b5 21bd 05fb 863e
000001c0: adf8 e93d b6c2 5fbf 9bde c8bd 9124 c13c
000001d0: 1823 0d3e 0d61 c33a f79c bf3d f451 08bf
000001e0: b5ea 6e3e 8c3d 9bbd c5b3 f13d 041a 03bf
000001f0: 5763 8ebd fd91 953e dd6e 303d 8620 2ebe
00000200: 58f2 133e 0cc3 39bd 49b1 2a3e 4a82 9a3d
00000210: eb9c 34bd 31cd 3f3e b121 193e d3e1 823c
00000220: 8978 72bd 7a21 5f3d 3f9e ebbe d855 a23d
00000230: f8dd 173e 3ded 2a3e fa61 bb3c 005d 6abd
00000240: 22fa 12be c1f3 b33a 0a1d aebd b180 9c3d
00000250: bcb9 ea3c ed87 3b3e 9267 f1bd 570f 37be
00000260: 49bd 6cbe 2c28 023e b763 03bd 17e7 bf3b
00000270: 12d1 8c3c a17e c8be 5539 083f 3c12 7e3b
00000280: ed17 833d 7ead 4fbe 388f 2d3e 11d7 733e
00000290: a82c 0bbf 57d2 4cbe 93fd 2ebd 01e6 b43d
000002a0: a7dc dfbd 1db3 f0bd 9c47 db3c 4d34 213e
000002b0: 8b2b c03d d2d6 d53c 80ae 983d 91d9 57be
000002c0: e5b4 bbbc 08ee b83d 6a69 673d 05f5 053e
000002d0: 4e10 96bd 35f2 fd3d 29b2 c13c 6208 073e
000002e0: 0fd2 de3c 6560 963d 09d0 a03d 8ccc 173e
000002f0: bc6e e73d 3065 433e 3a46 0c3e a48e 593e
00000300: f707 c93c c570 e8bd 7339 123e 9a93 dfbd
00000310: c30c 843e 159d 283c 6551 063d e993 69be
00000320: b0d4 863d c668 59bf 48b7 e73d 7d2b 813d
00000330: 4dd3 91be 6209 c9bd f1d2 6ebd 1b9d 58bd
00000340: 6d02 18bf 69d4 6b3e 64fa 923e ecdc 473c
00000350: 484d fdbd 0042 f73c 2e3d a93a 12be 4c3d
00000360: 4578 db3d 5ffa 42bc 1253 f4bb 8d3a 1abe
00000370: 8651 e83d 4ea6 37be b4e1 4c3d c9e0 42be
00000380: 2000 cbbd 0e7a b93b 61f7 bbbd dd52 153c
00000390: 03eb e5bd d22b e43d b63b f63d 99b7 1abe
000003a0: 1cac a0be ef14 93bd 2e1f 213e b3a2 f13d
000003b0: 0838 62be 7b0a 133f a663 2ebd ac27 943c
000003c0: d1b1 9b3d 8ae0 dd3e 8207 fabd f102 f4bc
000003d0: 3548 c6bd 8688 81bb b922 94be 430b 4e3d
000003e0: ac22 633e cee0 0dbd 31fc 40be 7dda 8c3c
000003f0: a6b8 2e3e 54e0 5fbe 07e8 87bd 32c4 3a3e

classifier.3.bias f4 [5]
-0.07147006 0.040806085 0.16464141 0.089350246 -0.31605858
00000000: e55e 92bd 4824 273d c297 283e 43fd b63d
00000010: 6ed2 a1be

momentum_buffer f4 [16, 1, 3, 3]
1.3082255e-05 9.699713e-06 3.339934e-05 -1.123511e-05 -2.623095e-05 2.9271155e-06 -1.6937327e-07 -1.0380332e-05
4.814905e-06 1.8976141e-05 -4.863633e-07 7.1768394e-05 -2.5519148e-05 -9.071731e-05 -2.547027e-05 9.555212e-05
-4.8684296e-06 -1.4869267e-05 4.1845788e-06 -3.748763e-05 7.775726e-05 -5.8327605e-05 -0.00013835958 -0.00010062682
0.00022113186 7.087626e-05 -5.9156164e-06 -4.585052e-06 -1.6986798e-05 -2.0568803e-05 -1.2771252e-06 -1.8484607e-05
-2.0994905e-05 -2.6760092e-06 -1.2485164e-05 -1.39237945e-05 -4.934626e-06 -3.0630963e-05 1.7981625e-05 -2.9246182e-06
-5.2460386e-05 -1.14436e-05 6.368711e-05 1.7134358e-06 -3.148368e-06 5.376701e-05 -1.0595152e-05 3.703967e-05
5.2323296e-05 -7.788607e-05 -5.0434097e-05 0.0002088366 6.145333e-05 3.9263407e-05 -8.6036576e-05 -5.5128153e-06
0.00013853953 -8.521291e-05 -5.0024893e-05 8.476673e-05 1.3279038e-05 7.5462485e-06 9.719941e-05 1.6645938e-05
1.5805552e-06 4.1440988e-05 -9.131542e-06 -4.2509488e-05 -7.641005e-07 6.204722e-06 -1.4381697e-05 5.091104e-06
-3.737003e-06 -1.6543356e-06 4.3318563e-05 -1.798535e-05 -3.2569642e-05 7.456621e-06 5.1308793e-06 -1.1400281e-05
9.00007e-06 0.0006648146 0.00039774473 0.0002452218 0.00050561235 0.0003098435 0.00024676032 0.0002865981
0.0002511608 0.0002496065 2.4135445e-06 -1.6456597e-05 4.599898e-05 -3.0674233e-05 -0.00015071475 -7.2881296e-05
0.00014782246 2.4956576e-05 -1.2915505e-05 -1.8759776e-05 -4.495988e-06 8.5570384e-05 -2.960212e-05 -3.132646e-05
4.05658e-05 2.466626e-05 2.143689e-05 5.302514e-05 -4.604947e-05 -9.327694e-06 0.00014833777 -7.517592e-05
-5.6549216e-05 2.7952077e-05 1.4576359e-05 -2.3864297e-07 1.691807e-05 9.2210146e-05 -7.9125704e-05 -0.00011212307
3.5689878e-05 -9.013864e-05 -0.00011230588 3.640774e-05 -8.088329e-06 -2.803816e-05 -2.0442418e-05 -1.24215485e-05
3.3662673e-05 -2.1201513e-05 -2.3410892e-05 6.0703946e-06 4.497738e-06 -7.1261506e-06 6.12581e-06 2.2302682e-05
-9.4111914e-05 -1.4319838e-05 5.190819e-05 -7.809349e-05 -2.469557e-05 0.00028758612 0.00011618783 1.8903458e-05
00000000: db7b 5b37 f3bb 2237 4516 0c38 6e7e 3cb7
00000010: 890a dcb7 766f 4436 f8dc 35b4 3027 2eb7
00000020: b88f a136 f42e 9f37 a28e 02b5 5d82 9638
00000030: f411 d6b7 7c3f beb8 fda8 d5b7 2763 c838
00000040: 7e5b a3b6 0477 79b7 4269 8c36 093c 1db8
00000050: 9c11 a338 caa4 74b8 9e14 11b9 9d07 d3b8
00000060: a2df 6739 67a3 9438 c27e c6b6 4cd9 99b6
00000070: df7e 8eb7 2b8b acb7 b069 abb5 640f 9bb7
00000080: 371e b0b7 7d95 33b6 5f77 51b7 3e9a 69b7
00000090: 1d94 a5b6 bf79 00b8 3fd7 9637 8f44 44b6
000000a0: e908 5cb8 e3fd 3fb7 c28f 8538 35f9 e535
000000b0: 8d48 53b6 e383 6138 d5c1 31b7 0b5b 1b38
000000c0: b675 5b38 c456 a3b8 3389 53b8 26fb 5a39
000000d0: 81e0 8038 c3ae 2438 896e b4b8 b9fa b8b6
000000e0: ec44 1139 55b4 b2b8 d2d1 51b8 cbc4 b138
000000f0: 09c9 5e37 c835 fd36 89d7 cb38 e1a2 8b37
00000100: 7723 d435 ecd0 2d38 ad33 19b7 374c 32b8
00000110: 961c 4db5 2832 d036 eb48 71b7 40d4 aa36
00000120: 39c9 7ab6 8a0a deb5 f4b0 3538 3fdf 96b7
00000130: 639b 08b8 e333 fa36 eb29 ac36 d643 3fb7
00000140: 02ff 1637 f446 2e3a 6588 d039 1d91 8039
00000150: 128b 043a 7e72 a239 9c5f 8139 8c42 9639
00000160: 3bae 8339 9edd 8239 61f8 2136 460c 8ab7
00000170: 07ef 4038 35a8 00b8 2f09 1eb9 d9d7 98b8
00000180: ca00 1b39 d759 d137 acaf 58b7 505e 9db7
00000190: 3edc 96b6 4074 b338 1252 f8b7 8864 03b8
000001a0: 3225 2a38 64ea ce37 5fd3 b337 4f67 5e38
000001b0: 3e25 41b8 247e 1cb7 1e8b 1b39 c4a7 9db8
000001c0: 422f 6db8 a17a ea37 fc8c 7437 d71e 80b4
000001d0: 47eb 8d37 f260 c138 4af0 a5b8 9d23 ebb8
000001e0: b7b1 1538 d008 bdb8 c385 ebb8 83b4 1838
000001f0: 1cb3 07b7 7d33 ebb7 c27b abb7 2566 50b7
00000200: 0531 0d38 e7d9 b1b7 8262 c4b7 4bb0 cb36
00000210: 46eb 9636 2b1d efb6 4f8c cd36 a516 bb37
00000220: f35d c5b8 3c3f 70b7 ffb7 5938 20c6 a3b8
00000230: 5529 cfb7 28c7 9639 dea9 f338 de92 9e37

momentum_buffer f4 [16]
8.6067224e-08 2.3501535e-07 -1.2913524e-06 3.610958e-08 1.829324e-07 6.320685e-07 -5.1282666e-07 -3.7199476e-07
-2.5063403e-07 -7.692292e-07 -1.9517022e-06 7.362984e-07 2.5078714e-07 -1.2808215e-07 2.230902e-07 8.1091565e-07
00000000: f5d3 b833 8758 7c34 8852 adb5 e716 1b33
00000010: 136c 4434 6bab 2935 2ea9 09b5 92b6 c7b4
00000020: e18e 86b4 077d 4eb5 fdf9 02b6 0aa6 4535
00000030: eca3 8634 f486 09b4 918a 6f34 b3ad 5935

momentum_buffer f4 [16]
3.0988707e-05 -0.0009914953 -0.0005789175 4.7778292e-05 -0.0010140494 -0.00064607203 -8.2035964e-05 -0.00011647701
-7.600433e-05 0.00045573062 -0.0006989538 -0.00019001651 -9.4623385e-05 0.00046354407 -5.5388893e-05 -0.00057963777
00000000: dff9 0138 10f5 81ba 7fc2 17ba 8d65 4838
00000010: dae9 84ba 295d 29ba b90a acb8 1e45 f4b8
00000020: 8464 9fb8 21ef ee39 ff39 37ba 2b3f 47b9
00000030: 8b70 c6b8 d507 f339 5f51 68b8 d5f2 17ba

momentum_buffer f4 [16]
-0.00040216988 0.0003395931 0.0005997138 6.3710184e-05 0.00015316874 0.0006026705 -0.0007886659 -0.00054267346
-0.00054236327 -0.00020087714 0.00059088174 -0.0006014633 -0.0005027487 7.9043704e-05 -0.00093858264 0.00060310063
00000000: 54da d2b9 6a0b b239 1d36 1d3a 259c 8538
00000010: ec9b 2039 88fc 1d3a 79be 4eba 3342 0eba
00000020: 622d 0eba 8ca2 52b9 67e5 1a3a 85ab 1dba
00000030: e5ca 03ba 44c4 a538 370b 76ba 6619 1e3a
