models/epoch=4-step=125-v1.ckpt (torch, 800661 bytes, 38 tensors)

backbone.0.weight f4 [16, 1, 3, 3]
00000000: 4d7b a43e 6a65 a83e 2a66 413e 2941 84be
00000010: 2681 193d 0e39 193e d6d6 23be 148b 563e
00000020: 3bc2 373e b0da 0fbe 13bf 71bd d8de 91bd
00000030: ec61 a4be b3ee 8ebe 9faa 1c3e 0bc9 3d3e
00000040: 7c3d d93d 7f07 523e 1a48 6e3d d1d5 393e
00000050: 4886 883e 463b 4fbd 127f 2ebe c567 cdbc
00000060: 9504 2f3e 2b79 1abd cb90 5bbd bd51 3fbe
00000070: a4d7 2b3e 5940 c43c 407a dfbd 009c 493e
00000080: dd08 9a3e 114f 57be 7114 47be 1806 acbc
00000090: 20e2 07be 2023 9a3e e04f 30be 51c1 89be
000000a0: 78b5 cebc dbcb e13d 1b8a 9cbe c0ac c3bd
000000b0: 4406 ddbd d31f 3bbe 77a6 ccbd 4f28 443e
000000c0: 21ef 8bbd 7ecb e2bd cdc4 47bd 232a 0c3e
000000d0: 6f45 8ebe 5664 823d adc4 9fbe 4e2b 6f3e
000000e0: e02c b33c 7eb1 d4bb 21ac 8cbb 80ff 9f3d
000000f0: 3973 da3d fd3e 21be 1c53 713e de29 b1be
00000100: c942 5b3e a393 84be 94b8 fb3d 4561 8e3d
00000110: 5b08 603e 6966 8e3d 5b41 a13e f1d8 77be
00000120: 4d1d 283e ff98 683e 5b80 1ebe c633 96bd
00000130: 7fb7 14be 4208 a13e dfd9 62bd c957 80be
00000140: a9b5 9d3e 3c36 523c c85a 733e ab3f 2d3e
00000150: 9569 3cbe 479c d23d 05ee 48be c7ff a3bd
00000160: bd15 983e d0e6 ce3a d07c a5be 929b 63be
00000170: b348 853d 7700 983e fed1 97bd 5b05 6abe
00000180: 7f87 9d3e 4a4a 1d3e 9d82 e7bd 56d9 653c
00000190: 3de6 9fbe 2c4e 7f3e 7b72 ff3d 6d0e a6bd
000001a0: 9129 7ebd 9754 03be ad70 39be 0c70 28bd
000001b0: 7996 7fbe 222b 76be e830 773e 8730 633e
000001c0: 3128 69be cac2 643e 02ea 94bb d86b a63e
000001d0: 6a4b 973d 2708 66be f5ec 3dbe 2837 a2be
000001e0: eb78 593d f75f 993e 128f d6bd f603 81be
000001f0: 5941 97be 1c97 d83c 0422 9b3e ab81 51be
00000200: 3f93 903e e9ed 63bd b7c1 fb3d f3b1 66be
00000210: aa54 ff3d 06fc c2bd 876c 4e3d 5135 9d3e
00000220: 1c67 a73e e40d 4bbe a578 30bd 3cbc a03e
00000230: 3e4b 73be ec2c fd3c 3943 883e 1b3c 88be
0.3212532 0.32889873 0.18886629 -0.25830963 0.03747668 0.14963171 -0.15999922 0.20951492
0.17945187 -0.14048266 -0.059020113 -0.07122582 -0.32105958 -0.27916488 0.15299462 0.18533723
0.1060743 0.20510672 0.05817423 0.1814797 0.26664948 -0.050593637 -0.17040661 -0.025073895
0.17091592 -0.03771321 -0.053604882 -0.18683524 0.16781479 0.023956465 -0.10911989 0.19688416
0.30084887 -0.21026255 -0.19441392 -0.020999 -0.13269854 0.30104923 -0.1721797 -0.269053
-0.025233015 0.110252105 -0.30574116 -0.09554434 -0.10792211 -0.18273859 -0.09992688 0.19156002
-0.068327196 -0.11073969 -0.04877167 0.13687949 -0.2778735 0.06366794 -0.3120474 0.23356363
0.021871984 -0.0064908853 -0.0042929803 0.07812405 0.10666508 -0.15746684 0.2356686 -0.34602255
0.21412195 -0.25893888 0.12291065 0.069521464 0.21878187 0.06953127 0.31495175 -0.2420385
0.16417427 0.22714613 -0.15478651 -0.07334094 -0.14523123 0.31451613 -0.05538356 -0.25066975
0.30802658 0.012830313 0.23765099 0.16918819 -0.18399651 0.10283714 -0.19622047 -0.0800777
0.29704085 0.001578534 -0.32321787 -0.22227314 0.06508007 0.29687855 -0.074131 -0.22853605
0.30767438 0.1536037 -0.113042094 0.014028868 -0.31230345 0.24932164 0.12473007 -0.0810822
-0.06205136 -0.12825237 -0.18109389 -0.04112248 -0.24959745 -0.24039891 0.2413975 0.2218648
-0.22769238 0.22339931 -0.0045444975 0.32504153 0.07387431 -0.22464047 -0.18547423 -0.31682706
0.053093832 0.29956028 -0.10476507 -0.25198334 -0.29542044 0.026439242 0.3029939 -0.2045962
0.2823734 -0.05564681 0.122928075 -0.2252882 0.1246732 -0.09520726 0.05039647 0.3070474
0.32695854 -0.19829518 -0.043083806 0.3139361 -0.23759171 0.03090521 0.26613787 -0.26608357

backbone.0.bias f4 [16]
00000000: fe96 1f3e f9c3 a93e ecf4 723e 0f72 8cbd
00000010: 6be7 233e 2d65 0b3d f8fc 4dbd 8ffb 563c
00000020: 99ee 5cbe bcee 86bd 0563 42bc dd66 4a3e
00000030: 9bcf 1d3e 0519 54be 3c34 19be 8095 0a3d
0.15584943 0.33157328 0.23726243 -0.068576925 0.16006248 0.034032036 -0.050290078 0.0131215
-0.21575393 -0.06588504 -0.011864428 0.19765802 0.15411226 -0.20712669 -0.14961332 0.03383398

backbone.1.weight f4 [16]
00000000: 48e4 7e3f b19b 7c3f 4faf 803f 1dab 823f
00000010: 4573 7f3f d070 7f3f 271f 803f a063 803f
00000020: 27f1 803f 7d4e 803f 8750 7e3f fb7c 7e3f
00000030: a620 803f a7d2 7f3f 2f67 7f3f 5813 7f3f
0.9956708 0.98675066 1.00535 1.020847 0.9978526 0.99781513 1.0009507 1.0030403
1.0073594 1.0023953 0.99341625 0.99409455 1.0009964 0.99930805 0.9976682 0.9963889

backbone.1.bias f4 [16]
00000000: 7706 a6bb 2ec4 e4bb 84e8 b2b8 bf6d bdbb
00000010: 1f58 88bb 0bb0 e8bb eeb5 2a3b 5027 b2ba
00000020: e55e a33b 2c55 af39 280d 8ebb a49c bdbb
00000030: 80a8 f4ba 1031 c0bb d27c 1bbb bce5 583b
-0.0050666886 -0.0069813943 -8.531011e-05 -0.005780905 -0.0041608955 -0.007101064 0.002604838 -0.0013592038
0.0049856775 0.0003344206 -0.0043350644 -0.0057864953 -0.001866594 -0.0058652237 -0.0023725522 0.0033095917

backbone.1.running_mean f4 [16]
00000000: a555 723f 3a03 1c3e ef3f de3e 22b3 d6bc
00000010: 01ae cbbe 7f97 8bbe fd56 b53d afbc 273e
00000020: 1eda 413d da5c 663e 10c3 dbbd d22a 0bbe
00000030: 5fb6 e33e 29c9 7fbf c98d b23d 3f1f d63e
0.94661933 0.15235606 0.43408152 -0.026208464 -0.39781192 -0.2726402 0.08854482 0.16380571
0.047327153 0.22496358 -0.107305646 -0.13590553 0.44475076 -0.9991632 0.087184496 0.41820714

backbone.1.running_var f4 [16]
00000000: 3591 a13d fadd c83b b87e b83b 0d43 2f3b
00000010: 7912 213d d7c0 493c 1972 493b 95b1 833b
00000020: eca3 193c 87fe 323c b19c 6f3b 6b48 6a3c
00000030: 244f 443c ec96 9d3d fcca e83b 2d79 ac3c
0.07889024 0.0061299773 0.0056303404 0.0026742846 0.039324258 0.012314043 0.0030738174 0.004018972
0.009377461 0.010924942 0.0036561901 0.014299492 0.011981759 0.07694802 0.0071042757 0.021053875

backbone.4.weight f4 [32, 16, 3, 3]
00000000: 941c 353d c48e 8d3c d5ee 1f3d f4e6 5c3d
00000010: 2b17 323d 8e6a a4ba 518c bbbc c440 0a3d
00000020: 2aac 1e3d c0d7 03bd 1467 96bb cff0 4cbc
00000030: 610e f83c fac8 4b3d b9b8 5bbd 75c8 6e3d
00000040: 4956 1cbd 1055 1d3d a6de a2bd 5e01 9dbd
00000050: e9a4 fa3a 42a5 24bd dbfb 33bd 77d9 8a3d
00000060: 6efd 343d 807d 79bd ec92 933d 7ca8 c2bc
00000070: 6551 b73c edc9 ce3d 9d81 d5bc f24f 87bd
00000080: 8cd6 b3bc 83c9 513d bcbe 9dbd 96b9 10bd
00000090: e89c 31bd ea25 05bc 31c2 3c3d 4d62 733d
000000a0: 163c 51bd 41b2 e13c 96be 443c f4de 81bd
000000b0: d22d 9f3d ac7c a6bc 33b7 44bd 3fa2 023d
000000c0: 408a c13b a044 82bd 6b35 303c a55d 053d
000000d0: e57a 0f3d 33e8 183d af98 a1bd 73cc 62bc
000000e0: 56bf 843d 6cef 3cbd f904 5abc cb21 b93c
000000f0: a736 383d 234f 74bc 83bf 833c 832e 24ba
00000100: c8f9 993d c8ce b43c 70fd 99bd 72e8 8abb
00000110: 37ed 72bd d3a8 90bd efd6 6e3d 2646 643c
00000120: 5eb9 62bd 7044 063c 1e1d 45bd 40ec 133d
00000130: a26f db3c 33df a33d 3bdd a13d 0ddd 6f3b
00000140: 2875 2e3c b27a ab3d 7d0a a83d 9438 993d
00000150: cdd5 c5bc 0696 72bd 8c18 a2bd 1881 5a3d
00000160: 9697 9cbd 6641 683d 65b2 26bd 4f92 c6bc
00000170: 6162 a13d 3982 0ebd 1418 843d 0f7c 143d
00000180: dcbc 8fbd 384c 743b 0a2b 943d 025d 7f3c
00000190: 9a14 503d 2692 29bd 5823 8a3d d9f8 643d
000001a0: 90f5 8fbd 8fd0 f0bb e672 4c3c 97df 343c
000001b0: b4c2 5dbc 42ae 9bbd 95df 4abc b450 9cbd
000001c0: 857c 28bd 80c6 f93c 276a 87bc 015a 71bc
000001d0: 80e6 863d fdb7 6dbd aa9f 88bd 01f7 883d
000001e0: 65df d03c bab0 873c 0a86 573d be73 093d
000001f0: 2765 0d3d d245 313d 207c 043c 65e3 fdbc
00000200: 77fd 80bd 4886 ac3d 7644 903d d4c2 853d
00000210: ad79 83bc fadf ad3d c794 6fbc f5b1 3d3c
00000220: 1b1a 28bd 0878 553d 6a49 4ebc 36ee 23bd
00000230: d2f5 74bd bc08 943d 5fec c73c ac01 943b
00000240: ac38 40bd 481a 43bd 2a47 7dbd c56f a53c
00000250: bba1 4c3d fd51 e43b a04d 083c 5b4f cc3c
00000260: 6b92 693c ddef 8abc 50d1 9abd d53d 82bc
00000270: ebf3 71bd 0f3b abbd 410c f33b c79a 2b3c
00000280: 69d8 c0bc fab7 20bd c596 7e3d f278 7ebd
00000290: 5a59 923c 0959 753d d60e 013d d07c 4cb6
000002a0: 0adf 30bd 491f dabb a45a f6bb 590e 48bd
000002b0: f790 1e3d 5556 f03c 583c 8a3c ac9a 2c3d
000002c0: 1273 03bd 8178 163d 814e 883d fd94 3fbd
000002d0: 6091 943d 19a0 e53c 80b4 e83c 88f4 893d
000002e0: dd1f 403d 77f0 2e3d 85b6 33bd b82e 743c
000002f0: 6bbb 98bd 26b7 e63c f3e5 75bb dd8e d0bc
00000300: 9e83 1ebd c9f5 2b3d 4a02 9c3d edd0 abbc
00000310: b1dd 623d f75a 043d 0765 ba3c 7db3 babc
00000320: 2d05 33bd ad3c 303d cc7f 8d3d c911 08bd
00000330: 4cc5 81bd 098f 81bd 2cc1 81bd be77 81bd
00000340: a507 a5bd 74f3 82bd bee6 e8bc fb86 77bd
00000350: d105 2cbd 7fb4 07bd 69cf 7f3d 9c7c 243c
00000360: e809 02bd b6ff c93c f202 4abd d93f 3cbd
00000370: cd2e 99bc 8deb 64bd 5d9a 40bd 5e57 aa3d
00000380: 7fc3 403d 7dd4 84bb f14a 7dbd 189e 2ebd
00000390: 1346 f5bc 83ab 383d f181 a6bb a9c8 7c3d
000003a0: da2f a33d 5362 51bd 9023 df3b 04ab 573d
000003b0: 5ad6 a9bc d8fa 813b df79 38bd 498c 913c
000003c0: 3a5c 1dba c129 8ebd 5615 893d 08d1 81bd
000003d0: ac4b b03c 1245 3c3d c913 89bd 19a5 1ebd
000003e0: 1411 913d 8412 783d de11 733d 018f 52bd
000003f0: 69b5 503d dd74 4cbd daa7 8d3d 27c4 1dbc
0.044216707 0.01727999 0.039046127 0.05393119 0.043479126 -0.0012543963 -0.022894057 0.03375317
0.038738407 -0.032188177 -0.0045899246 -0.012508585 0.030280294 0.049752213 -0.053642962 0.05829664
-0.038168225 0.0384112 -0.07952623 -0.076662764 0.0019122633 -0.040196665 -0.04394136 0.067797594
0.044187002 -0.0609107 0.072057575 -0.02376198 0.02237768 0.10097108 -0.026062781 -0.06607045
-0.02195289 0.051217567 -0.07702395 -0.03533324 -0.043362528 -0.008126715 0.046083633 0.05941992
-0.051082693 0.027550818 0.01200833 -0.06341353 0.077724114 -0.02032312 -0.048026275 0.03189301
0.0059063733 -0.063607454 0.010754923 0.03256001 0.03502931 0.037330817 -0.0789045 -0.01384269
0.06481807 -0.046126768 -0.01330685 0.022599122 0.044973996 -0.014911446 0.01608253 -0.00062630343
0.07518345 0.022071257 -0.075190425 -0.0042391354 -0.059308257 -0.07063451 0.058310445 0.01393274
-0.05535256 0.008195028 -0.04812347 0.036113977 0.02678663 0.08001556 0.079035245 0.0036600262
0.010648049 0.08373012 0.082051255 0.074814945 -0.0241498 -0.059225105 -0.07914838 0.05334577
-0.076461 0.056702994 -0.040697474 -0.024239687 0.078800924 -0.03479216 0.06449905 0.036251124
-0.07018444 0.0037276875 0.072347715 0.01558614 0.050800897 -0.041399144 0.067450225 0.055901382
-0.07029259 -0.007349081 0.012478566 0.011039636 -0.01353519 -0.076015964 -0.012382408 -0.076325804
-0.041134376 0.03049016 -0.01653011 -0.014730931 0.06586933 -0.058036793 -0.066710785 0.06687737
0.025497148 0.016563762 0.052618064 0.033557646 0.034520295 0.043279476 0.008086234 -0.03099222
-0.062983446 0.084240496 0.07044308 0.06531301 -0.01604923 0.08489986 -0.014622874 0.011578073
-0.04104052 0.052116424 -0.012590745 -0.040022098 -0.059804745 0.072282284 0.024404703 0.004516801
-0.046929047 -0.047632486 -0.061835445 0.020194897 0.049958926 0.0069677816 0.0083192885 0.024940183
0.0142561 -0.016960079 -0.075594544 -0.015898624 -0.05907051 -0.08360874 0.0074172323 0.0104739135
-0.023540692 -0.039237954 0.062155504 -0.06212706 0.017864872 0.059899364 0.03150829 -3.047102e-06
-0.043181457 -0.0066565615 -0.0075181294 -0.048841808 0.038712468 0.029338041 0.016874477 0.042139694
-0.03209216 0.036736015 0.066555984 -0.046772946 0.072542906 0.028030442 0.028406382 0.06736094
0.046905387 0.042709794 -0.043875236 0.014903717 -0.07457622 0.028163504 -0.0037521094 -0.025458748
-0.03869974 0.041982446 0.07617624 -0.020973647 0.055387203 0.032313313 0.022753252 -0.022790665
-0.043706108 0.043026615 0.06909141 -0.033220086 -0.063364595 -0.0632611 -0.06335673 -0.06321667
-0.08058099 -0.06394091 -0.028430339 -0.06043146 -0.041997734 -0.03313112 0.06245366 0.010039475
-0.03174773 0.024658065 -0.049319215 -0.045959327 -0.018699074 -0.0558887 -0.047022212 0.08317445
0.04706144 -0.004053651 -0.061839048 -0.04263124 -0.02994064 0.04508544 -0.005081408 0.061714802
0.07968111 -0.05111916 0.0068096593 0.052653328 -0.020732094 0.0039666705 -0.0450381 0.017767088
-0.00060028175 -0.06941558 0.06693523 -0.06338698 0.021520458 0.045964308 -0.06693227 -0.03873167
0.070833355 0.060564533 0.05934321 -0.05140591 0.050954256 -0.049916137 0.06916781 -0.009629286

backbone.4.bias f4 [32]
00000000: 7ae5 833d 1515 a9bc d5ae 2eba 9ecf 73bd
00000010: 328d 9ebd a4bd a83c d7b3 7abd 041d e23c
00000020: b33b 79bd 2c7d d9bc 2315 f6bc b7ea 49bd
00000030: 802c a73d 4581 823d c10e 9abd 1831 78bd
00000040: 8f2d 4ebc a93f 80bd 2dc7 d13c 0fe2 a73c
00000050: 72a2 383b 99fd 893d 4641 ac3c 3bee 6d3d
00000060: c301 84bd c2ae 99bc cef3 b9bb f27c 283d
00000070: 9d3b 8d3d d3ee 9e3d 6d6d 9c3d 6b32 c9bc
0.064402536 -0.020639936 -0.0006663625 -0.05952417 -0.077417746 0.02059824 -0.061206665 0.027601726
-0.06084795 -0.026548944 -0.030039376 -0.049296107 0.081627846 0.063723125 -0.07522345 -0.060593694
-0.012584104 -0.06262142 0.02560767 0.020493535 0.0028172997 0.06737823 0.021027219 0.058088522
-0.064456485 -0.018760089 -0.0056748157 0.041134782 0.06896136 0.07760396 0.07638059 -0.024560174

backbone.5.weight f4 [32]
00000000: b153 7f3f 8b81 7f3f 8f9f 7f3f 4118 813f
00000010: 85a0 7f3f 2715 803f 7cfc 803f df3a 803f
00000020: 833b 803f 8722 803f 877e 7e3f 700e 803f
00000030: b9b8 803f 25c2 7e3f e2bd 803f d322 7f3f
00000040: eaea 7f3f ebec 7f3f c537 803f 123e 7f3f
00000050: df5c 7f3f 1c0c 803f 0f5d 803f 47d2 7e3f
00000060: 765a 7e3f ac49 803f 6985 7e3f c136 803f
00000070: 2589 803f c5d0 7f3f b446 7f3f af2e 803f
0.9973708 0.9980704 0.9985284 1.0085527 0.9985431 1.0006455 1.0077052 1.0017966
1.0018162 1.0010537 0.99411815 1.0004406 1.0056373 0.9951499 1.0057948 0.9966251
0.99967825 0.99970883 1.001702 0.99704087 0.99751085 1.0003695 1.0028399 0.9953961
0.9935678 1.0022483 0.9942232 1.001671 1.0041853 0.9992793 0.9971726 1.0014247

backbone.5.bias f4 [32]
00000000: 6b9f dcbb 7dda 50bb 3f7b a9ba 19ac acbb
00000010: b07f 4c3b 8cf0 a0ba 02ed 9f39 7754 fe3a
00000020: f520 353a 6174 9bbb 15bf 13ba 4c54 0dbb
00000030: e27d b539 f206 1438 a10c dbbb 411b bbbb
00000040: bc7e 8a3a 6a65 df38 d830 cbb9 6113 c0b9
00000050: de63 2dbb dbe7 61b7 2c50 cbb9 a52f c4b8
00000060: 17bb 99bb 5f0c 8bb9 e162 61bb e69b b9b9
00000070: aa4d b739 63a0 55ba 0f37 e6ba 39e5 67b9
-0.0067328713 -0.003186851 -0.0012930407 -0.005269539 0.0031204037 -0.001227872 0.00030503428 0.0019403835
0.0006909513 -0.004744098 -0.00056360784 -0.0021565137 0.000346168 3.5292418e-05 -0.006684855 -0.005710036
0.0010566334 0.000106523585 -0.0003875557 -0.00036635532 -0.002645723 -1.3465028e-05 -0.0003877891 -9.354883e-05
-0.0046914923 -0.00026521363 -0.0034391212 -0.00035402103 0.00034962344 -0.00081492047 -0.0017564016 -0.00022115269

backbone.5.running_mean f4 [32]
00000000: ffe4 e63e 161c cfbd e5b9 393e 47e5 c73e
00000010: 370f 08bf b97f d7be b49e 4dbe e213 53be
00000020: 7b91 073d f2e2 6d3f 9791 2fbc 929f a53e
00000030: 3691 11bf 982f 9cbe 10a2 713f 7df6 b23e
00000040: 0e08 55be ba68 41bf 8694 d73e 2de7 3abf
00000050: 1cd0 413e 88fe 95be 2f35 c13e d412 65be
00000060: 4382 02be 59b4 8b3d c36a 7c3e 9853 5e3e
00000070: 9d5b 973e c4ab adbb ec91 7ebe 4be4 73be
0.45096585 -0.10112779 0.1813732 0.39042112 -0.53148216 -0.42089632 -0.20080072 -0.20613053
0.033097725 0.92924416 -0.010715864 0.32348305 -0.568622 -0.3050506 0.9438791 0.3495368
-0.20803854 -0.75550425 0.42105502 -0.73008996 0.18927044 -0.29295754 0.37735888 -0.22370464
-0.12745003 0.06821508 0.24650101 0.21711576 0.29562083 -0.005300017 -0.24860352 -0.23817556

backbone.5.running_var f4 [32]
00000000: a627 d93d 7c83 153e 7733 363e 8ab4 e93d
00000010: 51f6 e73d 2890 233e e480 663d 1aab f63d
00000020: b2f8 363e bf4a 6f3e 94bc fb3d 417a 603e
00000030: 253a ae3d 388a 933d 0259 173e 56f4 373e
00000040: 0115 d33d 467e a03d b9ac 303e ff75 7c3e
00000050: 766b a33d 24cd e63d 8840 6a3e 5bd7 733e
00000060: db7a c23d 6810 0c3e 3a33 013e 1794 083e
00000070: 6e1e d63d 370a ba3e b106 a03e 1046 0c3e
0.106032655 0.14600939 0.1779307 0.11411388 0.11326278 0.1597296 0.056275263 0.12044354
0.17868307 0.23368357 0.12291828 0.21921636 0.08507184 0.072040975 0.14780048 0.179643
0.103067406 0.07836585 0.17253388 0.24654387 0.07979481 0.11269596 0.22876179 0.2381262
0.09496089 0.13678133 0.12617198 0.13337742 0.10455023 0.36335918 0.31255105 0.13698602

backbone.8.weight f4 [64, 32, 3, 3]
00000000: 2dc6 f53b 6b95 69ba 12fd 0fbd 0762 263c
00000010: 7531 29bd a351 e83b 5801 a0bc b7c7 c53a
00000020: a4f0 24bd 5bf6 253d 0129 133d 7e68 65bd
00000030: fac3 623d fb69 6fbc e5fc 20bd 42ba 02bd
00000040: 8a15 f9bc bdd5 57bd 1b79 8f3c 559d 4cbd
00000050: a589 1dbd 8fbd 1e3d b223 1c3d a18d 50bd
00000060: c9dc 9a3c bc6a fbbc fa6e f73c c820 583d
00000070: e1e8 36bd 7155 d13c e8d5 0bbd 2b0a ccbc
00000080: 1f0b 263d 398a 38bd c817 15bd 0789 1ebd
00000090: e5d6 153d 74aa 0cbd d22f 563d f25c 37bd
000000a0: 20b1 4c3d 469f ce3b 08ef 523c b46e 28bd
000000b0: 395b 2bbd e296 523d 1d88 033c 2924 823b
000000c0: 8225 af3c ad0e cdbc 62aa 5b3d 644e 833d
000000d0: f776 f73b 2b66 693d 7225 303c 8b7d 103d
000000e0: a084 acbb 8167 ce3c 9cdd 30bd 7c00 a73b
000000f0: 8a2e df3b 8443 1d3c 97be fdba 64c6 b1bb
00000100: f930 eb3c 1cdb 6d3c 84c5 f2bb e310 51bc
00000110: 23be 123d 9b8b 6bbd 40a9 0cbd 275e 2bbd
00000120: 6d2f debc ffcf 803c 20d3 52bd 8eed bfbc
00000130: f9fe 8c3c 4835 c43c aad4 2dbd d4aa 543d
00000140: 0ae3 f93c 6606 523c e57e c8bb d96d 49bd
00000150: dd33 35bd 5ce8 d7bc 0714 d5bc 63ef 883c
00000160: 94f7 e33c d00b 443d 0885 3d3c 1fa2 e13c
00000170: d292 9a3b f908 8d3c 7771 f53c f5cc 09bd
00000180: d6ef 07bd 18b9 1fbd 1c62 a63c 5fe0 29bc
00000190: 8426 c4bc 72ac 633d 0635 633b 0b0e 27bd
000001a0: 1574 d93c d7f5 4dbd 385d d5bc 84ff 493d
000001b0: e9ca 41bc 2ffb 47bd e576 27bd 4815 28bd
000001c0: a3db 5a3d 3d5b 22bd 3da5 83bc c8e3 423d
000001d0: b766 6abd 350e 39bd ed44 493c b217 f7bb
000001e0: 06f9 42ba 8597 d7bc 12ae 39bd 0b55 093d
000001f0: fe78 27bc f6d4 a839 27f3 5c3d 0b6b 71b9
00000200: 1797 8d3c 63e7 debc bc35 473d ebef a13b
00000210: 88c3 0d3d 3af9 1d3d f3f9 56bd d20a ca3c
00000220: b644 3cbd 26d9 aebc dfcb 3fbd 79a5 933b
00000230: a346 b8bc c1bf 56bd 254e 633d 33bd 06bc
00000240: 40e3 473d b957 19bd 0655 67bc a8b2 f43c
00000250: 1bc6 523d 38c0 043c c704 96bc acdf 353c
00000260: 438f b7ba 7087 473d 71bd 50bc 21ab 20bd
00000270: cbfb e7bc 6d15 943c 9a43 99bc 107a b73b
00000280: a0d0 903c f70d 083d 717e 37bb 98c6 45bd
00000290: 8334 4cbd 7ae7 58bd 899a 97bb f366 93bc
000002a0: bfeb 99bb e749 b33b 8a7e fc3c 84af 15bd
000002b0: 987d 7bbc 4356 10bd acdf 18bd 5aff 4b3d
000002c0: def7 483b 9910 d43c efe5 6abd fb3c 4abd
000002d0: 7199 1fbd bc88 093d 0cc9 05bd 9678 c73b
000002e0: 2a65 093d 31d1 abbb 2727 113d d95d 463d
000002f0: b2d9 8e3c 8f51 36bd 9698 a9bc ffb6 36bc
00000300: ecb4 c33c 91ef 54bd 968d 23bd 3bcc c43a
00000310: 5a60 1ebd a10b 453d bc64 173d f363 bebc
00000320: 33dc 7b3d 73e3 19bd 4092 b43b 3a15 46bd
00000330: f56e 393d 1bdc 783d 8e68 0c3d bfc1 62bd
00000340: 686d 46bc 6d3f a33c ad24 063d 30d9 21bd
00000350: 54eb 193d 1b7a cc3c 5a4d e9ba 657b 10bc
00000360: b718 f7ba bc37 c33c 6713 4b3d 54cf 99bc
00000370: d76d 8cbc 49ed 7ebc fdbc 003d 3eba 903d
00000380: a9f8 24bd 3941 633c fc59 2f3d 883b 5cbd
00000390: bbc5 473d 299b 29bd 6ac7 78bd d845 2b3d
000003a0: 2dfc 42bd 6d86 513c 37dd c43b 1401 0dbd
000003b0: 3ee3 ec3b 7b84 2dbd 7da7 40bd 2dd1 90bb
000003c0: ac6f 353c 1e36 03bd 6fcd 333d 2d12 0abc
000003d0: 8f1c 07bd 3f86 243d 77ff 53bd 99ea 1dbd
000003e0: 9bdd ea3c 5eca 8f3d b3a5 06bd 0b8e 5d3d
000003f0: c1ae 103d 1131 7bbd caca 09bd 8a17 13bd
0.007500431 -0.00089105096 -0.035153456 0.0101552075 -0.04130693 0.00708981 -0.01953189 0.0015089427
-0.040268555 0.040518146 0.035927776 -0.056007855 0.05536268 -0.01461267 -0.03930368 -0.03191591
-0.030405778 -0.05269407 0.017513802 -0.04995473 -0.038461346 0.038754996 0.03811998 -0.050916318
0.018904107 -0.030690543 0.030204285 0.052765638 -0.044655684 0.025553437 -0.034139544 -0.024907192
0.04053795 -0.045053694 -0.036399633 -0.0387049 0.036581893 -0.034342244 0.0522917 -0.044766374
0.049973607 0.006305608 0.012874372 -0.0411212 -0.041835044 0.051413424 0.008028057 0.003971596
0.02138019 -0.025031412 0.053629287 0.06411436 0.0075520235 0.0569822 0.010751115 0.035275977
-0.0052648336 0.025195839 -0.043180093 0.0050964933 0.006810968 0.0095986165 -0.0019359168 -0.0054252613
0.028709875 0.014517572 -0.0074087996 -0.012760374 0.03582586 -0.057506185 -0.034341097 -0.041837838
-0.027122224 0.01572418 -0.051470876 -0.023428705 0.017211424 0.023951188 -0.04243914 0.051920727
0.030503768 0.012818908 -0.0061186426 -0.049177025 -0.044238914 -0.026355915 -0.026010526 0.016715711
0.027828015 0.047862828 0.011567362 0.027543126 0.0047172094 0.017216193 0.02996133 -0.033642728
-0.03318771 -0.03899488 0.020310454 -0.010368436 -0.023944147 0.05558438 0.0034669056 -0.040784877
0.02654461 -0.05028328 -0.026045427 0.049315944 -0.011828163 -0.04882353 -0.04088487 -0.04103592
0.05343212 -0.039637793 -0.016070003 0.04758051 -0.057226863 -0.045179565 0.0122845 -0.0075406665
-0.000743762 -0.026317367 -0.045332022 0.03352837 -0.010221718 0.00032202125 0.053942826 -0.00023023428
0.01728396 -0.027209943 0.04863523 0.0049419305 0.0346103 0.03856776 -0.052484464 0.024663363
-0.045963965 -0.021343779 -0.046825286 0.00450581 -0.02249462 -0.052428965 0.055494446 -0.00822382
0.048800707 -0.037437174 -0.014119392 0.029870346 0.05145846 0.008102469 -0.018312825 0.011100691
-0.0014004487 0.048713148 -0.012740479 -0.0392257 -0.028318306 0.018076623 -0.018708993 0.005599268
0.017677605 0.033216443 -0.002799895 -0.048285097 -0.049854767 -0.05295513 -0.0046265763 -0.017993426
-0.0046972926 0.0054714563 0.030822057 -0.036544338 -0.015349768 -0.035238516 -0.037322685 0.04980407
0.0030665318 0.02588682 -0.057348188 -0.04937456 -0.038964693 0.033577666 -0.032662436 0.006087373
0.033543743 -0.0052434434 0.03543773 0.048429344 0.01743779 -0.044511374 -0.020702641 -0.011152028
0.023889981 -0.05198628 -0.03992995 0.0015014479 -0.038666107 0.048106793 0.036961302 -0.023241019
0.061489295 -0.037570428 0.0055105984 -0.048360087 0.045271832 0.060756784 0.0342794 -0.055360552
-0.012111045 0.019927705 0.03274982 -0.039513767 0.037577942 0.024960568 -0.0017799542 -0.008818482
-0.001885197 0.023830287 0.04957905 -0.01877562 -0.01714222 -0.015559503 0.031430233 0.07066773
-0.040276203 0.013870531 0.042810425 -0.05376771 0.048772555 -0.041407738 -0.06073705 0.041814655
-0.047603775 0.012788397 0.006007816 -0.034424856 0.007229238 -0.04236267 -0.04703473 -0.004419467
0.011073988 -0.032034032 0.04389709 -0.008427185 -0.03298622 0.04016709 -0.051757302 -0.038553808
0.028670123 0.0702102 -0.032872867 0.05409054 0.03532291 -0.06132609 -0.03364066 -0.03591112

backbone.8.bias f4 [64]
00000000: 64b3 4cbd 518a 5a3d e578 553d 7220 e9bc
00000010: bef3 173c 217c afbc 2767 223d f58d 3b3d
00000020: 5a83 aa3b 4ba2 d8ba 6e89 afbc 6ffc 3abd
00000030: e0c1 363d 6886 823c 1b41 7dbb d7df 113b
00000040: a741 2c3c 8029 b53c b6de 58bd f78c 19bd
00000050: f90d e93c 743e 6cbd e1fe 4cbd 9676 d6bc
00000060: 154a 733b 00f8 36bd 60b2 2e3d 7de3 573b
00000070: e5de cdbc 3b2f 333d 1170 25bd 4ca9 6f3c
00000080: a83c 2d3d d947 583d 0104 6b3d c467 22bd
00000090: a288 8db9 c27c 6cbd 2742 0fbc 57f1 093d
000000a0: 17c3 d13c 8a87 393c e171 333d ba88 fd3c
000000b0: cc5d 9abc 88e3 94bc b55e 8bbc 8157 2e3d
000000c0: 5495 423b f3a5 cabc ce62 27bd 5d35 4a3d
000000d0: 055e cb3c 8d41 553d 1eab 973b 07ea 94bc
000000e0: bd78 403d 2acf 2cbd 3d02 b5bc e919 423d
000000f0: 6ae2 b8bc c2c5 3dbd 7343 8f3b dfcc d8bb
-0.049975768 0.053354565 0.052117247 -0.028457854 0.009274421 -0.021421494 0.039649155 0.045789678
0.0052036466 -0.0016527859 -0.021427836 -0.045650896 0.044618487 0.01593323 -0.0038643542 0.0022258663
0.0105137 0.022114515 -0.05294677 -0.03748795 0.028449045 -0.057676747 -0.05004776 -0.026179593
0.0037123014 -0.044670105 0.04265058 0.003294199 -0.025130698 0.043746214 -0.040390078 0.014627766
0.042294174 0.052802894 0.057376865 -0.03964974 -0.00026995415 -0.057736166 -0.008743799 0.033677425
0.025605721 0.011323819 0.043809775 0.030948985 -0.018843554 -0.018174902 -0.017012933 0.04256392
0.0029691057 -0.024737334 -0.040865712 0.049367297 0.024825105 0.052064467 0.004628553 -0.018178
0.046990145 -0.042189755 -0.022095794 0.04738799 -0.0225689 -0.046331175 0.0043720542 -0.0066162194

backbone.9.weight f4 [64]
00000000: f651 803f f0b3 803f 2c50 813f 802b 803f
00000010: bbd0 803f 5718 803f ac7a 813f 845a 803f
00000020: d03a 813f c41d 813f a0b8 803f 260f 813f
00000030: ad8b 803f 41a2 803f 2155 813f 3873 813f
00000040: 4129 7f3f 319f 803f 47ea 7f3f 173c 813f
00000050: 9382 803f 6b52 813f bbc0 803f 21b2 803f
00000060: 5588 803f 1bf9 7f3f c8b0 813f b0ba 803f
00000070: 1e5c 803f ac70 803f b851 803f 7c8d 813f
00000080: b07d 803f f6ec 813f 74ef 803f 84a4 803f
00000090: 7c2f 823f 1db2 7f3f a59a 803f daf8 803f
000000a0: 2cd3 803f 578d 7f3f e154 803f 8ebc 803f
000000b0: 77de 803f a7e6 7f3f ccee 803f 3656 803f
000000c0: ecef 803f 30bd 803f 560a 823f c32c 803f
000000d0: 7cda 813f 73ad 803f b43e 803f b3e2 7f3f
000000e0: b822 803f a43a 813f b5ce 803f 4fb7 803f
000000f0: 0a77 813f 0509 813f 4d7c 803f b3d0 803f
1.0025012 1.0054913 1.0102592 1.0013275 1.00637 1.0007428 1.0115561 1.0027623
1.0096073 1.0087209 1.0056343 1.0082748 1.0042626 1.0049516 1.0104104 1.0113287
0.99672323 1.0048581 0.99966854 1.0096463 1.0039848 1.0103277 1.0058817 1.0054361
1.0041605 0.9998948 1.0132074 1.0056973 1.0028112 1.0034385 1.0024939 1.0121303
1.0038357 1.015044 1.0073075 1.0050206 1.0170741 0.99881154 1.0047194 1.0075943
1.0064445 0.9982504 1.0025903 1.0057542 1.0067891 0.9996132 1.0072875 1.002631
1.0073218 1.0057735 1.0159404 1.001366 1.0144801 1.0052933 1.0019135 0.9995529
1.0010595 1.0096021 1.0063082 1.0055941 1.0114453 1.0080878 1.0037934 1.006369

backbone.9.bias f4 [64]
00000000: 593d 3cba 6963 7cb8 ac54 103b 8d9e bbbb
00000010: a04a c1b9 5591 81bb 69ec 673b 1cd1 773a
00000020: 0073 9c3b af95 2dba 3941 0abb 0c0d c3ba
00000030: f865 d9b7 330e 23bb 5f86 0fbb 2082 aeba
00000040: 4c5e 98bb 8e0f 6d3a 4173 b5ba dcc5 983b
00000050: e005 43bb 46e1 41ba 2cb8 93bb 1bde 1f37
00000060: ce00 e6ba 7300 a2bb 12bd 2dba fd99 10bb
00000070: ba9b 10bb 2516 2f3b 6538 9439 1527 9fbb
00000080: 1c4c 0dbb f4a9 56bb 255f 943a d203 903a
00000090: 5d85 07bb fa3f b6bb 2c47 24bb c565 83ba
000000a0: b633 15bb 6964 90bb b107 5ab9 62d6 34b9
000000b0: b7e6 46bb 11ed 6dbb e7a4 5a38 9db0 2f3b
000000c0: f155 5bbb 4899 38bb f492 6f3a 2042 01ba
000000d0: 28cd 03bb 943f 85b9 5a52 753a 5b47 32bb
000000e0: 4023 5cba 3f73 b4bb a7b8 91bb 5ed6 ef3a
000000f0: 586b 18bb 0d0e d9ba 004a 0dbb da9c 82bb
-0.00071807724 -6.0174065e-05 0.0022023125 -0.005725688 -0.0003686743 -0.0039540925 0.0035388714 0.0009453462
0.0047744513 -0.0006621731 -0.0021096005 -0.0014881208 -2.5915899e-05 -0.002488029 -0.002190016 -0.0013313927
-0.004649913 0.00090431503 -0.0013843552 0.0046622586 -0.002975814 -0.0007395934 -0.004508039 9.5288515e-06
-0.0017547847 -0.004943901 -0.00066276 -0.002206444 -0.0022065477 0.002671608 0.00028270777 -0.004856954
-0.0021560257 -0.0032755109 0.0011319859 0.0010987467 -0.0020678856 -0.005561826 -0.0025066836 -0.0010024837
-0.0022766418 -0.004406501 -0.00020792965 -0.00017246002 -0.003034992 -0.0036304633 5.2128828e-05 0.002680815
-0.0033467973 -0.0028167535 0.0009139024 -0.0004930813 -0.0020111296 -0.00025415106 0.00093582796 -0.0027203176
-0.00083975866 -0.0055069025 -0.004447061 0.0018298139 -0.0023257341 -0.0016559974 -0.0021559 -0.0039859833

backbone.9.running_mean f4 [64]
00000000: 3470 16bf c216 dbbe fcb7 fd3d cf7e b73f
00000010: 4826 6ebe 3fd7 313e 8d9c 15bf f786 4bbf
00000020: ddae 80bf a0fb 853e 51f7 b23f 44a2 be3e
00000030: 53ad efbe a706 613e a5f4 093f dd96 2d3f
00000040: c22a c5be 654c b7bd e49a 46bf a570 bebf
00000050: 9da2 333f e9b8 073e f19b 453f f32e 363e
00000060: 6751 f7be cf78 9b3f 7f11 853f 15c8 c43f
00000070: 7fad 2e3e 9c82 a9bf 4279 09bf 7203 c83e
00000080: 78bd e73e 1ad9 8f3f 4013 99be 2167 95bf
00000090: 0805 353e 1873 c3be a025 303f 9e3b 033f
000000a0: eb36 8fbe fd48 b43f 1b65 23bf a807 44bf
000000b0: fb8c 913f 0692 ee3e 1949 c0bd e699 94bf
000000c0: 08c9 753f f41b 113e 5dac 133e 464b 62bf
000000d0: d470 ae3e 8375 143f 3611 bdbf 111d 77be
000000e0: 4678 f83c 17d7 153f 891a ac3f 4606 acbf
000000f0: 51ae 423f 6de2 7a3e 73c4 d5be 4432 0e3f
-0.5876496 -0.427908 0.12388608 1.4335574 -0.2325679 0.17367266 -0.58442 -0.79502815
-1.0053364 0.26168537 1.3981725 0.37233174 -0.46811923 0.21975194 0.5388892 0.67808324
-0.38509184 -0.08950118 -0.77580094 -1.4878126 0.70170003 0.13254131 0.7719107 0.17791347
-0.48304293 1.2146243 1.0395964 1.537356 0.17058371 -1.3242984 -0.5370065 0.3906513
0.4526174 1.1238129 -0.298975 -1.1672097 0.176777 -0.38173747 0.6880741 0.51262844
-0.27971587 1.4084774 -0.6382615 -0.7657418 1.1371149 0.46595782 -0.09388942 -1.1609466
0.96009874 0.1417082 0.1442122 -0.8839611 0.34070456 0.5799181 -1.4770877 -0.24132182
0.030330788 0.58531326 1.3445598 -1.3439415 0.76047236 0.24500437 -0.4175144 0.5554545

backbone.9.running_var f4 [64]
00000000: d6a4 c73e 9817 693e 6ba4 3c3e dfad c93e
00000010: fd0d a03e ce8c 683e c0ae df3e 3b8e d53e
00000020: 2db5 db3e eb89 9c3e 44f5 eb3e f189 d53e
00000030: 3a2f dd3e 5b61 4f3e da16 593e f225 aa3e
00000040: 3d5b 003f 7594 4b3e 6870 fe3e 1975 153f
00000050: 21b2 e43e d6f9 b03e b61f b03e e1fd c03e
00000060: eae3 9a3e 9125 163f de47 af3e 6a3d 2f3f
00000070: 2242 f53e e675 6b3f 64e9 9b3e cd72 aa3e
00000080: 39ae af3e 4c68 753e 2f0d 563e 1d0a b53e
00000090: 2e8f 8b3e 56ec 883e 9873 6b3e 6db6 113f
000000a0: eea2 2f3e e991 2c3f 7381 b03e edd9 ee3e
000000b0: 0730 f13e 8633 083f ca2a 913e 99bb 0b3f
000000c0: 98c7 ff3e ab3c bf3e 2d56 a03e 6f86 173f
000000d0: ecba 943e 1797 9c3e a3bc 2b3f 9c81 b63e
000000e0: 48be 6f3e 4791 db3e 209b fa3e 9f0f 303f
000000f0: 099b 6a3e 209b 563e 0645 993e 652a 0d3f
0.38992947 0.22762907 0.18422095 0.39390466 0.31260672 0.22709963 0.4368801 0.41710076
0.42911664 0.30573973 0.4608556 0.41706803 0.43200094 0.20251982 0.21200123 0.33232075
0.5013922 0.1988085 0.49695134 0.583818 0.44667152 0.3456561 0.34399194 0.37693694
0.3025201 0.5865107 0.34234518 0.68453085 0.47902018 0.91976774 0.304515 0.3329071
0.3431261 0.23965567 0.20903467 0.35359278 0.27257675 0.2674281 0.22993314 0.56918985
0.17151996 0.6741014 0.34473762 0.4665064 0.47106954 0.5320362 0.28352958 0.54583126
0.49956965 0.37350973 0.31315747 0.59189504 0.2904886 0.30584022 0.6708471 0.3564576
0.2341243 0.42884275 0.48946476 0.68773836 0.22910704 0.20957613 0.29935473 0.55142814

classifier.1.weight f4 [128, 576]
00000000: c3bd 883c 4bcb b5bb 18b5 e6bc 20c6 39bc
00000010: 13c0 443a d840 99bb a662 183d 65bf c73b
00000020: 2a58 a03c 247f 163d c317 2f3c cdf2 1c3d
00000030: a314 20bd 8417 92bc f8ff 14bd 1e74 88bc
00000040: ce46 96bc 0a33 1abc c07f e5bc 60c3 bcbc
00000050: 8e95 e6bc be56 283d a26d 2dbc a70d 1bbd
00000060: ee6f f6bc 9fd7 d73c c866 143d 7cae d2bc
00000070: 4475 edbb 83a7 bf3c 3493 70bb 2878 24bd
00000080: 71e8 06bd 2c70 3e3c 09bd f0bb 7a50 313c
00000090: b1f3 113d 05ff c83c e494 81bc 66e8 1a3d
000000a0: 3800 d23b 39fc f8bc 5939 eebc b835 e139
000000b0: 9395 333b e285 db3c 6a01 2dbd 9a41 fa3c
000000c0: 8747 ecbb 9389 b93a 7269 803c 46ad cdbc
000000d0: a2c1 07bd 70e9 1f3d 7268 bfbc fb87 22bd
000000e0: ac73 9c3c f09d eb3c c435 d3bc 6e83 d3bb
000000f0: 7b27 e73c c6ff 54bb 0684 adbc d1a6 eebc
00000100: a209 f3bc c87e 69bc 1a3a 0d3b d19f 093d
00000110: de10 a33c 2866 97bb babc adbb 07a5 083d
00000120: ee85 1e3d 4b25 afbc ddae b03c f8b2 9cba
00000130: ef1a 873c 8da5 143d 00f5 0d3d 5e47 e33c
00000140: 637e 673c 74a8 00bd 796e fcbc 4be4 443b
00000150: 630a 893b b9e7 883c aa04 c8bb 09f4 b33c
00000160: c531 913a bfc8 003c 04d1 233d bbee 723c
00000170: 7aba 8dba dccf 95bc 9de9 03bc c725 ffbc
00000180: ba77 fa3c 1b1f 983c 1d86 e03c 98ff 2d3d
00000190: ec04 213d 9100 163b 80ee 4b3c e659 093c
000001a0: ec68 b73c efc0 5cbc 1aa0 2b3d 870c 313d
000001b0: 1a67 a13c 4db7 8a3c dbcf 0f3c 9d0e 663b
000001c0: b970 a9bb 2ef2 abbc 7ef8 d13c 7dcb 0cbc
000001d0: 7807 183d e60e b83c 1566 09bd 3b02 b7bc
000001e0: 847b 843c e2dc 9cbc 5f64 debc 5e6b 553c
000001f0: bc42 663c 5998 59bc 1605 6ebb 5eee fc3b
00000200: a7ce fb3b d9ec 193d 7e2f 0ebd e2a5 02bd
00000210: 2621 8e3c 59ce e0bb bf2d 00bd 6266 4cbc
00000220: 2bd8 7abb 5d16 d23c 1649 cd3c e294 a1bb
00000230: 54ce 0abc bacf 1ebb 86eb 143d 51cc 66bc
00000240: 27c9 a5bc ab90 963c 7ae3 b53c 3125 1e3d
00000250: fd0f aabc 53be 58bb a1ce ab3c 2abf 1d3d
00000260: 7524 3a3c 79aa a43a f619 073d 00fc aabc
00000270: ab1f 983b 31ea aebc 2133 f1bc c791 a5bb
00000280: 05c5 e3bc 3b2b 6ebc 1b06 05bc b211 21bc
00000290: c008 833c 5349 c9bc d144 08ba affd 2d3d
000002a0: 6515 c1bc 8d67 f9bc a05a 27bd 2eb2 42bc
000002b0: 9295 a7b9 225d 0c3d 7606 a6bb ca9f 10bd
000002c0: df27 3e3b 3987 80bc f056 eabc 8504 933c
000002d0: 7ee0 7fbc 02bf 18bd d48c 063c d4e8 053d
000002e0: 99bc 5cbb c802 843c acba 80bc e876 e6bb
000002f0: cb94 bbbc ae5b 433d 26a1 263c 033e 1dbc
00000300: 689f 233c 9b6d 6fbb a5df 783c 8ddb 20bc
00000310: 7b00 fbbc 2477 b6bc 37d5 a03c 16b5 063c
00000320: 35bc 0cbd 1734 b8b9 85f4 1c3d dd13 2c3c
00000330: 10b3 af3c 51fd 96bc 1587 823c 681d b73c
00000340: f663 093d d313 aa3c a9d7 d5bc 987e 223d
00000350: 5e25 abbc 3514 9abc b8d7 0abd 46aa 6cbc
00000360: 2db4 a43c 797c d53b 23c8 1b3d 6c9a 9c3a
00000370: 1bb9 e93a bee4 c63c 2c1d fabc 4221 c23c
00000380: 490a 203d 1f46 c0bc 0f3c 64bc 59bb 103d
00000390: 2346 d4bb ab2a 62bc ab83 8a3c 4cf1 a3bc
000003a0: a8f0 373b b78f 1f3d cdf5 b13b b469 0b3d
000003b0: 446c eabc 26d0 1dbd 6b90 25bc 5775 5abb
000003c0: 31d2 a8bc 8b79 dfbc 270e 8b3c f424 e83c
000003d0: daec 04bd 8074 04bc 2aef 293c 0b50 863c
000003e0: fc3f c43c 2e41 45bb 4672 803c 20d6 b7bb
000003f0: 3439 f03c 3f80 05bd 3501 6b3c 09a3 5abc
0.016692048 -0.005547916 -0.028162524 -0.011338741 0.0007505428 -0.0046769194 0.037203453 0.006095814
0.01957329 0.036742344 0.010686818 0.03831749 -0.03908218 -0.017833479 -0.036376923 -0.016656931
-0.01834431 -0.009411583 -0.028015018 -0.02304238 -0.028147485 0.04109835 -0.0105852205 -0.037854817
-0.03008267 0.026347933 0.036230832 -0.025717966 -0.007246645 0.023395305 -0.0036708834 -0.040153652
-0.032936517 0.011623424 -0.0073467535 0.01082241 0.035632793 0.024535665 -0.015818067 0.03781929
0.0064087175 -0.030393707 -0.02908008 0.00042955368 0.0027402386 0.026797239 -0.042237677 0.03054886
-0.007210675 0.001415538 0.01567528 -0.025107037 -0.033143647 0.039040983 -0.023365233 -0.039680462
0.019098125 0.028761834 -0.025782473 -0.0064548766 0.028217068 -0.0032501086 -0.021181118 -0.029132279
-0.02966768 -0.014251418 0.0021549524 0.03359968 0.019905504 -0.0046203323 -0.005302039 0.033360507
0.038701944 -0.021380087 0.021567756 -0.0011955192 0.016492335 0.036290694 0.03465748 0.027743991
0.014129254 -0.03141065 -0.030814396 0.00300433 0.0041821464 0.016712056 -0.0061040716 0.021966951
0.0011077455 0.007860362 0.039994255 0.014827426 -0.0010813021 -0.018287592 -0.008051303 -0.031145943
0.030574668 0.01856952 0.0274077 0.04248008 0.039311334 0.0022888521 0.012447 0.00838325
0.022388898 -0.013473733 0.04190073 0.043224838 0.019702483 0.016933108 0.008777584 0.0035103925
-0.0051709083 -0.020989504 0.025631186 -0.008593437 0.037116498 0.022468042 -0.03354462 -0.02233993
0.016172178 -0.019148294 -0.02714747 0.013026087 0.014053997 -0.013280951 -0.003631895 0.0077188453
0.007684547 0.03757939 -0.03471326 -0.03189648 0.01734979 -0.006860536 -0.031293627 -0.012475582
-0.0038275819 0.02564543 0.025059264 -0.0049310783 -0.008472044 -0.0024232701 0.036357425 -0.014086799
-0.020237518 0.01837953 0.022203196 0.038609687 -0.020759577 -0.0033072426 0.020972552 0.038512386
0.011361231 0.0012563012 0.032983743 -0.020872116 0.004642447 -0.021351906 -0.029443325 -0.0050527784
-0.027803907 -0.014536674 -0.008119131 -0.009830879 0.015995383 -0.024571097 -0.0005198243 0.04247826
-0.023569772 -0.030444885 -0.04085791 -0.011883302 -0.0003196416 0.034268506 -0.005066688 -0.035308637
0.0029015464 -0.01568948 -0.028605908 0.017946491 -0.015617488 -0.037291534 0.008212287 0.032692745
-0.003368175 0.016114607 -0.015714012 -0.0070332177 -0.022898098 0.047694854 0.010170257 -0.009597304
0.009986736 -0.0036533836 0.01519004 -0.00981797 -0.030639878 -0.022273608 0.019632919 0.008221885
-0.034359176 -0.00035134025 0.03831913 0.010502783 0.021447688 -0.018431338 0.015933553 0.02235289
0.033542596 0.020761406 -0.026103811 0.03967151 -0.020891842 -0.018808464 -0.03389713 -0.014444893
0.020105446 0.0065150824 0.038032662 0.0011947877 0.0017831655 0.024278995 -0.030531488 0.0236975
0.03907231 -0.023470936 -0.013930335 0.03533492 -0.0064780875 -0.013804118 0.016908487 -0.02001252
0.0028067026 0.038955417 0.005430913 0.034036353 -0.028616078 -0.038528584 -0.010105233 -0.00333341
-0.02060804 -0.027279636 0.016974522 0.028337933 -0.03245244 -0.008084416 0.010371963 0.01639559
0.023956291 -0.0030098665 0.01567949 -0.0056102425 0.029324152 -0.032593008 0.0143435495 -0.013344535

classifier.1.bias f4 [128]
00000000: 50b8 c4bc bc94 24bd e086 80bc 73d6 82bb
00000010: 25d0 1a3d cc22 ea3c bee4 133c cd46 3b3d
00000020: 7d48 0ebc 8849 8cbc 3d28 c23c 121d 28bd
00000030: 62ae b43b 6976 52bc 2fb5 12bd ef84 3f3c
00000040: d15c 04bd 8bdb e1bb 9563 0ebd ab9a e0bc
00000050: 06aa 493c 32c8 0e3b 934d 6fbc 5d95 0abd
00000060: b1f0 0abd 52bd 253d 6543 0dbd 751a 033d
00000070: c0ed 083d db5a 023b fb5b 453c 5ddf 0c3d
00000080: c25b 34bc 10da 103d e918 26bd e796 5d3b
00000090: 79f0 d3bc 8417 223d 915c 603c 22e4 9e3c
000000a0: 6dad 21bd 73cd 2cbb 2677 c13c 7d0e 293c
000000b0: 9887 d63c 3841 be3c 0b10 89bc d114 d2bc
000000c0: 639e 0e3c f7a4 413c 16ca b0bc fe24 02bd
000000d0: 869c 193d a805 393c 9a68 0b3c cdcc d9bc
000000e0: a698 103d 960b 833c 3401 ccbc 71ea 1cbd
000000f0: e337 d13b c32a cebc 987c 963c ffe8 1c3d
00000100: 2b98 1ebd b680 a83c 4d56 52bc b15f d0bc
00000110: 046a 36bb b7d9 dbbc 1fc0 07bd 8d49 f7bb
00000120: 4154 0fbc 20e5 8b3a 3b81 ec3c 47b6 2cbd
00000130: c1f8 103d d1ca ebbc 51cd c83c d395 923c
00000140: a218 d13c eb6a 033d b9ce ef3c acc0 1e3d
00000150: e0bd 45bb a1cf 27bd 6cb4 eabc 07d0 a13b
00000160: e520 8abc d75a bebb 468b 94bc 6e94 bb3c
00000170: dd95 0b3d 4b81 6fbc 99ef ce3b 24c9 92bc
00000180: 47f1 debc c328 ac3c 71ca 893c 2350 73bc
00000190: 1540 8bbc 1869 2a3c 21eb 0fbd 613c 943c
000001a0: c118 bfbc 763f d63b 7d70 793c b190 e6bc
000001b0: aca4 933c 528e efbb 2951 f0bb 551d aa3b
000001c0: f90a 173d 3374 06bd a302 e03b c3f4 e6ba
000001d0: ea6a a43c c950 7bbc 334a ba3c e0a4 d4bc
000001e0: 27f5 bc3c b1a8 bdbc 3891 61bc 42e9 293c
000001f0: 5c7b b13c e7a9 8e3c 4e73 c3ba 9dc0 d2bc
-0.024013668 -0.040180907 -0.015689313 -0.0039928495 0.03779616 0.028581046 0.009026704 0.045721818
-0.008684275 -0.017124906 0.023700828 -0.04104335 0.005513952 -0.012845614 -0.03581732 0.011689409
-0.03231508 -0.0068926266 -0.034762938 -0.027417501 0.012308603 0.0021786806 -0.0146058975 -0.03383385
-0.033920947 0.040463753 -0.0344881 0.032007653 0.03342986 0.001989058 0.012045856 0.034392703
-0.011008205 0.03536421 -0.0405511 0.0033811869 -0.025871502 0.039573207 0.013693945 0.019395892
-0.039472032 -0.0026367574 0.023616385 0.010318396 0.026187703 0.023224458 -0.016731283 -0.025644692
0.0087047545 0.011819116 -0.021580737 -0.03177356 0.037502788 0.011292852 0.008508826 -0.026586914
0.035301827 0.015996736 -0.024902917 -0.03830952 0.006384836 -0.025166875 0.018369958 0.03830814
-0.038719337 0.020569187 -0.0128379585 -0.025436254 -0.0027834186 -0.026837213 -0.033142205 -0.0075466097
-0.008748115 0.0010673143 0.028870216 -0.04216602 0.03539348 -0.028783234 0.024511965 0.017893707
0.025524441 0.032084387 0.029273378 0.038757965 -0.0030172989 -0.040969495 -0.028650485 0.004938129
-0.016861388 -0.005809169 -0.018132817 0.022897925 0.034078468 -0.014618228 0.0063151834 -0.017918177
-0.02721466 0.02101553 0.016820164 -0.014850649 -0.01699833 0.010401033 -0.035136346 0.018095197
-0.023327233 0.006538327 0.015224573 -0.028145166 0.018022858 -0.007310667 -0.007333894 0.005191485
0.0368757 -0.03282566 0.006836252 -0.0017620552 0.020070512 -0.015339085 0.02274046 -0.025957525
0.023066116 -0.023151727 -0.013767533 0.010370554 0.021665268 0.017415 -0.0014911683 -0.02572661

classifier.3.weight f4 [5, 128]
00000000: d2f1 323c 446c d63b fd0d 50bd 5b86 6bbd
00000010: 11ef 70bc 1a7c 4a3d 78aa 95bd 71e5 e63d
00000020: 4733 5e3b ed55 623d e741 533d 8f29 1d3d
00000030: d315 3abd 9ef2 103b 9223 79bd 7552 a03d
00000040: 8bad 5cbd 84a8 72bd c120 f0bd b225 0bbe
00000050: ffa0 223d edae c33d b1a9 64bd a80b 303d
00000060: b59e d4bd b533 e53d ee5b 82bd f400 64bd
00000070: 20a6 b0bc 9022 5ebd c93c 5b3d 7c28 e2bc
00000080: 3901 f23c cca3 873d a024 4bbd d507 c53c
00000090: 0a31 05be d5f6 e4bd 3a95 2d3b b30c edba
000000a0: 3443 9abc cc35 0d3c 052a 56bd c94e 07bd
000000b0: 7a8e 67bd 8be5 babd 7c76 2e3d 98d3 613c
000000c0: 296c c3bd 7f0b d03d 35c8 0e3d 8b51 92bd
000000d0: ff10 f63d 15df 8fbc bd23 22bb 0ec8 a13c
000000e0: 4856 a63d 0821 a23d 58b0 133d cdfb 583d
000000f0: 3e2b b23c dbda 103c 25a9 ce3d f494 363c
00000100: aaa9 843d 8799 a93d 5f27 80bd e0f2 ea3d
00000110: 634b b33c 80b2 4b3d 7340 1c3d 394b 9a3d
00000120: 8655 38bd bb59 82bd 1a6d 8fbc 0ea5 333d
00000130: bdd7 613c 03db 6fbd 9154 b63d e326 783d
00000140: 49b1 95bd f9b5 a1bd 3dc7 96bc c236 143d
00000150: d6a8 b03c 38de 483c d143 99bd 554a a73d
00000160: ef91 0abc d7a4 01bd 7e3e a2bd 0eaf 74bd
00000170: e75a c03d cc03 93bd b9f1 933d bc61 90bc
00000180: 4bac bebc 3352 a7bd 3611 8bbd 3a40 583b
00000190: 3e0d 003d 0cf5 be3d fe3e f53c c2b9 27bd
000001a0: 7e24 a73d ff66 56bd 0144 8a3c 6894 b8bc
000001b0: 48cc 743d a113 18bd c07c eebd 87df 8b3c
000001c0: 2d48 923c 4dfc c93d bbe3 17bd 13c8 183c
000001d0: 8b75 a33d 91e1 d13c 4dd8 6dbd 3a77 6bbd
000001e0: 4a79 96bc 76ca 1e3d 52fe e6bc 89e5 153d
000001f0: d57d d83d 7c3a d0bd 5937 94bc 6fc3 e73d
00000200: dbf2 763d a71d e8bc 3821 01bb b36c 803d
00000210: 1815 913c 1f20 c83d 30a8 e03d d7c0 a13d
00000220: c64f 80bc 781a 843c bb17 983d 4473 433b
00000230: 4be5 5fbd fb31 bb3c 5f20 babd b71e 1ebd
00000240: 265a 7f3c 56c5 a33c a0b4 8f3d 8b6f e1bd
00000250: 3ac5 e93c e69f 053d 0bbd d03c 7f56 cc3d
00000260: f51a 9e3c 4330 bc39 4e98 663d d9e9 803c
00000270: 8292 1e3c 7855 e13c f9b1 9e3d 2e58 c2bd
00000280: 14e7 12bd 77b8 60bd ee46 f83c 84af eb3d
00000290: fe94 c9bb af97 6a3c 4109 623d 789d 103d
000002a0: 8ce3 8f3d 3ff3 eebd f2b3 5d3d ee8d 493c
000002b0: 1990 afbd 3ba5 9a3c a68f a7bd c6c2 a63c
000002c0: f6c3 5abc cf70 d1bd d90e e4bc c155 a5bc
000002d0: b675 e2bc e2fe 6cbd f08a 8ebc 482b 233d
000002e0: 79c6 043c dace 423c 0dbb f4bd a4ff f3bb
000002f0: 9098 3dbd 23ec d6bd 4182 46bd adbb e2ba
00000300: 6e8d 57bd 00e9 a6bd 2084 82bc 670c bebc
00000310: 1ef5 163d 02d3 dd3c 65ac 263c 4aca 23bd
00000320: dd70 803d e085 e1bd c7b3 62bd 1081 a3bd
00000330: ab66 653d 077a 8dbd 9941 19bb 7a6b f5bc
00000340: c63f 8f3d d39b ca3d 556d 613d 662d 8e3d
00000350: f971 a63d a1bd 0d3d 1ec7 0fbd eb86 643b
00000360: d8f9 2cbd c8b1 873d 32c9 04bd db18 9d3d
00000370: 21a1 6a3d 8c5a 29bd afdc 33bd 9243 b0bd
00000380: ff19 b8bc c6a2 893d 4633 e03a 7ab0 87bc
00000390: 0846 e33d d183 8e3d 24e5 6b3c c2e0 8b3d
000003a0: 38c9 983d 4471 a7bd 94ad 303d 9264 39bd
000003b0: c770 d53c 8db8 9a3d 739e 9b3d edc2 0e3c
000003c0: abd6 7b3d 0aca 1c3c 3918 41bd 0af6 ca3d
000003d0: 90f7 be3d bfae ce39 0560 9c3d 0fee c33d
000003e0: 829a b53d 8a2a c03d cd9a a1bd 7984 1cbd
000003f0: 5e2e 813d f944 8fbc cd98 d03d 2de9 4ebd
0.010921912 0.006543668 -0.05079459 -0.05750118 -0.014705435 0.04943476 -0.07307905 0.11274231
0.0033905075 0.055257726 0.05157652 0.03836971 -0.04543097 0.0022117267 -0.060824938 0.078282274
-0.05387644 -0.05924274 -0.11724997 -0.13588598 0.03970432 0.09554849 -0.055825893 0.042979866
-0.103818335 0.11191503 -0.063651904 -0.05566497 -0.02156359 -0.05423218 0.053524766 -0.027607195
0.029541599 0.06623039 -0.049595475 0.024051586 -0.13006988 -0.11179892 0.002648665 -0.001808545
-0.018830873 0.008618783 -0.052286167 -0.03303412 -0.05653236 -0.09125813 0.042593464 0.013783358
-0.09542114 0.10158443 0.0348589 -0.07144459 0.120149605 -0.017562428 -0.002474054 0.019748714
0.081219256 0.079164565 0.036056846 0.05297451 0.021749135 0.008841242 0.100908555 0.011143912
0.06477673 0.08281236 -0.062575094 0.11472106 0.021886533 0.049730778 0.0381474 0.07533879
-0.045003437 -0.06364771 -0.017508078 0.04385858 0.013784346 -0.058558475 0.089028485 0.06058396
-0.07309205 -0.07896037 -0.018405551 0.036185034 0.021564882 0.012260012 -0.07483638 0.081684746
-0.008457645 -0.031651344 -0.07922076 -0.059737258 0.09392338 -0.071784586 0.07223839 -0.017624728
-0.023275515 -0.08169975 -0.06790392 0.0032997266 0.03126263 0.09324083 0.029937264 -0.040948637
0.08161257 -0.05234432 0.01687813 -0.022531703 0.05976513 -0.037128095 -0.11644888 0.01707436
0.017856682 0.09862576 -0.037082415 0.009325045 0.07981404 0.025620254 -0.05806761 -0.05748675
-0.018368382 0.0387673 -0.028197441 0.036595855 0.105708756 -0.10167405 -0.018092798 0.11316573
0.0602902 -0.028334452 -0.0019703638 0.06270733 0.017710254 0.097717516 0.10969579 0.078981094
-0.015663039 0.016125903 0.07426401 0.0029823342 -0.05466203 0.022850981 -0.090882055 -0.03860351
0.015585458 0.019991558 0.07016873 -0.11007603 0.028536428 0.032623194 0.025480768 0.09977435
0.019299963 0.00035894112 0.056297593 0.015736507 0.009678485 0.027506575 0.07748789 -0.09489475
-0.035864905 -0.05486342 0.03030726 0.11508086 -0.0061517945 0.014318391 0.055184606 0.035306424
0.07025823 -0.11667489 0.054126687 0.012301905 -0.08572406 0.018877616 -0.08181696 0.020356547
-0.013352385 -0.10226595 -0.027839111 -0.020182492 -0.02764402 -0.057860263 -0.017400235 0.039836198
0.00810396 0.011890138 -0.119497396 -0.007446246 -0.046288073 -0.10494258 -0.048464064 -0.0017298363
-0.052625112 -0.0814991 -0.015932143 -0.023199273 0.036854856 0.027078155 0.010172938 -0.03998784
0.06271527 -0.11011863 -0.05534723 -0.07983601 0.056006115 -0.069080405 -0.0023385047 -0.029958475
0.06994586 0.09893002 0.055035908 0.06942253 0.08127207 0.034604672 -0.035102002 0.0034870456
-0.042230457 0.06625706 -0.032418437 0.076707564 0.05728257 -0.041346118 -0.043911632 -0.08606638
-0.022473333 0.067205 0.0017105124 -0.016563643 0.11097342 0.06958736 0.014397893 0.068299785
0.074602544 -0.081759006 0.043134287 -0.045261927 0.026054753 0.075547315 0.07598581 0.008713466
0.06148402 0.009569654 -0.04714224 0.099102095 0.093245625 0.00039421578 0.07635502 0.095668904
0.08867361 0.09383114 -0.07890854 -0.038212273 0.06307672 -0.017488943 0.101853944 -0.050515343

classifier.3.bias f4 [5]
00000000: 354a 943d 67eb c03d 3d8f 1a3b 7bb7 133d
00000010: 4caf 323c
0.07240716 0.094198994 0.0023583912 0.036063652 0.010906052

momentum_buffer f4 [16, 1, 3, 3]
00000000: 722d 5abc 9782 01bc 67ff a5bb 40f0 fcbc
00000010: a82d aabb 5195 7dbb e649 ecbc 6ecb 82bc
00000020: 64f9 6fbb 6a43 4fbe fbb1 80be 292d cfbe
00000030: 6153 abbe d12b bbbe 1ab5 ffbe 8f14 a5be
00000040: ed5d 00bf fc74 1cbf e345 23be 7eb2 95be
00000050: f417 c0be 281e d2bd 92c3 15be 0659 82be
00000060: b50e 41be bc50 2fbe 7c6b 39be c51b 8fbd
00000070: baa1 ecbe 18c4 10bf 0a4b 5fbe 483d 16bf
00000080: b60e 25bf 51b4 9ebe 449b fcbe 86a6 d2be
00000090: da02 0fbc 564d 0fbd 26fb 23bd 209e ca3a
000000a0: 2ff3 05bd adf7 5abd 1ffb efba 00f8 0fbd
000000b0: c075 10bd 613a 833d 3607 1c3e 018a 333e
000000c0: 2831 743d e6a5 893d 2251 af3d 1d5e 7a3e
000000d0: 7dfa bd3d 4c8e 29bc 68d4 7bbd b0e5 cbbd
000000e0: 6856 db3c 3c42 be3d 7811 f43c d4ac 143d
000000f0: dfcb 6c3e 9a67 5f3e c0ef 86bb fc22 033f
00000100: 4622 853e 18ca ed3c 5f95 b33e 023a 063e
00000110: a035 fb3b 4b26 713e a8a4 5d3d f03f 9bbd
00000120: 205e 9f3b ec19 85bd 2ad3 c6bd c040 883b
00000130: 9ed9 77bd 6b2b c3bc 668b 2f3d e846 cb3c
00000140: 805e 723c 5c6d 6f3d 7238 6c3d 1586 673d
00000150: 1e07 343d f8d8 0b3d 7599 283d c096 e33b
00000160: 1e70 22bd 8c7a 35bc a0f1 163f 4366 013f
00000170: 6346 d43e d25c 1b3f 7e09 f93e c21a c93e
00000180: 0441 0f3f 99d7 053f 421a e93e ba20 04bd
00000190: d434 1bbd 1ed2 19be 10ed f0ba 86bb 36bc
000001a0: caf1 55bd a7d8 77bd c8cc 68bd d0d3 afbd
000001b0: 2845 4c3e 7547 4b3e e92e 0b3e 36e9 1e3e
000001c0: f10b 253e 94f0 303e 5412 923d 44ff 813d
000001d0: 729c 8f3d 828d 8a3d 30e3 8f3c 3c22 c0bc
000001e0: fa34 883d 5260 803d d5e2 123d a3d7 023d
000001f0: 1bb1 fa3a c2c2 fc3c 3772 8a3c 9651 f03c
00000200: a887 0bbd c44d 843d 0883 103d 60e0 b3bc
00000210: 687e a63d 64e3 d83d dc12 423d 705a 6dbb
00000220: 5783 51bd 7e1a 99bd 002d de3b d44f 50bd
00000230: 138b 98bd 177c 4bbd 71b5 a0bd 8ee4 96bd
-0.013316499 -0.00790467 -0.0050658467 -0.030876279 -0.005193431 -0.0038693736 -0.028843831 -0.015966143
-0.0036617154 -0.2024056 -0.25135788 -0.40464142 -0.3346205 -0.36556867 -0.49942857 -0.32242247
-0.5014332 -0.61116004 -0.15944628 -0.2923774 -0.37518275 -0.10259658 -0.14625385 -0.25458544
-0.18853267 -0.17120641 -0.18107408 -0.069877185 -0.46217138 -0.56549215 -0.21805969 -0.5868726
-0.6447557 -0.30996946 -0.49337208 -0.41142672 -0.008728707 -0.034985863 -0.040034436 0.0015458502
-0.03270262 -0.05345886 -0.0018309093 -0.03514862 -0.035268545 0.06407619 0.15237126 0.17533113
0.05961719 0.06721096 0.08560397 0.24449964 0.092762925 -0.010348868 -0.061481863 -0.09955919
0.0267746 0.09289977 0.029793486 0.036297634 0.23124646 0.21816865 -0.004117936 0.51225257
0.2600271 0.02902703 0.350749 0.13108066 0.0076663047 0.23549764 0.054112107 -0.075805545
0.0048635155 -0.06499085 -0.09708245 0.0041581094 -0.06051027 -0.023824414 0.04285755 0.024814084
0.014793038 0.058453903 0.057671018 0.056524355 0.0439521 0.034142464 0.041161973 0.006945461
-0.039657705 -0.011076581 0.5896244 0.50546664 0.4145995 0.6068851 0.48640054 0.39278227
0.5595858 0.522821 0.45527846 -0.032257773 -0.037892178 -0.1502156 -0.0018381197 -0.0111531075
-0.05223254 -0.06050935 -0.05683592 -0.08585322 0.19948256 0.19851477 0.13592114 0.1551865
0.16117837 0.17279273 0.07132402 0.06347516 0.070122615 0.06765272 0.017564386 -0.023453824
0.066507295 0.06268372 0.035860855 0.03194393 0.0019126268 0.030854587 0.016900165 0.029335778
-0.03406492 0.06460145 0.03528121 -0.021957576 0.08129579 0.10590246 0.047381267 -0.0036217235
-0.051150646 -0.07475756 0.0067802668 -0.05085738 -0.07448401 -0.04967889 -0.07847107 -0.07367812

momentum_buffer f4 [16]
00000000: 845c d437 ca37 a9b9 b0f1 74b9 8b54 c1ba
00000010: ae1b 06b8 c66d dd39 167e 84b9 760c 61ba
00000020: fac4 86b8 e4c5 9839 e8d8 d0ba d21c 4aba
00000030: 0c7c 86b9 fc8b a1b9 bc28 bd39 7ca4 47b9
2.531545e-05 -0.00032275758 -0.00023359689 -0.0014749927 -3.197387e-05 0.00042234192 -0.00025270943 -0.00085849257
-6.426308e-05 0.0002913914 -0.0015933784 -0.0007709983 -0.00025650894 -0.0003081261 0.0003607924 -0.00019039394

momentum_buffer f4 [16]
00000000: d292 3dbd 0758 823d 9d17 ecbc 01f6 79bd
00000010: 2dab be3d a0c4 913a 63b0 efbc 8a73 70bd
00000020: d265 6bbd 62ed 19bd c0ca ad3e a6ef d5bd
00000030: 66aa f7bc 9027 c839 176b 87bd 167f cc3c
-0.046282597 0.06364446 -0.028819853 -0.061025623 0.09309993 0.0011121221 -0.029258912 -0.058703937
-0.05747015 -0.0375799 0.33943748 -0.104461 -0.03023262 0.0003817645 -0.06612223 0.024962943
