models/epoch=1-step=50.ckpt (torch, 800661 bytes, 38 tensors)

backbone.0.weight f4 [16, 1, 3, 3]
000000 5d 3c 26 be ed 9e a4 3e e3 12 9f be b5 4a 90 be
       -0.16233964 0.321525 -0.31069097 -0.28181997
000010 c6 70 01 be 19 89 92 3e 1e 3e 74 bd 31 b8 cd bd
       -0.12640676 0.28620222 -0.059629552 -0.10044897
000020 9b e7 0f be 49 c9 fc 3d 47 b7 e9 3c 50 f5 61 3c
       -0.14053194 0.123430796 0.028529776 0.013791397
000030 6c 53 3e 3e 0f 0b 69 3e 34 68 fd 3c d4 99 a1 be
       0.1858651 0.22758125 0.030933477 -0.31562674
000040 2f 0e 2f 3e b1 2f e7 3b a5 8b 9f 3d d9 71 29 3e
       0.17095254 0.007055246 0.07790307 0.16547336
000050 d6 23 b3 bd f9 12 c0 be fb 8e f5 3c 94 f6 92 3e
       -0.087470695 -0.37514475 0.029975405 0.2870375
000060 e7 0d 75 3e fa 4d 94 be 4b 49 60 be 7d 98 89 3e
       0.23931085 -0.2896574 -0.21902959 0.26874152
000070 71 ed 98 bc b2 47 9d 3e d3 86 9a bd 9c f6 8e 3e
       -0.018667908 0.30718762 -0.07545247 0.27922523
000080 8c 6d 0d bd cd ea 35 be c3 fd c9 bc 51 cf 79 bd
       -0.0345283 -0.1776535 -0.024657136 -0.060988728
000090 65 4a 38 be 99 d6 ae bd d8 2a 34 be ac c2 5f be
       -0.1799713 -0.08537025 -0.17594469 -0.21851605
0000a0 22 43 97 be 1d 6e 8a be b9 10 9d be 79 7d a5 3e
       -0.29543406 -0.27037135 -0.3067682 0.3232229
0000b0 3d 7c 3a be d4 eb 75 be 1a 50 a7 3e c5 af b8 3c
       -0.18211456 -0.24015743 0.326783 0.022544751
0000c0 b9 5c 7b be 87 73 cc 3d 31 79 20 3e 98 64 a0 bd
       -0.2454709 0.099829726 0.15671231 -0.07831687
0000d0 d6 16 08 be a4 a5 e5 3d cc f1 0f 3e d9 30 ec bd
       -0.13289961 0.11213234 0.14057082 -0.115327545
0000e0 a5 fb 8c 3e df 33 81 3c 77 91 d9 bd 03 63 31 be
       0.2753574 0.015771804 -0.10623448 -0.17322926
0000f0 94 5e 3d be 26 4e 12 3e 60 d3 83 be 52 b0 c6 3d
       -0.1849311 0.14287624 -0.25747204 0.09701599
000100 d3 a2 ae be 57 92 52 be 30 9f 87 be 3c 19 33 3e
       -0.341086 -0.20563637 -0.26488638 0.17490095
000110 4e ac 79 be 00 c8 12 3e 64 2b 3e 3d 7f f9 56 3e
       -0.24382135 0.14334106 0.0464281 0.20993613
000120 b7 5a 28 be 75 bf 34 bd 51 07 82 be 9d 99 af 3e
       -0.16440855 -0.0441279 -0.25396207 0.34296885
000130 25 d7 99 be 4f bd 50 3c 31 2b 18 3e b0 c4 92 3d
       -0.30046955 0.012740447 0.14860226 0.071664214
000140 37 de 9b 3e 76 b3 96 be af 7c 39 bd 67 79 b3 be
       0.30442974 -0.29433793 -0.045284923 -0.3505356
000150 69 dc 47 3e 82 56 7d 3e f7 25 df 3d 5d ae 9a 3e
       0.19517674 0.24740031 0.10895913 0.30211154
000160 b7 67 93 3e 00 18 79 be f2 99 86 bd a3 81 65 3d
       0.28790066 -0.24325562 -0.065723315 0.056031834
000170 d5 36 8c 3e b0 cf a3 bd da d4 28 be 99 f9 90 3d
       0.27385584 -0.079985976 -0.16487446 0.07078857
000180 57 8b 25 be 1e 1c 59 be 17 1c 96 be d0 ae 3f be
       -0.16166435 -0.21202132 -0.29318306 -0.1871903
000190 b2 84 5a 3c 2f ba 9a be 48 4b 47 bc 8b f6 39 3e
       0.013337301 -0.30220172 -0.012163945 0.18160455
0001a0 1e 40 9a be 58 4f eb 3d 26 c3 3f bb 97 bc 36 be
       -0.30127043 0.11489743 -0.0029260605 -0.17845379
0001b0 ab 11 80 be 9f 90 28 be 1b 42 7b be 0d 71 18 be
       -0.2501348 -0.16461419 -0.24536936 -0.14886875
0001c0 ab cc 2f 3e be 8c 14 be bd 38 8e 3e 5f 80 14 3d
       0.17167918 -0.14506814 0.27777663 0.036255237
0001d0 40 27 57 be 49 b6 f7 3d b7 37 1e be 5a 84 9b be
       -0.21011066 0.12095315 -0.15450941 -0.30374414
0001e0 2d 1f 71 3e 4e 96 6a bb 25 4f 01 3e 9f 8c 5e be
       0.23547049 -0.0035795155 0.12627847 -0.2173333
0001f0 f8 49 a0 be 9c 67 18 3e a0 a2 21 3e 69 3d 83 be
       -0.31306434 0.14883274 0.15784693 -0.2563279
000200 77 1a d7 bd f6 1a 09 bd 93 7f 77 be ab aa cc 3e
       -0.10503095 -0.033472978 -0.2416976 0.3997396
000210 db c3 61 bc b4 16 c0 3e e2 e7 11 3e 36 a4 af bd
       -0.013779606 0.3751732 0.14248613 -0.085762426
000220 6b a0 43 3e 19 c0 9b 3e f6 14 47 3e 54 58 cc bd
       0.19104163 0.30419996 0.1944159 -0.09977785
000230 61 9e 72 be 1b 9c ac be 70 60 40 be f2 4b aa be
       -0.2369323 -0.3371285 -0.18786788 -0.33261067

backbone.0.bias f4 [16]
000000 f5 b5 a6 be b0 9b 5a 3e 68 89 8b 3e 0b ef 2f be
       -0.32560697 0.21348453 0.2725327 -0.17181031
000010 ae 0f 66 be 3b 2e 77 be 6b 80 cb 3d 10 fc 7c be
       -0.22466919 -0.2413873 0.09936603 -0.24705529
000020 7a 86 48 be 05 9e 43 be 5a 18 a5 be 58 c0 0d 3e
       -0.19582549 -0.19103248 -0.3224514 0.13842905
000030 0b ed 66 3d 32 5a 92 bd c4 7f 41 3e fc d1 a7 3e
       0.056378406 -0.0714611 0.18896395 0.32777393

backbone.1.weight f4 [16]
000000 d2 73 7d 3f 53 3c 80 3f a7 b1 7e 3f 13 10 80 3f
       0.9900485 1.001841 0.99489826 1.0004905
000010 01 af 7d 3f 03 4b 7e 3f ea d7 7d 3f 4f 21 7e 3f
       0.9909516 0.9933321 0.99157584 0.99269575
000020 49 0b 82 3f 22 55 82 3f c1 36 7f 3f 7c 4a 7f 3f
       1.0159694 1.018223 0.9969292 0.9972303
000030 c3 fe 7f 3f 2b 54 7f 3f 99 d2 83 3f 46 1f 7d 3f
       0.9999811 0.99737805 1.0298644 0.98875844

backbone.1.bias f4 [16]
000000 d4 c2 f1 bb 58 4f c5 3a ff d6 04 bc 88 2f 5e bb
       -0.0073779617 0.0015053554 -0.0081079 -0.0033902843
000010 a4 80 18 bc 3f fd b0 bb 0b 65 12 bb b3 ce 00 bb
       -0.009308014 -0.005401283 -0.0022338058 -0.0019654452
000020 0a 10 c9 ba dd 69 f4 3a 32 c8 49 bb aa 8e 4e 3a
       -0.0015339863 0.0018647272 -0.0030789492 0.0007879535
000030 6e e4 6b bb 75 90 62 b9 c9 c8 13 39 94 ca 7e bb
       -0.003599431 -0.00021606854 0.00014093811 -0.003887807

backbone.1.running_mean f4 [16]
000000 aa 34 48 bf 3c c1 18 3f 62 c3 c2 3d fb a2 50 3e
       -0.7820536 0.5966985 0.095099226 0.20374672
000010 b9 ff a8 bf df c5 bf be e5 90 b4 bd 81 ef 0a bf
       -1.320304 -0.3745565 -0.08816699 -0.54271704
000020 e4 94 05 bd a4 81 08 3d 2f 9a 43 bf ae 96 cc be
       -0.032612696 0.03332676 -0.7640714 -0.3995871
000030 ad 14 f7 be 3d 65 b2 be a4 bf b6 3e 62 a2 01 be
       -0.48257962 -0.34842864 0.35693085 -0.126596

backbone.1.running_var f4 [16]
000000 c7 17 01 3d d7 dc c7 3c f8 34 23 3c c0 0c c5 3c
       0.031516816 0.024397297 0.009961359 0.024053931
000010 6e f1 1e 3e e4 e0 1e 3c e1 44 2b 3c 2c f5 92 3c
       0.15521786 0.009697173 0.010453434 0.017939173
000020 95 94 33 3c 1e ee 7d 3c 51 58 02 3d 6d 66 2b 3d
       0.010960718 0.015498666 0.031822506 0.041845728
000030 fd 78 2e 3d ee 70 7a 3c 4d 76 4f 3c cf fa 0a 3d
       0.042595852 0.015285714 0.012662482 0.033930596

backbone.4.weight f4 [32, 16, 3, 3]
000000 7f 9f 6c 3d b4 cf 5a bd 81 21 6f bb c2 4f 49 bd
       0.057769295 -0.053420737 -0.0036488476 -0.04914833
000010 f9 ec 1a 3d eb 25 d2 3b 1e 8f fb 3c 61 11 39 bd
       0.03782365 0.0064132116 0.030707892 -0.04518259
000020 9f 77 16 bc b9 96 5d bd cc ba 89 3b 19 5c 3b bc
       -0.009183793 -0.05409882 0.004203176 -0.011435532
000030 19 6f 4d 3d 27 a4 05 3d 8a a5 42 3d b0 4f 7b bd
       0.05015478 0.03262725 0.04752115 -0.061355293
000040 35 15 1f bd 2c ec 96 3d b2 a7 05 bd 2a 66 73 bc
       -0.038838584 0.07369265 -0.03263063 -0.014855901
000050 ce a1 63 bd a0 1e 8d bc 7b ef 30 3d 27 57 c8 bc
       -0.05557423 -0.017226517 0.043197136 -0.02445562
000060 65 d6 8e 3c e0 da db bc 6e 7b 98 bd 22 88 92 3d
       0.017436216 -0.026837766 -0.07445417 0.071548715
000070 73 ad cb 3c 0f eb aa bd cf 47 89 bd e6 2f 82 3c
       0.02486298 -0.08345615 -0.067031495 0.01589198
000080 6d ad ec 3c 85 ef 90 3d 81 b9 55 3c a6 c5 dc 3c
       0.02889129 0.07076935 0.013044716 0.026949715
000090 4a ed 8a 3c b8 75 c2 bb 67 f6 94 bd a3 d2 90 bd
       0.016958851 -0.0059344433 -0.0727356 -0.07071426
0000a0 86 0c f8 3c 95 b3 00 3d 8c 7b 83 bd d9 93 a9 bd
       0.03027941 0.031421263 -0.06420049 -0.08280153
0000b0 6b cc 58 bc c7 b0 96 bd 27 0f f4 3b 96 41 45 bc
       -0.013232331 -0.07357936 0.0074480954 -0.012039563
0000c0 11 0c 9a 3c 80 90 4e 3c 2c 51 2b 3d 4d be 28 3d
       0.018804582 0.012607694 0.04182546 0.04119711
0000d0 85 b5 6d 3d bb a8 35 bb 3a 79 6a bc 84 3d 2f bc
       0.05803444 -0.002771898 -0.014311129 -0.010695819
0000e0 51 ec 29 3b c0 f1 3c bd 39 a9 30 3d 95 61 47 bd
       0.002592821 -0.04612899 0.043130133 -0.048677046
0000f0 df 4f 90 bd 74 e2 b7 bc 84 14 b6 bd 69 b2 62 bd
       -0.07046484 -0.022446848 -0.08890632 -0.055345926
000100 4f ad 7e 3d df c8 7f 3d b5 54 7a 3d b9 dc f6 bc
       0.062177 0.062447425 0.06111594 -0.030134546
000110 ba 00 99 bd c3 e4 54 3d 9e 0c 39 bd 13 7f 55 bd
       -0.07470842 0.051975977 -0.04517805 -0.05212314
000120 8f e4 d0 bb 84 98 97 bd 07 ea 23 bc 6f 30 09 3d
       -0.0063749026 -0.07402137 -0.010004527 0.033493455
000130 58 77 18 3d 5e 24 b4 bd da 92 a6 3a 56 27 20 bc
       0.03722319 -0.08795999 0.001270856 -0.009775003
000140 79 57 34 bd 8c 55 3a bd be 4c 78 bd cc 90 2e bc
       -0.044028733 -0.04549174 -0.060620062 -0.010654639
000150 05 8b 74 3c 1d 12 3b 3d 59 f4 ce 3b 6d dd 93 3d
       0.014925723 0.04567157 0.0063157496 0.07219968
000160 a0 79 89 3b 48 18 e0 3c 34 19 80 3d b7 2b 0c bc
       0.004195407 0.027355328 0.06254807 -0.008555344
000170 e1 0d 1f 3d cd db 87 3d 99 1d d0 3c ef 12 70 bd
       0.038831595 0.066337205 0.025404738 -0.058611806
000180 b3 70 91 bc e5 41 36 bd 27 7d f4 3c 2c 63 92 3d
       -0.017753934 -0.044496436 0.029844834 0.07147822
000190 2e f8 10 bc f0 f3 9e bd 7c bb 87 bc 78 af 11 bd
       -0.008848233 -0.07761371 -0.016568892 -0.03556773
0001a0 c1 99 e9 3c 15 09 7e bd 94 c8 93 bd 07 f6 85 3d
       0.028515698 -0.06202038 -0.072159916 0.065410666
0001b0 e9 8a 39 3c 55 6c 9d 3d 32 9e ee 3c 5a 2c 95 3c
       0.011324623 0.07686678 0.029128168 0.018209625
0001c0 da 19 db bc 96 72 af bc 73 11 69 bd 98 6f 95 bd
       -0.026745725 -0.021416944 -0.056901406 -0.072966754
0001d0 de c8 fb ba 10 16 f0 3b 3e 2d a6 3d 41 d7 ce bc
       -0.0019209643 0.007326849 0.08114098 -0.025249125
0001e0 0a 40 42 3b 23 72 bb 3c 7d 78 44 bc 06 15 b0 3b
       0.002964022 0.022881573 -0.011991617 0.0053736
0001f0 32 51 05 3b 63 a6 3b 3d 26 d6 31 3d 91 2e f9 bc
       0.0020342586 0.045812976 0.04341712 -0.030417712
000200 09 a5 3e 3d e3 3f 92 3d 9b fc 71 bc 8a 4d a6 bd
       0.04654411 0.07141092 -0.0147696985 -0.08120258
000210 c4 1c b3 bb 49 5a 21 bd 9e c8 a2 bc fe 52 4e 3c
       -0.0054660756 -0.039392743 -0.019871052 0.012593029
000220 2f ae 86 3d a6 f8 b8 bb e0 7f 7a bc 0e a3 df bb
       0.06576192 -0.0056448756 -0.015289277 -0.0068248576
000230 5e 63 3d 3d c0 b3 36 bd 21 ed 76 bd 6b 06 5f bd
       0.046237342 -0.044605017 -0.060284737 -0.05444948
000240 e9 10 4a 3d ce 84 e7 3c c0 12 aa bb 33 ba 31 bd
       0.049332533 0.028261568 -0.0051902235 -0.043390464
000250 67 74 7d bc 91 45 39 bd a3 5e e6 bc 14 81 f3 bc
       -0.015469647 -0.04523236 -0.028121298 -0.029724635
000260 16 fb 99 3d 2f db 40 bc 0c 9d 49 3d bd 72 0b 3d
       0.07518594 -0.011771007 0.049222037 0.03404497
000270 72 33 00 3d b9 8b b1 3d d0 e5 ca 3c 0a b8 71 bd
       0.031299062 0.08669228 0.024767786 -0.059013404
000280 87 0f a4 3d 6a 23 a5 3d e5 28 52 bd 57 11 3b bd
       0.08010774 0.08063395 -0.05130853 -0.045670833
000290 e5 49 b0 bc 68 37 96 3d 2f b7 25 3d 0f 4a ed 3c
       -0.02151961 0.07334787 0.0404579 0.028965978
0002a0 d8 d4 2b 3b 54 05 a6 3c 01 9e e2 3d 41 8d 8b 3a
       0.0026219394 0.020266213 0.11065293 0.0010646955
0002b0 16 d6 6b bb 71 14 fa bc e0 a4 8f bd c4 38 a7 bc
       -0.003598576 -0.030527325 -0.07013869 -0.02041281
0002c0 4f 81 81 bc fd 06 93 3d 1f a8 55 ba 83 8b 13 bd
       -0.01580873 0.07179067 -0.0008150357 -0.03602172
0002d0 83 df 72 bd d8 87 27 3d 32 1c 8c bd e9 ba 8f bd
       -0.05929519 0.040901035 -0.06841315 -0.07018072
0002e0 40 50 72 bb 83 ba b4 bd 96 ba f8 bc 4d 03 91 3d
       -0.0036974102 -0.08824637 -0.030362409 0.07080708
0002f0 78 32 4e bd 91 46 23 bd 00 44 48 3c 2e 57 39 3d
       -0.0503411 -0.03986222 0.012223244 0.045249157
000300 b3 87 12 bd 2f 9e 73 3d eb 19 8c 3d 31 d5 cd 3c
       -0.035773944 0.059477028 0.06840881 0.025126072
000310 4d d8 1e 3d 95 04 7c 3c 39 aa 9a 3c 0b 75 6a bd
       0.0387805 0.015381952 0.018879997 -0.057240527
000320 01 56 81 bc 3d 36 35 3d f2 fb 54 3d 90 d3 17 3d
       -0.01578808 0.04424118 0.051998086 0.037066996
000330 7f 8b 8e bc e6 75 89 3d 77 89 20 bd fe 4f ac 3c
       -0.017400501 0.067119405 -0.039193597 0.021034237
000340 fb 35 e7 bc a1 d3 84 bd 49 1e b7 bc d9 02 ba 3d
       -0.028223982 -0.064856775 -0.022353308 0.090825744
000350 3c ae b7 bc 38 b1 35 bd 10 24 a9 bd 63 ee 90 bd
       -0.022421949 -0.044358462 -0.082588315 -0.07076719
000360 02 b7 86 bc 77 54 dd 3d 9e ea 00 bc fe 29 fe bc
       -0.016444687 0.10807126 -0.007868437 -0.031025883
000370 59 a0 02 bd 0a 77 a1 bc ce 70 4e bd fc a3 6d bd
       -0.0318912 -0.019710083 -0.050400548 -0.058017716
000380 a9 b7 8b 3d da 0f 99 3d e4 44 3c bd b0 df c6 bc
       0.0682214 0.074737266 -0.045964137 -0.024276584
000390 c6 d8 ac 3c 45 9c a4 3d 14 cc 38 3c d4 db 85 bc
       0.02109946 0.080376185 0.011279125 -0.016340174
0003a0 f8 16 70 3c 01 9a 8f 3d 48 1f 60 3d 86 7a 35 3d
       0.014653914 0.07011796 0.054717332 0.0443063
0003b0 97 1b bd 3c bb 7e fe 3b 7e df 97 bc 75 99 8e bd
       0.023084445 0.0077665723 -0.018539187 -0.06962863
0003c0 61 17 57 3c 3d 61 a6 3d 66 6c 59 3d a6 a5 97 bc
       0.013128133 0.081240155 0.053081892 -0.018511605
0003d0 31 02 0c 3c c6 67 a9 3d 9e 33 64 3d 62 05 74 3d
       0.008545444 0.08271746 0.05571329 0.059575446
0003e0 a3 9c 48 3d 8e 83 9c 3d 78 f6 b1 3d 33 cc 4c bc
       0.048977505 0.076422796 0.08689588 -0.012499857
0003f0 b7 6d ed 3c e1 56 49 bd 2e 9f 3b 3c 4c ea 41 bc
       0.02898298 -0.04915512 0.011451526 -0.011835646

backbone.4.bias f4 [32]
000000 6e 7d 7e 3d 61 61 59 bd 66 c6 12 3c 25 9e 40 bc
       0.062131338 -0.053071383 0.008958435 -0.011756455
000010 41 07 0b 38 d0 25 18 bd fb 09 9c 3d a1 1a 81 3d
       3.314694e-05 -0.037145436 0.07619091 0.06303907
000020 0e bd 79 bd 75 97 59 3d 5b b0 89 3c 74 7c 8e 3d
       -0.060971312 0.053122956 0.016807726 0.06957331
000030 26 d6 85 3c 6b e0 52 3d 72 92 85 bd 3e 21 de bc
       0.016337465 0.051483553 -0.06522073 -0.02711546
000040 7c 5b 5a bc ca 64 d2 bb 86 eb 38 3d 5d db 4e bd
       -0.013327476 -0.0064207064 0.045146488 -0.05050217
000050 11 18 ab bb 82 50 52 3d 71 79 be 39 c8 9d 6f 3d
       -0.005221375 0.05134631 0.00036330105 0.05850008
000060 12 04 81 bd 10 30 4f bd 7c 66 5d 3c d2 b9 d0 3c
       -0.062996045 -0.050582945 0.013513204 0.025479231
000070 cd 8d 89 bd 7f 5f 96 bc ed 26 8c 3d a3 b3 d0 bc
       -0.067164995 -0.018356083 0.06843362 -0.025476282

backbone.5.weight f4 [32]
000000 e0 40 80 3f eb aa 7f 3f 35 82 7f 3f 28 a8 80 3f
       1.0019798 0.99870175 0.99808055 1.0051317
000010 6d 31 7f 3f 7e dc 7f 3f a7 63 7f 3f 0e ad 7f 3f
       0.9968479 0.9994582 0.9976143 0.99873435
000020 87 9c 7d 3f bf 47 80 3f 4c ea 7e 3f 92 44 82 3f
       0.99066967 1.0021895 0.9957626 1.0177176
000030 03 a0 7e 3f 43 cd 7d 3f 6e 0f 80 3f db df 7f 3f
       0.9946291 0.9914133 1.0004709 0.9995095
000040 e0 3e 7f 3f 32 92 7f 3f 3f f3 7f 3f 5e 56 7f 3f
       0.99705315 0.9983245 0.9998054 0.9974116
000050 b8 0a 81 3f 3e a6 7f 3f 34 e3 7f 3f 8b 52 80 3f
       1.0081396 0.9986304 0.9995606 1.002519
000060 9f 8a 7d 3f 38 13 80 3f f7 45 80 3f 24 38 82 3f
       0.99039644 1.0005865 1.0021352 1.0173383
000070 d3 8a 80 3f 60 48 80 3f 0e d3 7e 3f ce 5c 7f 3f
       1.0042366 1.0022087 0.99540794 0.99750984

backbone.5.bias f4 [32]
000000 8a a2 74 3b dc 8f 5a 3a ef 0d 19 ba b9 c8 2d 3b
       0.0037328326 0.0008337477 -0.0005838563 0.0026517345
000010 8d 3f 28 ba f7 be 98 ba 21 8d 2a 39 d3 14 6b ba
       -0.0006418161 -0.0011653592 0.00016265038 -0.00089676416
000020 84 77 77 bb 87 80 9a 3a b9 09 d2 37 54 45 4d 3a
       -0.0037760446 0.0011787572 2.5038478e-05 0.000783046
000030 6a 70 94 b9 ac ec 9d 3a c4 97 4d 3b 6d 71 1e 3a
       -0.00028312515 0.0012048683 0.0031370977 0.00060441234
000040 86 7d 78 ba dd 17 fd b7 26 bb 0e ba 72 7d 8e ba
       -0.00094791537 -3.0171062e-05 -0.00054447574 -0.0010871126
000050 b3 5e 68 bb 62 92 58 bb ce 95 48 bb e3 d4 9a ba
       -0.0035456836 -0.0033046235 -0.0030606869 -0.0011812713
000060 20 f7 94 bb f4 35 fc b8 3d d4 ca 39 fe 12 01 3c
       -0.004546061 -0.00012026346 0.00038686572 0.007878063
000070 ae 23 a9 b8 f6 69 f1 b9 67 77 93 ba 4c c7 53 3a
       -8.065194e-05 -0.0004604605 -0.0011250795 0.0008078709

backbone.5.running_mean f4 [32]
000000 e1 3e d2 be b1 92 53 3e 9c a4 60 3f 5b 29 65 be
       -0.41063598 0.20661427 0.87751174 -0.22379057
000010 16 4a 2f 3d 36 bb f8 3e d4 db c3 be 0c 42 50 3f
       0.042795263 0.4858033 -0.38253653 0.8135078
000020 0d d3 fd 3e 12 21 b5 be 4a d5 d4 be 17 db 1c 3f
       0.4957508 -0.35376793 -0.41568977 0.61271805
000030 18 11 43 3f cc 87 34 3e 5e 3b 27 bf b2 c1 c1 be
       0.7619796 0.17629927 -0.6532496 -0.3784309
000040 82 48 7a 3e 10 3b f6 be 1f 40 9c 3f f0 7a 0b 3f
       0.24441722 -0.48091936 1.2207068 0.5448446
000050 c4 3e 16 3f 54 e4 88 3f e0 b9 2f bf a7 3b 28 3f
       0.5868952 1.069468 -0.68643 0.6571602
000060 d0 27 18 3f b7 d7 61 be 2f 6c 4f 3f 11 3c fd 3e
       0.5943575 -0.22054945 0.8102445 0.4945989
000070 e4 87 95 3e 4b fc 04 bf cc cb 43 3f d8 04 b5 3e
       0.2920524 -0.5194747 0.76482844 0.35355258

backbone.5.running_var f4 [32]
000000 21 b2 c3 3e 05 2d 0e 3e 62 0c 0d 3f 9a 98 9f 3e
       0.3822184 0.13884361 0.5509702 0.31171113
000010 83 81 5b 3e 64 f7 38 3e f2 87 ca 3e 2f c1 1f 3f
       0.21436124 0.18063122 0.39556843 0.6240415
000020 b7 29 48 3f 54 97 f5 3e cf 55 3c 3e 0e 08 7e 3e
       0.7818865 0.47967017 0.18392108 0.2480776
000030 30 af 44 3f 3c f8 0b 3e c7 91 e8 3e 9b 5d 3c 3e
       0.76829815 0.13668913 0.4542372 0.18395083
000040 7a 99 bb 3e 29 5d b8 3e 6d f2 12 3f 74 67 40 3f
       0.3664053 0.36008576 0.5740116 0.75157857
000050 cc ef 44 3e b0 d8 b8 3e 3e 7f 86 3f f2 7d 1f 3e
       0.192321 0.3610282 1.0507581 0.15575388
000060 06 72 c9 3e 35 bf 9f 3e e3 08 47 3f 3a 6c 79 3e
       0.39344805 0.31200567 0.77747935 0.24357691
000070 a5 4b 34 3e 34 f4 5b 3f 10 3e 9b 3f ad 79 3d 3e
       0.17606981 0.859195 1.2128315 0.18503447

backbone.8.weight f4 [64, 32, 3, 3]
000000 fd 0f 73 bd c4 f6 0a bd d4 3a a5 bb a0 d0 99 bc
       -0.05934142 -0.03392674 -0.0050424132 -0.018776238
000010 b6 d1 4d 3d 60 84 0f 3d 8c 2b 0a bd 63 58 8e bd
       0.050248824 0.035038352 -0.033732936 -0.06950452
000020 cc 52 26 3c e0 85 1e 3d af 60 25 bd 8c ab 9d bc
       0.010151576 0.038701892 -0.040375408 -0.019246839
000030 8d 67 ee 3c a9 9b fe bb 85 f6 ce bc b3 e9 4c 3d
       0.029102111 -0.007770021 -0.025264034 0.05002756
000040 a1 19 af bc 25 da f7 3c 7d 57 47 bd 07 83 90 bc
       -0.021374526 0.030255387 -0.04866742 -0.017640604
000050 86 c2 3b bd 4d c0 8f 3c f5 4b 8f bd f6 0a 8d 37
       -0.04583981 0.01754775 -0.069969095 1.6813614e-05
000060 84 62 b3 3c 97 31 6a bc 26 80 a6 bc ac 9e 4c bd
       0.021897562 -0.01429405 -0.020324778 -0.04995601
000070 73 1d 11 3d 66 8f 41 3d 94 40 3b 3d 15 1a 64 3d
       0.035428476 0.047255896 0.045715883 0.055688936
000080 36 a2 cf bc 19 e5 9b 3c db bf 44 bd d4 51 ce bc
       -0.025345903 0.01903014 -0.04803453 -0.025185503
000090 e3 e6 cf bc 32 06 17 3c 2d 96 0d 3d 13 1f 8c bc
       -0.02537865 0.009217786 0.034567047 -0.017104661
0000a0 ee 54 77 bc f8 ea 60 bd 1e e6 05 bc 3f c8 8e 3c
       -0.015095932 -0.054911584 -0.00817254 0.01742947
0000b0 89 bf 96 3a c4 d6 fb 3c 45 71 15 bd 77 59 88 3c
       0.0011501174 0.030742057 -0.036484975 0.016644223
0000c0 8a 89 29 bc 91 23 a5 3b 05 39 09 3d 82 64 24 3d
       -0.010347733 0.0050396402 0.033501644 0.040134914
0000d0 fa 7d 69 3b 55 d4 93 3c 78 6c b0 bc e1 05 e4 bc
       0.0035628066 0.018045584 -0.021536097 -0.027834835
0000e0 57 49 3b bd 30 88 5b 3c 0e 89 dd bc 8a 94 6b 3d
       -0.04572424 0.013399169 -0.027042892 0.057514705
0000f0 90 d4 e7 bc 79 44 4c bd 96 14 b7 3c 9c 66 77 bc
       -0.0282996 -0.049869988 0.022348683 -0.015100148
000100 72 ba 81 3c 3f e7 ea bc 94 dc 41 bd 3d 8b 04 bc
       0.015835974 -0.02867472 -0.0473295 -0.008089838
000110 62 6c 8b bc 56 f3 34 3d 9b 1e a0 3a 67 38 e4 bb
       -0.017019454 0.044177376 0.0012216152 -0.0069647315
000120 50 5c f2 3c 28 6c 33 bd fa 77 2b 3c f8 d2 1d 3b
       0.029585034 -0.043804318 0.010465616 0.0024082046
000130 8f 54 00 bd e5 ef 13 bd 6e f7 74 bd 5b e4 db bc
       -0.03133064 -0.036117453 -0.05980628 -0.026842287
000140 de 3b f8 bc bb c4 19 3d 17 ac b2 bc c9 17 0f 3d
       -0.030301984 0.037541132 -0.021810574 0.034934793
000150 79 8d 36 3d 34 9d 06 3c 37 3a 00 3d 94 93 de 3c
       0.044568513 0.008216191 0.031305518 0.02716998
000160 bd db 12 3d e4 1e e0 bc 51 b8 50 bd 52 8e 5e bc
       0.03585409 -0.02735848 -0.050957028 -0.0135837365
000170 ac 29 53 bd bb cf 2f 3c 8d c5 80 bb 8c 1f 8a 3d
       -0.051553413 0.010730679 -0.0039298 0.06744298
000180 90 6e 5c bc cc 71 56 3c 8c 12 24 3d ff ab 56 bd
       -0.0134540945 0.013088655 0.04005675 -0.052410122
000190 36 b6 f0 bc 17 21 14 bc 9d 22 62 bd a0 d1 08 3d
       -0.02938376 -0.009041092 -0.05520879 0.03340304
0001a0 12 7b 84 3d 22 69 3f 3d 9d 5b 84 3c a2 87 f7 bc
       0.06468786 0.04673112 0.016156966 -0.030216042
0001b0 4a 30 a1 3b 39 0e 2f bd 6e 7b 2a 3d 61 64 83 bd
       0.0049190866 -0.042738173 0.041621618 -0.0641563
0001c0 af 0f 16 3d 87 a4 9d 3c 2b b0 f1 3b b5 52 cd bc
       0.03663605 0.019243492 0.007375737 -0.025063852
0001d0 77 9c 2b bc 76 9f 09 bd ba 2d 13 3d 10 36 d8 bc
       -0.010474316 -0.03359934 0.03593228 -0.026392967
0001e0 48 83 2a bd d9 a2 a9 bc c2 be 42 3d 83 27 17 bc
       -0.041629106 -0.020707535 0.047545202 -0.009225729
0001f0 d4 ac e5 3c e7 16 56 3c 4f ae 08 3d c4 3f 82 3d
       0.028036512 0.013066984 0.03336936 0.063598186
000200 f8 78 88 3d 90 16 ab bc 05 71 5e 3c 57 db 12 bc
       0.06663698 -0.020884782 0.013576751 -0.0089634275
000210 7c 44 63 3d 78 38 e7 bb 2b 3f 1c bd 87 5e 6e 3c
       0.055485234 -0.007056292 -0.03814618 0.014548904
000220 39 ab 2d bd 42 bd 33 3d 06 e4 ab 3c 37 b1 0d bd
       -0.04239962 0.043881662 0.020982753 -0.034592833
000230 43 80 9c bb 13 21 f1 b9 56 cc 72 3d 20 97 83 3d
       -0.004776032 -0.00045991744 0.0592769 0.06425309
000240 7e 2c 99 3c ab a7 5b bd 22 f0 59 bd 02 d5 23 3d
       0.018697973 -0.053626698 -0.053207524 0.039998062
000250 65 6d 73 bc 5c f6 85 bc 7f ad 53 3d d6 d6 14 3b
       -0.014857625 -0.016352825 0.05167913 0.002271106
000260 ea 45 fb bc f5 62 d2 bb d0 d2 9a 3c 84 19 80 bc
       -0.030672986 -0.006420488 0.018899351 -0.015637167
000270 1c 83 f8 bc 1d 6e 2d bc e2 0b b9 bb ba 5d 26 3a
       -0.030335955 -0.010585335 -0.0056471685 0.0006346364
000280 bc d4 8e bc 0c 3b fe bc 26 7a 85 bd ee 82 09 bd
       -0.017435424 -0.031034015 -0.065174386 -0.03357213
000290 01 c6 17 bd 7e 44 83 3c 2f 1b 28 bd c8 05 53 bd
       -0.037054066 0.01602387 -0.04104155 -0.051519185
0002a0 1f 03 b2 bc cd 51 38 bd 7a 81 78 bd 95 96 83 bd
       -0.021730004 -0.044999886 -0.060670353 -0.064252056
0002b0 89 e3 54 bb e1 8c 88 bd 4b a7 f8 bc 8a dc 2b 3d
       -0.0032484254 -0.066674955 -0.030353209 0.04195837
0002c0 82 f2 d2 3b 76 9c 2c 3d fd c9 00 bd 96 5b 5d bd
       0.0064376006 0.0421414 -0.03144263 -0.05404242
0002d0 b3 80 db 3c 43 62 73 bc 41 48 29 3b 63 50 f1 3c
       0.026794767 -0.01485497 0.002583042 0.029457277
0002e0 86 fd 20 bc 95 ee 37 3d 71 6b f3 3b ac fa 11 bd
       -0.00982607 0.044905264 0.0074285795 -0.03563945
0002f0 87 5c 09 39 51 bb 35 3d 10 a3 ce 3c 18 a6 17 bc
       0.00013099807 0.044368092 0.025224239 -0.009255908
000300 a2 0b 6d bd dd c5 b7 39 5b 74 3a bc 54 db e4 bc
       -0.057872422 0.000350519 -0.01138028 -0.027936615
000310 7a 9b d8 3c cf 86 e4 bc ac e4 80 bc 9a 42 7a 3d
       0.026441325 -0.027896313 -0.01573404 0.061098672
000320 bc 6c 0f 3c 07 25 d5 3c c4 cb 54 3d 19 7e 2d bb
       0.008753952 0.026018633 0.05195214 -0.0026472865
000330 54 65 31 bd c0 76 5a 3c 4c 24 84 bc 54 93 68 bd
       -0.043309525 0.013333976 -0.016130589 -0.056781128
000340 4d 04 7a bc 22 9a af 3c 16 28 48 bc 44 08 ab bb
       -0.015259814 0.021435801 -0.0122165885 -0.005219491
000350 6c 64 6f 3d 94 7a 8c bc a5 dd 48 bc ed b4 9f 3c
       0.05844538 -0.017148294 -0.012259875 0.019495452
000360 ba 1a 74 3a 03 2f 56 bd 73 bc 4f 3c e4 98 31 bc
       0.0009311844 -0.052290928 0.012679207 -0.010839675
000370 c5 58 a0 bc fc 2b 63 3c 0a 09 14 bd b2 41 7d bc
       -0.019573579 0.013865467 -0.036141433 -0.0154575575
000380 10 f6 09 bd 8b 86 7b bb 6d 9e f2 bb 56 c3 10 bd
       -0.03368193 -0.0038379754 -0.0074041397 -0.035342537
000390 e2 ee b8 3c 1b c6 87 3d b7 9a 76 3d 3a 5e fa bc
       0.022574846 0.066295825 0.06020614 -0.030562509
0003a0 5b 00 11 bc 69 8f 00 bd 13 02 ca 3c a5 5a 76 bd
       -0.008850182 -0.031386767 0.024659192 -0.06014504
0003b0 20 df d4 3b 87 be 0f 3b 5a 73 21 3b bb e9 00 bd
       0.006496325 0.0021933632 0.0024635405 -0.031472903
0003c0 1f 3b e9 3a d6 78 18 bd 05 0c 78 3c 4f a1 cc bc
       0.0017794109 -0.037224613 0.015139584 -0.024979262
0003d0 53 59 f4 bc c0 7a 54 3b ec f0 e7 bc b2 bc 3d 3d
       -0.02982775 0.0032421798 -0.028313123 0.046322532
0003e0 4a b9 d2 bb 66 8e 29 3c de e8 45 bd 38 26 45 3c
       -0.0064307796 0.010348892 -0.048317783 0.012033038
0003f0 2d b3 46 bd eb 6d 18 bd fa 2d 11 bc e7 98 48 3c
       -0.04851072 -0.0372142 -0.008861059 0.012243486

backbone.8.bias f4 [64]
000000 d7 1f b0 bb fd c7 6d bd 64 e6 04 3d ab 20 b8 bc
       -0.0053748894 -0.05805205 0.03244628 -0.022476515
000010 df 94 32 3d bc 4b ae bc a2 f4 29 bc 2f 03 3c 3d
       0.043599006 -0.021276347 -0.010373266 0.045901474
000020 9f 1d 0d bd 93 a3 9e bc 1b 04 88 3c 5e f6 bc 3c
       -0.034452077 -0.019365108 0.01660352 0.023066696
000030 6f 00 5e 3d 58 25 04 bd 5a 95 1c bd b2 db 14 bd
       0.054199632 -0.032262176 -0.03822837 -0.03634233
000040 da 38 f4 bc bd 89 18 3d d1 ce 43 bd 10 90 6b 3d
       -0.029812265 0.037240732 -0.047804657 0.057510436
000050 d6 9a 88 3c 15 e0 8c bc 5e 19 04 3d b9 13 c1 3c
       0.016675394 -0.017196694 0.032250755 0.023568975
000060 93 63 65 3d af 8b 9f bb d9 5f 2c bd be f4 90 bc
       0.056003164 -0.0048689465 -0.042083595 -0.017694827
000070 12 0d 5a bd 53 34 56 3d 6a 3d ad bc d7 02 3b bc
       -0.05323512 0.052295994 -0.021147449 -0.011414251
000080 39 d2 ef bc 3b 43 cf bc fe 71 bc 3c f5 b0 e1 3c
       -0.029275047 -0.025300613 0.023003574 0.0275502
000090 95 9c 5f bd 6d 48 22 bc eb dc 80 bc 06 b2 52 bd
       -0.054592688 -0.009904963 -0.015730342 -0.051439308
0000a0 d7 1e 34 bd 37 52 98 3c a3 ec 43 3c d8 a0 8f bb
       -0.043974724 0.01859389 0.011958274 -0.0043831877
0000b0 56 7f b6 ba 5f 7a 23 3d 11 ce f6 3c cf 63 1a 3d
       -0.0013923447 0.039911624 0.030127557 0.03769284
0000c0 c6 1c 90 ba 02 12 b1 bc 8a a2 0c bd 39 5e 9a 3c
       -0.0010994903 -0.021615032 -0.034334697 0.018843757
0000d0 fb c7 e6 bc bd 9a a6 bb 04 38 61 bd 03 a5 54 3d
       -0.02817153 -0.005084364 -0.05498506 0.05191518
0000e0 6d ba 08 bd 5a 34 14 3d 3a 9b 4a 3d 4b 22 49 3d
       -0.033380914 0.03618274 0.04946444 0.04910497
0000f0 0b 93 0a 3c 89 56 37 bc 0e 45 5c 3c 60 64 08 bd
       0.008457909 -0.011190065 0.013444198 -0.03329885

backbone.9.weight f4 [64]
000000 d9 1f 7d 3f f9 05 7f 3f 90 c8 7f 3f 7f 78 80 3f
       0.9887672 0.9961849 0.9991541 1.0036772
000010 b9 51 7c 3f b0 9a 7d 3f e8 21 7e 3f b4 d1 7d 3f
       0.985622 0.9906416 0.99270487 0.99148107
000020 b0 32 7d 3f 0f 51 7e 3f d0 33 7e 3f 12 e1 7e 3f
       0.9890547 0.99342436 0.9929781 0.9956218
000030 79 93 7b 3f 44 7a 7e 3f b6 bd 7c 3f 6f c5 7e 3f
       0.982719 0.9940531 0.98726976 0.9952001
000040 9b d3 7c 3f a3 e3 7c 3f 84 7e 7e 3f 9b 2d 7e 3f
       0.98760384 0.98784846 0.994118 0.9928834
000050 17 1b 7f 3f d3 46 7e 3f c4 49 7f 3f 1f 35 7d 3f
       0.9965071 0.9932682 0.9972193 0.9890918
000060 65 98 7d 3f dc c0 79 3f ee 68 7d 3f a3 2d 7e 3f
       0.9906066 0.97559905 0.98988235 0.99288386
000070 a1 6d 7c 3f ca 95 7e 3f 72 3a 80 3f a9 78 7c 3f
       0.9860478 0.9944731 1.0017836 0.9862161
000080 04 00 7e 3f 92 6a 7e 3f 90 2a 7c 3f 82 fa 7d 3f
       0.99218774 0.99381363 0.98502445 0.9921037
000090 b3 71 7e 3f 11 8b 7e 3f 73 63 7c 3f 53 01 7e 3f
       0.9939224 0.9943095 0.9858925 0.9922077
0000a0 4a 5a 7c 3f f9 25 7a 3f 9d 2a 7e 3f 6c f8 7b 3f
       0.9857527 0.9771419 0.9928377 0.98425937
0000b0 24 a9 7f 3f 65 7f 7c 3f 3a cc 7d 3f 75 d6 7c 3f
       0.99867463 0.9863189 0.9913975 0.98764735
0000c0 ed 58 7f 3f 9c b8 7d 3f 12 36 7c 3f 5b fa 7f 3f
       0.99745065 0.99109817 0.98520005 0.9999139
0000d0 fb e9 7d 3f 89 54 7f 3f 0c f2 7c 3f 45 7b 7e 3f
       0.9918515 0.99738365 0.98806834 0.99406844
0000e0 21 00 7d 3f 81 6e 7f 3f cc 21 80 3f 7e 07 80 3f
       0.9882832 0.9977799 1.0010314 1.0002286
0000f0 8c 1a 7f 3f ae 8e 7e 3f 4d 09 80 3f cf 99 7d 3f
       0.9964988 0.9943646 1.0002838 0.9906282

backbone.9.bias f4 [64]
000000 87 9e 15 bc be ca 95 bb c6 8e 9c bb 35 76 42 bc
       -0.009132034 -0.004571288 -0.004777762 -0.011869003
000010 17 95 6a bc fd 30 15 bc ae 0f b0 bb c8 e8 41 bc
       -0.014317772 -0.009105918 -0.005372963 -0.0118352845
000020 7b f7 1a bc 5a 95 c2 bb 55 73 dc bb 95 9e b1 bb
       -0.009458418 -0.0059382142 -0.006727616 -0.005420516
000030 c0 c4 81 bc 69 fd 01 bb 03 af 78 bc ce 1e 5f bb
       -0.015840888 -0.0019834882 -0.015178445 -0.003404546
000040 0c 6f 70 bc 24 cd 1c bc b7 d3 ce ba 16 ee 05 bc
       -0.014674913 -0.009570394 -0.0015779649 -0.00817444
000050 86 05 f4 bb 5f b3 a9 bb 89 89 ea bb ee 14 da bb
       -0.0074469475 -0.0051788534 -0.0071575087 -0.006655327
000060 f2 76 01 bc dd 18 6f bc 97 ec 2d bc 1f be fb bb
       -0.007901894 -0.01459333 -0.010615489 -0.0076825763
000070 bd 04 0e bc 65 41 ea bb 5c 77 86 bb d0 3c 90 bc
       -0.008668122 -0.007148909 -0.004103584 -0.017607123
000080 7a b0 18 bc d2 7d fb bb fa 4e 8a bc 66 07 14 bc
       -0.009319419 -0.007674911 -0.016883362 -0.009034967
000090 f7 1a 03 bc 54 bc 6a bc a5 1f 28 bc a1 d1 39 bc
       -0.008002034 -0.0143271275 -0.010261451 -0.011341483
0000a0 58 e7 47 bc 7f 7a 51 bc 90 fb d3 bb 4a 72 53 bc
       -0.012201153 -0.012785553 -0.0064691976 -0.012905667
0000b0 4e a3 0f bc 05 a9 59 bc 39 a8 0a bc 5b bd 07 bc
       -0.008766962 -0.013284926 -0.008462959 -0.008284892
0000c0 5c 74 2c bc c0 fb 09 bc 71 f7 4d bc b5 2f 0d bb
       -0.010525789 -0.008421838 -0.012571202 -0.0021543328
0000d0 66 ac 3d bc 28 57 df bb 90 13 3f bc bf 5b c6 bb
       -0.0115767475 -0.0068158098 -0.011662379 -0.0060534175
0000e0 45 1f fa bb 71 f9 5e ba d4 3e 44 bb f6 b2 d8 bb
       -0.007633122 -0.00085057976 -0.0029944675 -0.0066131307
0000f0 6d 45 ad bb 2e ea dd bb 2b da 94 bb d7 5c 28 bc
       -0.005287817 -0.006772301 -0.004542609 -0.010276041

backbone.9.running_mean f4 [64]
000000 4e 4a 57 bf fa d1 a9 bf 9e cc 03 c0 2e 58 8e 3f
       -0.84097755 -1.3267205 -2.0593638 1.112066
000010 86 62 91 3f 6a 83 e6 3e 8c 6e 77 bf aa 95 2e bf
       1.1358192 0.45022136 -0.96653056 -0.6819712
000020 59 cb 48 3f 48 12 dd bf 7e 48 a1 3f c9 42 78 bf
       0.78435284 -1.7271204 1.2600248 -0.96976906
000030 21 05 7a 3f 66 8c d4 bf 6c f5 a4 3f e0 73 ab bf
       0.97664076 -1.6605346 1.2887397 -1.3394737
000040 8c 11 a2 3e da 10 97 3e 7b 40 01 c0 91 50 6a bd
       0.31654012 0.29505044 -2.0195606 -0.05720574
000050 54 a8 c6 3f d2 71 12 c0 5b 70 a4 be 1d 82 00 c0
       1.552012 -2.288197 -0.3211697 -2.0079415
000060 e4 64 b5 bf 10 41 88 3e e3 06 8f be 60 c2 a1 bf
       -1.4171414 0.2661214 -0.27934942 -1.2637444
000070 5c e5 7a bf af 00 6e 3e f7 9e a3 3e 05 99 d0 3f
       -0.98006225 0.23242448 0.31957218 1.6296698
000080 20 43 c9 bf c0 5d 40 bf 55 dd fc 3f ba 27 8f bf
       -1.572361 -0.7514305 1.9755045 -1.1183999
000090 cb 70 53 3d b4 7c c1 3f 84 92 d1 bf 8b 6a c3 3f
       0.05162124 1.5116181 -1.6372838 1.5266889
0000a0 3a 2c cb be fa 29 1d 3f d3 9e 86 bf a6 ff 4b 3f
       -0.3968218 0.61392176 -1.0517219 0.79686964
0000b0 39 73 a3 be 02 92 d7 3f b0 a7 84 bf 86 2d 99 bf
       -0.31923845 1.6841433 -1.0363674 -1.1967018
0000c0 a8 8a ed 3f 49 ad 9c be 47 1d 04 40 b2 d1 66 bf
       1.855794 -0.30600956 2.064287 -0.9016372
0000d0 b3 31 b8 3e 71 67 7d 3c d1 ff 91 3f f8 92 63 bf
       0.35975417 0.015466557 1.1406194 -0.8889613
0000e0 85 ce 5e bf 78 b1 80 bf fd 25 bb bf da a7 c1 3e
       -0.87033874 -1.0054159 -1.4620968 0.37823373
0000f0 25 ac d5 bf cf ac 6f 3e d5 95 9b bf 2c 56 ca 3f
       -1.6693159 0.23405765 -1.21551 1.5807548

backbone.9.running_var f4 [64]
000000 56 fa 3c 3f b8 b7 12 3f 4b c0 a3 3f fe ae 5b 3f
       0.7381948 0.5731158 1.2793058 0.8581389
000010 0f 39 38 3f 89 98 3e 3f 87 b9 23 3f 86 03 0d 3f
       0.71962065 0.744515 0.6395497 0.550835
000020 7a 57 16 3f 96 03 7d 3f aa 54 10 3f 73 b2 40 3f
       0.5872723 0.98833597 0.5637919 0.7527229
000030 ed f3 32 3f 1e 18 1b 3f 59 39 72 3f 6e b6 3f 3f
       0.6990345 0.60583675 0.94618756 0.7488774
000040 e2 13 9f 3e 90 5f f0 3e c1 b4 ae 3f 9f ee 28 3f
       0.31069857 0.46947908 1.3648912 0.65989107
000050 8d 74 46 3f 52 19 60 3f 25 56 01 3f bd 8e 66 3f
       0.7752159 0.87538636 0.5052207 0.9006155
000060 09 3f 20 3f b7 9e 07 3f ca d8 5c 3f f4 3e 6c 3f
       0.62596184 0.52976555 0.86268294 0.9228356
000070 b1 68 0d 3f f3 8b 26 3f c5 e4 11 3f f5 14 4b 3f
       0.5523787 0.65057296 0.569897 0.7932885
000080 bd 52 35 3f d1 44 19 3f 2b bf 4f 3f d3 b4 b1 3e
       0.70829374 0.5987063 0.81151074 0.3470827
000090 de de ec 3e f6 3a 17 3f 04 18 65 3f 39 22 7d 3f
       0.46263784 0.5907434 0.8948977 0.98880345
0000a0 1f 85 8b 3e 45 50 12 3f 3d c2 c4 3e 78 51 02 3f
       0.2725 0.5715373 0.38429442 0.5090556
0000b0 98 21 47 3f 97 c7 88 3f 90 f6 28 3f 9b b1 11 3f
       0.77785635 1.068591 0.66001225 0.5691163
0000c0 98 58 81 3f 80 94 47 3f bb 51 85 3f 63 57 8c 3f
       1.0105162 0.7796097 1.0415567 1.0964168
0000d0 20 5e 04 3f bb 3b fa 3e 9d 80 1b 3f bd 4a 05 3f
       0.51706123 0.48873696 0.60743123 0.52067167
0000e0 ea 79 fe 3e 01 63 44 3f df 1b 78 3f 39 d5 0c 3f
       0.49702388 0.7671357 0.9691753 0.5501285
0000f0 58 a0 42 3f 95 f9 be 3e 6d 19 28 3f af 30 57 3f
       0.76025915 0.3729979 0.65663797 0.8405866

classifier.1.weight f4 [128, 576]
000000 54 f9 e2 3c 1b aa 07 3d 2b 9d a2 3c fd bd 5d 3c
       0.02770678 0.03312121 0.019850334 0.013534066
000010 ec 73 54 3c c3 4c 4c bc 78 4f 9e 3c 4a 01 81 bb
       0.012967091 -0.012469473 0.019325003 -0.0039369212
000020 0d dd 13 ba db 20 04 bd 9a 2e 50 3c 91 0a c1 3c
       -0.0005640544 -0.032257896 0.012706423 0.023564609
000030 ad 37 b7 3c 87 f0 fd 3c 52 87 d2 bc e7 da 94 3c
       0.022365415 0.030998481 -0.025699291 0.018170787
000040 6b b5 c6 bc a7 5d 27 bb 6e a3 0b 3d dd de b8 3c
       -0.024256429 -0.0025538 0.034091406 0.022567207
000050 d7 7d b2 bc d9 02 c6 bc c9 35 0e bd e3 90 11 3d
       -0.02178852 -0.02417128 -0.034719262 0.035538565
000060 67 f5 1a 3d 71 76 09 3d 79 37 3b bb fc 1c d4 3c
       0.03783169 0.03356022 -0.0028567 0.025892727
000070 eb a4 96 3c 01 dd 6c 3c 91 97 03 bd b2 21 11 bd
       0.018389186 0.014456988 -0.032126967 -0.035432525
000080 88 e7 cc bc da 41 1a bd 78 ff 9a 3c 9f 40 9b 3c
       -0.025012746 -0.037660457 0.018920645 0.018951712
000090 0c 75 05 bd ed 5f c1 bc 79 f0 8c bc 91 a6 01 bb
       -0.032582328 -0.023605311 -0.01720451 -0.001978312
0000a0 6d 31 bb bc 18 a8 fa ba 85 5c 5e 3c ee 1f 24 3d
       -0.022850716 -0.0019123582 0.013571863 0.040069513
0000b0 76 90 8c bc 3b 85 a1 3c fb 18 f7 3c 8b 2f e4 bc
       -0.017158728 0.01971685 0.030163279 -0.027854702
0000c0 a4 52 02 3b 6d fa 82 bc da e8 1d bd 21 a4 20 3c
       0.0019885683 -0.015988553 -0.038552143 0.009804756
0000d0 34 21 0b 3d 9f b0 d7 bb 60 2c 2a 3b 27 91 18 bd
       0.03396721 -0.006582334 0.002596639 -0.037247803
0000e0 5d c6 05 bc d6 5b 1d bd 07 0e c5 3c 11 d0 ec 3c
       -0.008164969 -0.03841766 0.02405454 0.028907808
0000f0 aa bf 66 bc 6b a4 f5 bc 35 86 66 3c 6b c6 65 3c
       -0.014083782 -0.029985627 0.014070083 0.014024357
000100 36 48 ec bb a0 3e 75 3c 89 97 24 bd 12 fa e0 3c
       -0.0072107567 0.014968544 -0.040183578 0.027462993
000110 4a d2 3c bc 98 2a 8e 3c 77 c8 0a 3c 35 ed eb 3c
       -0.011524746 0.017354295 0.008470646 0.028799633
000120 cf 76 6b bc bb d8 c6 bc 2f d9 a7 3c d3 ab 23 3d
       -0.014371588 -0.024273267 0.020489303 0.039958786
000130 08 3d 05 bd a6 90 24 3c db 12 c2 3c be 02 19 3d
       -0.032528907 0.0100442525 0.023690632 0.03735613
000140 47 47 0a 3d 2f 80 16 3c 5e 83 05 3d f2 5a 73 3c
       0.03375938 0.009185835 0.032595985 0.014853226
000150 15 8e cf bc 25 a1 33 3c d5 3a ac bb 1e be f2 bc
       -0.025336305 0.010963713 -0.0052560368 -0.02963167
000160 c5 69 14 3d 24 54 00 bd 16 95 85 3c 01 8b b7 3c
       0.036233682 -0.031330243 0.016306441 0.02240515
000170 bf d7 b9 bc 65 8b c9 3b 40 88 9c bc 6d bf 5a bc
       -0.022685884 0.0061506503 -0.019107938 -0.0133513035
000180 03 b3 80 3c 7f 1f d3 3c 98 fb bb 3c 85 e0 10 3c
       0.01571036 0.025771854 0.022947118 0.008842592
000190 6e a0 e0 bc b3 38 24 3d 8c 72 3f bc 30 eb e6 3c
       -0.027420249 0.040093135 -0.011685025 0.028188318
0001a0 10 83 12 3d 9c 14 26 3d 5f e9 c1 3c e6 d0 1c 3d
       0.035769522 0.040547 0.02367085 0.03828516
0001b0 54 ff c0 bc 36 18 08 3c 84 7c ce 3c a7 60 8b bc
       -0.02355925 0.008306554 0.025205858 -0.01701386
0001c0 a3 91 22 3d 38 71 05 3d 03 23 7b bc 3d c2 07 bc
       0.03968967 0.032578677 -0.015328172 -0.008286056
0001d0 cd f1 ab bc 24 87 17 bb 9e ad 93 bb bd 71 ae bb
       -0.020989323 -0.0023121322 -0.0045067808 -0.0053236173
0001e0 23 52 11 3c f8 99 81 3c 7a 9d 46 bc d9 63 1d 3c
       0.008869681 0.015820488 -0.012122506 0.009606325
0001f0 c3 51 da 3c 55 4a 07 3d ec ca b3 3c aa bc 25 3b
       0.026650315 0.033029873 0.021947347 0.0025289454
000200 a3 8c 09 3d 43 d9 1c bd eb 5c ba bc cd 7d 07 3d
       0.033581387 -0.038293134 -0.022749385 0.033078957
000210 40 88 4e bc ce c9 1b bd e2 84 7d bb 6a 4c 16 3d
       -0.012605727 -0.038034253 -0.003868394 0.036693968
000220 29 2e 2e bc dc e4 10 bd 60 c2 fe bb 7d 6d a6 bb
       -0.010631123 -0.035374507 -0.007774636 -0.00507897
000230 f3 ae 2b bd db c9 06 bd 3d 6c fc 3c 82 57 88 bc
       -0.04191489 -0.032907348 0.03081333 -0.01664329
000240 53 1a 31 bd 4f bc 49 3c f2 4d db bc aa 30 c3 3c
       -0.043237995 0.012312963 -0.026770566 0.023826916
000250 c1 00 ad bc 1e a4 86 3b 8c 84 3d 3b 9a 03 23 bd
       -0.021118524 0.0041089198 0.0028918115 -0.039798357
000260 46 61 a3 bb 5e c3 3c bb e6 31 df bb fb 1e 92 bc
       -0.004985961 -0.0028802971 -0.0068113683 -0.017837038
000270 c5 69 54 bc 7e 3f 27 bd 11 38 0c 3d a0 c6 06 bd
       -0.012964671 -0.040832035 0.034233157 -0.032904267
000280 83 c8 5e 3c 92 eb a5 bc fb 3b 2d bc 96 51 07 3d
       0.01359761 -0.02025393 -0.0105733825 0.03303679
000290 8d d5 55 3c 84 dd e2 3c 81 16 07 bd ff 98 0d 3d
       0.013051403 0.027693518 -0.032980446 0.034569737
0002a0 83 c9 9e bb e8 32 df bc ed 4c b0 3c b7 93 be 3c
       -0.0048457994 -0.027245954 0.021521056 0.023263795
0002b0 15 ce fc 3c 31 67 cf bc cc ff bd ba 95 58 99 3c
       0.030859986 -0.02531776 -0.0014495789 0.018718997
0002c0 08 12 17 bd 3d 10 de bc 24 4a c2 bc 99 33 64 3c
       -0.03688243 -0.027107352 -0.023716994 0.013928317
0002d0 af 46 ac 3c a8 2f dc 3c 58 27 fb bb c5 d5 a6 3c
       0.021029798 0.026878193 -0.0076646022 0.020365605
0002e0 c1 9c f8 bc 49 37 2f bc 7b a8 be 3a ec 06 6a 3c
       -0.030348184 -0.010694333 0.0014546061 0.014283877
0002f0 aa 75 2f 3c 63 84 96 3a 6c 68 d2 3c 4b da 05 bd
       0.010709206 0.0011483546 0.025684558 -0.032678884
000300 7f 3a 23 bd a6 76 cf bb 8a ff df 3c d7 eb 02 bd
       -0.039850708 -0.0063312827 0.02734353 -0.031963196
000310 f9 b1 75 3c c4 07 87 3b ce 1a c7 bc a7 a6 e9 bc
       0.014996045 0.004120799 -0.024304774 -0.028521849
000320 aa 36 00 bd 69 90 bc bc 29 35 96 bc bc aa 8e 3c
       -0.03130213 -0.023018079 -0.018335896 0.017415397
000330 d6 53 df bc 1e 3a c7 bc e7 54 f5 3c 2a 58 0b bc
       -0.027261656 -0.024319705 0.029947711 -0.008504907
000340 39 27 7d 3c 53 7e 4a bc 21 f9 22 bd 9c 55 9b 3c
       0.015451246 -0.01235922 -0.03978837 0.01896172
000350 cd 0f 3b bd 42 05 20 3c 82 d3 7d bc 78 6b 00 3d
       -0.045669366 0.009766879 -0.015492322 0.03135249
000360 12 18 eb ba a5 c2 47 3c 08 1c df 3c 76 d2 95 bc
       -0.0017936251 0.012192403 0.027235046 -0.018288832
000370 33 b2 a8 bc f0 d6 ba 3c d8 27 a2 bc e1 5e 47 bc
       -0.020592785 0.022807568 -0.01979439 -0.012168617
000380 f0 55 16 3d 16 ea 01 bd 03 a3 b5 3c a8 c5 92 bc
       0.03670305 -0.031717382 0.022172457 -0.017916515
000390 70 5f 26 bc 04 85 36 bc 2b 0f 15 bd 43 91 0f 3d
       -0.01015459 -0.011140112 -0.03639142 0.03505064
0003a0 63 bb 9d 3c e5 6b ab bc 55 d4 ff bc 27 57 a9 3c
       0.019254392 -0.020925472 -0.031229177 0.02067144
0003b0 8a 2c 8a bc ac 4d 02 bd d2 58 12 bc 60 5c f2 3c
       -0.016866941 -0.031812355 -0.008932309 0.029585063
0003c0 5d 6e 0c 3c 59 28 09 3c 6e 4f c7 3c a2 93 3b bc
       0.0085712345 0.008371436 0.024329867 -0.011448773
0003d0 80 0a f7 3c 84 8d 1b 3c 2c de 91 38 f5 97 07 3d
       0.030156374 0.009494189 6.9555215e-05 0.033103902
0003e0 71 51 e6 bb a9 ca 0e 3c ec c1 87 bc fa 57 19 bc
       -0.0070287515 0.00871531 -0.016571961 -0.009359354
0003f0 90 83 1c bd b5 fb a7 39 89 1d dd bb be 56 93 3c
       -0.038211405 0.00032040259 -0.0067479056 0.017985698

classifier.1.bias f4 [128]
000000 40 b5 00 bd d6 47 cf 3c 5e 4b 72 bc 26 58 7a 3c
       -0.031422853 0.025302809 -0.014788477 0.015279805
000010 f4 24 22 3d a8 d0 20 3a a6 01 92 bc ce f9 38 3c
       0.039586022 0.0006134608 -0.017823052 0.011290027
000020 2c 56 8e 3b 87 fb 13 3d e6 06 b1 bc 31 a5 df 3c
       0.0043437686 0.036128547 -0.021609735 0.02730045
000030 7c 0e 0d bd e2 a1 c7 3c 3d 90 c9 3c 85 14 bf 3c
       -0.03443764 0.024369184 0.024604911 0.023325214
000040 fd ff 7d 3c 4b 9f cf 3b cb eb 3d bc c5 0d a5 bc
       0.015502927 0.006336128 -0.011591862 -0.020148167
000050 9a f4 f2 3c 97 43 77 3c d1 69 0e bd c5 e7 d9 3b
       0.02965765 0.015091798 -0.034768883 0.0066499435
000060 fc 96 72 3c 4a 08 16 bd 39 cc 9c bb 51 8d 46 bc
       0.014806505 -0.036629 -0.0047850874 -0.012118653
000070 d9 e2 ed 3c aa c4 cf 3c 75 25 fc 3c 1a b9 28 3c
       0.029038833 0.025362331 0.03077958 0.010298038
000080 87 65 c5 bb 31 10 96 3c 4e b2 18 3d 8c cc d9 3c
       -0.006024066 0.018318268 0.03727942 0.026586793
000090 d3 48 12 3d 8e c4 10 3c 4d b7 e6 3b 62 e1 d9 3c
       0.03571398 0.008835925 0.007040894 0.026596729
0000a0 87 fa f0 bc 57 8f 04 bd 7c 2b 3b 3d 23 f2 1d 3d
       -0.029416336 -0.032363262 0.045695767 0.038560998
0000b0 eb 6b a6 bc eb 58 d5 bb 48 af f9 3c f5 7e 0d bd
       -0.020315131 -0.006510844 0.030479088 -0.034544904
0000c0 c2 23 e4 bc 04 5b db bc 65 de 29 3d 57 9e 3b bc
       -0.027849082 -0.026776798 0.041471858 -0.011451325
0000d0 91 d8 66 3c 28 a7 20 3a 7a c8 35 bd ef 76 35 3c
       0.014089719 0.0006128424 -0.044380642 0.011075719
0000e0 84 5c 87 3c de 11 a2 3c 93 34 17 bc 1c 53 0f 3c
       0.016523607 0.01978391 -0.009228843 0.008747842
0000f0 67 3c 91 bc 70 6c 8c 3c 71 8a 0a bd c7 15 b3 b9
       -0.017728997 0.01714155 -0.033823434 -0.00034157766
000100 cd 40 0d 3d ad 87 29 3d 3f a9 87 bc 1d 1c 13 bd
       0.034485627 0.041389156 -0.016560195 -0.035915483
000110 c5 12 8d 3c fc f1 ec bc 90 e7 aa ba 7b 65 cb 3c
       0.017220864 -0.02892398 -0.0013038982 0.024828663
000120 80 93 15 3d 10 c8 14 bc f7 06 31 bd f4 bc 96 3c
       0.03651762 -0.009080902 -0.043219533 0.018400647
000130 e1 c7 fe bc 48 52 04 bd a3 03 1a bd af 21 26 bd
       -0.031101169 -0.032305032 -0.037601124 -0.040559467
000140 98 9e ad bc 22 fc 20 3d 6a 7f 20 bd 3a 6d ba bc
       -0.021193787 0.039302953 -0.03918401 -0.022757161
000150 a3 77 68 bc 8f 33 f4 3c e9 f0 8f bc 53 ae ca bc
       -0.01418868 0.029809741 -0.01757093 -0.024741327
000160 04 ae 8d 3c f6 43 9c 3c d5 f7 5e bc c7 97 34 3c
       0.017294891 0.019075375 -0.013608892 0.011022515
000170 f4 94 84 3c f5 71 82 bc f6 db d9 bb 46 a4 2d 3d
       0.016184308 -0.01592348 -0.006648536 0.04239299
000180 72 89 af 3c ec 0a 00 3c fd 58 7b bc 31 2d a2 bc
       0.021427844 0.007815104 -0.015341041 -0.01979694
000190 90 05 c8 3c 1c 99 8f bc de 66 6b bc ff 8b 23 bd
       0.024416715 -0.017529063 -0.014367787 -0.039928433
0001a0 39 a5 e9 bc d4 92 1d 3d 18 a2 00 ba 6d 5e 22 3d
       -0.028521167 0.038470104 -0.00049069664 0.039640833
0001b0 46 25 09 bd 69 12 83 3c a4 09 90 bc 5e a9 95 3b
       -0.033482812 0.01599999 -0.017582722 0.0045673093
0001c0 6e 45 33 3d 89 1f cf bc f1 43 08 bd fb 3f a6 3c
       0.043767385 -0.025283592 -0.03326792 0.02029418
0001d0 36 80 c8 bc d7 7d 9e 3c 2d 39 0a bd fb 38 15 bd
       -0.024475198 0.019347114 -0.033745933 -0.036431294
0001e0 2f be 0f 3d a3 95 9a 3c 7b 97 e2 3c a9 8c 1f 3c
       0.035093483 0.01887018 0.027660122 0.009738126
0001f0 4e 7c 27 3d c6 02 85 bb fe b1 de 3c 33 1c 25 3d
       0.04089003 -0.0040591685 0.027184483 0.040310096
