models/epoch=0-step=25.ckpt (torch, 800661 bytes, 38 tensors)

backbone.0.weight f4 [16, 1, 3, 3]
0.17448774 0.006629113 -0.2787746 -0.27481833 -0.021098912 -0.018889772 -0.29538995 0.01149579
-0.10799976 0.41744116 0.02508579 0.3431324 0.23313354 0.30880445 0.32174423 0.28947335
0.26315778 0.42101738 0.23015058 -0.32823208 -0.12001979 0.09801247 -0.20802616 -0.20594172
-0.12096927 -0.07660762 -0.27484378 0.3976234 0.52551264 0.14777705 0.1898879 0.38769692
0.4250401 0.59178644 0.3914662 0.3942039 -0.8815701 -0.6881911 -0.73227334 -0.8572087
-1.0627712 -0.8753341 -1.1522602 -0.64636606 -1.1035671 -0.01667452 -0.010319613 -0.2651567
-0.07073185 -0.0054870043 0.015017769 -0.3032332 -0.34134927 0.18787321 -0.4768492 -0.07434171
-0.16028032 -0.3373851 -0.037785657 -0.19199093 -0.34195143 -0.09760305 0.020309605 -0.34473348
-0.32651448 0.18953662 -0.30368888 -0.37969357 -0.0949418 0.009550448 0.18526556 -0.2380359
0.072407216 -0.13685253 -0.33409548 -0.07789085 -0.30153129 -0.3097399 -0.13874589 0.13836963
-0.28242823 0.3370347 -0.11043654 -0.15176955 0.31020993 0.055055186 -0.26914272 -0.08340879
-0.033225715 -0.24762417 -0.26116583 -0.23722686 0.15921141 -0.25758845 0.20741181 0.15055963
-0.14940386 0.14221741 0.051886097 -0.28265443 -0.020682344 -0.29208162 -0.07272344 0.15341032
-0.3202425 -0.03943813 -0.22855344 -0.29458266 0.11359095 0.24984126 -0.10295599 0.10325327
0.3188661 0.20256673 0.34372607 0.303702 -0.11015394 -0.4717473 -0.016839322 -0.11347225
-0.69357663 -0.2735612 -0.23695454 -0.44902045 -0.25871015 -0.1725595 0.027731922 0.29691592
0.36054704 0.0133033665 0.316545 -0.06300597 -0.059170347 0.1116633 -0.026077209 -0.24888648
0.31178585 0.22091725 -0.085378855 -0.02334118 -0.34371227 -0.16585134 -0.1156805 -0.39746708
00000000: eaac 323e 0839 d93b 8bbb 8ebe fdb4 8cbe
00000010: a0d7 acbc b9be 9abc 5a3d 97be d758 3c3c
00000020: fa2e ddbd d9ba d53e b780 cd3c 0daf af3e
00000030: 8fba 6e3e 9e1b 9e3e a9bb a43e da35 943e
00000040: 9ebc 863e 978f d73e 98ac 6b3e 090e a8be
00000050: f0cc f5bd c3ba c83d cf04 55be 63e2 52be
00000060: bdbe f7bd 75e4 9cbd 53b8 8cbe 4b95 cb3e
00000070: ff87 063f de52 173e f971 423e 3680 c63e
00000080: db9e d93e 517f 173f 426e c83e 18d5 c93e
00000090: 94ae 61bf 4b2d 30bf 4476 3bbf 0872 5bbf
000000a0: e308 88bf e515 60bf 437d 93bf 3f78 25bf
000000b0: b041 8dbf 0199 88bc 9813 29bc 9ec2 87be
000000c0: dcdb 90bd 54cc b3bb 170d 763c 6241 9bbe
000000d0: 55c5 aebe d661 403e 9425 f4be 7740 98bd
000000e0: 8620 24be bdbd acbe 22c5 1abd 4599 44be
000000f0: 4214 afbe 1ce4 c7bd 5460 a63c e880 b0be
00000100: e82c a7be e315 423e 1c7d 9bbe 3267 c2be
00000110: d970 c2bd 7b79 1c3c 41b6 3d3e afbf 73be
00000120: 3c4a 943d 1223 0cbe 900e abbe 3d85 9fbd
00000130: 4f62 9abe 3a96 9ebe 6713 0ebe c5b0 0d3e
00000140: 6f9a 90be d08f ac3e 8d2c e2bd 7a69 1bbe
00000150: d6d3 9e3e 8c81 613d 13cd 89be 3ad2 aabd
00000160: b017 08bd 3191 7dbe 87b7 85be 99eb 72be
00000170: 5108 233e a2e2 83be c363 543e 4e2c 1a3e
00000180: 53fd 18be 71a1 113e 8486 543d 15b8 90be
00000190: 056e a9bc b98b 95be 07f0 94bd 9817 1d3e
000001a0: d3f6 a3be e089 21bd ea09 6abe 8ad3 96be
000001b0: 5fa2 e83d 63d6 7f3e 97da d2bd 7376 d33d
000001c0: 6b42 a33e a76d 4f3e ddfc af3e d47e 9b3e
000001d0: 6498 e1bd dd88 f1be 9ef2 89bc 2464 e8bd
000001e0: 3d8e 31bf 3710 8cbe 36a4 72be 02e6 e5be
000001f0: a875 84be 70b3 30be 0e2e e33c 5d05 983e
00000200: 9f99 b83e 5df6 593c 3012 a23e 4609 81bd
00000210: 9b5c 72bd baaf e43d df9f d5bc 19dc 7ebe
00000220: 65a2 9f3e 2238 623e 1cdb aebd 0136 bfbc
00000230: 0efb afbe efd4 29be e6e9 ecbd ce80 cbbe

backbone.0.bias f4 [16]
0.09791999 0.035411753 0.27175197 -0.28733858 -0.2705545 -0.08631818 0.036290508 -0.2886836
-0.014752696 0.29641 -0.17648928 -0.28411207 -0.31708336 -0.30857375 -0.18133257 -0.07489926
00000000: 478a c83d ea0b 113d 1323 8b3e 0b1e 93be
00000010: 1f86 8abe 96c7 b0bd 5ba5 143d 56ce 93be
00000020: 4bb5 71bc 0dc3 973e 9bb9 34be 2377 91be
00000030: c058 a2be 61fd 9dbe 3faf 39be c964 99bd

backbone.1.weight f4 [16]
0.9314852 0.9284509 1.0612307 0.83123344 0.89671344 1.1400903 0.9451659 1.0661379
1.0502247 1.0992769 0.9966923 0.99229115 1.0173938 1.0092859 1.0039233 1.0199348
00000000: d075 6e3f f5ae 6d3f 68d6 873f b7cb 543f
00000010: 038f 653f 7bee 913f 64f6 713f 3577 883f
00000020: c36d 863f 1bb5 8c3f 3a27 7f3f cb06 7e3f
00000030: f639 823f 4830 813f 8f80 803f 398d 823f

backbone.1.bias f4 [16]
-0.035793405 -0.048405528 0.10443256 -0.10297204 0.050288647 0.09544613 -0.0040458366 0.09427639
0.042185567 0.0964664 -0.041142818 0.025175499 0.040759206 0.053687368 0.03839793 0.063772194
00000000: 1b9c 12bd e044 46bd bde0 d53d 01e3 d2bd
00000010: 78fb 4d3d 4379 c33d f092 84bb fb13 c13d
00000020: c6ca 2c3d 2d90 c53d 5f85 28bd d93c ce3c
00000030: 20f3 263d 49e7 5b3d 2647 1d3d ff9a 823d

backbone.1.running_mean f4 [16]
-0.4168634 1.6410292 -0.4742745 1.8263022 -5.129467 -0.65441203 -0.95372164 -1.0375309
-1.0459986 -0.089199364 -0.1013811 -1.3115833 0.7221633 -1.8063821 0.4606459 -0.6830326
00000000: 1f6f d5be 3f0d d23f 1bd4 f2be 45c4 e93f
00000010: 9824 a4c0 8c87 27bf 1a27 74bf d0cd 84bf
00000020: 48e3 85bf 28ae b6bd e5a0 cfbd f6e1 a7bf
00000030: b2df 383f 8737 e7bf c8d9 eb3e 39db 2ebf

backbone.1.running_var f4 [16]
0.10726025 0.44044802 0.14475603 0.7019679 3.489441 0.11621458 0.21484953 0.15716119
0.21516351 0.09559832 0.07806422 0.2175374 0.21172287 0.41996497 0.12766285 0.12374088
00000000: 43ab db3d 6782 e13e ed3a 143e 2bb4 333f
00000010: 0053 5f40 e901 ee3d 8401 5c3e ddee 203e
00000020: d353 5c3e 0dc9 c33d 22e0 9f3d 20c2 5e3e
00000030: e1cd 583e a605 d73e 0dba 023e dc6b fd3d

backbone.4.weight f4 [32, 16, 3, 3]
-0.040643126 -0.13565281 -0.2331126 -0.1621556 -0.10045137 -0.17072946 -0.123425 -0.14839509
-0.121973194 0.00892143 0.09936836 -0.037523154 0.096461445 0.04830748 0.01636841 -0.04541612
0.05789014 0.15774472 -0.12009968 -0.23195444 -0.16330166 -0.20350389 -0.13518767 -0.22145006
-0.118391305 -0.17984828 -0.08171518 0.13623543 0.061498523 0.0062669544 -0.030552821 0.045651544
0.07618443 0.023713695 0.02692126 0.11118835 -0.10837888 -0.16694447 -0.21308453 -0.20691119
-0.2590408 -0.12615465 -0.35955727 -0.21268144 -0.098198496 -0.13255753 -0.06836546 -0.12831043
-0.16383877 -0.19202475 -0.1526334 -0.16355625 -0.10651996 -0.17602266 0.0017630663 -0.08024807
-0.15988302 -0.24476708 -0.0530179 -0.16616029 -0.22832821 -0.17206529 -0.12391253 -0.049005903
-0.1465405 -0.14888859 -0.16938275 -0.19052058 -0.20042899 -0.20428182 -0.2353634 -0.25830883
-0.13227764 -0.09261178 -0.22750098 -0.078914516 -0.11296635 -0.08837547 -0.15321471 -0.14859436
-0.19879733 -0.082756616 -0.16969082 -0.17386143 -0.06728344 -0.18770052 -0.13200767 -0.24174686
-0.13525885 -0.08560061 -0.0060918005 0.04220682 0.087229036 0.04945023 0.10266902 0.090234786
0.018108571 0.09396094 0.0060314783 -0.07362672 -0.1176674 -0.16918993 -0.091753796 -0.16340198
-0.23073612 -0.106386825 -0.25809887 -0.17524838 0.07082775 0.07113751 0.08764415 0.12113368
0.13281137 0.13886124 0.008849966 -0.012895109 0.0064639957 -0.084801055 -0.11477732 -0.06362004
-0.1705107 -0.22843722 -0.10974681 -0.19405016 -0.25329977 -0.20225957 0.06388917 0.11445358
0.0025516173 0.10826953 0.07010035 0.09967677 0.022467976 0.013553687 0.12099788 -0.11859762
-0.06320086 -0.13502206 -0.10432301 -0.1990297 -0.15447886 -0.2550397 -0.24455808 -0.21278986
0.10802273 0.09667786 0.16202584 0.12751327 0.14853814 0.02531287 0.03344566 0.07975095
0.06336742 -0.122217305 -0.011850402 -0.044584256 -0.10595857 0.027333759 0.037306275 0.03701339
-0.07188727 -0.044165257 0.12261114 0.090326786 0.16286333 0.18549353 0.06853639 0.010048741
0.06435671 0.02605718 0.042262528 -0.06796098 -0.075233646 -0.010236729 0.06933064 0.041720573
-0.015769815 -0.009316432 0.0030897537 -0.039315432 0.19943993 0.11655439 0.17558272 0.00061128754
0.06777204 0.000982506 0.0524567 -0.04816805 -0.013936145 0.17014161 0.23822671 0.18867715
0.176886 0.13279098 0.02123843 0.08437549 0.073711544 0.020272188 0.2975474 0.22844546
0.23559277 0.23940855 0.071075074 0.026699021 0.11348887 0.00362571 0.06341077 0.13438986
0.20930427 0.18377998 0.13311775 0.08472734 0.0071512596 0.09472459 0.034602687 0.017308425
0.19906482 0.14685327 0.10439965 0.14203823 0.11807268 -0.006971251 0.082828015 -0.008108496
-0.013529607 0.20473582 0.19278409 0.103146665 0.14329275 0.104812644 0.049757663 -0.03524234
0.005850812 -0.011665713 -0.1030442 -0.031432837 0.0028846068 0.024522884 0.057741895 0.06090458
0.024244474 0.01889151 -0.055286013 0.101199955 0.18813112 0.11810648 0.10035266 0.116495475
0.11159624 0.1287849 0.026294317 0.026714869 0.0049798 0.017831786 -0.023740623 0.017995909
00000000: 6879 26bd 92e8 0abe 12b5 6ebe 1e0c 26be
00000010: 73b9 cdbd b4d3 2ebe 3fc6 fcbd e2f4 17be
00000020: 15cd f9bd 312b 123c a481 cb3d e1b1 19bd
00000030: 948d c53d 10de 453d 0b17 863c 4106 3abd
00000040: 361e 6d3d d587 213e d2f6 f5bd 7785 6dbe
00000050: 8d38 27be 5363 50be a36e 0abe cec3 62be
00000060: 2477 f2bd 262a 38be 4a5a a7bd 4d81 0b3e
00000070: e0e5 7b3d 065b cd3b e949 fabc 1dfd 3a3d
00000080: 9506 9c3d 3943 c23c f989 dc3c b8b6 e33d
00000090: bff5 ddbd 7ef3 2abe d532 5abe 87e0 53be
000000a0: ffa0 84be af2e 01be e417 b8be 2ac9 59be
000000b0: 4b1c c9bd 29bd 07be 3103 8cbd cf63 03be
000000c0: 5ac5 27be 23a2 44be ee4b 1cbe 4a7b 27be
000000d0: 2327 dabd 493f 34be b016 e73a 1a59 a4bd
000000e0: 60b8 23be 39a4 7abe 4c29 59bd ec25 2abe
000000f0: dfce 69be e231 30be dac5 fdbd 6aba 48bd
00000100: b60e 16be 4076 18be ac72 2dbe d417 43be
00000110: 423d 4dbe 412f 51be 1a03 71be 0e41 84be
00000120: ca73 07be 3fab bdbd 04f6 68be ef9d a1bd
00000130: e75a e7bd 33fe b4bd 51e4 1cbe 1f29 18be
00000140: 8791 4bbe 4d7c a9bd 6ec3 2dbe bb08 32be
00000150: e6cb 89bd 9134 40be 052d 07be 7d8c 77be
00000160: 4c81 0abe 5f4f afbd ba9d c7bb 0fe1 2c3d
00000170: 23a5 b23d 538c 4a3d 2344 d23d 04cd b83d
00000180: 6d58 943c 986e c03d b5a3 c53b 9bc9 96bd
00000190: 9bfb f0bd 2040 2dbe 6ae9 bbbd d952 27be
000001a0: 1746 6cbe 56e1 d9bd 8925 84be 5074 33be
000001b0: 240e 913d 8bb0 913d c77e b33d ef14 f83d
000001c0: b4ff 073e a431 0e3e 73ff 103c 0246 53bc
000001d0: edcf d33b 2dac adbd 5f10 ebbd 394b 82bd
000001e0: 5b9a 2ebe 72eb 69be efc2 e0bd 16b5 46be
000001f0: 82b0 81be 221d 4fbe 53d8 823d a366 ea3d
00000200: 0939 273b 6abc dd3d c690 8f3d 5623 cc3d
00000210: c30e b83c 4910 5e3c bdcd f73d 4fe3 f2bd
00000220: 746f 81bd 3943 0abe 4da7 d5bd 71ce 4bbe
00000230: b52f 1ebe 9094 82be 6f6d 7abe 96e5 59be
00000240: 053b dd3d 0bff c53d 1aea 253e d792 023e
00000250: 621a 183e f05c cf3c 51fe 083d 7754 a33d
00000260: c7c6 813d 114d fabd 3028 42bc fb9d 36bd
00000270: cf00 d9bd 0ceb df3c 77ce 183d 5a9b 173d
00000280: a239 93bd a1e6 34bd 8d1b fb3d 40fd b83d
00000290: a5c5 263e 04f2 3d3e cf5c 8c3d 79a3 243c
000002a0: 73cd 833d de75 d53c 791b 2d3d 202f 8bbd
000002b0: 1914 9abd f4b7 27bc 39fd 8d3d 31e3 2a3d
000002c0: b32f 81bc f3a3 18bc 777d 4a3b 3809 21bd
000002d0: fb39 4c3e 11b4 ee3d f5cb 333e d03e 203a
000002e0: 11cc 8a3d 6ec7 803a d6dc 563d dc4b 45bd
000002f0: 6e54 64bc 9a39 2e3e b4f1 733e 9534 413e
00000300: 9b21 353e 5cfa 073e 37fc ad3c 0fcd ac3d
00000310: 14f6 963d dc11 a63c 2258 983e 9bed 693e
00000320: 3b3f 713e 8427 753e cf8f 913d e8b7 da3c
00000330: da6c e83d 529d 6d3b 81dd 813d 7f9d 093e
00000340: dc53 563e d230 3c3e 0550 083e 8785 ad3d
00000350: 1d55 ea3b f7fe c13d 8cbb 0d3d 66ca 8d3c
00000360: a6d7 4b3e b460 163e 7ccf d53d 7872 113e
00000370: 17d0 f13d 186f e4bb bca1 a93d 7fd9 04bc
00000380: 49ab 5dbc 44a6 513e 3169 453e 8f3e d33d
00000390: 56bb 123e 03a8 d63d b1ce 4b3d 465a 10bd
000003a0: 2bb8 bf3b 8c21 3fbc d608 d3bd b8bf 00bd
000003b0: ac0b 3d3b 37e4 c83c c482 6c3d 1577 793d
000003c0: 599c c63c 5ec2 9a3c 9673 62bd ec41 cf3d
000003d0: 72a5 403e cfe1 f13d b285 cd3d 2e95 ee3d
000003e0: 928c e43d 30e0 033e 2e67 d73c 24d9 da3c
000003f0: 972d a33b f713 923c b27b c2bc 286c 933c

backbone.4.bias f4 [32]
-0.04091535 -0.041509174 -0.016471041 -0.06279602 -0.06687931 0.023326423 -0.014655903 0.040414944
0.01174309 0.080202945 -0.012715326 -0.01553013 -0.062178575 -0.014700764 -0.06684783 0.027075728
-0.08224318 -0.04973895 0.05314975 0.016319795 0.056290798 -0.00094785163 -0.040320307 -0.051775478
0.08101714 -0.078471236 0.03113049 -0.009953508 -0.06954416 -0.06374113 -0.0602137 -0.0443758
00000000: db96 27bd 8605 2abd 47ee 86bc 339b 80bd
00000010: 05f8 88bd 0e17 bf3c 501f 70bc 248a 253d
00000020: 1766 403c 7141 a43d f153 50bc 1672 7ebc
00000030: f6ae 7ebd 79db 70bc 84e7 88bd ebcd dd3c
00000040: 1d6f a8bd 12bb 4bbd 8db3 593d 17b1 853c
00000050: 2e91 663d 3f79 78ba e826 25bd 8612 54bd
00000060: 50ec a53d 87b5 a0bd 5f05 ff3c 0a14 23bc
00000070: 2b6d 8ebd b68a 82bd a4a2 76bd 66c3 35bd

backbone.5.weight f4 [32]
0.96165484 1.0666862 0.88950324 1.0132424 1.0380011 0.962803 0.96461225 0.96583164
0.97133267 1.0280812 1.011784 1.075595 0.99456936 0.9477626 1.1166207 0.9493629
1.2205156 0.90260535 0.9954182 1.1399956 1.0160565 0.9835111 0.93244904 1.0375707
0.96104026 0.93295956 1.00552 1.0307255 0.8976321 1.081147 0.9857486 0.9199568
00000000: 032f 763f 2c89 883f 7cb6 633f edb1 813f
00000010: 38dd 843f 427a 763f d4f0 763f be40 773f
00000020: 42a9 783f 2a98 833f 2382 813f 19ad 893f
00000030: 199c 7e3f 92a0 723f 6ded 8e3f 7209 733f
00000040: db39 9c3f 2511 673f bad3 7e3f 60eb 913f
00000050: 240e 823f 62c7 7b3f fbb4 6e3f 1ecf 843f
00000060: bc06 763f 70d6 6e3f e1b4 803f d0ee 833f
00000070: 38cb 653f 0663 8a3f 055a 7c3f 4a82 6b3f

backbone.5.bias f4 [32]
-0.041268878 0.17593111 -0.0723797 -0.00496722 0.07960107 -0.013120671 0.0908603 -0.037850924
-0.018470746 0.028747663 -0.010203058 0.13504864 0.020559972 -0.051777046 0.12584454 -0.062244933
0.18518887 -0.02523168 -0.0022567916 0.10292637 0.02245636 -0.0022042454 -0.051303808 0.0608405
-0.033428427 0.024833322 0.036946427 0.01232935 -0.055095818 0.10416153 -0.0022059048 -0.06323654
00000000: 8e09 29bd 4927 343e cf3b 94bd 10c4 a2bb
00000010: e305 a33d 15f8 56bc f714 ba3d 9209 1bbd
00000020: f64f 97bc 3880 eb3c ba2a 27bc 314a 0a3e
00000030: 636d a83c 2b14 54bd 64dd 003e 8bf4 7ebd
00000040: 27a2 3d3e abb2 cebc aee6 13bb 10cb d23d
00000050: 66f6 b73c 1a75 10bb f123 52bd e333 793d
00000060: 3fec 08bd 406f cb3c 2355 173d 0b01 4a3c
00000070: 27ac 61bd a452 d53d f190 10bb 2982 81bd

backbone.5.running_mean f4 [32]
-6.528937 3.9187417 -3.3361113 2.349407 0.26507342 1.3329301 1.9023451 4.143694
-3.5830927 2.6294272 -2.6354828 3.5227432 1.4295506 -2.3809087 2.3214402 -1.2566526
-6.896941 1.9637011 -2.1190908 5.739875 -1.4737705 -1.7081188 -2.3292937 1.9876735
-1.2436618 1.8992157 1.1736126 -2.4588244 -10.001875 -1.4053819 3.879521 2.9735098
00000000: 0ded d0c0 aacc 7a40 d982 55c0 af5c 1640
00000010: b4b7 873e 749d aa3f 0b80 f33f 2499 8440
00000020: 6451 65c0 8948 2840 c0ab 28c0 a074 6140
00000030: 84fb b63f cf60 18c0 7a92 1440 fed9 a0bf
00000040: beb3 dcc0 8f5a fb3f 2f9f 07c0 0ead b740
00000050: 83a4 bcbf a3a3 dabf 2613 15c0 166c fe3f
00000060: 4f30 9fbf 8019 f33f f038 963f 615d 1dc0
00000070: ae07 20c1 8ee3 b3bf 124a 7840 fc4d 3e40

backbone.5.running_var f4 [32]
91.26183 33.18308 20.603981 16.36596 2.3255012 8.686582 5.857345 42.31987
22.367111 18.155735 15.129089 30.175749 12.951891 7.8278613 16.436201 2.5014064
124.76351 9.464525 7.245844 74.83807 3.716174 4.9152846 8.820779 11.547987
3.6766355 10.606649 3.897015 5.210286 187.4029 7.8335953 37.21709 24.38494
00000000: 0f86 b642 79bb 0442 f4d4 a441 7ced 8241
00000010: 03d5 1440 3dfc 0a41 5f6f bb40 8c47 2942
00000020: d8ef b241 f23e 9141 c010 7241 ef67 f141
00000030: f23a 4f41 d77d fa40 577d 8341 0b17 2040
00000040: eb86 f942 b26e 1741 f4dd e740 18ad 9542
00000050: cbd5 6d40 034a 9d40 e921 0d41 8ec4 3841
00000060: ff4d 6b40 d6b4 2941 b268 7940 aaba a640
00000070: 2467 3b43 d0ac fa40 4dde 1442 5b14 c341

backbone.8.weight f4 [64, 32, 3, 3]
0.029171588 0.05876619 0.08383163 0.042563133 0.079055645 0.07778655 0.06506714 0.037753996
0.112928554 0.05718767 0.0262643 -0.15257043 0.013716704 -0.098055184 -0.09444948 -0.12212281
-0.1392389 -0.11265009 0.06524984 0.02605845 0.019400783 0.0434321 0.010262099 0.05707409
0.003406768 -0.03174694 0.024169918 0.016476316 -0.10932326 -0.12316785 -0.12204523 -0.1068413
-0.19876438 -0.047494505 -0.0906628 -0.17279343 -0.00025733464 -0.09544229 -0.1136378 -0.114973255
-0.18482609 -0.13854468 -0.12524277 -0.13999374 -0.08615464 -0.024877856 -0.06804667 -0.13275509
-0.106071874 -0.14456543 -0.17427172 -0.11134442 -0.10582973 -0.16005759 0.00237099 -0.04032384
-0.095666476 -0.04147374 -0.13777709 -0.15202373 -0.10551363 -0.09471166 -0.080429785 -0.005178551
-0.1394981 -0.1683715 -0.06834932 -0.19191864 -0.17774607 -0.053062867 -0.07798599 -0.122282445
0.07529301 0.16150458 0.13790005 0.12653024 0.15596518 0.09792315 -0.03311127 0.10249194
0.11496795 0.034833353 -0.14206278 -0.13173293 -0.1071353 -0.22992 -0.115532055 -0.12514429
-0.16637827 -0.07968859 0.039970182 0.061596073 0.049572643 0.051375106 0.07438295 0.04838547
-0.03439527 0.05231951 0.05789684 -0.043353423 -0.066624075 -0.10797637 -0.04034348 -0.093553044
-0.09444499 -0.0662219 -0.049305424 -0.080537625 0.0075837444 -0.118095115 -0.06658532 -0.06380568
-0.11353934 -0.120275415 -0.05794594 -0.1428085 -0.18102106 0.022063397 0.14048192 0.019963948
0.11695165 0.102715984 0.008139799 0.057726208 0.06642756 0.027099898 -0.023232365 -0.1130054
-0.06987412 -0.015451445 -0.13734344 -0.08451695 -0.08292662 -0.11006775 -0.15560697 0.014817662
0.0017532762 0.05738816 -0.00041808214 0.084514715 0.07297046 0.07246589 0.03922413 0.086343765
-0.023207396 -0.16364321 -0.08966988 -0.028619232 -0.17137523 -0.17887585 -0.057340823 -0.116593465
-0.07766178 0.02657524 -0.09441515 -0.08598091 -0.019913018 -0.10150861 -0.18217531 -0.11501151
-0.15069903 -0.11608935 0.047158316 0.10312361 0.10182509 0.11022186 0.1144245 0.093160324
0.021027382 0.0118952785 0.050994337 0.015046257 -0.07284379 -0.1605505 -0.11663804 -0.1568276
-0.13035126 -0.07872966 -0.073350325 -0.15462139 -0.004481219 0.050831426 0.09293699 0.040480446
0.06917688 0.07939168 0.00020071649 0.052420944 0.11076349 0.080153815 0.12325357 0.052990124
0.013160109 0.1336111 0.10500604 0.011101364 -0.01184602 0.099698074 0.07850658 0.11640337
0.061262928 0.09292031 0.025772404 0.001670781 0.046486843 0.042497907 0.026405321 -0.06662187
-0.080227435 -0.11033733 -0.07261866 -0.13123868 -0.11553571 -0.050499402 -0.12645872 -0.15077013
0.0604472 0.016551208 0.04619692 0.11691516 0.005886932 0.024088513 0.028637893 -0.009098141
0.07905407 -0.04044705 -0.06255896 -0.110453084 -0.11881698 -0.10382346 -0.13378564 -0.073240645
-0.08010822 -0.10370591 -0.034620307 -0.061717004 -0.08971775 -0.08572591 -0.182196 -0.20156386
-0.036224987 -0.13323401 -0.082252406 0.058066837 0.027960412 0.0048115407 0.096073754 0.080294125
0.094702646 0.036848374 0.08751926 0.04839549 0.10177069 0.090200834 0.11447719 0.09551184
00000000: 41f9 ee3c d1b4 703d ebaf ab3d ae56 2e3d
00000010: ede7 a13d 8e4e 9f3d ec41 853d efa3 1a3d
00000020: 1647 e73d 9e3d 6a3d 3b28 d73c 6c3b 1cbe
00000030: 07bc 603c 28d1 c8bd bb6e c1bd 861b fabd
00000040: a494 0ebe 17b5 e6bd b5a1 853d 8878 d53c
00000050: 64ee 9e3c dce5 313d 5d22 283c 85c6 693d
00000060: 1544 5f3b 1409 02bd feff c53c 57f9 863c
00000070: e0e4 dfbd 6d3f fcbd d9f2 f9bd 9dcf dabd
00000080: e488 4bbe 9989 42bd 6bad b9bd c3f0 30be
00000090: dfea 86b9 3f77 c3bd efba e8bd 1977 ebbd
000000a0: 0d43 3dbe a8de 0dbe a43f 00be 855a 0fbe
000000b0: d871 b0bd a5cc cbbc 0d5c 8bbd f3f0 07be
000000c0: 363c d9bd f608 14be 4974 32be 8b08 e4bd
000000d0: 42bd d8bd 23e6 23be 9d62 1b3b 9c2a 25bd
000000e0: c9ec c3bd 5ee0 29bd 7015 0dbe 1cac 1bbe
000000f0: 8817 d8bd 30f8 c1bd 5fb8 a4bd d6b0 a9bb
00000100: 97d8 0ebe 9469 2cbe bafa 8bbd 5286 44be
00000110: 1103 36be 7358 59bd 1eb7 9fbd 386f fabd
00000120: 3933 9a3d 7561 253e ac35 0d3e 2591 013e
00000130: 56b5 1f3e ef8b c83d af9f 07bd 4be7 d13d
00000140: 5174 eb3d 6bad 0e3d e878 11be ffe4 06be
00000150: c169 dbbd 2670 6bbe 129c ecbd d325 00be
00000160: 115f 2abe c533 a3bd c6b7 233d 2a4c 7c3d
00000170: af0c 4b3d b46e 523d 1756 983d d82f 463d
00000180: 0ee2 0cbd fc4c 563d 3d25 6d3d 5c93 31bd
00000190: 3472 88bd b722 ddbd 343f 25bd bd98 bfbd
000001a0: 606c c1bd 599f 87bd 7cf4 49bd e9f0 a4bd
000001b0: 0f81 f83b dadb f1bd e25d 88bd 8dac 82bd
000001c0: 5087 e8bd f552 f6bd b958 6dbd 643c 12be
000001d0: 965d 39be 4cbe b43c 7eda 0f3e 6f8b a33c
000001e0: 5984 ef3d c25c d23d cb5c 053c 5172 6c3d
000001f0: 2c0b 883d 9b00 de3c cd51 bebc 606f e7bd
00000200: 2a1a 8fbd 0f28 7dbc c2a3 0cbe 3917 adbd
00000210: 6fd5 a9bd 336b e1bd 6f57 1fbe c7c5 723c
00000220: 30ce e53a d90f 6b3d 0932 dbb9 0d16 ad3d
00000230: 8971 953d ff68 943d 7ba9 203d 00d5 b03d
00000240: 701d bebc 1692 27be d8a4 b7bd e172 eabc
00000250: fd7c 2fbe 3b2b 37be 36de 6abd 8ec8 eebd
00000260: 240d 9fbd 51b4 d93c bb5c c1bd c216 b0bd
00000270: a020 a3bc bfe3 cfbd 2a8c 3abe 288b ebbd
00000280: d950 1abe 41c0 edbd 1429 413d 7932 d33d
00000290: ac89 d03d 00bc e13d 6457 ea3d d7ca be3d
000002a0: 9e41 ac3c 6ae4 423c 70df 503d 9384 763c
000002b0: 202f 95bd 5a67 24be eddf eebd 6a97 20be
000002c0: cd7a 05be 043d a1bd b238 96bd 1255 1ebe
000002d0: 31d7 92bb 9d34 503d c055 be3d d3ce 253d
000002e0: 9cac 8d3d 1b98 a23d 6c77 5239 58b7 563d
000002f0: f8d7 e23d af27 a43d 5e6c fc3d 2c0c 593d
00000300: 7f9d 573c 59d1 083e 680d d73d 7fe2 353c
00000310: cf15 42bc 812e cc3d 0fc8 a03d e464 ee3d
00000320: d6ee 7a3d 014d be3d a620 d33c 1cfe da3a
00000330: fd68 3e3d 4912 2e3d f94f d83c 0c71 88bd
00000340: 484e a4bd 8af8 e1bd 18b9 94bd 6f63 06be
00000350: fc9d ecbd 76d8 4ebd 657e 01be 7c63 1abe
00000360: 7c97 773d 6696 873c fb38 3d3d 3771 ef3d
00000370: 2ae7 c03b 4655 c53c 049a ea3c 5f10 15bc
00000380: 1ae7 a13d ceab 25bd e91e 80bd 3a35 e2bd
00000390: 5156 f3bd 65a1 d4bd 1aff 08be 31ff 95bd
000003a0: c70f a4bd c463 d4bd 06ce 0dbd f8ca 7cbd
000003b0: f1bd b7bd 1191 afbd 9791 3abe c266 4ebe
000003c0: a760 14bd 7f6e 08be f373 a8bd 7ed7 6d3d
000003d0: 3c0d e53c 21aa 9d3b 51c2 c43d 3f71 a43d
000003e0: 76f3 c13d 52ee 163d 4c3d b33d 593a 463d
000003f0: 276d d03d 37bb b83d 0473 ea3d b69b c33d

backbone.8.bias f4 [64]
-0.021483056 -0.026985941 -0.008580646 0.005089822 0.029620545 0.030418407 -0.01349452 0.04233124
-0.05689899 -0.055179484 -0.041262235 0.0051760543 -0.054076944 -0.0312743 -0.013770952 0.010180106
-0.0008554389 0.031016812 0.017531227 0.009413026 -0.040663783 -0.051255394 -0.048506737 -0.001803036
0.0011543338 -0.045351177 0.0063123596 -0.016813109 -0.054093584 -0.050982434 0.014928348 -0.0043713283
-0.029602395 0.051592942 0.030282801 -0.027823726 -0.054370914 -0.0045463615 -0.040607877 0.05655129
0.057941627 -0.053987153 0.027865773 0.004189592 0.048208695 0.0077407276 0.022723334 0.0358732
-0.004100276 -0.055290077 -0.05189929 0.034752626 -0.026210522 -0.004021095 -0.04913277 0.05356261
0.005929437 -0.04918824 0.02768235 -0.04968366 0.018459434 0.055730134 -0.009904852 -0.04861349
00000000: 3cfd afbc 9f11 ddbc d695 0cbc 86c8 a63b
00000010: c9a6 f23c 0630 f93c 1f18 5dbc 8663 2d3d
00000020: ea0e 69bd e203 62bd 9702 29bd e49b a93b
00000030: c97f 5dbd 7b19 00bd 8f9f 61bc 76ca 263c
00000040: 883f 60ba f816 fe3c a69d 8f3c 1839 1a3c
00000050: 118f 26bd 2df1 51bd 00af 46bd d953 ecba
00000060: 044d 973a 28c2 39bd e9d7 ce3b a5bb 89bc
00000070: 3c91 5dbd f5d2 50bd 0896 743c 5c3d 8fbb
00000080: b980 f2bc 1f53 533d a313 f83c 95ee e3bc
00000090: 09b4 5ebd a5f9 94bb 7254 26bd 53a2 673d
000000a0: 3354 6d3d a221 5dbd c346 e43c d848 893b
000000b0: 7b76 453d eea5 fd3b 4926 ba3c c7ef 123d
000000c0: 9c5b 86bb d977 62bd 5a94 54bd c558 0e3d
000000d0: 73b7 d6bc 64c3 83bb 723f 49bd 7864 5b3d
000000e0: b94b c23b 9c79 49bd 18c6 e23c 1881 4bbd
000000f0: 3d38 973c 4845 643d f647 22bc f01e 47bd

backbone.9.weight f4 [64]
-0.29366115 -0.40002275 -0.35561672 -0.2816929 -0.27649453 -0.04321123 -0.27888313 -0.3686919
-0.07513872 -0.08335069 -0.34038615 -0.41207376 -0.4022812 -0.45347452 -0.40338302 -0.47850484
-0.1627931 -0.4114933 -0.08682638 -0.37252784 -0.4977724 -0.14300354 -0.10343735 -0.6290062
-0.2588965 -0.31007537 -0.41327646 -0.12208493 -0.19594905 -0.20365606 -0.25643066 -0.4934068
-0.46324772 -0.4353528 -0.33224896 -0.3065564 -0.5033485 -0.4108885 -0.149094 -0.55762035
-0.14720237 -0.46798036 -0.435278 -0.15701993 -0.47481218 -0.3412018 -0.38222358 -0.13099763
-0.520124 -0.31671602 -0.5736177 -0.36270872 -0.31009588 -0.34685767 -0.22664312 -0.46907228
-0.15159819 -0.35034785 -0.14360031 -0.4397095 -0.23011611 -0.33308354 -0.5194042 -0.5152046
00000000: c15a 96be c8cf ccbe 6513 b6be 0d3a 90be
00000010: b190 8dbe 42fe 30bd c5c9 8ebe 2fc5 bcbe
00000020: 54e2 99bd c4b3 aabd 1847 aebe 55fb d2be
00000030: cdf7 cdbe d02d e8be 3888 cebe 96fe f4be
00000040: 3cb3 26be 40af d2be 07d2 b1bd f8bb bebe
00000050: 06dc febe 856f 12be f6d6 d3bd 8d06 21bf
00000060: 158e 84be 33c2 9ebe f998 d3be aa07 fabd
00000070: dea6 48be 378b 50be e14a 83be d19f fcbe
00000080: ce2e edbe 90e6 debe 891c aabe f6f4 9cbe
00000090: 73db 00bf fa5f d2be 19ac 18be 35c0 0ebf
000000a0: 38bc 16be 1f9b efbe c2dc debe d5c9 20be
000000b0: 951a f3be 01b2 aebe cfb2 c3be 3e24 06be
000000c0: d926 05bf 9a28 a2be 9cd8 12bf f5b4 b9be
000000d0: e3c4 9ebe 5497 b1be 2215 68be 3e2a f0be
000000e0: 8e3c 1bbe cb60 b3be f60b 13be 9b21 e1be
000000f0: 8fa3 6bbe ed89 aabe acf7 04bf 73e4 03bf

backbone.9.bias f4 [64]
-1.0400593 -1.2655727 -1.1676437 -0.9844767 -1.0310477 -0.8669667 -1.1075476 -1.1748881
-1.0020598 -0.9427765 -1.1366813 -1.100514 -1.137168 -1.2629522 -1.0447052 -1.1367013
-0.9469038 -1.1202621 -1.0510818 -1.2282305 -1.3333323 -0.99830306 -0.900118 -1.4728789
-1.1088278 -1.0750011 -1.2097158 -0.9369575 -0.87242883 -1.0007135 -1.021488 -1.0816909
-1.1531332 -1.1357303 -1.1353824 -1.0483706 -1.2119192 -1.183134 -1.0114415 -1.3165019
-0.9357951 -1.2839185 -1.1294228 -1.0250219 -1.2014139 -1.1872228 -1.1611003 -0.9370537
-1.251556 -1.0181216 -1.4192011 -1.1294993 -1.0984569 -1.1988177 -1.0330366 -1.1201904
-0.9752751 -1.1058401 -0.9368498 -1.1461252 -1.0559347 -1.0953165 -1.4370793 -1.339218
00000000: aa20 85bf 49fe a1bf 5975 95bf aa06 7cbf
00000010: 5ff9 83bf 88f1 5dbf 1fc4 8dbf bc62 96bf
00000020: 7f43 80bf cd59 71bf c67e 91bf a5dd 8cbf
00000030: b98e 91bf 6ba8 a1bf e6b8 85bf 6e7f 91bf
00000040: 4a68 72bf c064 8fbf d989 86bf a836 9dbf
00000050: a2aa aabf ca90 7fbf 226e 66bf 4c87 bcbf
00000060: 12ee 8dbf a399 89bf f8d7 9abf 72dc 6fbf
00000070: 7f57 5fbf 6117 80bf 1ec0 82bf d974 8abf
00000080: de99 93bf 9c5f 91bf 3654 91bf 0231 86bf
00000090: 2b20 9bbf ef70 97bf ea76 81bf 2283 a8bf
000000a0: 4590 6fbf 7157 a4bf ed90 90bf eb33 83bf
000000b0: eec7 99bf ebf6 97bf ef9e 94bf c0e2 6fbf
000000c0: fd32 a0bf cf51 82bf 62a8 b5bf 6f93 90bf
000000d0: 3c9a 8cbf dc72 99bf 8b3a 84bf 6662 8fbf
000000e0: a1ab 79bf 2b8c 8dbf 63d5 6fbf 3bb4 92bf
000000f0: de28 87bf 5533 8cbf 37f2 b7bf 7f6b abbf

backbone.9.running_mean f4 [64]
-7.924726 1.5504626 3.8876655 1.8276498 -4.0046067 -6.6044335 -1.3103814 -2.9044156
-0.9036919 1.9159166 -0.8613117 -10.038595 -2.9363334 2.7113304 -4.175165 -10.009142
-5.2469 -2.3492603 -4.27112 2.4903953 1.2101914 -1.2518209 -2.94696 3.919585
-2.172939 -2.8913245 5.708986 -0.36189473 -2.389669 -6.582261 -0.24659583 -7.151449
-0.124892056 -5.649005 -0.30498502 -2.692019 -4.5113482 5.70947 -0.40559706 -2.7272046
-1.0487355 5.831195 -4.3618317 -0.45676082 -3.4412482 2.0020108 -4.798728 -4.0981593
-4.6348834 -1.4168586 3.1167464 -2.5630476 -3.5462914 -1.5050696 2.1562295 -6.576135
-2.6790292 -3.3994622 -4.730418 -1.1632491 -0.14643359 1.9095054 4.6021 3.1878538
00000000: 5b97 fdc0 8f75 c63f 83cf 7840 6ef0 e93f
00000010: bd25 80c0 8557 d3c0 94ba a7bf f2e1 39c0
00000020: 5a58 67bf c13c f53f ec7e 5cbf 169e 20c1
00000030: e3ec 3bc0 7086 2d40 f49a 85c0 7225 20c1
00000040: 9be6 a7c0 485a 16c0 04ad 88c0 a362 1f40
00000050: 8de7 9a3f ab3b a0bf fe9a 3cc0 7bda 7a40
00000060: 6f11 0bc0 760b 39c0 03b0 b640 444a b9be
00000070: 56f0 18c0 e2a1 d2c0 9e83 7cbe acd8 e4c0
00000080: 68c7 ffbd a6c4 b4c0 ff26 9cbe 0a4a 2cc0
00000090: f75c 90c0 fab3 b640 6baa cfbe 858a 2ec0
000000a0: f73c 86bf 2699 ba40 2094 8bc0 8edc e9be
000000b0: 693d 5cc0 f220 0040 2e8f 99c0 1f24 83c0
000000c0: f750 94c0 9f5b b5bf c678 4740 f908 24c0
000000d0: 70f6 62c0 1fa6 c0bf aaff 0940 b36f d2c0
000000e0: 3775 2bc0 ca90 59c0 965f 97c0 59e5 94bf
000000f0: b0f2 15be ac6a f43f 6744 9340 cc05 4c40

backbone.9.running_var f4 [64]
61.230225 2.0545187 8.134031 2.9182773 26.929747 35.985043 3.4785314 6.3491797
7.1133385 15.134903 6.0128965 92.42357 8.855189 6.5970674 11.141364 92.46737
21.848461 10.157769 7.191425 7.4421263 4.8853445 5.386104 8.971443 5.7989216
6.5820737 12.046457 14.3473835 2.9374776 15.12936 46.85661 3.8308096 31.176008
6.241646 20.112371 13.94331 6.5383053 8.267119 18.959091 5.5901027 9.470547
6.0869045 14.268537 16.520191 4.07441 16.883362 3.9436426 18.491142 30.341133
17.29512 9.521392 5.998843 6.729677 16.200752 9.631864 10.557744 23.764698
10.943489 7.5276437 13.063215 6.551316 4.542669 11.880165 11.475003 3.8306878
00000000: c0eb 7442 3c7d 0340 fe24 0241 0ec5 3a40
00000010: 1f70 d741 aff0 0f42 42a0 5e40 7b2c cb40
00000020: 78a0 e340 9028 7241 a669 c040 ded8 b842
00000030: dbae 0d41 2d1b d340 0743 3241 4bef b842
00000040: a6c9 ae41 3986 2241 2720 e640 e625 ee40
00000050: be54 9c40 f75a ac40 088b 0f41 c490 b940
00000060: 59a0 d240 4abe 4041 e28e 6541 a2ff 3b40
00000070: dc11 7241 2b6d 3b42 fc2b 7540 7768 f941
00000080: 90bb c740 23e6 a041 cc17 5f41 cc39 d140
00000090: 1f46 0441 38ac 9741 1fe2 b240 5c87 1741
000000a0: ecc7 c240 ed4b 6441 5a29 8441 9161 8240
000000b0: 2011 8741 a464 7c40 dced 9341 a4ba f241
000000c0: 685c 8a41 9f57 1841 86f6 bf40 8459 d740
000000d0: 249b 8141 1d1c 1a41 85ec 2841 1a1e be41
000000e0: 8818 2f41 75e2 f040 ee02 5141 61a4 d140
000000f0: 8b5d 9140 2815 3e41 9d99 3741 fd29 7540

classifier.1.weight f4 [128, 576]
0.060292844 0.08806579 0.06903459 0.049749088 -0.04563129 -0.077970594 0.09112784 -0.037310943
-0.085892506 -0.029767921 -0.056590218 0.013883592 0.019603966 -0.021911386 -0.013288355 0.011394093
0.05611775 -0.02710573 -0.020313652 -0.021319717 -0.009483872 -0.036227938 0.015477474 -0.026827738
0.025057608 0.026002053 0.013214989 -0.008174191 0.02334388 -0.011730501 -0.0037034517 -0.0108001
-0.01937227 0.051895197 -0.025110034 0.043662082 0.07331573 0.009963546 -0.041786626 0.00093678833
-0.05431743 -0.06011505 -0.0053015053 0.019727757 -0.033717126 0.06689976 -0.00013113074 -0.0002738516
-0.020355303 -0.057564 -0.0015642986 0.03442285 -0.06829571 -0.06502601 0.022655426 0.008248307
0.0208333 0.024790596 -0.027703535 -2.6879963e-05 0.04709231 -0.018276984 -0.008909033 0.0065042223
0.038735103 -0.022181187 0.04065444 -0.036276296 -0.0007007284 0.047069903 -0.025761908 -0.03659582
-0.009523778 0.003984241 0.05736819 0.036094822 0.008151302 -0.0049989377 0.053766914 0.026619457
-0.005388785 0.06242526 0.0127257835 0.020755244 0.03460627 0.02067547 -0.024226034 0.046347566
0.0013391204 -0.084083125 -0.031907417 0.0016811116 0.0021023827 0.018718762 0.045835566 0.048789423
0.04886635 0.006637771 -0.0016756641 0.007878697 0.03552105 0.009635957 0.03412683 -0.038913257
0.026551438 0.0086295875 -0.00877998 -0.010371807 0.022997493 0.072569266 0.00582049 0.026332246
0.026708977 0.037948646 0.04796124 0.00035100128 -0.049393978 -0.048588965 -0.057074748 -0.023994835
-0.03727088 0.038106468 -0.028384108 -0.023259923 0.009926666 -0.027554542 0.042873744 0.024590671
0.04919908 -0.030400462 0.03473662 0.026416877 -0.023886664 0.002342164 0.032665428 -0.035512205
-0.0010739907 -0.03547893 -0.016709035 -0.013304677 -0.057128455 0.069008306 0.014029304 -0.002561485
0.053323157 -0.0034962103 -0.05876647 -0.0050979587 -0.07297066 -0.053173915 0.0399391 -0.07440968
-0.08570696 -0.0012264367 -0.0049153995 0.026893195 0.013181732 -0.013016806 -0.0015732212 -0.0015947255
0.007222541 -0.0058419867 -0.02652861 0.006555855 -0.008732371 -0.020241631 0.036097024 -0.018276475
0.026943153 -0.006087132 -0.055248674 -0.0070239515 0.01917601 0.030996194 0.027066829 0.035960842
0.032566812 0.04648706 -0.009125194 0.031215938 -0.017219564 -0.013157458 -0.0385743 0.03717507
-0.052149106 -0.017212741 -0.019752353 -0.019153262 -0.048312854 -0.034842387 0.062575236 -0.017699478
-0.029595064 -0.01848539 -0.018042361 0.05898801 0.008522641 -0.008719116 0.030351264 -0.033131354
0.022230271 -0.009634976 0.04166207 -0.028145062 -0.005131258 -0.015764527 -0.029598359 -0.018906537
-0.05373966 0.016083581 0.0107245045 -0.019919336 0.024025002 0.017556641 0.031326905 -0.0031037955
0.00028712625 0.05087417 0.011547962 -0.020828657 -0.0040347776 -0.025577994 0.07325399 0.026762202
-0.062212583 0.04823314 0.026873335 0.009076363 -0.03290645 0.036838587 0.006984866 0.037013274
-0.021832917 -0.033084434 -0.0093842205 -0.041807365 0.004127422 -0.007608251 -0.0300345 -0.013276514
-0.015440812 -0.011749892 0.025776703 0.03854751 0.044072654 -0.023111485 0.03449107 -0.023814995
0.034614645 0.06717595 -0.013916221 -0.008540341 -0.0066928174 0.05369886 -0.06998658 0.0018374366
00000000: a1f5 763d d65b b43d 0262 8d3d b3c5 4b3d
00000010: e0e7 3abd 0caf 9fbd 3ca1 ba3d 5cd3 18bd
00000020: 69e8 afbd dbdb f3bc 25cb 67bd 0178 633c
00000030: 7f98 a03c 827f b3bc 67b7 59bc 4aae 3a3c
00000040: badb 653d d60c debc d168 a6bc b0a6 aebc
00000050: 3e62 1bbc bf63 14bd 3b95 7d3c d8c5 dbbc
00000060: 9d45 cd3c 4202 d53c ae83 583c 0bed 05bc
00000070: aa3b bf3c 4a31 40bc 9cb5 72bb e7f2 30bc
00000080: 98b2 9ebc 0f90 543d 8fb3 cdbc 03d7 323d
00000090: 8f26 963d 243e 233c 7428 2bbd cd92 753a
000000a0: f47b 5ebd 333b 76bd 40b8 adbb 1b9c a13c
000000b0: f81a 0abd be02 893d 2480 09b9 bd93 8fb9
000000c0: 2ac0 a6bc 3bc8 6bbd 2709 cdba f9fe 0c3d
000000d0: 9fde 8bbd 5b2c 85bd df97 b93c e823 073c
000000e0: 99aa aa3c a615 cb3c 86f2 e2bc 487c e1b7
000000f0: dee3 403d 9db9 95bc 31f7 11bc 5f21 d53b
00000100: b3a8 1e3d 52b5 b5bc 4585 263d 7496 14bd
00000110: 16b1 37ba 5fcc 403d a30a d3bc 80e5 15bd
00000120: 9f09 1cbc 3c8e 823b e8fa 6a3d 2ad8 133d
00000130: 0a8d 053c 21ce a3bb b23a 5c3d 0c11 da3c
00000140: 6894 b0bb a1b1 7f3d ce7f 503c e706 aa3c
00000150: 4ebf 0d3d 9a5f a93c ad75 c6bc f2d6 3d3d
00000160: 6d85 af3a c633 acbd 5ab1 02bd bf58 dc3a
00000170: 21c8 093b 1758 993c 13be 3b3d 6bd7 473d
00000180: 1528 483d a981 d93b f5a1 dbba a615 013c
00000190: 857e 113d 22e0 1d3c 93c8 0b3d 8263 1fbd
000001a0: 6782 d93c 1d63 0d3c e8d9 0fbc 83ee 29bc
000001b0: 3d65 bc3c 329f 943d cfb9 be3b b9b6 d73c
000001c0: c9cc da3c 0a70 1b3d 0173 443d 9806 b839
000001d0: 5751 4abd 3905 47bd 36c7 69bd d190 c4bc
000001e0: 5aa9 18bd 8715 1c3d ca85 e8bc 988b bebc
000001f0: 74a3 223c 10ba e1bc 619c 2f3d 6072 c93c
00000200: f984 493d 640a f9bc fc47 0e3d 3568 d83c
00000210: f7ad c3bc fe7e 193b 2fcc 053d 3f75 11bd
00000220: 26c5 8cba 5b52 11bd 63e1 88bc dcfb 59bc
00000230: 87ff 69bd 3a54 8d3d 2adb 653c 96de 27bb
00000240: 6269 5a3d ad20 65bb 1cb5 70bd c70c a7bb
00000250: a471 95bd e4cc 59bd 2f97 233d 1a64 98bd
00000260: 2187 afbd 63c0 a0ba 5c11 a1bb 1e4f dc3c
00000270: 31f8 573c 7144 55bc 8b34 ceba 1c06 d1ba
00000280: 11ab ec3b 236e bfbb 8752 d9bc 7fd2 d63b
00000290: 3812 0fbc c7d1 a5bc 79da 133d 8cb8 95bc
000002a0: e3b7 dc3c 9076 c7bb 6f4c 62bd 2d29 e6bb
000002b0: 0217 9d3c bbeb fd3c 41bb dd3c ad4b 133d
000002c0: c764 053d 3769 3e3d d681 15bc 91b8 ff3c
000002d0: 0b10 8dbc 6192 57bc 1600 1ebd e344 183d
000002e0: 4d9a 55bd bc01 8dbc b0cf a1bc 4de7 9cbc
000002f0: b3e3 45bd e4b6 0ebd 7227 803d 7ffe 90bc
00000300: 5971 f2bc ac6e 97bc 93cd 93bc 699d 713d
00000310: 8ca2 0b3c a0da 0ebc 37a3 f83c beb4 07bd
00000320: 421c b63c 05dc 1dbc d9a5 2a3d 7990 e6bc
00000330: 1d24 a8bb 9c24 81bc 4278 f2bc e2e1 9abc
00000340: 1e1e 5cbd b7c1 833c d5b5 2f3c e02d a3bc
00000350: 15d0 c43c f2d2 8f3c a450 003d 0c69 4bbb
00000360: 6f89 9639 6f61 503d aa33 3d3c dca0 aabc
00000370: 2b36 84bb f188 d1bc 3006 963d 683c db3c
00000380: 9fd2 7ebd 1d90 453d 7825 dc3c 07b5 143c
00000390: eac8 06bd 0fe4 163d 4ee1 e43b 3b9b 173d
000003a0: f2da b2bc 8b83 07bd 46c0 19bc 333e 2bbd
000003b0: 533f 873b a34e f9bb e90a f6bc bc85 59bc
000003c0: 76fb 7cbc 9e82 40bc aa29 d33c fee3 1d3d
000003d0: 8785 343d 4c54 bdbc 8246 0d3d aa17 c3bc
000003e0: 16c8 0d3d 8b93 893d dd00 64bc c9ec 0bbc
000003f0: 6c4f dbbb 56f3 5b3d 2055 8fbd 24d6 f03a

classifier.1.bias f4 [128]
-0.005881134 0.0025685334 -0.006006067 -0.040747475 0.08942143 0.013913884 -0.01677394 -0.08540839
-0.02073952 0.115588754 0.0048992536 -0.040385216 0.073761165 -0.025498483 -0.040865626 -0.017439138
0.05983098 0.020238334 -0.037335135 0.029371686 0.049285557 -0.001858918 -0.0014614945 0.10739421
0.003894492 -0.025336117 0.049139496 -0.0050354362 0.015901176 0.07607202 0.0053214775 -0.015334108
-0.057732485 0.11973071 0.03896695 0.08578009 0.0025068184 -0.020869542 -0.054459654 0.023145037
-0.086874686 0.059050854 0.0026757675 -0.025936391 0.078791104 0.024943952 0.02175693 0.060432192
0.058926392 -0.0066499035 0.007148327 -0.029632684 0.014085069 0.056467447 0.035590928 -0.026929403
-0.026223602 -0.029537741 0.03491121 -0.01751033 -0.07535957 0.0059626824 -0.00298664 0.014603763
0.017254172 -0.01830145 -0.09032191 -0.0015596838 -0.008485778 -0.012555709 0.09456041 -0.0033427137
0.037006088 0.029686619 -0.0076240757 -0.05183259 0.050848585 -0.0042435974 -0.024869429 -0.028753608
-0.0013305154 -0.021290123 0.049200587 0.025575673 0.028369283 0.061028928 0.011097433 -0.04550379
-0.0963605 0.072082706 -0.030570775 0.041231763 -0.015706284 -0.033740193 0.0004973657 0.048886724
-0.053665858 0.038495686 -0.055793088 0.031109147 0.06934965 -0.02147205 -0.016268298 -0.011998193
-0.018792434 -0.003468074 0.029148895 0.038475156 0.036883656 0.02909717 -0.025082799 0.040038284
-0.07567623 -0.024651906 -0.0016964788 -0.0069488543 -0.028451663 0.0028662945 -0.02143759 0.044434525
0.032434233 0.11466078 -0.087935604 0.0028020833 -0.03513312 0.057662252 -0.01415527 0.07742161
00000000: 87b6 c0bb d754 283b 8bce c4bb d3e6 26bd
00000010: 9522 b73d 0ff7 633c 8069 89bc 98ea aebd
00000020: ede5 a9bc ccb9 ec3d eb89 a03b f86a 25bd
00000030: 1810 973d 32e2 d0bc b762 27bd 86dc 8ebc
00000040: 5411 753d ddca a53c baec 18bd e49c f03c
00000050: a7df 493d f0a6 f3ba 9e8f bfba 7ff1 db3d
00000060: bc3a 7f3b b08d cfbc 7f46 493d 4d00 a5bb
00000070: 2f43 823c a6cb 9b3d ca5f ae3b e93b 7bbc
00000080: e678 6cbd 6035 f53d cf9b 1f3d 79ad af3d
00000090: 6f49 243b 9af6 aabc 1611 5fbd a99a bd3c
000000a0: 5beb b1bd 4fdf 713d ee5b 2f3b 8e78 d4bc
000000b0: 3b5d a13d 4257 cc3c 973b b23c bf87 773d
000000c0: cd5c 713d 6fe7 d9bb 833c ea3b 3ec0 f2bc
000000d0: 10c5 663c 694a 673d cbc7 113d 0d9b dcbc
000000e0: e1d2 d6bc 22f9 f1bc 0fff 0e3d d371 8fbc
000000f0: 1e56 9abd 9b62 c33b 81bb 43bb 9f44 6f3c
00000100: 9f58 8d3c ecec 95bc b2fa b8bd 4e6e ccba
00000110: ef07 0bbc 76b6 4dbc e3a8 c13d 6e11 5bbb
00000120: b293 173d 5a31 f33c 62d3 f9bb 694e 54bd
00000130: 9b46 503d e00d 8bbb f9ba cbbc b08c ebbc
00000140: b064 aeba a068 aebc 8e86 493d 1384 d13c
00000150: b366 e83c 78f9 793d 02d2 353c 2f62 3abd
00000160: a758 c5bd 19a0 933d 906f fabc a3e2 283d
00000170: 77aa 80bc 2833 0abd a661 023a 723d 483d
00000180: bbd0 5bbd a7ad 1d3d 4b87 64bd 9cd8 fe3c
00000190: 3007 8e3d 27e6 afbc 1845 85bc 1294 44bc
000001a0: 97f2 99bc a048 63bb aac9 ee3c 2098 1d3d
000001b0: 5113 173d 305d ee3c 717a cdbc 2fff 233d
000001c0: 24fc 9abd cbf2 c9bc 625c deba 37b3 e3bb
000001d0: 7613 e9bc 71d8 3b3b e29d afbc fa00 363d
000001e0: c2d9 043d 45d3 ea3d 9517 b4bd 28a3 373b
000001f0: bfe7 0fbd 412f 6c3d 81eb 67bc 398f 9e3d

classifier.3.weight f4 [5, 128]
-0.11959205 0.21872483 -0.30790436 0.5700581 -0.56862307 -0.012067536 0.08296435 -0.007778877
-0.2563257 -0.34379092 -0.1182417 -0.1835115 -0.24505368 0.08975966 -0.07369317 -0.30007488
-0.09487463 0.2947085 0.06230724 0.05906539 0.014668446 0.13775964 -0.18097974 0.0785076
-0.061636057 0.051866308 -0.3349336 -0.09160363 -0.16753337 -0.182067 -0.1464375 0.1307409
0.07129288 -0.10282152 0.4215325 0.065983266 0.01007904 0.13234296 -0.37928227 -0.17947271
-0.07564175 0.064745866 0.03556312 -0.08242562 -0.20875037 -0.09286326 0.3025005 -0.22220519
0.023417229 -0.050651234 0.20296432 0.0040506795 -0.0066739335 0.15349223 -0.04890636 0.108000934
0.23717473 0.07308754 -0.19792877 -0.16332236 0.21590453 0.046897337 0.3927097 0.593742
-0.23854336 -0.19653225 -0.10284977 -0.008759626 0.2887235 0.20446493 -0.2802079 -0.04892177
0.39792708 -0.4560669 0.08050213 0.61368364 -0.0012224998 -0.028866827 0.10430474 0.11676319
0.15072128 0.06692192 -0.041475963 0.23458144 -0.0022575536 -0.31382686 0.18919827 0.0816942
-0.04393175 0.08266443 -0.06406642 -0.023928106 -0.16577365 0.22451998 0.21056978 0.046350338
-0.587611 -0.12657091 0.20705083 0.0043659476 0.042708118 -0.07689018 0.37940872 0.07660741
-0.01855633 0.10823956 0.21451013 0.11464726 -0.15774931 -0.42502344 -0.13293849 -0.07477792
0.1270345 -0.043826357 -0.34357995 -0.017664496 -0.088413104 0.33480084 -0.16094391 -0.13747115
-0.010099676 0.9381194 -0.01296219 0.10275901 0.051536784 -0.03622785 0.08860427 -0.2788578
-0.0774915 0.202035 -0.09942768 0.72616124 -0.007867505 0.19767326 0.2047072 0.27340728
0.20637387 -0.3781325 0.045195926 0.3821827 -0.5274636 -0.02850683 -0.15299861 0.021027388
-0.5781232 0.67033416 -0.064709954 -0.37609485 0.07479671 -0.30809948 0.015479447 0.26410505
-0.1737633 0.20354441 0.08839608 -0.052364547 -0.2358028 -0.35783163 -0.1373559 -0.096336134
0.2608393 -0.7779961 0.37876567 -0.25077474 0.13354701 0.22855051 0.7711335 0.5401303
0.29671803 -0.4786565 -0.1421993 -0.15815231 0.000933658 -0.1893436 -0.27769262 0.117926165
-0.068303555 -0.050811775 0.05211434 0.013349093 0.23373961 0.16568486 -0.053776305 -0.10138476
0.4704668 0.027109986 -0.20008817 -0.015891094 -0.07281133 0.09116317 0.23727585 0.110202186
-0.26066443 0.0076397285 -0.14446266 -0.011095442 0.011824423 0.2871058 -0.6407743 0.4350078
-0.019779287 -0.2021757 0.15438692 0.17787692 -0.47039273 0.3286408 -0.001203198 0.04415612
0.18828101 0.2729183 -0.040904522 0.56209135 -0.23124543 0.24953242 -0.060219813 0.57419586
0.533243 -0.33052325 -0.2896119 -0.024585335 0.27655742 -0.13337871 0.17706938 0.16778715
-0.45835483 -0.20361489 0.11909603 0.22795078 0.15347403 0.3922359 0.056023568 0.22926785
0.09533847 0.15102234 -0.23882791 -0.37203687 -0.11010838 -0.035390593 -0.13362297 -0.10206103
0.24792586 -0.027058786 -0.22437249 -0.1489855 0.027264262 -0.0491615 -0.042530235 -0.2969476
0.31295067 -0.14719309 -0.35265923 -0.5529847 0.026200818 -0.22167102 -0.1312654 -0.106024034
00000000: adec f4bd 67f9 5f3e a4a5 9dbe 54ef 113f
00000010: 4891 11bf eab6 45bc 37e9 a93d f3e5 febb
00000020: 1f3d 83be 5d05 b0be b428 f2bd 70ea 3bbe
00000030: 5aef 7abe ead3 b73d 72ec 96bd 6aa3 99be
00000040: a14d c2bd 08e4 963e e035 7f3d 8dee 713d
00000050: ec53 703c dd10 0d3e c152 39be 98c8 a03d
00000060: 1776 7cbd c471 543d 6b7c abbe af9a bbbd
00000070: de8d 2bbe c66f 3abe b6f3 15be f1e0 053e
00000080: 0002 923d 1794 d2bd 1cd3 d73e 3c22 873d
00000090: 8f22 253c ea84 073e 4931 c2be b2c7 37be
000000a0: 10ea 9abd 7b99 843d a2aa 113d c3ce a8bd
000000b0: a8c2 55be 182f bebd 58e1 9a3e c289 63be
000000c0: 7dd5 bf3c ab77 4fbd e1d5 4f3e 90bb 843b
000000d0: 03b1 dabb 112d 1d3e 0952 48bd 982f dd3d
000000e0: efdd 723e ecae 953d d7ad 4abe fa3d 27be
000000f0: 1416 5d3e 6c17 403d 3f11 c93e 7aff 173f
00000100: b644 74be c03f 49be e6a2 d2bd 8984 0fbc
00000110: 91d3 933e 415f 513e 6977 8fbe 3262 48bd
00000120: 19bd cb3e 9a81 e9be 4dde a43d 5f1a 1d3f
00000130: 493c a0ba 207a ecbc b99d d53d 8a21 ef3d
00000140: ae56 1a3e 5c0e 893d b3e2 29bd 1e36 703e
00000150: 77f3 13bb eaad a0be 31bd 413e 4a4f a73d
00000160: c7f1 33bd f84b a93d 4135 83bd e004 c4bc
00000170: 91c0 29be 91e8 653e 9b9f 573e dad9 3d3d
00000180: ad6d 16bf ce9b 01be 2205 543e 3910 8f3b
00000190: b5ee 2e3d 9978 9dbd dc41 c23e 59e4 9c3d
000001a0: 7203 98bc b4ac dd3d 8ba8 5b3e 2fcc ea3d
000001b0: 0989 21be ac9c d9be 0721 08be 2b25 99bd
000001c0: 5515 023e 4483 33bd b6e9 afbe 22b5 90bc
000001d0: ee11 b5bd 046b ab3e 7bce 24be 3dc5 0cbe
000001e0: 1d79 25bc 9828 703f 5e5f 54bc 5173 d23d
000001f0: 3c18 533d a763 14bd 2876 b53d 73c6 8ebe
00000200: ddb3 9ebd 43e2 4e3e bda0 cbbd b4e5 393f
00000210: b5e6 00bc dc6a 4a3e c49e 513e 0afc 8b3e
00000220: ac53 533e 959a c1be 5d1f 393d 73ad c33e
00000230: db07 07bf 2887 e9bc abab 1cbe a141 ac3c
00000240: e2ff 13bf 059b 2b3f a786 84bd 818f c0be
00000250: 042f 993d 37bf 9dbe 829d 7d3c c738 873e
00000260: 02ef 31be f26d 503e 0109 b53d 357c 56bd
00000270: 4a76 71be b535 b7be 06a7 0cbe e14b c5bd
00000280: bb8c 853e c12a 47bf 93ed c13e 8c65 80be
00000290: 8cc0 083e 2509 6a3e 0169 453f fb45 0a3f
000002a0: 6deb 973e 7712 f5be b19c 11be aef2 21be
000002b0: bac0 743a 4ae3 41be ba2d 8ebe 4683 f13d
000002c0: bce2 8bbd 0220 50bd d975 553d 27b6 5a3c
000002d0: 7059 6f3e 4ba9 293e 8b44 5cbd d0a2 cfbd
000002e0: 06e1 f03e c315 de3c eae3 4cbe 0a2e 82bc
000002f0: 1b1e 95bd c2b3 ba3d 71f8 723e afb1 e13d
00000300: cf75 85be b056 fa3b 05ee 13be a8c9 35bc
00000310: 3abb 413c 88ff 923e c909 24bf 58b9 de3e
00000320: 2c08 a2bc 2607 4fbe 9b17 1e3e 5e25 363e
00000330: 51d7 f0be 9b43 a83e a0b4 9dba 0cdd 343d
00000340: bdcc 403e f3bb 8b3e 808b 27bd 38e5 0f3f
00000350: 9acb 6cbe 6d85 7f3e 0da9 76bd 80fe 123f
00000360: 9d82 083f 583a a9be 0348 94be 2f67 c9bc
00000370: ef98 8d3e 6e94 08be ad51 353e 65d0 2b3e
00000380: 7cad eabe 6c80 50be 9fe8 f33d ee6b 693e
00000390: 4c28 1d3e 25d3 c83e f878 653d 31c5 6a3e
000003a0: d140 c33d 9aa5 1a3e 4e8f 74be 9e7b bebe
000003b0: 8180 e1bd baf5 10bd 76d4 08be 6005 d1bd
000003c0: 47e0 7d3e 63aa ddbc e7c1 65be a88f 18be
000003d0: 4d59 df3c 925d 49bd 2f34 2ebd 8409 98be
000003e0: 123b a03e c9b9 16be c08f b4be 6890 0dbf
000003f0: 19a3 d63c bafd 62be 706a 06be 2123 d9bd

classifier.3.bias f4 [5]
0.09428352 0.37240845 -0.26621094 0.048583157 -0.14800088
00000000: b817 c13d 52ac be3e cd4c 88be 22ff 463d
00000010: 8b8d 17be

momentum_buffer f4 [16, 1, 3, 3]
-0.015306485 0.016580198 0.026599694 -0.021566033 0.02237004 0.05572841 0.009946108 0.029299606
0.059529744 -0.03066438 -0.036648147 -0.06347449 -0.026148757 -0.045194622 -0.09009001 -0.040432297
-0.07611187 -0.114110045 -0.050209485 -0.014449936 -0.00050358864 -0.035076346 -0.0027363896 0.007130434
-0.0021914009 0.029172385 0.029612774 -0.054122083 -0.06759996 -0.103266805 -0.0588489 -0.0780577
-0.116310395 -0.059012916 -0.08272153 -0.10992937 0.16280697 0.17034942 0.18712677 0.20607334
0.16212468 0.16730769 0.2030945 0.17567481 0.19130374 -0.020835835 -0.01672085 0.0026454113
0.0014402248 0.013209483 0.022161469 0.01607556 0.01627915 0.028323624 0.06099663 0.031938758
0.00026508135 0.07346736 0.042797584 0.0040480574 0.09437423 0.08540588 0.068759196 0.017836792
0.049943075 0.061643988 0.017658142 0.029767575 0.037530374 0.06332664 0.07044953 0.06955612
-0.028661186 -0.009274472 0.009564041 -0.023243723 -0.008474022 0.0023371393 -0.008939852 0.0021921946
0.013083974 -0.14045447 -0.07209635 -0.035827246 -0.11264078 -0.037343375 -0.0067903544 -0.090763524
-0.026657594 -0.00047455856 0.12861472 0.09273057 0.032694146 0.0773484 0.04454251 0.025814917
0.014703642 0.02014969 0.015584586 -0.023167348 -0.007778608 0.0077802422 -0.021829363 -0.008559379
0.007859267 -0.011980915 0.0050950176 0.012413692 0.010073803 0.0046960986 -0.0038536366 -0.0012764444
-0.007165921 -0.017107615 -0.0027641663 -0.011934155 -0.039068233 0.077829875 0.075597204 0.051357444
0.099385425 0.05834834 0.034346417 0.16363485 0.13440529 0.10459488 -0.009863886 -0.010434466
-0.0138258 -0.01269898 -0.011927904 -0.025450872 -0.019900402 -0.019475082 -0.040228117 -0.041645937
-0.004538868 0.04221821 -0.0383116 -0.016111769 0.040994175 -0.0040770555 0.024491958 0.056043345
00000000: 0dc8 7abc 32d3 873c 9ae7 d93c 40ab b0bc
00000010: 6041 b73c 7943 643d 00f5 223c ba05 f03c
00000020: 76d5 733d de33 fbbc 5e1c 16bd eafe 81bd
00000030: eb35 d6bc ff1d 39bd 1c81 b8bd 569c 25bd
00000040: 8ae0 9bbd 87b2 e9bd 76a8 4dbd 6dbf 6cbc
00000050: 4303 04ba 37ac 0fbd 0055 33bb 6aa6 e93b
00000060: 9b9d 0fbb edfa ee3c 7d96 f23c 1eaf 5dbd
00000070: d971 8abd 8c7d d3bd 8b0b 71bd b7dc 9fbd
00000080: 2534 eebd 87b7 71bd e869 a9bd a622 e1bd
00000090: dfb6 263e 1470 2e3e 299e 3f3e e404 533e
000000a0: 0304 263e b552 2b3e 01f8 4f3e 19e4 333e
000000b0: 21e5 433e eaaf aabc 2afa 88bc a35e 2d3b
000000c0: edc5 bc3a 966c 583c f88b b53c e5b0 833c
000000d0: da5b 853c f206 e83c 9ad7 793d 37d2 023d
000000e0: 9efa 8a39 0e76 963d 854c 2f3d 91a5 843b
000000f0: 4747 c13d 47e9 ae3d 9fd1 8c3d 771e 923c
00000100: 1c91 4c3d 687e 7c3d cfa7 903c 21db f33c
00000110: 73b9 193d 66b1 813d d847 903d 7073 8e3d
00000120: ddca eabc f4f3 17bc 7fb2 1c3c 9f69 bebc
00000130: a0d6 0abc b12a 193b 7578 12bc ecaa 0f3b
00000140: 2a5e 563c 4cd3 0fbe 40a7 93bd 97bf 12bd
00000150: 36b0 e6bd 5ef5 18bd 9f81 debb 3ae2 b9bd
00000160: 0761 dabc 2cce f8b9 94b3 033e 86e9 bd3d
00000170: 4cea 053d d768 9e3d 3572 363d ce79 d33c
00000180: 8be7 703c f610 a53c 7e56 7f3c 73c9 bdbc
00000190: b1e3 febb 67f1 fe3b 7ed3 b2bc a33c 0cbc
000001a0: 28c4 003c 9a4b 44bc 1bf4 a63b cc62 4b3c
000001b0: 980c 253c bbe1 993b 4b8d 7cbb 5e4e a7ba
000001c0: 1ad0 eabb 4525 8cbc 0427 35bb 7987 43bc
000001d0: 0306 20bd 4565 9f3d b5d2 9a3d 2f5c 523d
000001e0: 968a cb3d abfe 6e3d d4ae 0c3d e58f 273e
000001f0: 8aa1 093e d735 d63d 239c 21bc 53f5 2abc
00000200: 9c85 62bc 620f 50bc 416d 43bc 597e d0bc
00000210: 2b06 a3bc 358a 9fbc 3dc6 24bd ee94 2abd
00000220: c9ba 94bb 00ed 2c3d a0ec 1cbd d4fc 83bc
00000230: 82e9 273d d298 85bb 5ca3 c83c b58d 653d

momentum_buffer f4 [16]
-2.8873636e-05 3.9528026e-05 -0.00014395706 5.4720305e-05 -3.9963898e-06 -0.00010850657 0.00011557188 7.638939e-05
6.0809598e-05 -9.56835e-05 4.529375e-05 -0.00010457931 -5.1597966e-05 -7.773951e-05 -2.7383123e-05 -0.00012454709
00000000: a935 f2b7 e5ca 2538 2ef3 16b9 7b83 6538
00000010: ba18 86b6 058e e3b8 2e5f f238 3e33 a038
00000020: cf0d 7f38 b0a9 c8b8 cbf9 3d38 9751 dbb8
00000030: e56a 58b8 1508 a3b8 cfb4 e5b7 db98 02b9

momentum_buffer f4 [16]
0.012978842 0.021634828 -0.019200858 0.05059193 0.031817477 -0.061625063 0.0122361565 -0.001206525
-0.015637623 -0.038265426 -0.016206115 0.007926566 0.0065223733 -0.0016468894 0.006181373 0.0074992836
00000000: 35a5 543c 863b b13c 1e4b 9dbc 7c39 4f3d
00000010: 0b53 023d 906a 7cbd 297a 483c 4324 9eba
00000020: 791a 80bc 35bc 1cbd b0c2 84bc 6dde 013c
00000030: a2b9 d53b 70dc d7ba 1d8d ca3b 8dbc f53b

momentum_buffer f4 [16]
0.012196056 0.023706844 -0.0313906 0.041473277 -0.0153931 -0.033308968 -0.00447769 -0.02903876
-0.00844122 -0.030034903 0.001519582 -0.0059228707 8.9759895e-05 -0.017721387 0.0009606358 -0.01613483
00000000: f7d1 473c db34 c23c 6e93 00bd e2df 293d
00000010: 5733 7cbc fc6e 08bd 96b9 92bb b2e2 edbc
00000020: 0b4d 0abc c20b f6bc b62c c73a a414 c2bb
00000030: 7a3d bc38 712c 91bc 2dd3 7b3a 312d 84bc
