models/trained_model.pth (torch, 399697 bytes, 22 tensors)

backbone.0.weight f4 [16, 1, 3, 3]
0	0x3de38508	0.11109358
1	0x3ea22464	0.3166839
2	0x3e7ffe43	0.24999337
3	0xbea41b2b	-0.32051978
4	0x3e36f7dc	0.17867988
5	0x3d9561aa	0.072940186
6	0xbdcaa528	-0.09894782
7	0x3e9e2fe0	0.308959
8	0x3da27b7a	0.079337075
9	0xbe0301f2	-0.12793711
10	0x3e9eaef8	0.30992866
11	0x3e2e50d8	0.17023027
12	0xbdf7d2d7	-0.121007614
13	0xbe85d8e2	-0.2614203
14	0xbd73afb8	-0.05949375
15	0xbe2d87a0	-0.16946268
16	0xbdb0ae33	-0.08626976
17	0xbd45d263	-0.048296344
18	0xbcf12314	-0.029435672
19	0x3dcbc07e	0.09948824
20	0x3e302989	0.17203344
21	0xbe90974f	-0.2824044
22	0x3e1426c1	0.14467908
23	0x3e1e41d9	0.15454806
24	0x3c595c69	0.013266661
25	0xbcab3857	-0.020900888
26	0xbe042083	-0.12903027
27	0xbeb46f55	-0.3524119
28	0xbcf0db8a	-0.02940156
29	0x3e1ccd50	0.15312696
30	0x3e84d7e4	0.2594596
31	0x3e410dfc	0.18852991
32	0x3e012d88	0.12615025
33	0xbe6e0ac8	-0.232463
34	0x3c81bcbd	0.015837068
35	0x3e8785e3	0.26469335
36	0x3e6ba884	0.23013502
37	0x3d9ff6d9	0.07810754
38	0xbe1969b3	-0.14981727
39	0xbe594207	-0.21216594
40	0x3df2e293	0.11859622
41	0x3e2a7506	0.16646203
42	0xbe4a9e04	-0.1978684
43	0xbeab3b59	-0.33443716
44	0xbea5372b	-0.32268652
45	0x3d445548	0.047932893
46	0x3dad1dc8	0.08452946
47	0x3d200ad2	0.03907282
48	0xbe3d7587	-0.18501864
49	0xbe2396fc	-0.15975565
50	0x3e0c13b8	0.13679397
51	0x3d8d4b5f	0.068991415
52	0xbe62fec4	-0.22167498
53	0xbd59dc8e	-0.053188853
54	0x3d7281ee	0.05920594
55	0xbc910927	-0.01770456
56	0xbe3fccd6	-0.18730482
57	0xbe3ddc97	-0.1854118
58	0xbe985897	-0.2975509
59	0xbe98d61f	-0.2985086
60	0x3de809e9	0.11330015
61	0x3d30b888	0.043144733
62	0x3e0ec695	0.1394294
63	0x3dbefe3f	0.09325837
64	0xbce8e67d	-0.028430218
65	0xbd9a9a68	-0.07548982
66	0x3e8a759e	0.2704286
67	0xbeaa49ae	-0.33259338
68	0x3ea7f929	0.32807282
69	0x3e655a28	0.22397673
70	0xbdffbd76	-0.12487309
71	0xbe32501e	-0.17413375
72	0xbd02d74a	-0.031943597
73	0xbdedb951	-0.11607612
74	0xbe467486	-0.19380388
75	0x3e5a6d28	0.21330702
76	0x3e518939	0.20462503
77	0x3e7bfb7a	0.2460765
78	0x3ea573b4	0.32314837
79	0x3e3527ae	0.17690918
80	0x3da81712	0.08207525
81	0x3e9d061d	0.30668727
82	0x3e6c525e	0.23078296
83	0x3ddb85d4	0.10718885
84	0x3ea3cf14	0.31993926
85	0x3e4b8e04	0.19878393
86	0xbdf16fed	-0.11788926
87	0x3d05438b	0.032535117
88	0x3c8d1487	0.017221702
89	0x3e9735f4	0.2953335
90	0xbe2a3146	-0.16620359
91	0xbe4322bf	-0.19056223
92	0xbdf6afee	-0.12045275
93	0xbeb13840	-0.34613228
94	0xbe02a186	-0.12756929
95	0xbe67cee1	-0.22637512
96	0xbe0a2791	-0.13491656
97	0xbe074bad	-0.13212462
98	0xbd8ef62b	-0.069805466
99	0x3dcadb1b	0.09905072
100	0x3e1b95a9	0.1519381
101	0x3e327a2d	0.17429419
102	0xbd8ffcf6	-0.0703067
103	0xbe935d93	-0.2878233
104	0x3d4bedc9	0.049787316
105	0x3ea82920	0.32843876
106	0x3d9f92ba	0.07791658
107	0xbe6f3084	-0.23358351
108	0x3e3f131e	0.18659636
109	0x3e562f61	0.20916511
110	0x3e0094b1	0.12556721
111	0x3e03ca5e	0.12870166
112	0x3b4fff66	0.0031737923
113	0xbe289dbd	-0.16466422
114	0xbe30efa1	-0.17278911
115	0xbe972d0d	-0.2952656
116	0xbcc42b84	-0.023946531
117	0xbe4b03d4	-0.19825679
118	0xbe48c89b	-0.19607775
119	0x3d96b774	0.0735921
120	0x3da5ac1e	0.080894694
121	0x3e067d89	0.13133825
122	0xbe1ee817	-0.15518223
123	0x3e18f311	0.14936472
124	0x3d0b86ef	0.03406423
125	0xbd8eca23	-0.06972148
126	0x3c36550d	0.011128676
127	0xbe5a096d	-0.21292658
128	0xbd01fe4b	-0.031736653
129	0xbe4d08c2	-0.20022872
130	0xbe5fc607	-0.21852885
131	0x3e6e3b29	0.23264755
132	0x3d4c9101	0.049942974
133	0x3ea3571f	0.31902406
134	0xbd146597	-0.036229696
135	0x3e83ba61	0.25728133
136	0x3c0ab9e9	0.008467176
137	0x3c603812	0.013685243
138	0x3d40cddc	0.047071323
139	0x3e650eb2	0.22368887
140	0xbe324641	-0.17409612
141	0xbe278fe4	-0.16363484
142	0xbe82f675	-0.25578657
143	0x3e95390f	0.29145095

backbone.0.bias f4 [16]
0	0x3eb3e142	0.35132796
1	0xbca14173	-0.019684529
2	0x3ead2d75	0.33823743
3	0x3ea4b104	0.32166302
4	0xbe977f7f	-0.2958946
5	0xbe371fb7	-0.17883192
6	0xbe80b334	-0.2513672
7	0x3e644932	0.22293547
8	0x3da0f0f3	0.078584574
9	0xbdb38331	-0.08765257
10	0x3eaa7f4f	0.33300254
11	0x3e375939	0.1790513
12	0xbe8ef3a7	-0.27920267
13	0x3e255453	0.16145448
14	0xbe27fa07	-0.16403972
15	0xbd133447	-0.035938527

backbone.1.weight f4 [16]
0	0x3f7d8fe7	0.990477
1	0x3f78cc45	0.9718669
2	0x3f869409	1.0513927
3	0x3f7f8c85	0.9982379
4	0x3f7816d9	0.9690986
5	0x3f7e822e	0.9941739
6	0x3f7a4871	0.97766787
7	0x3f805581	1.0026094
8	0x3f77d3fb	0.9680783
9	0x3f783ceb	0.96967953
10	0x3f77ddcb	0.96822804
11	0x3f8437c7	1.0329522
12	0x3f828670	1.0197277
13	0x3f81130b	1.0083936
14	0x3f7e03eb	0.9922473
15	0x3f841a32	1.0320494

backbone.1.bias f4 [16]
0	0xbc07e3b6	-0.008294037
1	0xbd8a5cda	-0.06755991
2	0xbc57fbc3	-0.013182583
3	0xbc85d202	-0.016335491
4	0xbd37105d	-0.04469334
5	0xbd954d8a	-0.0729018
6	0xbd6307b3	-0.055427264
7	0xbc84d4f1	-0.01621482
8	0xbcd08351	-0.025453242
9	0xbcc985d6	-0.02459995
10	0xbd3ac7bd	-0.04560064
11	0xbd0e3802	-0.034721382
12	0xbd725f42	-0.059172876
13	0xbd7297ab	-0.059226673
14	0xbd599bd3	-0.05312712
15	0xbd01a55d	-0.031651843

backbone.1.running_mean f4 [16]
0	0x3f884aa7	1.0647782
1	0xbea89d93	-0.3293272
2	0x3ede2ef0	0.43395185
3	0x3f22ca0a	0.6358954
4	0xbf49fe22	-0.789034
5	0xbebc7353	-0.36806735
6	0xbf408706	-0.7520603
7	0x3ebb3e6a	0.36571056
8	0x3f4c0760	0.79698753
9	0x3f82143a	1.0162423
10	0xbf5e8d71	-0.8693457
11	0x3ed05735	0.40691534
12	0xbe91e4cf	-0.2849488
13	0x3d24dc83	0.04024936
14	0xbe6ea640	-0.23305607
15	0x3e2473b6	0.16059765

backbone.1.running_var f4 [16]
0	0x3d8477bd	0.06468151
1	0x3c5cf740	0.013486683
2	0x3b07a1cf	0.002069581
3	0x3c65df6d	0.01403032
4	0x3d033c77	0.032040086
5	0x3ba6e91f	0.005093708
6	0x3d057324	0.03258051
7	0x3b4b344d	0.0031006515
8	0x3d88070d	0.0664197
9	0x3e1b0797	0.15139614
10	0x3e37b183	0.17938809
11	0x3be3336f	0.0069336216
12	0x3b10de5e	0.0022105197
13	0x3b1fe624	0.002439865
14	0x3ad89919	0.0016525119
15	0x3bb29104	0.005449416

backbone.4.weight f4 [32, 16, 3, 3]
0	0x3d5ded6a	0.054181494
1	0x3d538ce7	0.051648047
2	0xbdbe69b8	-0.09297508
3	0x3d221eb0	0.039580047
4	0x3d84d61a	0.06486149
5	0xbd1e3c76	-0.03863188
6	0x3cb95640	0.022624135
7	0x3d53b570	0.051686704
8	0x3dc4d7cd	0.09611473
9	0xbc525664	-0.01283798
10	0x3d97be17	0.07409304
11	0xbce44b90	-0.027868062
12	0x3d13f305	0.036120433
13	0x3d8d91b6	0.06912558
14	0x3ca386d8	0.01996176
15	0xbce46087	-0.02787806
16	0xbb79bae3	-0.0038105778
17	0xbd97e164	-0.07416037
18	0x3d3b6984	0.045754924
19	0x3cc3a6de	0.02388328
20	0xbd9528d2	-0.072831765
21	0xbd60132e	-0.05470579
22	0x3c451a30	0.012030169
23	0x3d318c8c	0.043346927
24	0x3a764e30	0.0009395806
25	0xbd5e7036	-0.05430623
26	0x3d3982e9	0.04529086
27	0x3da5a7ba	0.08088632
28	0x3dbea81c	0.09309408
29	0x3da02626	0.07819776
30	0xbc1a99b2	-0.009436058
31	0xbd13b0c6	-0.036057256
32	0x3dcc32de	0.0997064
33	0xbb665dff	-0.003515124
34	0x3d0e69ba	0.034768797
35	0xbd546296	-0.05185183
36	0xbd1ce058	-0.03829989
37	0x3ce32c6a	0.02773114
38	0xbd8aac15	-0.06771103
39	0x3d2d0bc9	0.042247567
40	0xbd4fa8ca	-0.05069808
41	0xbb93f38d	-0.0045151175
42	0xbd168215	-0.03674515
43	0xbdaf5490	-0.08561051
44	0xbc8c7b0c	-0.017148517
45	0xbd087deb	-0.03332321
46	0x3bad6fe3	0.005292879
47	0xbd644598	-0.055730432
48	0x3cb944f5	0.02261589
49	0x3d8ea070	0.06964195
50	0x3c9399c6	0.01801766
51	0xbd8c9864	-0.06865004
52	0x3d6ca95c	0.0577787
53	0x3d05ad1b	0.03263579
54	0x3d73f02f	0.05955523
55	0x3cd7b806	0.026332866
56	0x3d94aa3e	0.072590336
57	0xbc2999aa	-0.010351578
58	0xbca7c840	-0.020481229
59	0xbd7616a7	-0.060080197
60	0xbdb0e03b	-0.086365186
61	0xbd9cea6a	-0.076618984
62	0xbd46211d	-0.048371423
63	0xbdc34d5d	-0.0953624
64	0xbd616b1a	-0.05503378
65	0x3b79be84	0.003810794
66	0xbdfa443e	-0.122200474
67	0x3ce3bd1b	0.027800133
68	0x3d1542a7	0.036440518
69	0xbccc056e	-0.024904933
70	0x3d2f2b15	0.042765696
71	0x3caecf40	0.021339059
72	0xbd200c4c	-0.039074227
73	0x3b2cfc48	0.0026395489
74	0x3d6670c6	0.056259893
75	0x3d916050	0.07098448
76	0xbd42e215	-0.04757889
77	0x3d96733c	0.07346198
78	0x3c7e185b	0.0155087365
79	0x3cf009af	0.029301492
80	0xbd816427	-0.06317931
81	0xbd51aea0	-0.051191926
82	0x3d3a5ca3	0.0454985
83	0xbdb23fdd	-0.08703587
84	0xbdb650cc	-0.089021295
85	0x3d565139	0.052323554
86	0x3d9080f9	0.070558496
87	0xbcc98fc1	-0.02460468
88	0x3d1ff097	0.039047804
89	0x3d705b3f	0.05868077
90	0x3d8b2cc9	0.067956515
91	0xbdaf1e5b	-0.08550712
92	0x3ba83947	0.005133781
93	0xbce8b6bc	-0.028407447
94	0xbb84203b	-0.0040321625
95	0xbda0dbc5	-0.07854418
96	0x3d4aac49	0.04948071
97	0x3d8a1cd4	0.0674378
98	0x3db16390	0.08661568
99	0xbdc86d51	-0.097864754
100	0xbcdde96e	-0.027088847
101	0xbdc9c57c	-0.0985212
102	0x3cb05784	0.021526106
103	0xbce57968	-0.028011993
104	0xbd00f406	-0.03148272
105	0xbbeca280	-0.00722152
106	0xbb287bb8	-0.0025708508
107	0xbd3049c8	-0.043039113
108	0xbb213ecc	-0.002460408
109	0x3c3f834d	0.011689019
110	0xba865a26	-0.0010250255
111	0x3db06d99	0.08614654
112	0x3cff4f94	0.031165875
113	0x3d97e69a	0.07417031
114	0xbdd99805	-0.106246985
115	0xbd98ebff	-0.07466888
116	0x3d485161	0.048905734
117	0xbd857dba	-0.06518121
118	0xbcb3f390	-0.021966726
119	0x3cd0abb1	0.025472494
120	0x3d92bbf3	0.07164755
121	0xbd942bcf	-0.07234918
122	0x3c83d803	0.016094213
123	0x3d99eae2	0.075155035
124	0x3ba49acc	0.005023336
125	0x3c3a1ccb	0.011359404
126	0x3c1cd421	0.00957206
127	0xbd191131	-0.03736991
128	0x3c9a89f9	0.018864619
129	0x3b148351	0.0022661278
130	0xbd290926	-0.04126849
131	0xbcb4a9a3	-0.022053545
132	0xbd437ac9	-0.04772452
133	0xbdc7fd58	-0.09765118
134	0xbd2cb998	-0.042169183
135	0x3c804344	0.015657075
136	0x3db7a7e2	0.08967568
137	0x3d19fa29	0.037592087
138	0xbd8838c0	-0.06651449
139	0x3de273e8	0.110572636
140	0xbc1fcf96	-0.009754082
141	0xbd8d1d3c	-0.06890342
142	0x3d51d841	0.051231626
143	0x3d9ba14f	0.075991265
144	0xbbb1b97a	-0.005423722
145	0xbdab896e	-0.08375822
146	0x3bc75a26	0.0060837446
147	0x3d7c680b	0.06162266
148	0xbccde04b	-0.025131365
149	0xbd7d9fda	-0.061920024
150	0xbd90fbe2	-0.07079293
151	0x39c9ac88	0.00038466253
152	0x3d03c28f	0.032167967
153	0x3dbeddeb	0.09319671
154	0xbdc87f40	-0.09789896
155	0xbc7fe978	-0.015619628
156	0x3d784672	0.060614057
157	0xbd87bd58	-0.06627911
158	0xbdabdc31	-0.083916076
159	0xbd11144e	-0.035419755
160	0x3d978198	0.07397765
161	0x3c763015	0.015026112
162	0x3d396571	0.045262758
163	0xbd9b202c	-0.07574496
164	0xbd6dfd8b	-0.058103126
165	0x3dacd9fa	0.08440013
166	0xbd7dbaeb	-0.061945837
167	0x3c678585	0.014130955
168	0xbc3fa932	-0.011698054
169	0xbd6af3af	-0.0573613
170	0xbc8835fb	-0.016627302
171	0x3d0e16aa	0.034689583
172	0x3d591c3f	0.053005453
173	0xbd861de1	-0.06548668
174	0xbc304ac5	-0.010760014
175	0x3d1cc87b	0.03827713
176	0xbc917251	-0.017754706
177	0xbc588380	-0.013214946
178	0xbd1908ed	-0.037362028
179	0xbcbb30c2	-0.022850398
180	0x3d4f1927	0.050561097
181	0xbc9584db	-0.018251827
182	0x3afc2802	0.0019237997
183	0xbd268099	-0.040649984
184	0xbd3541d1	-0.04425222
185	0x3c974098	0.018463418
186	0x3ac03615	0.0014664555
187	0x3d6a6428	0.057224423
188	0x3d03e23c	0.032198176
189	0x3d87b648	0.06626564
190	0x3d1008fe	0.035164826
191	0x3db92e36	0.09042017
192	0xbc7e29ec	-0.015512925
193	0xbd23113b	-0.039811354
194	0x3d96e180	0.073672295
195	0xbc5b15c6	-0.01337189
196	0x3bb8daf1	0.005641334
197	0xbc6cd189	-0.014454254
198	0xbd95eaaf	-0.07320153
199	0xbd30da5e	-0.043177
200	0x3d65eb73	0.056132745
201	0xbda140ee	-0.078737125
202	0xbcff1743	-0.031139022
203	0xbd025e24	-0.03182806
204	0xbca65b91	-0.020307334
205	0xbcda157c	-0.026621573
206	0x3cf9b05a	0.030479599
207	0x3d8945a6	0.067027375
208	0x3dab2a6c	0.08357701
209	0xbd757d97	-0.059934225
210	0x3bc2707f	0.0059338207
211	0x3b871855	0.0041227737
212	0x3a9ef4e7	0.001212743
213	0x3cf7e56b	0.030260762
214	0x3d83f383	0.064429305
215	0xbda19aa7	-0.07890826
216	0xbcbd5df0	-0.023116082
217	0xbda6249a	-0.0811245
218	0x3d337371	0.043811265
219	0x3d205b58	0.039149612
220	0x3d5c9ac8	0.05385855
221	0xbc9f5fbb	-0.019454828
222	0xbda343a2	-0.07971884
223	0xbcba4dbf	-0.02274215
224	0xbc70ad50	-0.014689758
225	0xbdab1cd6	-0.083551094
226	0xbd063795	-0.03276785
227	0xbd44fc40	-0.048092127
228	0xbdce99f7	-0.1008796
229	0xbd0cba17	-0.034357157
230	0x3da846b1	0.08216608
231	0x3d339f89	0.043853316
232	0xbcf5628c	-0.029954217
233	0xbd9ad886	-0.0756083
234	0xbd3b5278	-0.045732945
235	0xbd903509	-0.07041366
236	0x3d3f352b	0.046681564
237	0xbd936adf	-0.071981184
238	0x3b6a61c7	0.0035763846
239	0x3d69b047	0.057052877
240	0xbd356a32	-0.04429073
241	0xbdb26c9e	-0.08712123
242	0xbd89ae4c	-0.067226976
243	0xbc4d434d	-0.012528253
244	0x3dad00a0	0.08447385
245	0x3d98b6d5	0.074567474
246	0xbb08fb37	-0.002090169
247	0x3c3c661f	0.011498957
248	0xbd0133b4	-0.03154345
249	0x3b90b4a7	0.0044160667
250	0xbd8fad65	-0.07015494
251	0xbd5d8328	-0.05408016
252	0xbc57f6e6	-0.013181424
253	0xbd224778	-0.03961894
254	0x3cabb47b	0.020960083
255	0xbd6c664b	-0.05771474

backbone.4.bias f4 [32]
0	0x3d37183f	0.044700857
1	0xbcfcca5e	-0.030858215
2	0xbd82de9e	-0.06390117
3	0xbd3b8f99	-0.045791242
4	0x3c8b9448	0.01703848
5	0xbdada8a1	-0.08479429
6	0xbc4b374d	-0.012403321
7	0xbd35deb0	-0.044401824
8	0xbc552b67	-0.013010836
9	0xbdb4d797	-0.08830183
10	0x3dc812f9	0.09769244
11	0xbca7d0bb	-0.020485273
12	0xbca262da	-0.019822527
13	0x3d53dacf	0.051722344
14	0x3d76afef	0.060226377
15	0x3d6160b7	0.055023875
16	0x3d2b12e3	0.04176606
17	0xbda989b1	-0.08278216
18	0xbca16110	-0.019699603
19	0x3ab06c47	0.0013460004
20	0x3d45dca1	0.04830611
21	0x3c7056aa	0.0146691
22	0x3d92c036	0.071655676
23	0xbda67d31	-0.08129347
24	0x3cb00fcc	0.021491908
25	0xbd89a7de	-0.06721471
26	0xbd2237cb	-0.03960399
27	0x3d1054ce	0.035237126
28	0xbd767af8	-0.060175866
29	0x3d908a9d	0.070576884
30	0x3d0eb430	0.03483981
31	0x3cfb776d	0.030696595

backbone.5.weight f4 [32]
0	0x3f7f79a9	0.99795014
1	0x3f7ee5c2	0.9956933
2	0x3f8c6e5b	1.0971178
3	0x3f809d39	1.004798
4	0x3f83513d	1.0259167
5	0x3f7b1544	0.98079324
6	0x3f81ab68	1.0130434
7	0x3f7a624b	0.97806233
8	0x3f77a3f9	0.9673458
9	0x3f81d6bb	1.0143656
10	0x3f7ee52d	0.99568444
11	0x3f822179	1.0166465
12	0x3f7c603a	0.9858433
13	0x3f7fb5e8	0.9988694
14	0x3f7b91a5	0.9826911
15	0x3f7cdc97	0.98774093
16	0x3f771119	0.96510464
17	0x3f72d730	0.948596
18	0x3f8283db	1.0196489
19	0x3f7822b9	0.9692798
20	0x3f7b5ba8	0.9818673
21	0x3f7cf6b5	0.98813945
22	0x3f7cc06b	0.98731107
23	0x3f7aa58c	0.97908854
24	0x3f7c6542	0.9859201
25	0x3f7f561a	0.99740756
26	0x3f877779	1.0583335
27	0x3f7e13bd	0.9924887
28	0x3f7f6f83	0.9977953
29	0x3f831b4b	1.0242704
30	0x3f867680	1.0504913
31	0x3f7f00ff	0.99610895

backbone.5.bias f4 [32]
0	0xbc31caec	-0.010851603
1	0x3bb9064a	0.0056465017
2	0x3da70c29	0.08156616
3	0xbd9ad061	-0.07559276
4	0x3cabd0b0	0.020973533
5	0xbd480430	-0.04883212
6	0xbda1cb49	-0.07900102
7	0xbda646ac	-0.08118948
8	0xbdc64f9c	-0.09683153
9	0xbcac0394	-0.0209978
10	0xbda3fcc8	-0.080071986
11	0xbd7ee5e9	-0.06223098
12	0xbd44581e	-0.047935598
13	0xbd29ad53	-0.04142506
14	0xbd0c11ca	-0.034196652
15	0xbd4b45d9	-0.04962716
16	0xbd561e67	-0.052275088
17	0xbde64fba	-0.112456754
18	0x3b83b180	0.0040189624
19	0xbd72812f	-0.05920523
20	0xbd2eb654	-0.04265435
21	0xbdc26f49	-0.09493882
22	0xbdbe9bc2	-0.09307052
23	0xbc9692f6	-0.018380623
24	0xbd3ad58f	-0.04561382
25	0xbd777fb6	-0.06042453
26	0x3d629480	0.055317402
27	0xbd1ff18a	-0.03904871
28	0xbd765dc8	-0.06014803
29	0xbdc5d92d	-0.096605636
30	0xbb931d7b	-0.0044895983
31	0xbd86985d	-0.0657203

backbone.5.running_mean f4 [32]
0	0xbc655831	-0.013998077
1	0xbf114154	-0.5674031
2	0xbfda41df	-1.7051352
3	0xbe850108	-0.2597735
4	0xbe6dfb5c	-0.23240417
5	0x3f2b9e36	0.67038286
6	0x3ec524ec	0.38504732
7	0x3f1759db	0.59121484
8	0x3eb0dd82	0.34543997
9	0xbf1d8b2c	-0.61540484
10	0x3d81cdda	0.06338091
11	0xbf68d956	-0.9095663
12	0xbe0b29ab	-0.13590114
13	0x3f30236b	0.68804044
14	0xbe6533d0	-0.22383046
15	0x3f2fd60d	0.6868599
16	0x3dfc8ab8	0.12331146
17	0xbf4b1cae	-0.79340637
18	0xbf5e80c1	-0.8691521
19	0xbf4b3015	-0.7937024
20	0x3ee9b833	0.45648345
21	0xbecc488a	-0.39899093
22	0x3ff4b485	1.911759
23	0xbf4877af	-0.7830762
24	0x3ce3f7d6	0.027828138
25	0x3e4383ec	0.19093293
26	0xbf26dbeb	-0.6517932
27	0x3b2add00	0.0026071668
28	0xbde3def6	-0.11126511
29	0x3dc37f66	0.09545784
30	0xbf3fae1a	-0.7487503
31	0x3f27509f	0.65357393

backbone.5.running_var f4 [32]
0	0x3e924abb	0.2857264
1	0x3e06c795	0.13162072
2	0x3e864f90	0.26232576
3	0x3de57099	0.11203117
4	0x3e049c32	0.12950209
5	0x3e39981d	0.18124433
6	0x3e2170ef	0.15765737
7	0x3e3df30d	0.18549748
8	0x3e18e2e8	0.14930308
9	0x3e4a8060	0.19775534
10	0x3e65716f	0.22406553
11	0x3ed3f001	0.41394046
12	0x3e6a0ce7	0.22856484
13	0x3e555350	0.20832562
14	0x3f036c8e	0.51337516
15	0x3ea9da90	0.33174562
16	0x3ed839cc	0.42231596
17	0x3d980e95	0.07424656
18	0x3e85fd35	0.26169744
19	0x3f1afa98	0.60538626
20	0x3ec0aa89	0.37630108
21	0x3e1408ab	0.14456432
22	0x3f1db64d	0.61606294
23	0x3f4e1c15	0.805116
24	0x3f0869b3	0.53286284
25	0x3e8903e3	0.26760778
26	0x3e344d47	0.17607604
27	0x3ec1f1dd	0.3787984
28	0x3e1a65c4	0.15077883
29	0x3e050797	0.12991177
30	0x3e050f8a	0.12994209
31	0x3e1a19f7	0.15048967

backbone.8.weight f4 [64, 32, 3, 3]
0	0x3d659bb4	0.056056693
1	0x3c8d7a73	0.017270302
2	0xbd935969	-0.07194788
3	0x3d9ea552	0.07746376
4	0xbd35344e	-0.044239335
5	0x3caa6a41	0.020802619
6	0xbc88ae64	-0.016684718
7	0xbc5c5cce	-0.013449861
8	0x3d95452e	0.072885856
9	0x3d47f1a9	0.04881445
10	0xbd292cd1	-0.041302506
11	0x3bdc793d	0.00672832
12	0x3d218c32	0.03944034
13	0xbd59f6e7	-0.05321398
14	0x3d0fb843	0.035087835
15	0x3a794f2e	0.0009510395
16	0xbcbbe24d	-0.022935057
17	0x3bfdef01	0.0077494388
18	0x3d8cc226	0.068729684
19	0x3c90bd48	0.017668381
20	0xbcba3a10	-0.022732764
21	0xbaa8a524	-0.0012866599
22	0xbcd7c520	-0.026339114
23	0x3ccde36b	0.025132855
24	0xbd5f4e01	-0.05451775
25	0xbbc5e83a	-0.0060396465
26	0x3d0cf1c8	0.034410268
27	0xbc7b7aca	-0.015349099
28	0xbd4f2d63	-0.050580394
29	0xbd311d50	-0.043240845
30	0xbcfa58c0	-0.030559897
31	0x3c6fd5ac	0.014638346
32	0xbd969ed9	-0.073545165
33	0xbb19aff2	-0.002345082
34	0x3b5a6bf3	0.0033328503
35	0xbd385175	-0.04499956
36	0xbb30b77a	-0.002696483
37	0xbd3305a6	-0.04370656
38	0x3d28c6bd	0.041205157
39	0x3d4b31c8	0.049608022
40	0xbd15b34e	-0.03654795
41	0x3d2464a8	0.040135056
42	0xbc2a937d	-0.0104111405
43	0xbcca599c	-0.024700932
44	0xbcc1c426	-0.023653101
45	0x3cf3dcf7	0.02976845
46	0xbd49cadb	-0.049265724
47	0xba1687b9	-0.000574227
48	0x3b2196fa	0.002465664
49	0x3cb146ba	0.02164017
50	0xbd479931	-0.04873008
51	0xbbda4da6	-0.0066620884
52	0xbcef7a8b	-0.029233238
53	0xbcff6d55	-0.031180063
54	0xbc4a42dd	-0.012345043
55	0x3ca7525c	0.020425014
56	0x3d0fe0e5	0.035126586
57	0x3ccb7e0f	0.024840383
58	0xbcfd351e	-0.030909117
59	0x3bffda65	0.007808017
60	0xbd4e724d	-0.050401974
61	0xbc6abe43	-0.0143275885
62	0xbd716051	-0.058929745
63	0x3d9001b9	0.070315786
64	0x3cb3810a	0.021912117
65	0x3d5fa064	0.05459632
66	0x3d3c6514	0.045994833
67	0x3d577093	0.052597594
68	0x3c4c7833	0.01247983
69	0xbc9aa685	-0.01887823
70	0x3d2e601a	0.04257212
71	0xbbbf7f4d	-0.005844033
72	0xbc2cacc2	-0.010539236
73	0xbce8b6e4	-0.028407522
74	0x3d35d0ff	0.044388767
75	0xbcbd7455	-0.02312676
76	0x3d5cdd6c	0.0539221
77	0xbd762fc7	-0.060104158
78	0x3b97585d	0.004618688
79	0xbba926f4	-0.0051621143
80	0x3ce057f9	0.027385699
81	0x3d388260	0.04504621
82	0xbd565269	-0.052324686
83	0xbdae2256	-0.08502643
84	0x3cc69e3d	0.024245376
85	0xbd813f6f	-0.06310927
86	0x3cfeecdf	0.031118808
87	0xbcb6a658	-0.022296116
88	0xbc84bb05	-0.01620246
89	0x3b6c34ec	0.0036042286
90	0xbc81b4d3	-0.015833294
91	0xbccae7c0	-0.02476871
92	0xbbb4d3ab	-0.005518397
93	0xbd23608d	-0.039887
94	0x3c258047	0.0101013845
95	0xbda895cc	-0.082316965
96	0xbd33b38b	-0.043872397
97	0xbd048793	-0.032355856
98	0xbc9ff538	-0.01952611
99	0x3c925e93	0.017867362
100	0x3c994013	0.01870731
101	0x3da208e5	0.07911853
102	0xbb5c4b66	-0.0033614277
103	0x3c7d21a6	0.015449917
104	0x3dc44efb	0.09585377
105	0xbd3fadcc	-0.046796605
106	0xbcc396c5	-0.023875603
107	0xbd9467df	-0.07246374
108	0xbd2a86ea	-0.04163257
109	0xbd69fd5d	-0.05712639
110	0xbd637876	-0.055534802
111	0x3d2e79fc	0.042596802
112	0x3c64df23	0.013969216
113	0x3d570c94	0.05250223
114	0xbd35198a	-0.04421381
115	0x3aa65adf	0.0012691877
116	0x3bf9abe2	0.007619367
117	0x3d1cb95f	0.03826272
118	0x3d6bd27e	0.057573788
119	0xbd165138	-0.03669855
120	0xbd66c4d9	-0.056340072
121	0x3d445e56	0.04794153
122	0x3b82f20b	0.003996139
123	0xbce2caf6	-0.02768467
124	0xbc446992	-0.011988061
125	0x3bb355cd	0.0054728747
126	0xbb345eb7	-0.0027522275
127	0xbd6af850	-0.057365716
128	0xbd07565b	-0.03304134
129	0xbc85d688	-0.016337648
130	0x3d96b398	0.073584735
131	0x3d0dca4e	0.03461676
132	0xbd6bff2f	-0.05761641
133	0xbd1650db	-0.036698204
134	0xbd953c0a	-0.07286842
135	0xba44de3a	-0.0007509921
136	0x3d7730e9	0.06034938
137	0x3d5af9a9	0.05346075
138	0x3d37d371	0.04487938
139	0x3d341a10	0.043970168
140	0x3d87fb92	0.0663978
141	0xbca8c697	-0.020602508
142	0xbd823d1a	-0.063593104
143	0xbc8f9404	-0.017526634
144	0x3d2e6a57	0.042581882
145	0x3d4f3526	0.050587796
146	0xbd2bf506	-0.04198172
147	0x3d563034	0.052292064
148	0xbd86b323	-0.06577136
149	0x3d842bd3	0.06453671
150	0x3d763241	0.06010652
151	0x3ceb05e8	0.02868934
152	0x3d5c554e	0.05379229
153	0xbcab98cb	-0.02094688
154	0xbd2363c6	-0.039890073
155	0xbd4d64d7	-0.050144996
156	0x3cb41afd	0.021985525
157	0x3d603847	0.05474117
158	0x3d6c0d25	0.057629723
159	0x3cee00c1	0.029053094
160	0xbcef02b1	-0.029176088
161	0xbd077f0e	-0.033080153
162	0xbc7ad7a9	-0.015310206
163	0xbc7dcf86	-0.015491372
164	0x3d2a0c93	0.041515898
165	0xbd220967	-0.039559748
166	0x3d52340e	0.051319174
167	0x3d888be9	0.06667311
168	0xbd9b1164	-0.075716764
169	0x3da39639	0.07987637
170	0x3ceed1de	0.029152807
171	0x3c9f74f9	0.019464957
172	0x3c8b05fd	0.016970629
173	0x3d2b495c	0.041818008
174	0xbc36aaac	-0.01114909
175	0x3cd5b8d1	0.026089104
176	0x3d9edf57	0.077574424
177	0x3d73f055	0.05955537
178	0x3d0fa988	0.035073787
179	0xbd1d84ee	-0.03845685
180	0x3ce2b6bc	0.027675025
181	0xbbfbfd51	-0.00769011
182	0xbd085248	-0.033281595
183	0x3caa502f	0.020790188
184	0xbb007cd1	-0.0019605646
185	0xbd23d3d1	-0.039996926
186	0x3d902eb6	0.070401594
187	0x3b6279ac	0.0034557385
188	0x3bf68ae0	0.0075238794
189	0xbbbcdec7	-0.005763862
190	0xbd47a9ef	-0.048746046
191	0x3d0b0766	0.033942603
192	0x3c17fce3	0.0092766015
193	0xbce38325	-0.027772496
194	0xbc038913	-0.0080282865
195	0xba243c72	-0.00062651106
196	0x3ad116c9	0.0015952225
197	0xbbc04580	-0.00586766
198	0xbca1d442	-0.019754533
199	0x3bc4e0c8	0.0060082413
200	0x3b08fb17	0.0020901614
201	0x3b6630f6	0.0035124398
202	0xbd1cbcd1	-0.038266007
203	0xbdc1333f	-0.094336025
204	0x3cfea922	0.031086508
205	0xbcdb4b81	-0.026769402
206	0xbd969f86	-0.073546454
207	0xbce050a0	-0.027382195
208	0x3d252230	0.040315807
209	0x3d27af79	0.04093883
210	0x3d7a699e	0.06113588
211	0xbd1b3a76	-0.03789755
212	0x3d927ccf	0.071527116
213	0x3c6b0079	0.014343374
214	0x3c30eab4	0.010798145
215	0xbd0a5911	-0.033776347
216	0x3d5ec975	0.054391343
217	0x3ccd06ff	0.02502775
218	0x3d684d42	0.056714304
219	0xbd1e9715	-0.0387183
220	0x3bf4692e	0.0074588275
221	0x3d9edab2	0.077565566
222	0xbc10bcbc	-0.00883406
223	0x3d03e979	0.03220508
224	0xbd528062	-0.051391967
225	0x3d4f21a3	0.050569188
226	0x3d18ca20	0.037302136
227	0x3d0f2c85	0.034954567
228	0x3cdf4976	0.027256709
229	0x3cc6153e	0.024180051
230	0xbd18873f	-0.037238356
231	0xbc799dad	-0.015235347
232	0x3cf66003	0.030075079
233	0x3cd2fbf2	0.025754903
234	0xbc802272	-0.015641425
235	0xbd07eff0	-0.033187807
236	0x3d84f278	0.0649156
237	0xbc8bc9bf	-0.017063973
238	0x3cf72825	0.03017051
239	0xbcede5df	-0.029040275
240	0xbd31eabe	-0.04343676
241	0x3d09e41d	0.03366481
242	0xbca77f49	-0.020446436
243	0x3bcf44c7	0.0063253376
244	0x3ccff798	0.025386617
245	0xbad28d5f	-0.001606386
246	0x3d385f06	0.045012496
247	0xbd8f3d69	-0.06994135
248	0x3cf9610c	0.030441783
249	0x3d632710	0.055457175
250	0xbd12d473	-0.03584714
251	0xbab3257e	-0.001366779
252	0x3cbaee77	0.022818787
253	0x3cd30412	0.025758777
254	0xbcc4c52b	-0.024019798
255	0xbd046575	-0.03232332

backbone.8.bias f4 [64]
0	0xbd2d13f7	-0.042255368
1	0x3d6b8c90	0.057507098
2	0x3d4e6a8a	0.050394572
3	0x3bbca06d	0.005756429
4	0xbd02e754	-0.031958893
5	0x3d620d45	0.055188436
6	0xbc22916f	-0.009922369
7	0x3bfd95ba	0.007738796
8	0xbc33d8f0	-0.010977015
9	0x3d3c3196	0.045945726
10	0x3d45a15d	0.04824959
11	0x3bcf107b	0.0063191033
12	0xbd6d4092	-0.057922907
13	0xba0177a4	-0.00049387873
14	0x3cfb4259	0.030671285
15	0x3d0cb7fb	0.034355145
16	0xbd0dde61	-0.034635905
17	0x3d241cea	0.040066637
18	0x3d499386	0.049212955
19	0xbc19e924	-0.009393964
20	0x3d3df7a7	0.046378758
21	0xbd00e4c8	-0.031468183
22	0xbcc29f11	-0.02375749
23	0x3c50c9ae	0.012743397
24	0x3d535815	0.051597673
25	0xbd18b268	-0.037279516
26	0x3cd110fb	0.025520792
27	0x3d2b1d8f	0.041776236
28	0x3d0c1ee1	0.034209136
29	0x3cfade95	0.030623714
30	0xbd5c000f	-0.053710993
31	0x3ab2ea3e	0.0013650132
32	0x3cdbc69f	0.026828108
33	0x3d0e50b3	0.03474493
34	0xbcc7879c	-0.024356656
35	0xbbb20e14	-0.005433807
36	0xbd4c9537	-0.04994699
37	0x3cc4bbbd	0.024015302
38	0x3c412dfb	0.011790748
39	0xbcf17ad0	-0.029477507
40	0x3d410206	0.04712107
41	0xbd0dabf6	-0.034587823
42	0xbd5c081f	-0.053718682
43	0x3c4ab9c4	0.012373392
44	0xbd1d254a	-0.03836564
45	0x3ccb56ea	0.024821717
46	0xbcc4e070	-0.024032801
47	0xbcd26c8c	-0.025686525
48	0xbcfef84f	-0.031124262
49	0xbc9a986b	-0.018871507
50	0xbd24aca4	-0.040203705
51	0x3d32dd90	0.04366833
52	0xbc37fcea	-0.011229733
53	0xbd43bf41	-0.047789816
54	0xbd70f913	-0.058831286
55	0xbd14115c	-0.036149368
56	0xbca30c18	-0.019903228
57	0xbd984e69	-0.074368306
58	0x3d2df0e1	0.04246605
59	0xbabe55be	-0.0014521403
60	0xbcef434b	-0.029206892
61	0x3d5b4bee	0.05353921
62	0x3d78676e	0.060645513
63	0x3d156ff3	0.036483716

backbone.9.weight f4 [64]
0	0x3f82db9c	1.022327
1	0x3f810550	1.0079746
2	0x3f81ddbe	1.0145795
3	0x3f8172d0	1.0113163
4	0x3f7ecbd1	0.9952975
5	0x3f7f9a30	0.99844646
6	0x3f82ce0e	1.0219133
7	0x3f863a20	1.0486488
8	0x3f82388a	1.0173504
9	0x3f83df2b	1.030248
10	0x3f872e90	1.0561085
11	0x3f7e0ba4	0.9923651
12	0x3f83c6d5	1.0295054
13	0x3f81b4c9	1.0133296
14	0x3f8405ce	1.0314271
15	0x3f8372e4	1.0269437
16	0x3f81d8a2	1.0144236
17	0x3f80cd28	1.0062609
18	0x3f80a5ba	1.0050576
19	0x3f7d3f75	0.9892495
20	0x3f8328f5	1.0246874
21	0x3f8093b9	1.0045081
22	0x3f894789	1.0724956
23	0x3f800d82	1.0004122
24	0x3f8471be	1.0347211
25	0x3f83eaf0	1.0306072
26	0x3f80e3a8	1.0069475
27	0x3f7e3cd1	0.9931155
28	0x3f8d30c2	1.1030505
29	0x3f7d3b77	0.9891886
30	0x3f88057a	1.0626671
31	0x3f8efbcf	1.1170596
32	0x3f849076	1.0356586
33	0x3f8ab5a4	1.0836682
34	0x3f84f6f5	1.0387865
35	0x3f7c501f	0.98559755
36	0x3f803efc	1.0019221
37	0x3f81261e	1.0089757
38	0x3f857e83	1.0429233
39	0x3f7e678f	0.9937677
40	0x3f83a8e8	1.0285921
41	0x3f87dde4	1.0614591
42	0x3f849adf	1.0359763
43	0x3f7f64f2	0.99763405
44	0x3f81bda0	1.0135994
45	0x3f844480	1.0333405
46	0x3f83343f	1.0250319
47	0x3f85594d	1.0417877
48	0x3f80ea77	1.0071553
49	0x3f7eb47f	0.99494165
50	0x3f7bd501	0.98371893
51	0x3f8980f6	1.0742481
52	0x3f82a466	1.020642
53	0x3f88d1b8	1.0689001
54	0x3f8751fa	1.0571892
55	0x3f833a85	1.0252234
56	0x3f814aac	1.0100913
57	0x3f834093	1.0254081
58	0x3f866024	1.049809
59	0x3f819f85	1.0126806
60	0x3f895dd3	1.0731758
61	0x3f8670b4	1.0503144
62	0x3f849c7e	1.0360258
63	0x3f81bf14	1.0136437

backbone.9.bias f4 [64]
0	0xbd656867	-0.05600777
1	0xbd4596e4	-0.048239604
2	0xbd66a538	-0.05630991
3	0xbdb2aad8	-0.08723992
4	0xbd9d414c	-0.0767847
5	0xbcd2d53b	-0.025736442
6	0xbd3e09f7	-0.046396222
7	0xbd6ff020	-0.05857861
8	0xbd980260	-0.07422328
9	0xbd09fb66	-0.033687018
10	0xbd4d408e	-0.050110392
11	0xbd89ae73	-0.06722727
12	0xbd5ecb4a	-0.05439309
13	0xbd26cee8	-0.040724665
14	0xbd220742	-0.039557703
15	0xbce78e3e	-0.028266069
16	0xbd4dff94	-0.050292566
17	0xbd503eed	-0.05084126
18	0xbd9d0e17	-0.07668703
19	0xbcf6e748	-0.03013958
20	0xbd8e4382	-0.0694647
21	0xbd8462df	-0.06464171
22	0xbd7fd6e0	-0.06246078
23	0xbc29a3cb	-0.010353993
24	0xbd5ed104	-0.05439855
25	0xbdc5f86c	-0.09666523
26	0xbd2368b4	-0.039894775
27	0xbcea9ac5	-0.028638253
28	0xbdaad8dd	-0.08342145
29	0xbd433f69	-0.047667895
30	0xbd8d1979	-0.06889624
31	0xbdaa2c79	-0.08309264
32	0xbd02ed79	-0.031964753
33	0xbd93a113	-0.07208457
34	0xbd2a385a	-0.041557647
35	0xbda4d91d	-0.080492236
36	0xbd3f36b4	-0.04668303
37	0xbccd6fca	-0.02507772
38	0xbd4da5ba	-0.050206877
39	0xbd9090db	-0.07058879
40	0xbcdeaa89	-0.027180927
41	0xbd8cd02f	-0.06875645
42	0xbdbada0f	-0.091236226
43	0xbd5d6ac6	-0.054056905
44	0xbd1ba8a2	-0.038002618
45	0xbd758d0c	-0.059948966
46	0xbd7ef986	-0.062249683
47	0xbd847caa	-0.0646909
48	0xbd174e2e	-0.036939792
49	0xbd811632	-0.063030615
50	0xbd2d207a	-0.0422673
51	0xbd9e510e	-0.07730304
52	0xbc6adfbf	-0.014335572
53	0xbd28b345	-0.04118659
54	0xbd293567	-0.041310694
55	0xbd195049	-0.03743008
56	0xbcb0a7f9	-0.02156447
57	0xbd27338d	-0.040820647
58	0xbd843815	-0.06456009
59	0xbd4d1143	-0.05006529
60	0xbd7db994	-0.06194456
61	0xbc518887	-0.012788898
62	0xbd1b1e4e	-0.037870698
63	0xbd3621d6	-0.044465862

backbone.9.running_mean f4 [64]
0	0xbed73cfa	-0.4203871
1	0x3f9b089a	1.2112
2	0x3f563f26	0.83690107
3	0x3e82d390	0.25552034
4	0x3f7c7c1d	0.9862688
5	0xbfd02d00	-1.6263733
6	0x3e929932	0.28632504
7	0x3f058596	0.5215696
8	0xbd80c2c6	-0.0628715
9	0x3e0c5627	0.1370474
10	0x3eb024f4	0.34403193
11	0x3febb933	1.8415893
12	0x3eee833f	0.46584508
13	0x3f6e59dc	0.93105865
14	0x3ea77a35	0.32710424
15	0xbfbe5c5f	-1.487194
16	0xbe35d93e	-0.17758653
17	0x3f7be93e	0.98402774
18	0x3df5e400	0.12006378
19	0xbfa3d422	-1.2799113
20	0x3e8e6283	0.27809533
21	0xbe6ad173	-0.22931461
22	0xbda3173e	-0.079634175
23	0xc02e3b4a	-2.7223687
24	0xbe8ac9de	-0.27107137
25	0x3f2dd294	0.6789944
26	0xbefbd8a6	-0.49188727
27	0xbfd93d72	-1.6971877
28	0xbe46ce8e	-0.19414732
29	0xbf1aeec4	-0.6052058
30	0xbc2f4216	-0.010696908
31	0x3e4ffd04	0.20311362
32	0x3eb5a21c	0.35475242
33	0x3d585492	0.052815028
34	0xbf0a6264	-0.5405638
35	0xbe05203a	-0.13000575
36	0xbf01781a	-0.50573885
37	0xbf7f1325	-0.9963859
38	0x3ee557ea	0.44793636
39	0x3cf6b5db	0.030116012
40	0xbeadc71a	-0.33940965
41	0xbedf9b56	-0.436732
42	0xbe49e88d	-0.19717617
43	0x3fab3915	1.3376795
44	0xbe7e7d74	-0.24852544
45	0x3f1f210d	0.62159806
46	0x3eb6ec88	0.35727334
47	0x3d73a16b	0.059480112
48	0xbfca4d3e	-1.5804822
49	0x3dac6bf1	0.08419026
50	0x3de4cb50	0.11171591
51	0xbf383f52	-0.7197162
52	0xbf573790	-0.84069157
53	0x3cd87755	0.02642409
54	0x3da08cf6	0.07839386
55	0xbed64fac	-0.4185766
56	0xc007c252	-2.1212354
57	0x3fac87f0	1.3478985
58	0x3f013dca	0.5048491
59	0x3fb34374	1.400496
60	0xbebf31d6	-0.3734271
61	0xbf7fa9f8	-0.99868727
62	0x3fa2a6ec	1.270719
63	0xbe093fb0	-0.13403201

backbone.9.running_var f4 [64]
0	0x3f367067	0.7126526
1	0x3f0f9ae8	0.56095743
2	0x3f08da49	0.53458077
3	0x3ef2d878	0.47430778
4	0x3ee019e0	0.4376974
5	0x3f3897f8	0.72106886
6	0x3ecebf86	0.40380496
7	0x3ee3c36f	0.44485041
8	0x3f35b6e7	0.7098221
9	0x3f118291	0.56839854
10	0x3ec542ca	0.3852752
11	0x3fb6709b	1.4253114
12	0x3f13332e	0.5749997
13	0x3ec965b1	0.39335397
14	0x3ec17865	0.37787166
15	0x3fbd226b	1.4776129
16	0x3f451058	0.76978064
17	0x3ef853c9	0.48501423
18	0x3f1b1943	0.6058542
19	0x3f45b9a0	0.77236366
20	0x3f20f01e	0.6286639
21	0x3f44717d	0.7673567
22	0x3ede4564	0.43412316
23	0x3faf8a75	1.3714129
24	0x3ef43148	0.4769385
25	0x3eff64da	0.4988163
26	0x3f77bf1e	0.96775997
27	0x3f52e42d	0.8237942
28	0x3e9d1e13	0.30687007
29	0x3ef58124	0.4795009
30	0x3eba5511	0.36393026
31	0x3e55cb59	0.20878352
32	0x3ec37fc9	0.3818343
33	0x3eb44389	0.35207775
34	0x3f30d214	0.69070554
35	0x3f73bfd0	0.9521456
36	0x3ef59930	0.47968435
37	0x3f047d5b	0.5175378
38	0x3f1c89f9	0.6114803
39	0x3f10eed3	0.56614417
40	0x3f3560bf	0.7085075
41	0x3eeb1c69	0.45920113
42	0x3ebd09eb	0.3692163
43	0x3f0da464	0.55328965
44	0x3efc5949	0.4928687
45	0x3eb169f5	0.3465115
46	0x3eb1f96d	0.3476061
47	0x3f15cb86	0.5851368
48	0x3f9fdb88	1.2488871
49	0x3ed9dde3	0.425521
50	0x3f0363c6	0.5132412
51	0x3f42ecce	0.76142585
52	0x3f7a7872	0.97840035
53	0x3ed8c0de	0.42334646
54	0x3e9c5b2b	0.30538306
55	0x3f0f0a27	0.55874866
56	0x3fa4bde1	1.2870446
57	0x3f3b1dff	0.73092645
58	0x3f0ab63a	0.54184306
59	0x3ef8fb17	0.48629066
60	0x3ec80104	0.39063275
61	0x3f2a9b79	0.6664348
62	0x3ed4fdbc	0.41599834
63	0x3f0ed962	0.5580045

classifier.1.weight f4 [128, 576]
0	0xbcd20e2b	-0.025641521
1	0x3c12843e	0.008942662
2	0x3c3617ca	0.01111407
3	0xbc481bb7	-0.012213639
4	0xbd32c650	-0.043646157
5	0x3cebf18d	0.028801704
6	0x3d10bec9	0.035338197
7	0xbd385a49	-0.045007978
8	0x3d067fd5	0.032836754
9	0xbcc63663	-0.024195855
10	0xbc775b1b	-0.015097405
11	0x3d1df4ab	0.03856341
12	0x3d4b6a6b	0.049662035
13	0xbc32bff0	-0.010910019
14	0x3cc77de7	0.024352027
15	0x3d11bbf2	0.03557963
16	0x3ca893f0	0.020578355
17	0x3bbf4141	0.0058366363
18	0x3d559dbc	0.05215238
19	0xbc31e039	-0.0108566815
20	0xbc77e4bb	-0.015130217
21	0xbbe2ce8b	-0.0069215945
22	0xbd37442d	-0.044742752
23	0xbc9336f7	-0.017970545
24	0xbc6a01ff	-0.0142827025
25	0xbcd1ff89	-0.025634544
26	0xbd91bbd1	-0.07115901
27	0x3cb78e86	0.022406828
28	0xbc28e287	-0.010307915
29	0xbbe30762	-0.0069283703
30	0xbbe6431e	-0.007027044
31	0x3c5b05b4	0.013368059
32	0x3d3d203f	0.04617333
33	0xbd5b4e3c	-0.053541407
34	0x3ab29a9f	0.0013626403
35	0x3cfcf15e	0.030876812
36	0xbcaa86d3	-0.020816242
37	0xbce529d4	-0.027974047
38	0xbc873e0d	-0.01650908
39	0xbd55aa42	-0.052164324
40	0xbbfd42d3	-0.0077289133
41	0xbba08deb	-0.0048997304
42	0x3d07e567	0.03317776
43	0x3c3ca0cf	0.011512949
44	0x3cd5bac3	0.026090031
45	0x3d3ceed8	0.046126217
46	0x3d65c190	0.0560928
47	0xbc8b8677	-0.017031891
48	0x3d4cc5b6	0.04999324
49	0xbd256c0d	-0.04038625
50	0xbc11581b	-0.008871104
51	0x3c6cca67	0.014452553
52	0x3d8186ea	0.06324561
53	0x3cfb30ab	0.030662855
54	0x3cb3bc9a	0.021940518
55	0xbd67168d	-0.05641799
56	0xbcdb0e01	-0.026740076
57	0xbd33227d	-0.043734062
58	0x3ca89742	0.020579938
59	0xbce03329	-0.027368145
60	0xbcd8ff83	-0.026489025
61	0xbbfd432d	-0.0077289552
62	0xbcef5a39	-0.029217826
63	0xbd1841d3	-0.03717215
64	0xbc995226	-0.01871593
65	0x3c5dba11	0.013533131
66	0xbd42ed3f	-0.047589537
67	0xbd998a46	-0.07497077
68	0x3d1cbde4	0.03826703
69	0x3d07977a	0.033103444
70	0xbd87f188	-0.06637865
71	0xbcf72770	-0.030170172
72	0x3c12bc8d	0.008956087
73	0x3caa2e21	0.02077395
74	0x3d101706	0.035178207
75	0xbd55a834	-0.052162364
76	0x3d125733	0.03572769
77	0x3cb38306	0.021913063
78	0x3beadaed	0.0071672113
79	0xbd80fcc7	-0.062982135
80	0xbd858ff3	-0.06521597
81	0xbd1bfa4e	-0.038080506
82	0xbcb2916f	-0.021797864
83	0xbcbba000	-0.022903442
84	0xbd8ef1c7	-0.06979709
85	0xbcb7a06a	-0.022415359
86	0xbb8f2bf8	-0.004369255
87	0xbc7fb49a	-0.015607024
88	0xbd40c101	-0.047059063
89	0x3cdf13e5	0.027231166
90	0xbc8fd855	-0.01755921
91	0x3d2a131a	0.041522123
92	0x3d3dc16b	0.046327036
93	0xbbcc46f0	-0.0062340423
94	0xbc6b6ee6	-0.014369702
95	0x3c280c70	0.010256872
96	0x3ba1b9a4	0.00493546
97	0x3bf5dc32	0.007503056
98	0x3ce84031	0.028350921
99	0xbd37df03	-0.044890415
100	0xbc8c3023	-0.017112797
101	0x3d381667	0.04494324
102	0xbc942701	-0.018085005
103	0xbba496f0	-0.005022876
104	0xbc5df882	-0.013548018
105	0x3c402615	0.011727829
106	0xbd35736b	-0.044299524
107	0xbd35ffd7	-0.04443344
108	0x3c7350bf	0.014850794
109	0x3d8e2283	0.06940176
110	0xbbcd0faa	-0.006257971
111	0xbc7e123e	-0.015507279
112	0x3cdcbdcd	0.026945973
113	0xbb73dd75	-0.0037210856
114	0xbcb754e0	-0.022379339
115	0x3cf2bfe2	0.029632512
116	0xbcc6d191	-0.02426985
117	0xbb170862	-0.0023045768
118	0xbd8019e7	-0.062549405
119	0x3cddb8b0	0.027065605
120	0x3d545c45	0.051845808
121	0xbc937c51	-0.018003615
122	0x3ccc709d	0.024956042
123	0xbd4d93d3	-0.050189804
124	0xbd475b56	-0.04867109
125	0x3d15c271	0.036562387
126	0xbd80b641	-0.06284762
127	0xbd51a7f5	-0.051185567
128	0xbd04407e	-0.032288067
129	0x3caae826	0.02086265
130	0xbcfea9b1	-0.031086775
131	0xbd2a9abb	-0.04165147
132	0xbd4a5bc3	-0.049403917
133	0xbd0b774c	-0.034049317
134	0xbd81725f	-0.06320643
135	0xbc877400	-0.016534805
136	0xbb3dc429	-0.0028956032
137	0x3d3a9fd4	0.04556258
138	0xbc16ae9a	-0.009196902
139	0xbb4391e3	-0.0029841594
140	0x3c4cdc60	0.012503713
141	0x3c3b374d	0.011426759
142	0x3ca3e5ef	0.020007102
143	0xbd715fdb	-0.058929306
144	0x3cca3d2d	0.024687374
145	0x3d289d49	0.041165624
146	0x3c04b96a	0.008100847
147	0xbcc9e172	-0.024643634
148	0xbc3214cb	-0.010869215
149	0x3aab15f7	0.0013052811
150	0xbcff13e1	-0.031137409
151	0x3d5cd66d	0.05391543
152	0xbd8780f9	-0.066163965
153	0xbd57ac99	-0.052654836
154	0x3cb6c644	0.022311337
155	0xbd2670ca	-0.040634908
156	0xbc5ae811	-0.013360993
157	0x3c309f2b	0.010780136
158	0x3bf98ce8	0.0076156743
159	0xbcf379d5	-0.02972118
160	0xba1b2c21	-0.00059193565
161	0xbdadd9e4	-0.08488825
162	0xbcd958b8	-0.026531562
163	0x3c90c31e	0.017671164
164	0x3b550077	0.0032501498
165	0x3d2a4c54	0.0415767
166	0xbb827619	-0.0039813635
167	0x3d1d404c	0.038391396
168	0xbd042620	-0.03226292
169	0xbbac058f	-0.005249686
170	0xbd22c6dc	-0.03974043
171	0xbc34ebed	-0.011042577
172	0x3ca5ad86	0.020224344
173	0x3cc32932	0.023823354
174	0x3d2e8a30	0.042612255
175	0x3acf106d	0.0015797742
176	0x3d3d3ff2	0.04620356
177	0x3d61946b	0.055073183
178	0xb97d28ee	-0.00024143208
179	0x3d7e5b16	0.062098585
180	0x3c28331b	0.010266091
181	0x3c35e96d	0.011103016
182	0x3cd30541	0.025759341
183	0xbd87f90d	-0.066392995
184	0xbd51feb6	-0.051268302
185	0x3d9b184e	0.07572995
186	0x3c3bb99b	0.011457826
187	0xbd1a4bc4	-0.037669912
188	0x3d14fca9	0.036373768
189	0xbb311dca	-0.0027025812
190	0x3cba9ddd	0.022780353
191	0xbd37f200	-0.044908524
192	0x3d00f141	0.031480078
193	0x3c6bcb98	0.014391802
194	0xbc907245	-0.017632613
195	0xbcda9761	-0.026683511
196	0xbd0582a0	-0.032595277
197	0x3d20f624	0.039297238
198	0xbcc48d86	-0.023993265
199	0x3d27fd51	0.041013066
200	0x3c50d842	0.012746872
201	0xbda3be8e	-0.0799533
202	0x3d322ed7	0.0435017
203	0xbdb1a9cc	-0.08674964
204	0x3b9ba3d2	0.0047497535
205	0x3be029c8	0.006840918
206	0x3b99f3d6	0.004698257
207	0x3b1e470a	0.002415123
208	0x3c046fa6	0.00808326
209	0xbc952c84	-0.018209703
210	0xbc918612	-0.017764125
211	0x3d3b0601	0.045660023
212	0x3d4cffb0	0.05004853
213	0x3d5b219f	0.05349886
214	0xbd0c5d2c	-0.034268543
215	0xbc815dde	-0.01579183
216	0xbcc4ad38	-0.024008378
217	0xbc486b1d	-0.012232569
218	0xbd22174c	-0.039573
219	0x3d198b11	0.03748614
220	0xbd0f5b7d	-0.03499936
221	0xbcbc599c	-0.022991948
222	0x3d16328a	0.03666929
223	0xbc0f0521	-0.00872925
224	0x3c502b99	0.012705707
225	0x3d1ffb9c	0.039058313
226	0x3c2a7e5c	0.010406103
227	0x3ccbcd47	0.024878157
228	0xbd07296e	-0.032998495
229	0x3ceda1d3	0.029007828
230	0x3caec699	0.021334933
231	0x3c393385	0.011303787
232	0x3c2ad6cf	0.010427191
233	0xbd4c250a	-0.04984001
234	0x3b5354c5	0.0032246571
235	0x3cccbd79	0.024992691
236	0xbce14b35	-0.027501682
237	0xbcac43f2	-0.021028493
238	0x3d8f30be	0.06991719
239	0x3c038e9c	0.008029606
240	0x3cd1bc33	0.025602436
241	0x3c5eb1a1	0.013592155
242	0x3c7f6fe9	0.015590646
243	0x3d158a31	0.036508743
244	0x3c3d85f6	0.011567583
245	0x3d3eb873	0.046562623
246	0x3c585f20	0.013206273
247	0x3bd5e67d	0.0065277205
248	0x3d2b32fd	0.041796673
249	0xbbd614a9	-0.0065332246
250	0x3c77e0ef	0.015129312
251	0xbc84272c	-0.01613196
252	0x3d735c52	0.059414215
253	0x3d95b286	0.07309441
254	0x3b8e518b	0.004343217
255	0xbdbeb01b	-0.09310933

classifier.1.bias f4 [128]
0	0x3ceb7de8	0.02874656
1	0xbc275c83	-0.010214928
2	0xbcab0b76	-0.020879488
3	0x3ccaa43c	0.024736516
4	0xbca07fb1	-0.019592138
5	0x3cb9805f	0.02264422
6	0xbcd106b5	-0.025515893
7	0x3cc6440c	0.02420237
8	0x39e0d0c6	0.00042880158
9	0xbcdd6bf1	-0.02702901
10	0x3a48d420	0.00076610036
11	0x3cdd1b19	0.02699046
12	0xbc932019	-0.017959641
13	0x3cba0173	0.02270577
14	0xbd20a624	-0.039220944
15	0x3c76e729	0.015069761
16	0xbd2126ae	-0.03934353
17	0x3a81385a	0.0009858713
18	0xbc90c2cb	-0.01767101
19	0x3ce65ae4	0.028119512
20	0x3cbf0b20	0.023320735
21	0xbd1e45f5	-0.038640935
22	0xbc82a72d	-0.015948856
23	0x3cba1889	0.022716777
24	0xbcfd7526	-0.03093965
25	0x39ca2d7f	0.0003856234
26	0x3d1bf1a3	0.03807224
27	0xbd0395c4	-0.03212525
28	0x3caf5e32	0.02140722
29	0xbd1d2c20	-0.03837216
30	0xbbb9ed70	-0.0056740567
31	0xbbfd6164	-0.007732557
32	0xbcfc4d7c	-0.030798666
33	0x3d2aca35	0.041696746
34	0xbd0c4507	-0.034245517
35	0xbd12d986	-0.035851978
36	0x3bca4f1f	0.0061739828
37	0xbbbfb563	-0.0058504804
38	0xbc8f48ea	-0.017490823
39	0xbc9c5fcd	-0.01908865
40	0x3ce1e28d	0.027573848
41	0x3cf56c4c	0.029958867
42	0xbc97a934	-0.0185133
43	0xbd23a931	-0.039956275
44	0x3d220477	0.03955504
45	0xbd045d70	-0.03231567
46	0x3ca6480d	0.020298028
47	0xbcc44526	-0.023958754
48	0xbd180acd	-0.037119675
49	0x3c752015	0.014961262
50	0x3d0d78ba	0.034538962
51	0x3d32f716	0.04369267
52	0xbc6406e3	-0.013917658
53	0xbd3b214f	-0.045686062
54	0x3ad344e9	0.0016118559
55	0xbd2be52b	-0.0419666
56	0x3bf443e7	0.0074543837
57	0xbcbd33ad	-0.02309593
58	0xbbd5dcec	-0.00652658
59	0x3ccb482c	0.024814688
60	0x3cf37a49	0.029721396
61	0xbb0a4019	-0.0021095334
62	0x3baf84bd	0.0053564
63	0xbbb9587e	-0.005656301
64	0xbc960bdf	-0.018316207
65	0xbb772046	-0.0037708445
66	0x3cce6f5b	0.025199583
67	0xbc340277	-0.010986916
68	0x3c6a638f	0.014305963
69	0xbccfbde8	-0.025359109
70	0xbd092159	-0.03347907
71	0x3c8a5855	0.016887823
72	0xbcfe5831	-0.031047912
73	0xb9a1cccd	-0.00030860901
74	0x3c74f7bc	0.014951643
75	0x3d157aa5	0.036493916
76	0xbd1824c2	-0.03714443
77	0x3d1f1890	0.038841784
78	0xbd0aa9d2	-0.03385336
79	0xbc1f4742	-0.009721579
80	0xbcdaf042	-0.026725892
81	0x3be23dfe	0.0069043627
82	0xbc934e0c	-0.017981552
83	0xba28eeee	-0.00064442947
84	0xbc04fe54	-0.008117277
85	0x3cf101a6	0.029419731
86	0x3d0d6359	0.034518573
87	0xbcee9e30	-0.029128164
88	0x3d39faf9	0.04540536
89	0x3ce206a9	0.027591066
90	0x3d2187f6	0.039436303
91	0x3cb37a0b	0.02190878
92	0x3d0bc1bc	0.034120306
93	0x3cf5460c	0.029940628
94	0xbd1ee79f	-0.03879511
95	0x3ce5c8a2	0.02804977
96	0x3c45d312	0.012074249
97	0xbc8cd057	-0.017189188
98	0x3ba5cc74	0.005059773
99	0x3c78749d	0.0151645215
100	0xbbaf212f	-0.005344532
101	0x3d012838	0.031532496
102	0x3d2039c1	0.03911758
103	0xbd25db2e	-0.04049223
104	0xbc86f319	-0.01647334
105	0x3b876e84	0.0041330475
106	0x3c77821c	0.015106704
107	0x3c16b4d2	0.009198384
108	0xbcd96717	-0.026538415
109	0xbd13d6e4	-0.036093608
110	0xbbc9daa1	-0.006160096
111	0x3d40ee93	0.047102522
112	0x3c695ca6	0.0142432805
113	0x3c060cbf	0.00818175
114	0xb9335d64	-0.00017105561
115	0xbc9317f4	-0.017955758
116	0x3c06731d	0.008206156
117	0xbb740e3c	-0.003723993
118	0x3b5bec37	0.0033557543
119	0xbcdad588	-0.026713148
120	0x3c6cc25f	0.014450639
121	0x3c8fe5b1	0.01756558
122	0xbc914f76	-0.017738085
123	0x3c8110f0	0.015755147
124	0x3d111956	0.035424553
125	0x3c45fc6a	0.012084106
126	0x3cbffd90	0.023436338
127	0x3c5b2ab8	0.013376884

classifier.3.weight f4 [5, 128]
0	0x3df681ed	0.120365
1	0x3d737bf2	0.059444375
2	0x3c530491	0.012879507
3	0xbab101e1	-0.0013504588
4	0x3cbee6c2	0.023303393
5	0xbdae6ff1	-0.08517445
6	0xbd273441	-0.040821318
7	0x3d791129	0.06080738
8	0x3cb48169	0.022034364
9	0xbd8fe5a4	-0.07026222
10	0xbd83fcd9	-0.06444711
11	0xbd12ec7f	-0.03587007
12	0xbdb27a78	-0.08714765
13	0xbd9194aa	-0.071084335
14	0x3d261a80	0.040552616
15	0x3db76515	0.08954827
16	0xbcfd48de	-0.030918535
17	0xbdbe5d5b	-0.0929515
18	0xbda85820	-0.082199335
19	0xbd29807a	-0.04138229
20	0xbd9c60be	-0.076356396
21	0xbdaa4c1a	-0.083152965
22	0xbd1f8c36	-0.038952075
23	0xbd48cdfd	-0.04902457
24	0x3da5e8f0	0.0810107
25	0x3db48ec0	0.0881629
26	0x3d4f0de6	0.050550364
27	0xbdb6569f	-0.089032404
28	0x3ce0d6d2	0.027446184
29	0xbde4aef2	-0.11166181
30	0x3db50054	0.08837953
31	0x3db8a6b5	0.09016172
32	0x3d327e71	0.043577615
33	0x3d85e886	0.06538491
34	0x3d769c90	0.060207903
35	0x3cc2982a	0.023754198
36	0xbcb6fbb1	-0.022336813
37	0x3d8377ad	0.06419311
38	0xbc3dde75	-0.011588682
39	0x3d62270d	0.055213023
40	0xbdcf8f49	-0.10134751
41	0xbd3020f9	-0.043000195
42	0x3d2c721e	0.042101018
43	0x3b1fa95f	0.0024362428
44	0x3d172b98	0.03690681
45	0xbddff40b	-0.109352194
46	0x3dfd0460	0.1235435
47	0xbd00380f	-0.03130346
48	0xbd16bbe0	-0.036800265
49	0xbdafd3f4	-0.08585349
50	0xbc934252	-0.01797596
51	0x3dbf69e0	0.09346366
52	0xbdb4b1ac	-0.08822951
53	0xbdac10a9	-0.08401615
54	0xbdbb61e6	-0.09149532
55	0x3cb7fa01	0.022458078
56	0x3c948007	0.018127454
57	0x3c3d0f31	0.011539266
58	0x3d3e2055	0.046417553
59	0xbd030590	-0.031987727
60	0xbc1a6dfd	-0.009425637
61	0xbc14fd7d	-0.009093639
62	0xbd12edf2	-0.035871454
63	0xbddeb40c	-0.10874185
64	0x3bed0e63	0.007234381
65	0x3d30b019	0.04313669
66	0xbd983fae	-0.07434021
67	0x3cc7ab75	0.02437375
68	0x3df7fae9	0.12108404
69	0xbdbe3132	-0.09286727
70	0xbd885985	-0.066576995
71	0x3ccac508	0.024752155
72	0xbc4219d6	-0.01184698
73	0x3dcf9e8a	0.10137661
74	0x3d12593a	0.035729624
75	0x3d8aa409	0.067695685
76	0xbcafe603	-0.021471983
77	0x3db559c1	0.0885501
78	0x3bf5ab1b	0.007497204
79	0x3d90e98a	0.07075794
80	0xbd83f55e	-0.064432845
81	0x3ddc30ac	0.10751471
82	0xbd30642d	-0.043064285
83	0x3d80644c	0.0626913
84	0x3cb8bf99	0.022552298
85	0xbc0cd5e7	-0.00859592
86	0x3da4d75c	0.08048889
87	0xbdddf851	-0.10838378
88	0x3ceb1633	0.028697109
89	0xbd82282a	-0.06355317
90	0x3db36f8d	0.08761511
91	0x3e04c83c	0.12967008
92	0xbd1cce7f	-0.038282868
93	0xbdc69d84	-0.096980125
94	0xbdccd1f5	-0.100009836
95	0xbd6d2526	-0.057896756
96	0xbdc1944c	-0.094521135
97	0x3ca0493f	0.019566176
98	0x3dbc6657	0.09199207
99	0xbd00ee0f	-0.03147703
100	0xbd09e92d	-0.03366964
101	0x3d91333a	0.07089849
102	0x3de7510a	0.11294754
103	0xbcee155d	-0.029062921
104	0xbd9f9fdd	-0.077941634
105	0xbde0c050	-0.10974181
106	0xbd124d0d	-0.035718013
107	0xbd4bec73	-0.049786042
108	0xbdea66a9	-0.11445362
109	0x3d078108	0.03308204
110	0x3d841886	0.0644999
111	0x3d814289	0.06311519
112	0xbd03fd98	-0.032224268
113	0x3dd9a34a	0.10626848
114	0xbd1406f1	-0.036139432
115	0xbd3b8ece	-0.045790486
116	0x3d3c9222	0.0460378
117	0x3d9bd62e	0.07609211
118	0xbbf3b2a7	-0.0074370685
119	0x3d9388b2	0.07203807
120	0x3d0e327a	0.034716107
121	0x3da34529	0.07972176
122	0xbda509c6	-0.08058505
123	0xbdb172ca	-0.086644724
124	0xbd85bb02	-0.065298095
125	0x3dd31185	0.10306076
126	0x3d02815f	0.03186166
127	0x3cdf3266	0.027245712
128	0xbcd663c7	-0.026170624
129	0xbdbdb5a5	-0.092631616
130	0x3d5ce8f8	0.053933114
131	0x3c872319	0.016496228
132	0xbdc8ece9	-0.09810812
133	0x3c9c628a	0.019089956
134	0xbd3f6db0	-0.046735466
135	0xbd928732	-0.07154693
136	0xbdaf0d55	-0.08547465
137	0x3d83fdfb	0.06444927
138	0xbda60d8a	-0.08108051
139	0x3d4e57b4	0.05037661
140	0xbcf5861c	-0.029971175
141	0xbdb7c900	-0.089738846
142	0x3cbcbad3	0.023038303
143	0xbde7d761	-0.11320377
144	0x3d3e5c3c	0.04647468
145	0x3c40365e	0.011731712
146	0x3e20ee4d	0.15715905
147	0x3d93750d	0.0720006
148	0x3d48eba5	0.049052853
149	0x3d984707	0.074354224
150	0xbd5bb654	-0.05364068
151	0x3dae25dc	0.08503315
152	0x3d30e32a	0.04318539
153	0xbdd10b86	-0.10207276
154	0xbdbcd285	-0.09219841
155	0xbd4cef94	-0.050033167
156	0xbd678837	-0.05652639
157	0xbba24b3b	-0.004952816
158	0x3cd9485d	0.026523763
159	0xbb260379	-0.002533166
160	0xbdb0e9d5	-0.0863835
161	0xbd0352ee	-0.03206151
162	0x3d0db10c	0.034592673
163	0x3d2b5042	0.041824587
164	0x3e114bc4	0.14189059
165	0x3d040b25	0.03223719
166	0xbdeb5b26	-0.114919946
167	0xbdcf9d01	-0.10137368
168	0xbda80d86	-0.082057044
169	0x3dd84006	0.105590865
170	0x3db18ff8	0.08670038
171	0x3dcb1ae7	0.099172406
172	0xbdb55096	-0.08853261
173	0x3cac5362	0.021035854
174	0x3cb6163e	0.022227403
175	0x3d51ef98	0.051253885
176	0x3d55ad46	0.0521672
177	0x3daf3d8d	0.08556662
178	0xbcb84862	-0.022495452
179	0x3dc1e6cb	0.094678484
180	0x3d0be8af	0.03415745
181	0xbd2fcf0b	-0.04292206
182	0xbd9f9463	-0.077919744
183	0x3cc3f237	0.023919208
184	0x3d7f3a02	0.06231118
185	0xbdabc2b1	-0.08386744
186	0xbd21d440	-0.039509058
187	0xbdd2283b	-0.102615796
188	0xbd31e5d9	-0.04343209
189	0x3cc00cdd	0.023443634
190	0x3d33e02c	0.04391496
191	0xbda21253	-0.07913651
192	0x3d964004	0.07336429
193	0xbd833c82	-0.06408025
194	0xbdc8ab35	-0.0979828
195	0x3d8b023e	0.06787537
196	0x3e0c157d	0.13680072
197	0x3d28a54f	0.041173276
198	0xbce01270	-0.027352542
199	0x3d7d3a36	0.061823092
200	0x3dacce7a	0.0843782
201	0x3dd7423c	0.1051068
202	0x3cca6819	0.02470784
203	0x3c36fac5	0.011168187
204	0x3dc843db	0.097785674
205	0xbde90be4	-0.11379221
206	0x3e0f1b3a	0.1397523
207	0x3c461a0e	0.012091173
208	0x3dd86453	0.1056601
209	0x3d75527a	0.05989311
210	0xbd7fd041	-0.062454466
211	0xbc65f1bb	-0.014034684
212	0x3d1daf50	0.03849727
213	0x3d5a7051	0.05332977
214	0xbdf568b5	-0.11982862
215	0x3d2ad465	0.04170646
216	0x3dbc512a	0.09195168
217	0xbdb955ca	-0.09049566
218	0xbd509175	-0.05091997
219	0x3dc1fff3	0.094726466
220	0x3dedde16	0.11614625
221	0xbcf372fd	-0.029717917
222	0xbd936dc6	-0.07198672
223	0xbcd93722	-0.026515547
224	0x3d7b2a00	0.06131935
225	0xbd38bcbd	-0.04510187
226	0x3db8211d	0.08990691
227	0x3daca8d8	0.08430642
228	0xbd34882c	-0.044075176
229	0xbdbcab20	-0.09212327
230	0x3db00297	0.08594244
231	0x3d820ba9	0.0634988
232	0xbd85ea29	-0.06538803
233	0x3d3d4e8e	0.046217494
234	0x3d3baed9	0.045821045
235	0x3d8c850d	0.06861315
236	0x3d8cffa7	0.06884699
237	0x3b4f8215	0.0031663228
238	0xbe09bb9d	-0.13450475
239	0xbd36b148	-0.044602662
240	0xbdd0e44f	-0.101997964
241	0x3bdea9da	0.00679515
242	0xbd00b665	-0.031423945
243	0xbd314fcd	-0.043288995
244	0x3d5eb0a7	0.054367688
245	0xbdc56aa8	-0.09639484
246	0x3dae58b3	0.08513012
247	0xbac871b1	-0.0015292672
248	0x3df54d27	0.11977606
249	0x3d88a5f8	0.06672281
250	0xbdb447d8	-0.088027656
251	0xbc1b6281	-0.009483934
252	0x3dbfff57	0.09374874
253	0x3db6d9d4	0.08928266
254	0x3d2e9177	0.042619195
255	0xbe17252e	-0.14760277

classifier.3.bias f4 [5]
0	0xbc6ec9be	-0.014574466
1	0x3d7fc0c6	0.062439702
2	0xbd6856a5	-0.056723256
3	0xbc7a4262	-0.015274616
4	0xbd673104	-0.05644323
